results/c_1_0/best/target_q_func1.pt (torch, 502309 bytes, 5 tensors)

1.weight f4 [400, 10]
00000000: 0492 d93d 60fd d13e e2d4 86bf 027b 37bf
00000010: 9952 583f d59e 3fbf 969d ee3e bc13 db3d
00000020: ebb7 6dbf 6354 56bd ba54 afbe f15e 9bbf
00000030: 0cf2 3bbf 5f3b cbbf e776 f73e 19e7 a0be
00000040: f227 17bf 73a2 443c cace 55bf 08e6 23bc
00000050: 2d72 863e a015 88bf fdc3 a5be aa89 1a40
00000060: ea2d 74c0 19ef b7be bbeb 41bd 7e80 9cbc
00000070: d54d dc3d 6be0 9fbc 4757 103f d675 443f
00000080: f838 503f f0d6 72bd ae88 2940 d8ac 663e
00000090: af2b cebd d822 91bd 34dc 14bf 53a7 563b
000000a0: 454e d1bd 7ca3 2c3f 093e abbe 157b 7bc0
000000b0: 004c cf3f 69ba 9e3e 9cf9 babe f909 693e
000000c0: 56a2 c63d 5d74 fa3c dad5 09be 7705 a73f
000000d0: e812 a2bf c299 febf 9848 793d 0842 8dbe
000000e0: ca37 16be 0f83 983d f817 8abe 8bea fbbc
000000f0: a912 0abf 079c ffbf 1307 13bf 30a8 21c0
00000100: 8ea5 ebbf 35ee 2c3c 8543 053f 62ce e73d
00000110: 6e6f d43c d9d4 243b 7c0f 17bf 834d 11bf
00000120: a2b7 0ebf eee5 d6bf b6db cebf 35c0 28bb
00000130: c1ac 863e f4d5 1d3e 1101 1c3e 3f62 23bc
00000140: e7a6 e03f c0db 94bf d3de 0ebf d6d0 eebe
00000150: 940e f63f 0649 693f 4676 22bf d033 02bd
00000160: 29ea eabe de3d 123e 9bef 11c0 5471 16bd
00000170: 4d3c 24bd 4ac8 22c0 d03f 63bf 6535 bbbd
00000180: 2005 813e 3cb5 293d bed0 073d c001 56bb
00000190: 47b4 b1bf b79f 1cbf a8ae d23e edf0 c93f
000001a0: 77da efbe c1d5 a9bc ca98 e5be 17ff d0be
000001b0: e66c b8bd db21 10bd 67e6 32bf 7fbf 273f
000001c0: 2f19 573f d95b 87bf b792 363f ee72 323f
000001d0: 3676 03be 6882 8d3d 283d a7bd 074f af3c
000001e0: 1ddf 0ebf 6474 dbbf 423b 9fbd 9409 0dbe
000001f0: e49b 8dbf c59a 283d 232f 673e 23f2 e33d
00000200: 2cb6 703b abaa 1d3b 22a0 913e c7f3 0ebf
00000210: 18d4 acbe 1fc3 0340 9dfa 66bf d39f babd
00000220: 5926 803e 84af 9b3d da8d 3abf 9980 433b
00000230: 3446 b33f efe5 12bf 95c5 303f 9a4f 723d
00000240: efe8 7e3f 7e3a b63e 7e58 92bf 22cb d93e
00000250: b0a8 09bf 3586 5a3a bcb0 c8bf 5c8a 2abf
00000260: f35d d83b d14a 0abf 4992 ddbe bdfa 203e
00000270: 25c3 84bf 019d 123f ba74 a7bd b505 fd3c
00000280: 4c6d 63bf d3e9 d63f b09e 21be 734b 4fbe
00000290: ba56 2140 6b1a 7c3d 9f48 9bbd 8f60 cbbd
000002a0: 12ae fcba 5f0a 6cba 9373 723f 7e36 e5bf
000002b0: 6135 b53e c6ee 2140 6c0e 50c0 29c1 9abd
000002c0: 6c5e 7e3d 418a b33d aa0f 463e 3f60 fc3a
000002d0: 8b07 1abe ecbc 4f3e aa2e f4bf 7c8e 21c0
000002e0: ac81 2abf 2ec2 7cbe 3e28 82bf 0986 6e3e
000002f0: e03a 4b3d a251 81bc 1955 363f db00 e9bf
00000300: 76ee a5bd 3ead 223f e811 0ac0 2043 77bd
00000310: f4a2 3b3e 5f90 b43d 87a8 aabb da1a 74bb
00000320: 2214 51c0 9315 89bf bd11 1fbe a32b 67c0
00000330: 5915 41bf e48f 34bd 1222 e53e f6c9 94bc
00000340: 19dc 113c 2174 31bb e89d e4bf 4546 8cbf
00000350: fcd3 b13f 6a40 bfbf f075 be3f 5f38 673f
00000360: ce3e 183e c02c 473e dd3e 9b3d 0954 823d
00000370: dc3d ba3e 957e ad3f 861e 09bf a34c 6dbe
00000380: 1d6b 83be 4139 5bbe 038d ebbc 12b5 ac3e
00000390: fdbe 03bf fc1b 2fbc ece2 9bbf 9d79 bfbf
000003a0: a5fe 59be a6bc c6bf 0e3d 05c0 0818 49bd
000003b0: 0532 ba3e 3f58 fc3d b8aa 683c a574 35bc
000003c0: 398b 5fbe c832 033f 03ad 00bf c15f 18c0
000003d0: 28e3 fa3f 7add 89be afdd 2d3e 60dc cabe
000003e0: ac9f 24be 8b4b bbbc f287 a33f e72a 533e
000003f0: 0966 293f aa7d e93f ced2 a43f 8bd6 9f3e
0.106235534 0.41013622 -1.0533717 -0.7167207 0.84501034 -0.74851733 0.46604604 0.106971234
-0.9285876 -0.05232657 -0.3424433 -1.2138349 -0.7341621 -1.5877494 0.48332903 -0.31426314
-0.59045327 0.012001622 -0.8351866 -0.010003574 0.26258984 -1.06316 -0.3237609 2.4146523
-3.8153024 -0.35924605 -0.04734395 -0.019104239 0.10757033 -0.01951619 0.56383175 0.76742303
0.8133693 -0.05928701 2.6489673 0.22526872 -0.10066926 -0.07086724 -0.58148503 0.0032753542
-0.10220007 0.6743696 -0.33445767 -3.9293873 1.6195068 0.31001595 -0.36518562 0.2275771
0.09698932 0.030573064 -0.13460484 1.3048543 -1.266202 -1.9890673 0.060860246 -0.2758944
-0.1466972 0.074468724 -0.26971412 -0.030751487 -0.53934723 -1.9969491 -0.5743267 -2.5258904
-1.8409898 0.01055484 0.5205615 0.11318661 0.02593204 0.002515128 -0.59008 -0.567589
-0.5574895 -1.6788919 -1.61608 -0.002574933 0.26303676 0.15413648 0.15234782 -0.009972154
1.7550935 -1.1629562 -0.5580875 -0.46643704 1.9223199 0.9112705 -0.6346172 -0.031787694
-0.45881775 0.14281413 -2.2802494 -0.036729172 -0.04009657 -2.5434747 -0.88769245 -0.091410436
0.25199223 0.041432604 0.033158056 -0.0032654852 -1.3883141 -0.61181206 0.41148877 1.577665
-0.46846363 -0.020731809 -0.4484313 -0.40819618 -0.09005146 -0.035188537 -0.69882816 0.65526575
0.840228 -1.0574905 0.7131762 0.6970662 -0.12838063 0.06909639 -0.081659615 0.021399988
-0.55809194 -1.7144895 -0.077749744 -0.13773185 -1.1063199 0.041163225 0.22576575 0.11130168
0.0036729677 0.0024058025 0.28442484 -0.55840725 -0.33755565 2.0587842 -0.90226156 -0.09112515
0.25029257 0.07601836 -0.728727 0.002983129 1.4005799 -0.573821 0.69051486 0.059157945
0.9957418 0.355915 -1.1433256 0.4253779 -0.5377302 0.00083360384 -1.5678935 -0.6661737
0.0066029965 -0.5402041 -0.4327567 0.15720649 -1.0372053 0.5727082 -0.08176561 0.03088651
-0.8883865 1.6790107 -0.1578319 -0.20243625 2.5209184 0.06154863 -0.07582211 -0.099305265
-0.0019277951 -0.0009004231 0.947076 -1.7907255 0.35392287 2.5301986 -3.2508802 -0.075563736
0.062101766 0.08766604 0.19341913 0.0019254758 -0.1504194 0.20286912 -1.9076741 -2.5243216
-0.66604114 -0.24683449 -1.0168531 0.23293318 0.049616694 -0.015785996 0.712236 -1.8203386
-0.081021234 0.63545597 -2.157343 -0.06036675 0.1832388 0.08816599 -0.0052080783 -0.003724745
-3.2668538 -1.0709709 -0.1553411 -3.6120384 -0.754232 -0.044082537 0.44752556 -0.018162709
0.008902573 -0.0027077275 -1.7860689 -1.0958945 1.3892817 -1.4941533 1.4879742 0.9032039
0.14867708 0.19450665 0.075803496 0.06363685 0.3637532 1.3554255 -0.535622 -0.23173766
-0.25667658 -0.2140856 -0.028753763 0.33731896 -0.514633 -0.010687824 -1.2178626 -1.4958988
-0.21288545 -1.5526321 -2.0818515 -0.049095184 0.36366287 0.12321519 0.014200859 -0.0110751735
-0.21830453 0.5124936 -0.50263995 -2.3808444 1.9600573 -0.26926786 0.16979097 -0.39621258
-0.16076535 -0.02286317 1.2775862 0.20621835 0.6617132 1.8241475 1.2876832 0.3121837

1.bias f4 [400]
00000000: 36ac dabc efda cd3e 1a77 86ba 8dac 89be
00000010: b474 e7be 2272 df3c f4df b33c 8784 e23e
00000020: b0ed 9cbd 13a9 093e 63e7 493e a532 bbbe
00000030: 5831 463e 2303 123e ac9f babe 0962 263d
00000040: f2b4 4cbd 400c cabd 8505 0a3e 02ce d73d
00000050: 19b4 8b3e 5e9f c1be 8e80 eabe 5edc 303e
00000060: 75be 1a3e c8aa b8be 30fd 37be 1e43 293e
00000070: 3cf5 09bf ce3e d1bd 64b4 b0bd 1a01 25bf
00000080: 72bd c23d de29 96bc 0464 72be f78b 67bd
00000090: 0d43 cfbe 7d02 eebd 9195 ea3c f72c 1dbe
000000a0: d33d bfbd f923 41be 27df 99be 5608 0fbe
000000b0: 6fcc a6be 0479 c6be 4d9b 84be 0419 45be
000000c0: 7101 7cbe c726 0fbf 6c29 f8bb 38fb 10be
000000d0: cbd0 88bd 30bd 843e c21c 7ebe e7a0 813d
000000e0: 5409 8ebe b368 453d ecb6 cebe a578 febd
000000f0: 2216 733c 3fac eabd da2e acbe 1fd1 a7bd
00000100: 508e bebe 85c7 01bf fa9e 38be 4557 bfbe
00000110: f4af d2bd e150 9a3e 3a0e 9cbe 2151 6ebe
00000120: d208 7abe 29b8 e6be 0f80 adbe 4e78 87be
00000130: 0921 4dbe 9ea3 65bd 956f 3fbe 1863 b1bd
00000140: 6de7 acbe fde4 94bd 27dd 06bc 9b64 823c
00000150: bf25 28bf 7c7b 92be 64aa 8cbd 32ee 06bf
00000160: a457 06bd 7345 773e c136 c73d 8671 86be
00000170: a0b2 763e 2804 fbbe 6b25 62be 5dcf 5cbd
00000180: a156 03be 3e4e 9bbe 7cc3 26be b8c7 86be
00000190: f3ad 56bf 7316 39be 26f5 0dbe ca68 70be
000001a0: c2d6 ddbe e0b5 a3bd 5d74 08bf f775 acbd
000001b0: 7da6 283e f79d d7bd a315 4fbe b936 483e
000001c0: 4180 4dbe 6252 a33e d0a0 a8be 4d68 87be
000001d0: 4d46 c23e 2b27 acbd b786 cebc e3c3 9ebe
000001e0: 5f47 1b3e 9f7b 01bf d71e 10be 92d1 f83e
000001f0: 9f12 803c c82a 2dbe b2ce 09bf 2484 cc3c
00000200: 6239 f1bd a8f2 c43d 5ced 8fbe 1384 1b3d
00000210: bb1d 97be 1062 2cbe 571f 4cbd f171 12bd
00000220: 3bfc 5cbe 5a9f dcbe 7b6e 29bf f855 bdbe
00000230: e697 9fbe ce54 cebe 0e40 0ebd 5051 a8be
00000240: 6c26 7fbe bba1 83bd 2e25 08bf dbb4 87be
00000250: 3520 363d 82ad 95bd 2595 95be d079 a4be
00000260: 909a b3be 5e55 cbbd c28f 9f3d c427 53bf
00000270: e9aa 2ebf 7ff8 b03d c03c ad3e b7e9 9cbe
00000280: c1f3 2dbe f943 33be 96a2 f1bd 079e eebe
00000290: 20e1 2fbe 977e 92be 95f5 27bf 28f4 d2be
000002a0: 7520 1bbc 39e8 b3be 11eb ccbd 9171 adbe
000002b0: 816a ad3e bfe7 f2be ad7a 623e de74 a2be
000002c0: 609c e03e 5193 ecbd fff3 75be e129 a2be
000002d0: 6473 433e e200 1a3d 72ba 5f3d fbdb 0cbe
000002e0: 09f2 5c3e 2eb9 0ebe 84cd 2c3d 0454 5dbe
000002f0: 7583 8cbe 9eaf fa3d 1913 d53b 019a edbe
00000300: 73d1 12be 84b1 173d e20b 633e 6d73 c73c
00000310: b617 b2bb 1797 bfbe 6702 d8bd c1e1 00bf
00000320: 17a7 91be fb8f 4d3e 648c 123d fe48 12be
00000330: 6dce 20be 4c64 04bd f2f2 0dbf 817c 9dbe
00000340: 8df5 f4bd 7178 e9be de68 85be 8122 0b3e
00000350: feee 4abe a656 0e3e 5801 963d d31c 603e
00000360: bc07 7bbe a632 473e 69c2 32bd 975d 03bf
00000370: ca63 09bf 3456 d7be 2fff 0dbf deef 65bd
00000380: aa4d 3c3e 558e fabc ff48 dabe ec8b d6be
00000390: 2c2a 0bbf 94a2 16bd a880 b5be 5164 7cbe
000003a0: 9588 c9be f398 6bbe 104c 86bd e6d5 0dbf
000003b0: 06e4 d9be bb7d 00be 2a2c ba3e 5d84 87be
000003c0: 95ba a6be 215d eabe 3eb2 74be 9246 4e3e
000003d0: 8898 e73d 815c 343e d327 c8bd b2e4 333d
000003e0: 7e51 46be d0ee aebd e09b 1cbd 47cf cd3d
000003f0: 1476 0dbe d189 26bf 55b5 c93e a80d 233e
-0.026693445 0.40206096 -0.0010258884 -0.26889458 -0.45206225 0.027276102 0.021957375 0.44241735
-0.07662523 0.13443403 0.19717173 -0.36562076 0.1935476 0.14259009 -0.36449945 0.040620837
-0.04997725 -0.09865618 0.13478668 0.1053734 0.2728584 -0.378169 -0.45801204 0.17271563
0.15111716 -0.36067796 -0.17967677 0.1652951 -0.5388982 -0.10217057 -0.08628157 -0.64454806
0.0950879 -0.01833051 -0.23670965 -0.056529965 -0.40480843 -0.11621568 0.028635772 -0.15349184
-0.09337964 -0.18861379 -0.30053064 -0.13968024 -0.32577845 -0.38764203 -0.25899735 -0.19247824
-0.24609925 -0.55918545 -0.0075732972 -0.14158332 -0.06680449 0.2592559 -0.24815658 0.06329518
-0.27741492 0.048195552 -0.40373933 -0.12425355 0.01483682 -0.114586346 -0.33629495 -0.081941836
-0.3721795 -0.5069507 -0.18029395 -0.3737127 -0.10287467 0.3013983 -0.30479604 -0.23273136
-0.24417427 -0.45062378 -0.33886763 -0.26458973 -0.20032133 -0.05606424 -0.18694909 -0.08661479
-0.33770314 -0.072702385 -0.008231438 0.015917113 -0.65682596 -0.28609836 -0.06868437 -0.5270721
-0.032798424 0.24147587 0.0972724 -0.26258487 0.24091578 -0.49026608 -0.22084586 -0.053908695
-0.12826015 -0.30333132 -0.16285509 -0.26324248 -0.83859175 -0.1807497 -0.13863048 -0.23477474
-0.4332791 -0.07993674 -0.53302556 -0.084209375 0.1646976 -0.10528176 -0.20223098 0.19552125
-0.20068456 0.3189879 -0.3293519 -0.26446763 0.3794426 -0.08405908 -0.025210721 -0.31008825
0.15163945 -0.50579256 -0.14074264 0.4859739 0.01563388 -0.16910851 -0.53831017 0.024965353
-0.11778523 0.096165955 -0.28110778 0.037967753 -0.2951487 -0.16834283 -0.049834576 -0.035753194
-0.21580593 -0.43090326 -0.66184205 -0.3697965 -0.31170577 -0.40299076 -0.034729056 -0.32874537
-0.24917 -0.06427332 -0.5318173 -0.2650517 0.04446431 -0.073084846 -0.2921535 -0.32124186
-0.3507886 -0.09928392 0.077910915 -0.8248255 -0.6822954 0.08641147 0.3383541 -0.3064706
-0.16987516 -0.17506398 -0.11798589 -0.4660494 -0.17175722 -0.28612205 -0.65609103 -0.412019
-0.009468188 -0.3513811 -0.10005773 -0.33875707 0.3387032 -0.47442433 0.2211711 -0.31729788
0.43869305 -0.11551536 -0.24018858 -0.31672576 0.19086987 0.0375985 0.054621167 -0.13755791
0.21576704 -0.13937828 0.042188182 -0.2161408 -0.27444044 0.122405276 0.0065025208 -0.46406558
-0.14337711 0.037034526 0.22172502 0.024347031 -0.0054349555 -0.3741996 -0.10547333 -0.50344473
-0.28447792 0.20074455 0.03577842 -0.14285657 -0.15703745 -0.032322213 -0.5544883 -0.3075905
-0.119608976 -0.45599702 -0.2605657 0.13587381 -0.19817731 0.13900241 0.07324475 0.21885996
-0.24514669 0.19452915 -0.043642435 -0.5131468 -0.5366789 -0.42057955 -0.55467504 -0.05613696
0.18389001 -0.030585447 -0.42633817 -0.41903627 -0.54361224 -0.03677614 -0.3544972 -0.24647643
-0.39362016 -0.23007564 -0.065574765 -0.5540451 -0.4255678 -0.12547962 0.3636182 -0.26468173
-0.32564226 -0.45774177 -0.23896119 0.20144108 0.1130839 0.17613412 -0.09773221 0.043919273
-0.19367024 -0.085416436 -0.03823459 0.10049301 -0.13814574 -0.6505404 0.39396158 0.15923178

3.weight f4 [300, 400]
00000000: feb1 1abd a674 283c 4b88 6abc 5263 50bd
00000010: e58c 8cbc f921 4ebc 9626 a2bb ca3a 60bd
00000020: c2d8 d1bb 30bd 34bd b658 16bd 18ae cc3c
00000030: bd7a 05bb feee 94bd e4f2 7bbd a23b 5abd
00000040: f25f e83c 269c 97bc d3c6 67bd 506e 4a3c
00000050: 4d08 9039 693d c5bc edc3 1d3d 9c2e 8d3b
00000060: 5b71 6cbd 4d82 84bd 01e9 47bd 212c cebc
00000070: c558 103b 45a3 8ebc f288 5dbd 2c62 8dbd
00000080: b47a 88bc 5c3b 0e3c 4ded 03bc 21d0 543d
00000090: 379f 363b 2098 3cbc 5640 a53a 209c 33bd
000000a0: fa56 ad3c d2f3 53bd 14a0 fbbc df3f 80bd
000000b0: 60de 11bd d50c 86bd f701 dd3c c958 c2bc
000000c0: e6cf 1ebd a3c5 753c 77b0 b03c 5bb3 61bc
000000d0: 8554 183c 82bf d0bc 6ea4 9cbc f73c 24bd
000000e0: a3f8 60bd 5b81 61bc 8008 493c a588 943c
000000f0: e30e 6fbc e471 843c 41b8 ccbc da83 52bd
00000100: a4d2 77bc 939e f53c 1c79 72bd 23ee 68bd
00000110: 2ed4 2cbd b033 b4bc 19e1 d03c 1184 d6bc
00000120: 0419 0b3c 0a56 e93b a409 733d 1a89 97bb
00000130: ee5a a23c 6ed5 98ba e618 97bb afc1 2dbd
00000140: ddf8 963c 95db 88bd 6cc3 823c 5b6e 00bd
00000150: 8dd3 84bc 88ee 0dbd aa0c 633d a331 fdbb
00000160: c65a 98bd ad55 0dbd a175 48bd dd25 e9bc
00000170: 9d72 8abd 371d bb3c 7ab8 2dbc 99be 5c3c
00000180: 7e2a 223c 705e 0d3d 9732 20bd 383b cfb9
00000190: 8ea1 1dbd f6b1 1dbd f474 71bc 39d8 52bd
000001a0: 414b 41bd 2171 4fbd 23cb f23c f6a0 a43b
000001b0: 5584 89bd e3aa eebc 9c9e f2bc ef70 2fbc
000001c0: 9a72 d8bb f547 05bd 8016 b6bc 2722 a33c
000001d0: e363 fe3c 46a1 1fbc d969 4ebd 03a1 25bd
000001e0: f278 e83b ba6e 553d e8f9 c93c dece 1dbb
000001f0: 8f91 28bc 82a6 e93c e597 86bc c843 39bd
00000200: 9ab0 6f3c e3f8 e1bc f678 1a3d b9dd 4fbd
00000210: f7d8 bc3c 187c 4c3c 6c32 7dbd 7cc0 093d
00000220: 26d1 233c 9e6a 9cbb 55e9 8dbd a006 35bd
00000230: 9324 0c3c 15b0 09bd 9224 683c b5d9 8dba
00000240: f338 213c 679e a0bc add1 09bd 832a 6dbc
00000250: c109 4ebd 1702 a6bb 9c50 7fbd fb7d 80bd
00000260: 4582 073d 2951 49bd 765e 2d3b 925c e73c
00000270: 633d 61bb 971c 2cbd b720 b03c a148 433d
00000280: 167b 96bc 3566 01bc 599f 43bd 89e9 df3a
00000290: 4c0b 033c c216 693b 6173 583c e469 7dbc
000002a0: b555 0abd be71 93bd d546 0dbd 42e0 d6bc
000002b0: 2d2d 01bd d7f5 26bc 1dc9 86bd b295 5ebc
000002c0: e2b7 57bd 3551 113d 8b92 e1bc bec9 ae3b
000002d0: 266a 17bd 2a7a d7ba 13c3 f13c e128 c1bd
000002e0: 4659 2b3c 8521 943c dd5e 06bd ad55 0dbd
000002f0: f64b 95bb 0a2c d7bc d6b8 93bc 59be c2bc
00000300: 8d15 933c 0409 7dbd 71b1 d03c 1b77 eabc
00000310: d412 853c 9e8d ab39 f9f9 43bd 60b5 cd3b
00000320: 7cf3 74bd 2feb a4bc 9766 283c efca 20bc
00000330: 8f99 2fbd 151e 993c 5c0e 893c ec39 823c
00000340: 055e 0c3d 2a3e e1bc 24e8 02bc 3df9 8bbd
00000350: c612 a43c 3d6e 1e3b c69a 1ebd edc9 83bc
00000360: 6fae abbb 38c5 b8bb c396 f53b 8688 003d
00000370: 21a7 c63c bd56 0bbc 0114 de3c b5c2 153d
00000380: f6d7 1fbd 00d9 39bd 9083 bbbb 4cce 083c
00000390: 7c7c 8c3c d77e 25bd 0921 dd3c 808a c43c
000003a0: ab38 e4bc 4cc5 fdbc 21b7 543d c746 2cbc
000003b0: 20ae 79bc dc10 fabc 8fb6 a6bc 3374 1c3c
000003c0: ea1d ddbc d493 fc3c fc5b 07bc ff4f 3b3c
000003d0: f041 bbbc 4d54 943c 2bfd 6fbc 02fc e13b
000003e0: a0a8 4c3c 39e7 43bd 2722 233d 002d 453c
000003f0: 65dd 1a3d c767 b33c 0217 6a3c 083b 483c
-0.037767403 0.010281717 -0.014314721 -0.05087597 -0.017157027 -0.012581342 -0.0049484475 -0.054743566
-0.0064040134 -0.044125736 -0.036705695 0.024985358 -0.0020367347 -0.07272147 -0.061510935 -0.053279527
0.028366063 -0.018507075 -0.056586098 0.012355402 0.00027472005 -0.024077134 0.038516928 0.004308535
-0.05772529 -0.064701654 -0.048806194 -0.025167527 0.0022025567 -0.017411837 -0.05408568 -0.069034904
-0.016660072 0.008681145 -0.008052182 0.0519563 0.0027865896 -0.011510879 0.0012607675 -0.043850064
0.021159638 -0.051746197 -0.03071598 -0.062621824 -0.035612464 -0.06545416 0.026978476 -0.023723977
-0.038772486 0.015000734 0.02156852 -0.013775672 0.009297495 -0.025481943 -0.019121375 -0.040097203
-0.05492462 -0.013763751 0.012270093 0.018131563 -0.014590952 0.016167589 -0.024990203 -0.051395275
-0.015125904 0.02998284 -0.05919753 -0.05686773 -0.042194538 -0.021997303 0.02549796 -0.026186021
0.008489851 0.0071208524 0.059335366 -0.004624498 0.01981875 -0.0011660287 -0.0046111224 -0.04242104
0.018429214 -0.06682507 0.015962325 -0.031355243 -0.016214157 -0.03465131 0.055432 -0.0077268644
-0.07439189 -0.034505535 -0.048940305 -0.028460437 -0.06760142 0.02284108 -0.010603065 0.013473176
0.009897826 0.03451389 -0.039110746 -0.00039526238 -0.03848415 -0.038499795 -0.014737356 -0.051475737
-0.04719091 -0.050644998 0.029637879 0.005024071 -0.067146935 -0.02913422 -0.029616646 -0.010708078
-0.0066054584 -0.032539327 -0.022227526 0.019913746 0.03105349 -0.00974304 -0.050393913 -0.040436756
0.007094496 0.05210755 0.024655297 -0.0024079601 -0.01028861 0.02852178 -0.01642985 -0.045230657
0.014629507 -0.027584499 0.037713014 -0.05074856 0.023052676 0.012480758 -0.061815664 0.033630833
0.009998595 -0.004773452 -0.0692927 -0.04419577 0.008553642 -0.03361519 0.014168875 -0.0010822328
0.009840238 -0.019606782 -0.033647228 -0.014475468 -0.05030227 -0.005066167 -0.062332734 -0.06274029
0.03308322 -0.049149666 0.0026454008 0.028242383 -0.0034368865 -0.042019453 0.021499975 0.047676686
-0.018369239 -0.007897903 -0.047759388 0.0017083149 0.007998299 0.0035566543 0.013211102 -0.015467141
-0.033773143 -0.07199429 -0.03449138 -0.026229981 -0.031537224 -0.010190449 -0.06581328 -0.013585495
-0.0526656 0.035477836 -0.027535697 0.005334108 -0.036966465 -0.0016439606 0.029511964 -0.09431625
0.010458296 0.01808239 -0.032805312 -0.034505535 -0.0045561744 -0.026266117 -0.018032473 -0.023772405
0.017954612 -0.061776176 0.025475236 -0.028621247 0.01624433 0.00032721175 -0.047845814 0.006277725
-0.059802517 -0.020131676 0.010278366 -0.009814008 -0.042871054 0.018691102 0.01673048 0.01589676
0.03426935 -0.027495462 -0.007989917 -0.06834648 0.020028483 0.0024174594 -0.038721822 -0.016087497
-0.0052393 -0.0056387447 0.007494779 0.0313802 0.024249615 -0.008504567 0.027109148 0.03656264
-0.039024316 -0.045372963 -0.0057224706 0.008349966 0.017149203 -0.040404167 0.026993291 0.023991823
-0.027859053 -0.030977868 0.051932458 -0.0105149215 -0.015239269 -0.030525617 -0.020350723 0.009549188
-0.026991803 0.030832209 -0.008261677 0.011432647 -0.02285859 0.018106604 -0.014647762 0.0068964968
0.012491375 -0.047827933 0.039827492 0.012034655 0.037808795 0.02190007 0.014287712 0.012221105

3.bias f4 [300]
00000000: e128 5a3b 258d 8dbd 34ff 74bd 1070 133e
00000010: 2f56 a8bd ac6a 7c3e f658 17bd fb21 043f
00000020: a57f 89bc 6060 72bd ae41 213b 4d0d 8bbd
00000030: 8a13 97be 1693 92bd ec9a 8f3b 749b f5bc
00000040: cbf2 ebbc 9dfc 8cbd 1311 e5bc 98ae 35bd
00000050: 339f 613e 5afe 633d 67de 26bd cf7d 24bd
00000060: 2520 02bd d819 b1bc 9c62 fcbc a9ef 153f
00000070: c85c 39bb 96e3 e9bd 9581 cb3e cd49 03bd
00000080: 155a 0fbd 0ab1 5ebd 9b7b 63bd ff66 893e
00000090: a197 d33b 1904 7a3f 28f5 b6bc 899e 4fbe
000000a0: d781 b13a 9e83 05bf edd5 81bd b841 37bd
000000b0: 7fa4 afbd 0105 d43a 821c 99bd 46e3 98bd
000000c0: 5d60 cdbd bdda 0ebd 6801 36bd d77f 29bd
000000d0: 2621 753f c4e0 55be f162 bdbe 797e 49bd
000000e0: e09b b2bd 1f34 23bd 82b4 56bd 6776 afbd
000000f0: 3ca3 f8bc 4f1a 26bd b26e 58bc 34ed f7bc
00000100: ac42 8c3c 023d 9ebd 2696 fbbd 6e9b 11bd
00000110: 865c 9fbd 0494 033d 1765 a2bd d1b8 57be
00000120: 2b5c d6be 581f 87be a40d 5d3e 31d9 f43d
00000130: ffc0 a4bd 92e9 dcbc fcf9 073d 7091 5b3f
00000140: e1d9 5e3e a444 7ebd b39c 38be 613b a03d
00000150: addf 98ba d513 89bd a63f cebd 4ed0 10bd
00000160: 353d 0cbc 2798 b0be 318c 703d 21a7 adbd
00000170: 5544 03bd 7cc8 abbe d805 ce3c 56ba b73b
00000180: d3e1 efbd 0cb5 bebd 1045 bbbd f1d2 d53d
00000190: 300f 7dbd 08d0 abbd 2aea d5bc af56 27bd
000001a0: a86a 32bd 9a6c 22be 9272 35be 1438 1bbe
000001b0: 31b7 8a3e beef 17bd 93ae 6abd b104 c0bc
000001c0: d8ff 35bc 103e 06be 371f 2abd be06 893f
000001d0: 98ff 34bd 4dd4 87bd c28c be3e 888d 8cbe
000001e0: 7ff5 aebd e748 a8bd 1d07 85bd 3dea 113d
000001f0: 6df7 8abd 7289 5fbc d1a8 1b3f c21e 0bbd
00000200: 58ca 5a3f 0766 acbd 7793 80bc 3b21 99be
00000210: 8c2f 86be 500f 453b 3511 8bbd c2da e4bd
00000220: 3a0c dbbc daaf a5bc 0129 4ebd 4d3d 02bf
00000230: e498 8a3b a4e2 24be 6140 c3bd 4927 44bd
00000240: 833b ea3d cf59 2abd 1d16 8fbd ee46 133c
00000250: 789f 20bf d08c 423f 1390 9ebc 062e 94bd
00000260: 5577 87bd b8f0 37bd 9656 8a3f 132a e5bc
00000270: 5db1 8bbb b3cf e5bc 3fe0 a4bc f083 30bd
00000280: 068c 95bc cce1 72bb da36 cabc 0e8c 92bc
00000290: 9eac 2a3a 85f1 4ebc 8627 13bd d4bf 7dbd
000002a0: fe97 96bd 80e6 3dbd 64b8 72bd f21c d6bc
000002b0: 799b 3bbe 839b 6fbc cca5 7cbd 050e 86be
000002c0: bfca 903e 9551 86bd 659e b1be 7a4b 5ebd
000002d0: 661e 08bf d26f e93b 3120 0e3f 1c28 e8be
000002e0: 9138 cc3e 4d8f 86bb 5481 fdbb c4a3 77bd
000002f0: 2775 2abd 4425 f1bc a03a 3dbb f99b 42bd
00000300: e794 acbc bae0 5bbd 0df7 8f3e 9a2f 573f
00000310: 6b57 62bd c471 77bd 8ac1 d5bc 3fba d43e
00000320: 65dc 05bd 3556 8cbd f6f0 033f 0ba0 65bc
00000330: fb32 77be d8f5 3fbd bb6c ff3b 20ca 3cbc
00000340: a6d4 db3d fb2f 6dbd 4609 ddbe 3645 ac3c
00000350: cb4d e1bc 80b1 b1bc 981e b4bd a9ad 4f3d
00000360: 7a25 dcbd a857 b1bd a503 8dbd e4e8 46be
00000370: 3ca3 1a3f d3c4 24be 6239 51ba 0fd0 28bd
00000380: 95ef 00be f581 8cbc e4b2 f5bc 262f 37be
00000390: 7ab9 6d3c 9d23 a73d e7bb 11bf 4e54 23be
000003a0: ad4c 02bd b504 0bbd 2243 5fbd bd38 a43e
000003b0: 8dcc 81bd 913f d73c 68e2 36bb 2aa5 d4bc
000003c0: acee 803c 627a 00bd 53bb 6bbd 9593 81be
000003d0: ff35 6f3f 7692 1cbd 36f7 1fbd 2b50 acbe
000003e0: 035b 67bc 71a9 153f 332e 4c3e 5374 62bd
000003f0: 10bf 933e 4570 ff3e 603f b7bd f249 5bbd
0.0033288526 -0.06911687 -0.059813693 0.14398217 -0.08219563 0.24650067 -0.036950074 0.5161435
-0.016784498 -0.05917394 0.0024605799 -0.06789646 -0.29507095 -0.07156961 0.004382482 -0.029981352
-0.028802296 -0.0688412 -0.027962243 -0.04435596 0.22033386 0.05566249 -0.040739443 -0.040159043
-0.031768937 -0.021618769 -0.03080874 0.5856882 -0.0028284062 -0.11420362 0.397473 -0.032052804
-0.03499802 -0.054368056 -0.0555378 0.26836392 0.0064572846 0.976625 -0.022333696 -0.2027532
0.0013542724 -0.52153957 -0.06339631 -0.04474041 -0.08576297 0.0016175808 -0.074761406 -0.07465224
-0.100281455 -0.034876574 -0.044434935 -0.041381683 0.95753706 -0.20886523 -0.3698955 -0.04919288
-0.08721137 -0.03984463 -0.05241824 -0.08567505 -0.030351274 -0.040552434 -0.013209986 -0.030264474
0.017121635 -0.0772648 -0.12284498 -0.03554862 -0.07781319 0.03212358 -0.079294376 -0.21066596
-0.41867194 -0.263911 0.21587235 0.119554885 -0.080446236 -0.026966844 0.033197388 0.85768795
0.21762802 -0.06207718 -0.18028526 0.07823826 -0.001166334 -0.06693236 -0.10070734 -0.035354905
-0.008559515 -0.34491083 0.058727447 -0.08479143 -0.03204759 -0.33551395 0.02514927 0.00560693
-0.117129944 -0.09311876 -0.09144032 0.104406245 -0.061782062 -0.08389288 -0.026112635 -0.040854152
-0.043558747 -0.1586174 -0.17719486 -0.15158111 0.2709289 -0.03709387 -0.057295393 -0.023439737
-0.011108361 -0.13109612 -0.041533675 1.0705183 -0.044189066 -0.0663229 0.37216765 -0.2745173
-0.085429184 -0.0821703 -0.064954974 0.035623778 -0.06785474 -0.013643609 0.6080447 -0.03396488
0.85465 -0.08417898 -0.015695317 -0.29908165 -0.2620815 0.0030068941 -0.06790391 -0.11174537
-0.026739229 -0.020225454 -0.050332073 -0.5087479 0.0042296518 -0.16102082 -0.09533764 -0.047889028
0.11437132 -0.041589554 -0.0698664 0.008989079 -0.6274333 0.7599611 -0.01935581 -0.07235341
-0.06614558 -0.0449073 1.0807674 -0.027974164 -0.0042630867 -0.02805314 -0.02012646 -0.043094575
-0.018255245 -0.0037060855 -0.024684358 -0.017889049 0.00065107073 -0.012630825 -0.035926364 -0.06195052
-0.07353209 -0.0463624 -0.05925788 -0.02613685 -0.18321027 -0.014624479 -0.061681554 -0.2618257
0.28279683 -0.06558529 -0.34691158 -0.0542712 -0.53171384 0.0071239257 0.5551787 -0.453431
0.39886907 -0.0041064383 -0.0077363644 -0.060458913 -0.04161563 -0.029436715 -0.0028874055 -0.04751203
-0.021067096 -0.053681113 0.28118172 0.8405701 -0.05525915 -0.06041123 -0.026093263 0.41548344
-0.032680888 -0.0685238 0.5153955 -0.014015208 -0.24140541 -0.046865314 0.007794944 -0.0115228
0.10733919 -0.057907086 -0.43171138 0.021029096 -0.027502915 -0.021691084 -0.08794898 0.050702725
-0.107493356 -0.08659297 -0.06885461 -0.19424778 0.60405326 -0.16090707 -0.0007981268 -0.041214045
-0.12591393 -0.017151812 -0.029992528 -0.1788908 0.014509553 0.081610896 -0.5692734 -0.15950128
-0.031811405 -0.033940036 -0.054507382 0.32074538 -0.06337843 0.026275428 -0.0027905945 -0.025957663
0.015738808 -0.031366713 -0.057551693 -0.2530791 0.93441767 -0.038225614 -0.039054118 -0.33654913
-0.01412082 0.5846167 0.19939499 -0.055286717 0.28856707 0.49890342 -0.08947635 -0.053537317

5.weight f4 [1, 300]
00000000: f567 883b dea2 1c3c bd0f 823c 1cfb 0d3f
00000010: ff89 a9bc f0ac 8f3e ecac f3bc c1f0 843f
00000020: 182d 3cbc ecc0 e5bf b55f 993b c361 693b
00000030: 5bc3 76bf 7c55 863c fcc6 f1ba b5a8 113c
00000040: 063e 3b3c d94d c2bc 9a4c 6fbc ec5a f0bc
00000050: 3f56 3640 8474 523f 9087 cb3c 4e79 2bbd
00000060: f7cf b13b 72af 703f fe10 00bb d536 c33f
00000070: 2544 953b 64f5 4ebf 3ca8 873f 88d2 cebb
00000080: fac2 e1bc c68b ad3c 708f 453c 586b e93f
00000090: 9e99 90bb 1fc7 5d3f 844b f4bc 19cd 20bf
000000a0: e6d7 a53b 8c6b d13f af98 383c 4d49 013d
000000b0: ce4f 9bbc c6bd 94bb 038b 023d 9c99 523f
000000c0: 52e9 69bf e526 843c 2cf8 0d3c 024a 553c
000000d0: 2d84 8c3f 5b23 fdbf a6c1 4b3f cca3 0d3c
000000e0: cc97 8f3c 9fe2 21bc b569 0fbd ad64 973c
000000f0: 0a4b ef3b 8f44 00bd e304 f93c 9270 533c
00000100: 5567 923c 7c06 6cbf 3369 70bf 40d8 4f3c
00000110: 6d84 193c 74df 0b3c 6ae1 64bb 1ba0 80bf
00000120: c865 abbf 3dc9 4bbf a685 543f 1400 a3bf
00000130: 13a0 e239 f9ff 5b3c 820c c73f 5964 5440
00000140: d452 b83f 1a91 553d c582 05c0 8496 493f
00000150: 129c 0cc0 7fe1 a9bb 05f7 603f 7560 9c3c
00000160: 911d 4cbc a8c7 f6bf 1da2 67bf 9495 46c0
00000170: 68a6 c03b c894 c9bf b109 543b 3e43 68bf
00000180: 0043 b93c 30af d1bf 51ef 413d 5e44 a5bf
00000190: e7c9 29c0 faae 5cbb 2eed 93bc c3e9 b9bf
000001a0: 57b0 bcbc d26c 6f3f 5481 b7bf e829 58bf
000001b0: 0787 d23f ee05 2c3b b8d4 443c 8c62 82bc
000001c0: 8da1 043c 2b59 57bf 5ff3 b23c 654f 8c3f
000001d0: 125d e93c 01cf c3bb 5a3a ef3f 2448 c43f
000001e0: 9d39 073d 1546 8abc 5518 02bb d8b9 93bf
000001f0: c565 92bb cb11 ebbc 316c 3c3f c76c 943f
00000200: 8789 da3f 3048 3bbb 6f9a 263c bd55 0ebf
00000210: 864f b1bf fb3c efbc 0353 00bd 00dd cbbf
00000220: b433 ffbb a706 bbbf 6cd8 f2bc e857 8d3f
00000230: 3f44 3e3c cbe0 87bf 1796 e6bf f69b 90bb
00000240: 5850 233f 5d01 87bc d642 afbb ec7b fcbe
00000250: 9dbb cdbf eb5a b43f 8770 92bf 670b acbc
00000260: 71fd d43c ed0f 09bd ff1e 893f 4df9 9e3b
00000270: 5e66 243d 7f75 bbba 09b8 c8bb c5d5 103d
00000280: 43c8 f3bb 79d9 d73c 396a c33b 08fa bdbc
00000290: f1b0 cebb bf89 13bf 1893 443d cb30 eabb
000002a0: a026 b8bb 46c5 99bc 7c72 7d3c afbb ae3c
000002b0: f6b8 afbf 14e7 843c c3a9 f63b 08f3 b4be
000002c0: c189 823f 2d7c 913b efae 02bf 6475 f9bc
000002d0: 4cf0 3abf a361 75bc 72ab 843f acf1 89bf
000002e0: cac0 463f 7c12 f4bc 8269 d6bb 036f ec3c
000002f0: ca46 5ebc c91f 583b 6ebd 9cbc 9370 ecbb
00000300: 9da3 1f3a 28c8 4a3c 1e92 493f c8e6 b83f
00000310: 1dde 0f3b e982 c83c 7571 95bc c06d 593f
00000320: 34e3 813c 1758 80bc 3c94 973f 69da c8bc
00000330: f0c5 ff3f e8f6 3dbc 5048 c8bc b830 bebc
00000340: b2df 9bbf 6754 243c daf8 103f fb53 673b
00000350: ee3d 2b3d ea50 613b 86e3 95bc ece2 f83f
00000360: 52f9 d03b bb39 e2bb 9445 08bc 7e78 46bf
00000370: 9478 2940 a6fc cfbf def8 963c eaee 683c
00000380: 1f86 5cbf 3dd7 993a 7e7e 143c aee3 89bf
00000390: ce19 243d f3f2 db3f ae27 e1bf c58d 2dbf
000003a0: df59 bdbc 70eb bebb c920 c3bc f7a6 0f40
000003b0: cb35 653b 1d7d 1b3b 603d c83b bf30 a2bc
000003c0: 75ca 82bc f4bb b8bc af2f bdbb 4b5a 34bf
000003d0: 2f20 e03f 95c7 1c3d 9e51 9cbb 5eb9 b2bf
000003e0: 0a01 5abc 1c46 5f3f b404 b63f c0ce 423c
000003f0: 5b2c e93e d4cb 2d40 153a 8cba eb12 63bc
0.0041627833 0.009560315 0.015876645 0.5546129 -0.020695684 0.28061628 -0.029745542 1.0385972
-0.011485361 -1.79495 0.0046805986 0.003561125 -0.9639184 0.016398184 -0.0018446143 0.008890321
0.011428362 -0.023718761 -0.014605666 -0.02934023 2.849014 0.8220904 0.024844915 -0.041863732
0.0054264027 0.9401771 -0.0019541378 1.5251108 0.0045552426 -0.80843186 1.0598216 -0.0063117184
-0.027558792 0.021184813 0.012058124 1.8235884 -0.004412844 0.8663196 -0.029821165 -0.62812954
0.0050611375 1.6360946 0.011266871 0.031564046 -0.018958952 -0.0045392243 0.031870853 0.8226564
-0.91371644 0.016131828 0.008665126 0.013018133 1.0977837 -1.9776415 0.7959236 0.008645009
0.017528437 -0.009880691 -0.03501292 0.018480623 0.0073026465 -0.031315383 0.030397838 0.012905257
0.017871538 -0.92197394 -0.9391052 0.012685835 0.009369952 0.008537162 -0.0034924396 -1.004886
-1.3390436 -0.7960394 0.8301643 -1.2734399 0.00043225344 0.013427728 1.5550692 3.3186247
1.4400277 0.052140333 -2.0861065 0.78745294 -2.1970258 -0.005184352 0.8787692 0.019088963
-0.012458221 -1.927968 -0.9048174 -3.1028795 0.005879212 -1.574853 0.003235441 -0.90727603
0.022614956 -1.6381588 0.04734737 -1.2911489 -2.6529481 -0.003367363 -0.018057432 -1.4524463
-0.023033304 0.9352542 -1.4336343 -0.84438944 1.6447457 0.0026248652 0.012013607 -0.015916131
0.008095157 -0.84120435 0.021844564 1.0961729 0.028486762 -0.0059756045 1.8689682 1.5334516
0.03301393 -0.01687912 -0.0019850929 -1.154109 -0.0044676983 -0.028695008 0.73602587 1.1595696
1.707322 -0.0028576963 0.010168656 -0.55599576 -1.3852394 -0.029203882 -0.031329166 -1.5926819
-0.007788146 -1.4611405 -0.029644214 1.1042452 0.011612951 -1.0615476 -1.8014554 -0.0044131232
0.6379447 -0.016480142 -0.0053485436 -0.49313295 -1.607288 1.4090246 -1.1440591 -0.02100153
0.025999757 -0.033462454 1.0712584 0.0048514963 0.040136687 -0.0014301984 -0.0061254543 0.035360117
-0.0074396445 0.026348816 0.0059635905 -0.023190513 -0.006307714 -0.5763206 0.047991842 -0.00714693
-0.005619839 -0.018770825 0.01546919 0.021329729 -1.3728321 0.016223468 0.0075275614 -0.35341668
1.0198289 0.0044398517 -0.5104818 -0.030451484 -0.73022914 -0.014976892 1.0364821 -1.0776877
0.7763792 -0.02979397 -0.006543339 0.028861528 -0.013566682 0.003297793 -0.019133296 -0.0072155683
0.0006089749 0.0123768225 0.7873858 1.4445429 0.0021952458 0.024476485 -0.018242577 0.8493309
0.01585541 -0.015667005 1.1842113 -0.024518209 1.9982281 -0.011594512 -0.024448544 -0.02321659
-1.2177641 0.010029889 0.5662972 0.003529786 0.041807108 0.0034380504 -0.018296968 1.9444251
0.0063773775 -0.0069038547 -0.00831737 -0.77527606 2.6479845 -1.6248977 0.018429216 0.014217118
-0.8614215 0.001173712 0.009063361 -1.0772607 0.04006367 1.7183517 -1.7590234 -0.6779445
-0.023114143 -0.005826406 -0.023819344 2.2445657 0.003497469 0.0023725696 0.006110832 -0.019798635
-0.01596568 -0.02255056 -0.0057735066 -0.70450276 1.7509822 0.038276274 -0.0047704717 -1.396282
-0.013305912 0.87216353 1.4220185 0.011890113 0.45541653 2.7155657 -0.0010698462 -0.013859491
