results/c_7_0/c_6_0/best/q_func2.pt (torch, 502309 bytes, 5 tensors)

1.weight f4 [400, 10]
000000 75 4b 80 3e ed 95 86 3f 80 32 54 bd d4 df 29 3e
       0.2505757 1.0514504 -0.051805973 0.1658929
000010 90 f3 0f 40 e1 25 bf 3e fc cb e2 be d1 08 3e bf
       2.2492409 0.37333587 -0.44296253 -0.742322
000020 f0 1b b4 bb 96 83 11 3e 31 da 7d 3f 47 2e 67 3f
       -0.0054964945 0.14210352 0.9916106 0.9030499
000030 e6 42 b4 3e ff 85 92 bd 09 e9 4c 3f ff 25 4e 3e
       0.3520729 -0.07154464 0.80043083 0.20131682
000040 6a f4 2a be b1 64 70 bd 57 e6 41 3e 65 11 e6 3d
       -0.16694799 -0.058689777 0.18935524 0.112337865
000050 6d fe 5c 3f d8 60 19 3e 07 ad 8e bf 9b 92 8d 3f
       0.8632572 0.14978349 -1.1146554 1.1060365
000060 94 8e ee bf 36 12 49 bf f9 19 1b bf 6b 84 87 bf
       -1.8637261 -0.7854341 -0.60586506 -1.0587286
000070 fb 29 81 bf f5 13 d7 bc 2a e4 97 40 61 2f 14 c0
       -1.0090936 -0.026254633 4.746602 -2.3153918
000080 aa df c6 bf c9 fe 32 3f e5 80 c2 be 90 a3 91 be
       -1.5537007 0.6992002 -0.37988964 -0.284451
000090 ae 73 8d 3f a1 4d 81 3f 93 06 e4 bf 6b 62 41 bc
       1.1050928 1.0101815 -1.7814506 -0.01180325
0000a0 43 28 05 c0 80 22 be 3e 35 8a 8c 3e a2 82 d9 be
       -2.0805824 0.37135696 0.27449194 -0.42482477
0000b0 f4 94 1a c0 9a 08 82 3e c7 65 1f bf ae 45 5d bf
       -2.4153414 0.25397187 -0.62264675 -0.8643445
0000c0 cd d7 92 be 1c 47 6a bd b8 50 16 bf 67 6a 22 bf
       -0.28680268 -0.05719672 -0.5871692 -0.6344361
0000d0 17 00 05 c0 6e a4 78 3f 29 e5 d4 bf 79 bf 0e bf
       -2.0781305 0.971259 -1.6632434 -0.55760914
0000e0 e3 33 ec 3d 1a 3c 08 bf a4 56 22 bf 1a b5 cf be
       0.11533334 -0.5321671 -0.63413453 -0.40567857
0000f0 b0 23 5b 40 6d 6b c0 3f a3 08 24 bf 81 7a de 3f
       3.4240532 1.5032784 -0.6407568 1.7381135
000100 cf 74 90 bf 1f 59 0e bf 1f ab f6 bf 08 8e 16 be
       -1.1285647 -0.5560474 -1.9270972 -0.14702618
000110 e7 8f b0 3f 88 03 8f bd de 9f ca be 08 78 e0 be
       1.3793916 -0.069830954 -0.39575094 -0.43841577
000120 3b 7c b5 3e 54 ed aa bf 85 bd a6 bf 09 8e 8e 3f
       0.35446343 -1.3353677 -1.3026587 1.1137096
000130 ae b8 63 bf 03 46 36 3d ec cb ec bd 29 cb b0 3c
       -0.88953674 0.044500362 -0.115623325 0.02158125
000140 9a af 02 3f 44 87 64 bf 4f 5a 73 be a3 04 64 bf
       0.51049197 -0.892689 -0.23764919 -0.89069575
000150 cb d7 ed bd 6e ce 3f bf 8c 8c 5b bd ab 0b 14 bf
       -0.11613425 -0.7492436 -0.053600833 -0.57830304
000160 3b 08 f9 be 11 f9 9b bd a4 90 2f 40 31 00 e2 be
       -0.48639092 -0.07615865 2.7432032 -0.4414077
000170 38 39 48 be 72 c6 f1 be 08 19 8e 3e be 1d 5e 3f
       -0.19553077 -0.47221714 0.27753472 0.8676413
000180 1a dd 62 bf 36 9f c5 be da 9d a4 3d d1 75 4e 3d
       -0.88618624 -0.3859803 0.0803792 0.050405327
000190 1d 2c 53 3f 57 d9 00 c0 1c ea a3 bf ae f7 87 bf
       0.82489187 -2.0132654 -1.280582 -1.0622461
0001a0 33 8d 00 c0 27 bb 94 bf f8 c2 0d bf 38 40 56 bf
       -2.008618 -1.1619614 -0.55375624 -0.8369174
0001b0 74 51 07 bf 21 10 b7 be 28 4e 0a c1 e3 50 4c 40
       -0.5285866 -0.35754493 -8.644081 3.192437
0001c0 23 d5 bc bf e0 0f a4 bf cd cc c6 3f ce d9 77 be
       -1.4752544 -1.2817345 1.553125 -0.2420418
0001d0 15 90 f2 bf e9 5b b2 be 10 75 f8 bf f7 65 ab bc
       -1.895022 -0.34835747 -1.9410725 -0.020922644
0001e0 21 29 33 bf a6 d5 d8 bf bb bf 2e 3e d6 4f 88 be
       -0.6998463 -1.69402 0.17065327 -0.2662341
0001f0 c8 e9 eb bf 87 81 72 be 46 ac 2b bf bf 12 fe be
       -1.8430719 -0.23682223 -0.67059743 -0.49623677
000200 29 33 11 bf e1 c1 46 be e8 3d 10 c0 9e eb 5a 3f
       -0.5671869 -0.19409896 -2.2537785 0.85515773
000210 67 d9 12 3e d7 72 fd bf 81 0b a0 3f 05 d2 3f 3f
       0.14340745 -1.9800671 1.2503511 0.7492984
000220 9d aa 98 bf b6 0d 6c bf 92 c2 5d bf 3a 34 c6 bb
       -1.1927067 -0.9220842 -0.86625016 -0.0060487064
000230 ac 3f 51 3f 0b 97 30 bf e0 0c 82 3f 93 e3 76 3f
       0.8173778 -0.68980473 1.0160179 0.96441
000240 d5 41 f3 3e f8 21 4d 3e 0d 63 93 bf ab 82 40 be
       0.47511163 0.2003249 -1.1514603 -0.18799846
000250 d3 66 82 bf f6 ca fd 3d 9c 04 bb 3f 48 99 c3 bf
       -1.018763 0.12392227 1.4610782 -1.5281153
000260 86 61 db 3e c1 32 db be 21 17 ac bf 9b e3 cd 3e
       0.42847842 -0.4281216 -1.3444558 0.40212712
000270 2b fa fe bc f4 57 07 3d 36 00 b2 be 7c 8f 77 3d
       -0.031125149 0.033042863 -0.34765786 0.06043957
000280 e5 8e 0c 3f d4 88 b2 bf 70 8c 8f be 0b 31 0d 40
       0.5490554 -1.3948007 -0.28036833 2.2061183
000290 5c d8 03 3f 9f 96 a4 be 44 2f a7 ba 26 8d c9 bc
       0.51502013 -0.32146165 -0.0012755175 -0.024603438
0002a0 e6 1f 02 bf fa e1 8c bc 20 39 ff c0 d7 df 5f 3f
       -0.50829923 -0.017197598 -7.9757233 0.8745093
0002b0 2f 57 be 3e 07 b8 b5 bf 28 9f 06 3e a5 3f 86 3d
       0.3717589 -1.4196786 0.13146651 0.06555108
0002c0 7e c2 28 3f f5 98 92 bd 8b 99 9b 3c 83 82 f0 3b
       0.6592177 -0.071580805 0.018994113 0.007339777
0002d0 05 dd 41 3e 10 39 d3 be 8c 6b f1 bf 71 7c db be
       0.18931969 -0.41254473 -1.8860946 -0.4286838
0002e0 9e 38 08 c0 6f cb b9 bf 52 ad fc be 9d 51 f7 be
       -2.1284556 -1.4515208 -0.49350983 -0.48304453
0002f0 ed 87 0e bf 17 33 79 be 7d f1 22 40 4d ae ea 3f
       -0.55676156 -0.24335895 2.5459893 1.8334442
000300 56 1d 95 c0 15 1d ce 3f 5c a4 88 3f a0 64 28 3f
       -4.659831 1.6102625 1.0675159 0.6577854
000310 fb a0 04 3f 0b 08 46 bf c9 98 25 3f 26 9c 4d 3d
       0.51808137 -0.7735602 0.64686257 0.050197743
000320 cb f3 94 bf ac ef 5f bf 26 af 90 be 7b 24 85 bf
       -1.16369 -0.87475085 -0.28258628 -1.0401758
000330 cd e1 fd bf 13 6a 38 bf 08 f0 a5 bf 0d cd f4 be
       -1.9834534 -0.72036856 -1.2963877 -0.4781269
000340 8a a5 76 bf 5a eb 83 be 6d 7b bc c0 0b ba 97 40
       -0.9634634 -0.25765496 -5.8900666 4.7414603
000350 be e6 8e bf 0a 35 ac bf 42 af 50 bb 23 78 1d be
       -1.1164167 -1.3453686 -0.0031842743 -0.1537786
000360 25 84 8a bf ee fc 69 bf 48 6d da 3e 53 64 54 be
       -1.0821577 -0.91401565 0.426615 -0.20741396
000370 40 c3 a4 40 00 21 8d 3f 87 2c 18 bd c3 ad d1 3f
       5.148834 1.1025696 -0.03715184 1.6381153
000380 82 c1 46 3e 2d 53 78 be 87 e0 b2 be e0 86 8c be
       0.19409755 -0.24250479 -0.34936926 -0.2744665
000390 36 8b c4 3d aa cd 58 bb 57 8d 37 c1 28 61 7e bf
       0.09596865 -0.003308157 -11.472007 -0.99367
0003a0 e8 4e a9 3f bd 03 51 c0 43 20 e1 3e 4d cb e7 3e
       1.3227205 -3.2658532 0.43969926 0.45272294
0003b0 43 68 b3 bf 7e a2 1b c0 f2 15 33 3f 71 a3 79 3d
       -1.4016193 -2.4317927 0.6995536 0.060946885
0003c0 1c 6c 37 c1 74 96 83 3e be ac 0e 3f c7 59 5f c0
       -11.463894 0.25700724 0.55732334 -3.4898546
0003d0 d9 77 56 bf 6a a2 12 3e a1 58 08 c0 44 38 14 3f
       -0.83776623 0.14319769 -2.1304095 0.57898355
0003e0 de 71 26 3f fe 21 e4 3c ff 39 b9 3e 1b b2 34 40
       0.650175 0.02784824 0.3617706 2.8233707
0003f0 5c 68 30 c0 49 b7 32 bf f8 ff 03 be 03 8b e7 bf
       -2.7563696 -0.6981092 -0.12890613 -1.8089298

1.bias f4 [400]
000000 b5 7b 57 bf ad 43 b6 bf bc d0 1b bf 34 43 f0 bf
       -0.84173137 -1.4239403 -0.6086538 -1.8770509
000010 c8 d4 3b bf d7 9e 99 bf a5 96 cc bf f2 95 2c bf
       -0.73371553 -1.2001599 -1.5983473 -0.674163
000020 d9 7a ad be 57 5a 84 bf 4f 9e 52 bf ac 4d 83 3e
       -0.33882788 -1.034007 -0.8227281 0.25645196
000030 b5 47 18 bf 40 d7 4a bf 27 1f 5b bf a5 ff 26 bf
       -0.59484416 -0.79234695 -0.8559441 -0.6523383
000040 a4 08 27 bf 16 73 b1 3e c7 71 4c bf 82 b2 a9 bf
       -0.6524756 0.34658116 -0.7986111 -1.3257601
000050 6b 5b 12 bf d8 a4 bd bf 40 9f 1b bf ea 03 c7 be
       -0.5717074 -1.4815931 -0.6078987 -0.38870174
000060 34 23 6c bf 4c 38 67 bf 05 3d 27 bf bc 23 96 be
       -0.92241216 -0.9032028 -0.65327483 -0.29324138
000070 26 fb ce be 1d dd 53 bf c1 d0 cc bf b1 78 6e bf
       -0.40425986 -0.8275927 -1.6001207 -0.9315291
000080 20 d6 b6 be 1a 02 6c bf e5 81 27 bf 60 37 b1 bf
       -0.3571024 -0.92190707 -0.6543258 -1.3845024
000090 9f e0 ca bc f6 54 15 bf 88 6a 3a bf 2d cd 76 bf
       -0.02476531 -0.58332765 -0.72818804 -0.96406823
0000a0 93 23 0f bf 53 a5 db bd 0d ff e4 bf 15 9b 90 be
       -0.55913657 -0.107248925 -1.7890335 -0.28243318
0000b0 01 b5 59 bf 1a 54 31 bf 3a 09 5a bf fc 6f 48 bf
       -0.85041815 -0.69268954 -0.8517033 -0.78295875
0000c0 d8 a9 5b bf 9b 97 a1 be 40 fb de be c2 77 03 be
       -0.85806036 -0.31560978 -0.43551064 -0.12838653
0000d0 b9 be 84 bf 32 22 32 bf 45 bf 04 be b3 f1 43 3f
       -1.0370704 -0.6958343 -0.12963589 0.7654068
0000e0 0d 7f 81 bf d7 20 35 bf 69 05 79 bf 16 1d c6 bf
       -1.0116898 -0.70753235 -0.9727388 -1.5477626
0000f0 d5 c1 b7 bf 13 3c 55 bf 26 f3 66 bd 5e 08 f6 be
       -1.4356028 -0.8329479 -0.05638423 -0.4805326
000100 00 0b 97 bf 12 29 c7 bf 4c c3 15 bf 4e 04 7d bf
       -1.1800232 -1.5559409 -0.58501124 -0.98834693
000110 8c 9f 97 bf f6 7a 0a bf 79 ce 64 bf 97 43 3c bf
       -1.1845565 -0.54093874 -0.8937755 -0.73540634
000120 ac d3 15 bf b4 9d 4d bf bd de 5e bf d8 33 a8 be
       -0.5852611 -0.8031876 -0.8705862 -0.32852054
000130 34 67 74 bf 75 8d 76 bf c4 c3 58 bf fd 91 6e bf
       -0.95469975 -0.96309596 -0.84673715 -0.9319151
000140 97 14 9b bf 75 a5 26 bf 06 4e 39 bf 86 27 8d bf
       -1.2115659 -0.6509622 -0.7238468 -1.1027687
000150 15 b9 4c be 5c 0d 86 3f 5f dc 2a bf 9d ad d8 bf
       -0.19992478 1.0472827 -0.6674251 -1.6927983
000160 e5 61 55 bf 9f fe c5 be 84 b1 d0 3e bd 5e c7 be
       -0.833525 -0.38670823 0.40760434 -0.38939467
000170 22 f1 5a bf c7 d0 1d bf ca c0 91 3e 4e ae 94 be
       -0.8552419 -0.61646694 0.284674 -0.29039234
000180 44 1a 67 be 65 df 58 bf 1b 88 86 be 4e 0b e0 bf
       -0.22568613 -0.84715873 -0.26275715 -1.750345
000190 9e cf eb bf a1 72 e3 be 68 5b 48 bf 49 5c e3 bf
       -1.8422735 -0.44423392 -0.78264475 -1.7762538
0001a0 32 d8 15 be f5 29 84 bf 2f 59 57 bf 72 75 85 bf
       -0.14633253 -1.0325304 -0.8412046 -1.0426466
0001b0 86 c4 06 3f 65 fa bb 3e 64 5a 20 bf 95 8b 74 bf
       0.5264362 0.36714473 -0.62637925 -0.95525485
0001c0 78 30 81 bf 1b f1 c0 bd 5f d1 85 bf c9 5c 3f bf
       -1.0092916 -0.09420987 -1.045452 -0.74750954
0001d0 7a 43 04 bf 1e 84 b5 be 10 06 80 be 03 3f 51 bf
       -0.5166546 -0.3545236 -0.25004625 -0.81736773
0001e0 d1 29 9e 3b 6f c8 38 bf 57 4c 94 bf 19 91 1e bf
       0.0048267622 -0.7218084 -1.1585797 -0.6194015
0001f0 80 d8 4b bf b2 bc e9 bf ff d3 d6 be 36 3d a4 bf
       -0.7962723 -1.826071 -0.41958615 -1.283118
000200 d8 f8 4d bf a0 ea 8e bf a8 6a 44 bf 2d ac 38 bf
       -0.8045783 -1.1165352 -0.76725245 -0.7213772
000210 65 be 90 bf bb 33 58 bf 92 9a 08 bf 02 9a 1c bf
       -1.1308104 -0.84453934 -0.53360856 -0.611725
000220 2e 74 bd be 93 15 a4 bf 49 8d fe be 29 40 67 bf
       -0.370027 -1.2819084 -0.49717167 -0.90332276
000230 66 8a 84 bf 58 b2 74 bf 64 b6 a3 bf b7 fc 20 bf
       -1.0354736 -0.9558463 -1.2790036 -0.6288561
000240 2d 96 48 bf ca 56 48 bf a6 17 06 bf 91 45 59 be
       -0.7835415 -0.7825743 -0.52379835 -0.21217944
000250 59 69 e6 be e5 dd 66 bf 59 d8 59 bf 69 11 3c bf
       -0.4500225 -0.90182334 -0.85095745 -0.73464066
000260 19 ba 36 bf a3 4a 64 bf c6 c7 13 3f 03 21 ae bf
       -0.7137771 -0.89176387 0.57726705 -1.3603824
000270 e1 e7 32 bf 2b 24 09 3e 01 1d 9f bf 56 a7 5e bf
       -0.6988507 0.13392703 -1.2430726 -0.86974084
000280 46 c2 23 3c c1 d5 2d be 51 21 9d bf 81 5f 83 bf
       0.009995049 -0.16976072 -1.2275792 -1.026352
000290 ac 30 cf bf 69 ed 4e bf 39 ce 21 bf 47 ba 6f bf
       -1.6186728 -0.8083101 -0.63205296 -0.9364361
0002a0 bc b4 85 bf eb e5 1a be e1 3e b2 bf 8c 79 42 bf
       -1.0445781 -0.15126769 -1.3925439 -0.75966716
0002b0 2a e0 3c bf d1 0f 1d bf 1d 05 4a bf 41 5c 1a bf
       -0.7377955 -0.6135226 -0.7891405 -0.6029702
0002c0 6b 71 8e bf 42 94 80 be c6 1a 39 bf 58 17 35 3f
       -1.1128362 -0.25113112 -0.7230648 0.70738745
0002d0 db 09 81 bf 93 a7 61 bf d6 8b b6 bf aa ff 84 bf
       -1.0081133 -0.8814632 -1.4261425 -1.0390522
0002e0 82 6c 9e bf 54 03 c2 bf 01 b3 2a 3f 8c 9b 71 bf
       -1.2376864 -1.5157266 0.6667939 -0.9437797
0002f0 6c d9 8f bf 76 55 29 bf fb 2e 41 bf 8f 87 98 3e
       -1.1238227 -0.6614603 -0.7546231 0.29790923
000300 63 6a b8 bc 56 ac 78 bf 9f ce 6e bf 2b a1 e7 bd
       -0.022511667 -0.97137964 -0.9328403 -0.11310037
000310 21 db 8e bf c5 31 8a be b2 e2 0e bf c6 c9 53 bf
       -1.1160623 -0.26991096 -0.5581466 -0.82729757
000320 5d e0 02 c0 0d 59 4e bf cf 75 bc bf f0 bd 9a 3d
       -2.044944 -0.8060463 -1.4723452 0.07555759
000330 5a a6 75 bf 54 8a 29 bf 48 5a d9 be c0 a1 87 bf
       -0.9595696 -0.66226697 -0.42451692 -1.0596237
000340 3a 0e 20 bf 43 d3 a1 bf a2 2e c9 be 65 52 89 bf
       -0.6252171 -1.2642597 -0.3929339 -1.072827
000350 1b 9d 53 bf 3f 99 8c bf 8a c3 b6 be 86 cf a3 bf
       -0.826616 -1.0984267 -0.3569606 -1.2797706
000360 c8 bd 07 bf 65 c1 a4 bf 5d a8 8c bf d4 64 28 3f
       -0.5302396 -1.2871519 -1.098888 0.6577885
000370 79 e4 5b 3e 1d 3c 9a bf 6a af 8e bf ed b0 8b be
       0.21473874 -1.2049595 -1.1147282 -0.2728342
000380 be 55 8f bf b4 77 74 bf ed 85 28 bf 12 e4 5e bf
       -1.1198041 -0.9549515 -0.65829355 -0.8706676
000390 19 c1 45 3f 52 7d b8 bf 4c 92 11 bd b4 f7 4e bf
       0.7724777 -1.4413245 -0.03553991 -0.80846715
0003a0 84 a5 09 3f b9 b2 18 bf 6e 14 89 bf 5b 05 9d be
       0.5376818 -0.5964771 -1.070936 -0.30668148
0003b0 54 76 af 3e 47 ea cd 3e ab 90 7e bf 74 1a 51 bf
       0.34269965 0.40217802 -0.99439496 -0.8168099
0003c0 97 de a9 bf db 5c d1 bf 7e b3 cd be 8a d5 43 bf
       -1.3271054 -1.6356462 -0.40176004 -0.7649771
0003d0 59 f7 aa bf c3 6a d1 bf 1c db 93 bd 62 52 6d bf
       -1.3356735 -1.6360706 -0.07219526 -0.9270383
0003e0 c8 d6 38 bf 1d ec d2 bf 11 e2 2e bf ea 37 19 bf
       -0.7220273 -1.6478306 -0.683137 -0.59850943
0003f0 93 40 d1 be ef 47 61 bf 68 e9 d0 bc 44 98 a2 bf
       -0.4086958 -0.88000387 -0.025501922 -1.2702718

3.weight f4 [300, 400]
000000 44 f6 5a bf 8f a8 4b 3f 23 f4 8c be ea 1d 11 3e
       -0.8553202 0.79554075 -0.27530012 0.14171568
000010 79 d9 6c be 8f 23 2c 3f 41 eb 9d 3f 7d ae 96 bf
       -0.23129834 0.6724176 1.2337419 -1.1772
000020 a3 0b 20 3d 85 68 92 3c 11 5e 9f 3f 07 83 d2 3d
       0.039073598 0.017872104 1.2450582 0.10278898
000030 fc ad 48 3e 75 77 d4 bf 01 98 ca bf e0 32 38 3f
       0.1959762 -1.6598955 -1.5827638 0.7195263
000040 55 aa 35 3f 31 59 ad bf ce 11 08 bf f4 5c 25 bf
       0.7096303 -1.3542844 -0.5315217 -0.6459496
000050 7b 14 68 bf d3 17 86 bf 30 09 98 be 0e e6 6a bf
       -0.9065625 -1.047602 -0.2969451 -0.91757286
000060 2e 07 03 c0 ad cd a9 bf 08 b1 18 c0 00 8c 47 bb
       -2.0473132 -1.3265892 -2.3858051 -0.0030448437
000070 d0 af 36 bf ce 99 a1 3f 06 ba 50 c0 83 d3 68 bf
       -0.7136202 1.2625062 -3.261354 -0.9094774
000080 1b ac 66 3f a2 58 b8 bf 52 16 cb bf 25 d6 ea c0
       0.9010636 -1.4402049 -1.5866187 -7.3386407
000090 ae 64 81 3d b5 92 af be b3 83 92 3f ce 6a 9f 3f
       0.06318031 -0.34291616 1.1446441 1.2454469
0000a0 e5 56 39 bf 70 c7 72 3f 5c 8b 21 c0 32 44 55 3e
       -0.72398216 0.9483557 -2.5241308 0.20826796
0000b0 92 5a 3c be ba ce 83 3f 34 bb 86 bc b7 17 ee bb
       -0.18393925 1.0297463 -0.016446687 -0.0072660106
0000c0 42 88 26 be 1f c3 22 bd cd 1e 92 bf b7 3b 9e bd
       -0.16262916 -0.039736863 -1.141565 -0.077262335
0000d0 ef f6 e4 3f e0 dd 5b bd 31 0d be 40 f1 2a c9 be
       1.7887858 -0.053678393 5.9391103 -0.39290574
0000e0 72 50 64 3e 99 6a 02 40 0b bf 89 bf b0 cb 3e 3f
       0.22296312 2.0377562 -1.0761427 0.7452955
0000f0 ca c1 fb 3e ea 5c 56 3f 09 76 83 3e 28 8f 6a be
       0.49171287 0.83735526 0.2567599 -0.22906172
000100 8c 2f 67 3e de 1f 2e be 73 93 8f bf 2e ec 30 3e
       0.22576731 -0.17004344 -1.1216873 0.17277595
000110 21 c4 dc 3d c5 ed 46 be 1c 59 37 3e 07 11 34 c0
       0.10779596 -0.1942664 0.17905086 -2.8135393
000120 cc 87 d1 3e f8 40 7e bf 71 c3 dd 3f 66 2c cb bb
       0.40923917 -0.99317884 1.7325269 -0.006200361
000130 23 33 78 bf d7 ab a4 bd fd 3a f2 bf aa ff aa 3f
       -0.9695303 -0.08040588 -1.8924252 1.3359272
000140 52 77 d3 be 45 00 a9 3e b2 7e 82 3e 37 b4 6a be
       -0.41301972 0.33008018 0.25487286 -0.22920309
000150 8e 99 1b c0 77 d8 39 be 00 39 74 40 c5 39 ac be
       -2.4312472 -0.18148981 3.815979 -0.33637825
000160 a2 49 e1 bd 06 d9 a6 c0 24 d0 e0 be 2b 53 b5 3d
       -0.110003725 -5.213992 -0.439088 0.08853754
000170 04 74 4c c0 b0 4d 4a 3f 12 57 28 40 8c f2 28 3e
       -3.194581 0.7902479 2.6303144 0.16498774
000180 64 89 bb be 99 45 bd 3d 70 ca 53 be e7 10 f8 3f
       -0.36628258 0.0924179 -0.20682693 1.9380158
000190 ad ae 04 40 1a 12 2d 40 b0 7a 53 bf c7 ad 6c 3e
       2.0731614 2.7042298 -0.8260908 0.23113166
0001a0 6d 99 02 3f 46 62 02 be 55 19 9f bf 6e e0 b3 bd
       0.5101536 -0.12732801 -1.2429606 -0.08783041
0001b0 c9 6b ef c0 89 35 8d bf 32 23 97 bf c5 24 f3 be
       -7.4819074 -1.1031963 -1.1807616 -0.4748899
0001c0 cb df d7 bf 11 16 9e c0 9a d5 d9 3f 2e 87 85 c0
       -1.6865171 -4.9401937 1.7018311 -4.1727514
0001d0 f8 04 5d c0 f0 78 37 bd fa 3a 54 3c 98 94 72 bf
       -3.4534283 -0.04479307 0.012953514 -0.94757986
0001e0 7f 8a d8 be 61 68 bc bf 7e b0 8d 3f 0b 18 5c bf
       -0.42293164 -1.4719354 1.1069486 -0.85974187
0001f0 9f 18 07 c0 ed 17 9f be a3 9d 99 bf 44 75 de 3f
       -2.1108778 -0.3107294 -1.2001232 1.7379537
000200 43 cf 0a bf 02 65 63 c0 3a 17 64 bf d3 7f 1e 3f
       -0.54222506 -3.55304 -0.8909794 0.61913794
000210 33 20 ff 3e e9 56 d4 c0 0f d9 94 c0 ae 62 19 bf
       0.49829254 -6.635609 -4.6514964 -0.599162
000220 23 f7 fc bf 3e fa fe be 88 63 0a 3f 17 73 32 c0
       -1.976292 -0.49800295 0.5405812 -2.7882745
000230 e5 e5 4a 3e 53 9f 71 bf a9 38 88 3e 45 12 20 3f
       0.1981426 -0.94383734 0.26605728 0.6252788
000240 61 7f 18 3f 18 4b ec bf dc fa 18 bd 28 db 11 bd
       0.59569365 -1.8460417 -0.037348613 -0.035609394
000250 ad 73 2d bf 43 82 b3 3e 29 bd 5f 3f 39 ff b3 bf
       -0.6775463 0.3506032 0.8739801 -1.4062263
000260 5d dd 8a bf ae be cc 3f 33 c2 8c c0 5f 7f a7 bd
       -1.0848805 1.5995691 -4.398706 -0.08178591
000270 f6 53 5d bf e2 69 36 c0 d8 92 ac 3e 22 9e fa 3b
       -0.8645624 -2.8502126 0.33705783 0.0076482454
000280 7b f9 8c be 37 73 cf be cc 21 0a c0 dd a1 0a c0
       -0.27534088 -0.4051759 -2.1583128 -2.1661294
000290 d0 15 c4 3b f3 2c bf bf f4 2f 8f 40 9c e6 c3 be
       0.0059840456 -1.4935592 4.4746037 -0.38261878
0002a0 e7 61 2b bf 79 b8 1a bd 77 67 2f 3f fc ff 19 c0
       -0.6694626 -0.037773583 0.6851725 -2.406249
0002b0 b3 56 15 3f 3a 98 13 3f 60 66 93 3f d5 0e 8c bf
       0.5833542 0.57654154 1.1515617 -1.0942026
0002c0 13 69 2d c0 2d ef 65 bc 27 e2 af bf 49 2d 7f c0
       -2.7095382 -0.014034075 -1.3740891 -3.987139
0002d0 de e9 02 c0 13 fd 69 bf cd ca 17 c0 9d cd df bd
       -2.0455241 -0.91401786 -2.371753 -0.109278895
0002e0 9d d1 d4 bf 29 4f bf be 7f 33 26 3e 9c 95 02 3e
       -1.6626469 -0.37365082 0.16230582 0.12752384
0002f0 1e 6b 81 3d 1d 9b 7f 3e ba f5 56 3e 84 b5 ed bf
       0.06319259 0.24961515 0.20992175 -1.8571019
000300 2f 9e c6 bf 5f a3 a4 bf 5b e5 75 bf f2 5c ff bf
       -1.5517024 -1.2862357 -0.96053094 -1.995024
000310 16 52 21 3e 2a 48 19 c0 fd a9 1b 40 9b e7 d2 be
       0.1575397 -2.3950295 2.4322503 -0.41192326
000320 18 6d c4 3e b0 00 86 3d 5b 21 d7 3d 4f e7 5b c1
       0.38364482 0.065431 0.10504409 -13.743972
000330 80 fe ca 3e 18 d8 a8 bf 5f 9c 67 3d 2e 88 42 c0
       0.39647293 -1.3190947 0.05654561 -3.0395617
000340 60 bb 11 c0 62 06 af 3e fa 63 9e c0 a1 29 a5 bd
       -2.2770615 0.34184557 -4.949704 -0.08064581
000350 8e 39 bf c0 75 0c 80 3f d5 fc 8e be 13 fc b0 3e
       -5.9757757 1.0003802 -0.2792727 0.34567317
000360 cb b3 0c c0 7d a6 9d be 78 67 14 3f 8d 52 c9 3f
       -2.1984737 -0.30791083 0.5797038 1.5728317
000370 2a a1 a5 bf 81 1e a0 3f ad ae f5 3e 17 6c dd c0
       -1.2939808 1.2509309 0.4798483 -6.9194446
000380 2d 8c aa 3e ca fb ab 3e c6 34 3e be 59 f5 29 c0
       0.3331007 0.33590537 -0.18574819 -2.6555998
000390 9f e5 5c 3f 34 78 01 40 09 be b9 3b 5d 68 67 3e
       0.86287874 2.0229616 0.005668406 0.22598405
0003a0 4d 8a a4 be ae 34 c1 3d eb b6 a2 bf cd 1b 2e bc
       -0.32136765 0.09433876 -1.2712072 -0.010626745
0003b0 06 35 96 bf a4 b1 6c 3f 2b 98 a4 bf ee 87 60 bd
       -1.1734931 0.9245856 -1.2858938 -0.054817133
0003c0 d5 d3 3a 3e 57 87 8f bf ef 04 6a 3f f7 15 e4 3c
       0.1824487 -1.1213177 0.9141378 0.027842505
0003d0 e4 1c 63 3f 3f 91 9e 3b 1f 1c 3b c0 a2 66 b5 be
       0.8871596 0.004839092 -2.9235914 -0.35429865
0003e0 12 c5 48 3e f8 eb 26 c0 e5 56 a5 3f f1 58 05 be
       0.19606426 -2.6081524 1.2917143 -0.1302221
0003f0 35 3a f1 3f 76 e3 c6 be 02 0e fc bf 65 cb 4a bf
       1.8845888 -0.38845414 -1.9691775 -0.79216605

3.bias f4 [300]
000000 33 fa 19 40 19 da 8b bd 50 f7 08 3c a7 17 13 bd
       2.405896 -0.06828708 0.008359745 -0.03591123
000010 a2 6d ae bf 7f 3a 18 c0 2f 99 a3 bc 70 5f e6 bd
       -1.3627207 -2.3785703 -0.019970505 -0.11248672
000020 59 8c 2b bd 98 ce be bd 16 da 0f be 0e 60 b1 bc
       -0.041881893 -0.093167484 -0.14048037 -0.021652248
000030 1d 11 41 bd eb 1c 43 bd 2e f2 b3 3f 0e 5c b5 bf
       -0.04713546 -0.047635 1.4058282 -1.4168718
000040 ac d1 3d bd 31 5a 76 bd 13 52 a4 bd 6c 37 79 bd
       -0.046342537 -0.060144607 -0.08023467 -0.06084387
000050 66 ee 68 bc 98 77 d3 bd 63 f2 9f bd a2 ed fa bd
       -0.014216995 -0.10325545 -0.078099035 -0.12252356
000060 4a 6e f1 be cd c4 3c 40 96 0b 3f 40 e0 68 05 bd
       -0.47154456 2.9495118 2.9850821 -0.03257072
000070 1c 9e 92 3e 62 8b a1 bd b0 2e 19 bf f7 52 41 be
       0.28636253 -0.07887913 -0.59836864 -0.18879305
000080 7e b9 c6 bd aa e6 04 be 6b 5b 2e 3b 88 88 d4 bd
       -0.097033486 -0.12978616 0.0026604782 -0.10377604
000090 dd 03 87 bd ce d9 86 bc 99 2c 4e bd 1b 37 34 bf
       -0.06592534 -0.01646128 -0.0503355 -0.70396584
0000a0 0d c0 0e 3f 15 ff 3b 40 d6 ab a3 bd 39 58 09 bd
       0.55761796 2.937444 -0.079917595 -0.0335314
0000b0 6c 31 5c be b1 da 7b bc 4e d6 50 bd 67 ae c2 bd
       -0.21503228 -0.015371964 -0.050985627 -0.09505921
0000c0 d1 1f 8a bd 01 1b 37 bd fc 22 c4 bf 19 fb 88 bc
       -0.0674435 -0.044703487 -1.5323176 -0.016721295
0000d0 85 a6 7f bd b0 0a 56 3e 28 06 df bf cd ad 0d c0
       -0.062414665 0.20902514 -1.7423754 -2.213733
0000e0 85 ab 32 bd ee 44 5b bd eb 01 ee bd 74 47 4e 40
       -0.043620605 -0.053532533 -0.116214596 3.2231112
0000f0 eb 5c 05 bd 41 ba f9 3f 7c cb 28 40 53 b3 dc 3f
       -0.032559317 1.9509965 2.6374197 1.7242225
000100 9b 27 22 bd 88 ca 8a bd 3e e5 6d bd 4a 82 33 bd
       -0.039588552 -0.06776911 -0.05807995 -0.043825425
000110 c7 66 fc bc ce cc 9b bc 41 5f 97 bd 6d 67 a1 bd
       -0.030810727 -0.019018557 -0.07391215 -0.07881055
000120 72 32 c6 be 0f e3 24 bd 9a 0e 0c 40 b8 51 47 bd
       -0.38710362 -0.040255602 2.1883912 -0.048661917
000130 0a 78 82 bd 6f ee 7b bc 4e cf 1f 40 c9 95 8e bd
       -0.06370552 -0.015376671 2.4970279 -0.06962163
000140 cf 6c 8f bd 8d c2 70 bd 1d 47 82 bd 90 a6 48 bd
       -0.070031755 -0.058779288 -0.0636122 -0.04898697
000150 b0 87 2d 40 0a e2 8f bf 67 b9 4f bd 5a 05 59 bd
       2.7114067 -1.1240857 -0.050713923 -0.05298362
000160 dd 19 e7 be 67 be 88 bd a4 5d 05 bf d8 fe 0f 40
       -0.4513692 -0.06676941 -0.5209601 2.2499294
000170 cc 83 e1 bd b9 a9 c3 bc aa 64 ba bc 67 fe 33 bb
       -0.110114664 -0.023884641 -0.022753078 -0.0027464868
000180 c5 ee e3 be c9 9c 05 3e 34 ac e1 bd 1e 43 9f bc
       -0.44518104 0.1304809 -0.11019173 -0.019441184
000190 b4 1f b8 bc 54 65 f2 bc 9a f0 f3 bc 37 39 6c bf
       -0.022476055 -0.029589333 -0.029777814 -0.922748
0001a0 17 52 0f 3e 87 1c 0d 3f 33 b1 94 be 3f 0f 8d bf
       0.13996159 0.55121654 -0.29041442 -1.1020278
0001b0 b6 f2 c7 be 8c 1c 14 bd 95 b6 b1 bb e5 97 54 bd
       -0.3905236 -0.036160037 -0.005423377 -0.05190267
0001c0 52 60 79 bd 07 a6 17 bd 73 af 32 bf 3d 9a 14 bf
       -0.060882874 -0.03702357 -0.69798964 -0.5804785
0001d0 bc 09 8f bd 6b 90 b6 3f b2 8d 5c bd 6f 12 ee bd
       -0.069842786 1.4262823 -0.05384607 -0.1162461
0001e0 a3 6c f8 bc 5a 25 06 40 e2 6a 80 bd 6a 6f 16 be
       -0.03032524 2.0960298 -0.06270386 -0.14690939
0001f0 96 fa ee bf a3 3b 8a 3f 52 de da bd 4b 7f 00 bd
       -1.8670223 1.079945 -0.106869355 -0.031371396
000200 ff 88 28 bf 7e c3 6d 3f 66 59 9c bd cd 98 fe bc
       -0.6583404 0.9287642 -0.07634239 -0.03107872
000210 75 1c a5 bd 9d 97 82 bd 0e c1 8e bd 2e 75 c1 bd
       -0.080620684 -0.06376574 -0.06970416 -0.094461784
000220 7a f1 64 bd 93 bd e3 bf 97 e8 26 bd 2f bc dc bd
       -0.055894352 -1.7792228 -0.04074916 -0.10778081
000230 43 30 08 bd f0 e5 a4 3e 43 f8 b2 3e 31 70 1c bd
       -0.03324915 0.32206678 0.34955034 -0.03819293
000240 53 ab 34 be 36 a2 66 bd cc 08 56 bd b7 40 e2 3f
       -0.1764348 -0.05630704 -0.052254483 1.7675999
000250 9d 1b 00 bf 75 1a 5b bd b0 b1 c0 bd b1 46 cb 3f
       -0.50042135 -0.05349203 -0.09408891 1.5880948
000260 da 61 d1 3d fa 33 38 bf a6 7d 7d bd ec 94 50 bc
       0.10223742 -0.7195431 -0.061887406 -0.012730818
000270 78 91 28 bd cd 44 c1 3e 69 1c 96 bd 9a a9 24 bd
       -0.041154355 0.37747803 -0.073296376 -0.040200807
000280 21 58 09 be 14 e8 e0 3f dc 8a 72 bc c4 be aa bc
       -0.13412525 1.7570825 -0.0148036145 -0.020842917
000290 68 be 45 be 4a c5 1f bc 84 d0 93 be 97 f4 79 40
       -0.19310915 -0.009751627 -0.28870022 3.9055536
0002a0 4f f4 fa 3e 54 77 7f 3f ef 32 fc bc 7c 84 9a bd
       0.49014518 0.99791455 -0.030786006 -0.07544801
0002b0 fc b2 a7 bc 11 51 8e bd 5e a8 8a bf f8 91 dd 3f
       -0.020471089 -0.06949056 -1.0832632 1.7310171
0002c0 a1 d6 91 bc 97 1b 36 bd 2f 95 a9 bd d7 2f 6d bd
       -0.017802538 -0.044459905 -0.08280408 -0.05790695
0002d0 df d4 36 bd 2b 40 d9 3f 7b 4b f8 3f a3 d2 f0 bd
       -0.044636603 1.6972708 1.9398035 -0.11758926
0002e0 ce 05 7d 3f d8 e5 97 bc 38 94 04 be 93 ab 4d 3e
       0.9883698 -0.018542215 -0.12947166 0.20084982
0002f0 c6 ef 75 bd 91 fd a5 bc ee 21 8a be 42 91 91 bd
       -0.06004312 -0.020262511 -0.2697901 -0.07107784
000300 96 d7 ee 3f 69 fa 8f bd 20 7e 70 3e 8f 94 3d 40
       1.8659542 -0.07030184 0.23485613 2.9621923
000310 02 26 63 bd f6 f6 8c bc 76 c1 77 bf 1a b8 2a bd
       -0.05545617 -0.017207604 -0.9677957 -0.04167948
000320 a3 d9 b1 3f d6 f2 b1 bd aa 02 a2 bf 09 d0 28 bd
       1.3894542 -0.086888954 -1.2657063 -0.041214023
000330 4e e0 d0 3f 1b a4 27 40 28 d3 e1 3f f6 07 d8 bd
       1.6318452 2.6193912 1.7642565 -0.105483934
000340 09 9e f8 bc 2a 6c e2 bf 1a 27 9a bc be 90 4e bd
       -0.030348795 -1.7689259 -0.018817473 -0.050431006
000350 b3 e0 9b 3f 0b 55 ee bc 0d cd 1a 3f 54 89 cc bd
       1.2177948 -0.029093286 0.6046913 -0.09987131
000360 78 81 99 bd f9 c5 12 3f fb c3 12 bc 3e 5d 35 3f
       -0.07495397 0.5733333 -0.008957858 0.708454
000370 b1 49 b0 bf db e8 1e bd 71 88 3d ba 58 00 b0 3f
       -1.3772489 -0.038796287 -0.0007230109 1.3750105
000380 b3 e0 82 bf 17 d3 95 bf b5 c5 f0 3f 85 12 c0 3f
       -1.0224823 -1.1705045 1.8810335 1.5005652
000390 c5 a0 30 bd 5e 10 05 c0 4e 15 c0 bd a4 e1 41 bd
       -0.04312207 -2.079124 -0.093790635 -0.04733433
0003a0 1d d1 e3 bd c6 10 90 bd 73 02 b9 3f c4 de 46 bd
       -0.111238696 -0.07034449 1.4453872 -0.04855229
0003b0 5f 6a 5d bc dd 40 84 bd 81 fa 11 bb 31 79 0a c0
       -0.01351413 -0.06457684 -0.0022274556 -2.163647
0003c0 04 d5 95 bd d6 97 82 bc d7 5d 0c bd 58 97 72 bd
       -0.0731602 -0.015941542 -0.03426918 -0.059226364
0003d0 9a e4 b1 bd 96 83 0d bd 8a 19 80 40 c8 e6 83 bd
       -0.086861804 -0.03454932 4.0031176 -0.064405024
0003e0 b8 d0 d5 bd cb 9c db bd 89 3c 82 be 89 86 c8 3f
       -0.104402006 -0.10723265 -0.2543681 1.5666057
0003f0 57 5a 93 bc 56 47 23 bd 93 d8 8a 3f 36 02 98 bd
       -0.017987413 -0.039862953 1.0847343 -0.07422297

5.weight f4 [1, 300]
000000 29 93 1a 40 66 96 6d 3c 61 60 3c 3c ee 6c 9d 3c
       2.415232 0.01450119 0.011497588 0.01921698
000010 e5 5c 15 bf 72 9e 99 3f 68 86 ce bc 71 ce 4b bc
       -0.5834487 1.2001479 -0.025210574 -0.012439356
000020 fa 67 ed 3c 06 2f aa bb da 84 fc 3c e6 00 00 3c
       0.028980244 -0.005193594 0.030825067 0.007812714
000030 67 05 92 3a a3 0e 36 3d f4 6c 07 c0 0a 75 c0 c0
       0.0011140526 0.044447552 -2.116025 -6.014287
000040 8c e5 ce 3a 02 6c 33 bc a1 af 80 3c 53 53 c7 3b
       0.0015784963 -0.010951044 0.015708746 0.006082931
000050 7c 22 53 3c d7 80 cb bc 9d b7 46 bb b9 69 1c 3c
       0.01288664 -0.024841709 -0.0030321844 0.009546691
000060 00 38 44 40 46 1f 73 3e 80 5b 4f 40 d5 9b 88 3c
       3.065918 0.23742399 3.2399597 0.016675869
000070 a2 4b 0a c0 6a fc c1 38 30 b6 59 c0 28 64 a6 3c
       -2.1608663 9.249973e-05 -3.4017448 0.02031143
000080 0a 3b a5 3c 1c 3c 9a bc 1d b1 29 3f d3 7b ab 3c
       0.020169754 -0.01882749 0.6628588 0.020933067
000090 1f 30 82 bc 76 7f db bc e1 99 6c 3b 65 0f a2 3f
       -0.015892087 -0.026794177 0.003610246 1.2660948
0000a0 a1 52 78 c0 77 19 8b 3f 53 90 c4 bc bf 9c 04 bc
       -3.8800433 1.0867146 -0.0239946 -0.008094012
0000b0 86 b4 ad bc 45 1c 59 3b bc 7a 48 3c 3c eb 65 bc
       -0.021204244 0.0033128422 0.012236293 -0.014033135
0000c0 1b 0d a5 3c 79 37 b0 bc 42 68 9c bf b6 81 90 3c
       0.02014785 -0.021510826 -1.2219317 0.017639976
0000d0 d3 1f ac bc 90 e5 9b be 73 73 27 40 78 52 62 bf
       -0.021011269 -0.3044858 2.6164215 -0.8840709
0000e0 41 fa b1 bc d1 de 03 3c 69 22 82 3c 51 0b 4c 3f
       -0.021725776 0.008048729 0.015885549 0.7970477
0000f0 d2 8d 34 3b 77 f0 28 40 82 25 5a 3f f8 b5 27 40
       0.0027550352 2.6396768 0.8521348 2.6204815
000100 e9 6e df 3b 5d 16 b4 bc e5 a3 c6 bc d2 08 9c bc
       0.0068186414 -0.02198332 -0.024248073 -0.019047175
000110 df 88 51 ba 79 d8 e0 39 46 3c 86 3c cf 48 b0 3c
       -0.00079931127 0.00042885894 0.016386162 0.021519093
000120 55 02 96 3e 09 2e 15 3b 1e 67 8a 3f 6d 39 a1 3a
       0.29298654 0.0022763035 1.0812719 0.0012300439
000130 e3 89 79 3b d4 03 92 3b 8f d7 6e 40 54 25 e2 3c
       0.0038076572 0.0044560228 3.7319067 0.02760569
000140 ff 47 41 3c 86 40 bc 3c a0 b7 49 3c 1c 70 78 bb
       0.01179695 0.022979986 0.012311846 -0.003790862
000150 8b d7 b8 3e 39 7f c4 40 bb 45 4c 3c 3c d0 c7 ba
       0.36101946 6.14053 0.012467797 -0.0015244554
000160 c8 80 27 be 1f c9 56 bc 6a c0 ff bf 41 f5 db bf
       -0.1635772 -0.013109474 -1.9980595 -1.718422
000170 6b d1 04 bc 90 cc 9e bc 82 ee b5 3c 74 36 45 bc
       -0.00810657 -0.019384652 0.022208456 -0.012036908
000180 1d f2 cd bf 6d 91 a8 3e e5 7c ec bc ec 92 04 bc
       -1.6089512 0.3292345 -0.028868148 -0.0080916695
000190 f4 6a cb bb e2 0a fe 3b 20 5b cb bc 6c 1e 6e c0
       -0.006207818 0.007752762 -0.024823725 -3.7206068
0001a0 b0 46 b5 bf 60 8c 13 40 e6 07 bd bf 84 f7 bb 3e
       -1.4162197 2.3054428 -1.4768035 0.36712277
0001b0 3c 7f 20 3f 05 d2 6f bc 4b 28 6c 3c e1 f6 da ba
       0.62694144 -0.014637475 0.0144139035 -0.0016705656
0001c0 ae 97 a1 bb 4e 71 a9 bc b4 09 8d 3e 02 24 62 bf
       -0.0049314117 -0.02068391 0.27546465 -0.88336194
0001d0 37 98 31 3c fb 9d ff bf c1 b2 cb bc 5f 66 a2 3c
       0.0108395135 -1.9970087 -0.02486551 0.019824205
0001e0 2a 8f 39 3c 99 4b 82 3f 11 65 a7 bb 36 da 15 3c
       0.011325637 1.017932 -0.0051084836 0.009146264
0001f0 17 73 e1 c0 af b0 90 40 ce 1e 11 3c b3 3e b2 3c
       -7.045299 4.521568 0.008857442 0.021758413
000200 82 e3 1e 40 ee 35 3f 40 42 d3 e2 3c dd 41 53 bb
       2.482636 2.9876666 0.027688626 -0.0032235302
000210 7a a7 c4 ba 8e d1 5d 3b 58 da 9e 3b 0f da 98 3c
       -0.0015003525 0.0033846828 0.004847806 0.018658666
000220 96 8a d4 bc 9c 7f 2d bf dd 8f 05 3c e1 d8 d4 3c
       -0.02594499 -0.6777284 0.008151975 0.025982322
000230 c6 17 82 bb ac e7 05 c0 e6 6b 8d 3e bc e8 18 3c
       -0.003970119 -2.0922651 0.27621382 0.009332832
000240 97 4a b5 be 3d 70 f1 3c 02 60 e9 bb 51 01 16 c0
       -0.3540847 0.029472465 -0.0071220407 -2.3438303
000250 15 72 ae bf ac a5 1f bb d5 cd e0 3c fc 4d 4b c0
       -1.3628565 -0.0024360223 0.027441898 -3.1766348
000260 1b 2d 78 40 c2 23 d4 bf b0 86 8f 3c 5c 62 0a 3c
       3.877753 -1.6573412 0.017520279 0.008446302
000270 0e 11 88 bc b5 28 2e 3f 4b d4 93 3b ba 1d a6 bc
       -0.016609695 0.68030864 0.0045113913 -0.020277847
000280 fd 97 ad bc 32 a7 05 c0 b0 a3 bc 3c 90 e7 40 3b
       -0.021190638 -2.0883298 0.023027271 0.0029434897
000290 74 bc 32 be b7 bb 4f 3c c9 69 ae 3e 32 a0 5d 3f
       -0.17454702 0.012679032 0.34065083 0.86572564
0002a0 fe 90 a2 3f 25 be b3 c0 73 a6 a7 bc 6d 35 b8 3a
       1.2700498 -5.616961 -0.020465111 0.0014054008
0002b0 e8 a3 91 bc b8 2b d3 ba 8c 3b 8f 3e 93 fe 9e 3e
       -0.017778352 -0.0016111052 0.27975118 0.310536
0002c0 32 55 76 3d 25 af 0c bd ec 88 13 bd ee 28 16 3c
       0.060139842 -0.03434672 -0.03601925 0.009165032
0002d0 8c 7d ff ba f4 74 5e c0 37 55 8a c0 6a 41 04 bc
       -0.0019492372 -3.4758883 -4.322902 -0.008072237
0002e0 24 1c 87 3e 73 0d 55 bc 1d 1c 9a bc b0 f7 2b 3f
       0.26388657 -0.013003695 -0.018812234 0.67174816
0002f0 56 b0 da bb 4c 29 a4 3e d2 31 c3 bf 6f 54 84 bc
       -0.006673853 0.32062757 -1.5249579 -0.016153542
000300 81 86 b6 bf 70 d3 b9 3c 5c 54 d1 c0 f8 00 fb 3e
       -1.4259797 0.02268383 -6.541548 0.49024177
000310 17 8c 0d 3c a3 5d 19 bb 75 03 8e 3f 8a 69 80 bb
       0.008639357 -0.002340176 1.1094805 -0.0039188312
000320 38 33 d0 be c8 1a 6a 3c d4 04 47 bf a7 76 81 3c
       -0.40664077 0.014288612 -0.7774174 0.015803648
000330 67 8f a9 3f 3b 17 22 3f cc 1c 1b 40 1d 1d 97 bc
       1.3246888 0.63316697 2.4236326 -0.0184465
000340 c1 a9 82 3c df ae 13 3f 4e 2e 7d bc c3 1f 46 3c
       0.015950086 0.5768871 -0.015452934 0.0120925335
000350 a2 51 10 c0 76 dc 95 bc 52 77 0d bf 3f ed 25 3b
       -2.2549825 -0.0182936 -0.55260193 0.0025318412
000360 19 03 bf bc 9a 1d 80 c0 04 6a b9 bb 64 5e a7 bf
       -0.023316907 -4.0036135 -0.00565839 -1.3075681
000370 b2 5e bd c0 18 fe b4 bc f0 3a ba bf dd d3 fe 3f
       -5.9178095 -0.022093818 -1.4549236 1.9908406
000380 7c 28 9e be de e0 fa be d9 14 bb 3f 7f e9 1d c0
       -0.30890262 -0.48999685 1.4615737 -2.4673765
000390 3d 35 5f 3c ed 9c b3 c0 fa e6 0a c0 9a 4f f6 bc
       0.013623533 -5.612906 -2.1703477 -0.030067254
0003a0 cf 1f dd bc c6 cc 74 3c 02 89 19 c0 5c 2b b4 3b
       -0.026992707 0.0149414 -2.3989873 0.005498333
0003b0 f9 ac a6 bc 51 25 fd bc 3d 9b 8e bc a2 10 70 bf
       -0.020346152 -0.030901583 -0.017408008 -0.9377538
0003c0 3c 07 a5 3d a5 56 3b 3c a5 76 0e bc 30 91 2a 3c
       0.080580205 0.011434232 -0.008695279 0.010410592
0003d0 53 15 b2 ba 26 b4 98 bc 83 af d5 3e 54 c1 64 bc
       -0.0013586677 -0.018640589 0.41735467 -0.013962109
0003e0 b7 fb 5b bc de 9a ba 3c 79 ae a1 bf 6b 6f b1 3f
       -0.013426713 0.022778925 -1.263137 1.3862127
0003f0 cb d0 74 bc 43 fb 22 3c 62 be de 3f c2 3b 90 3b
       -0.014942358 0.009947601 1.740185 0.004401655
