results/c_9_0/best/target_q_func1.pt (torch, 502309 bytes, 5 tensors)

1.weight f4 [400, 10]
-0.753002 3.9333937 -2.174705 1.2683537 -0.47989783 -2.4928014 0.90662575 0.95066094
-1.4755859 -0.36959124 -0.037887514 -3.9316154 3.6032803 -1.9246006 0.05113584 -0.55575866
-1.3106955 0.10365916 -1.3070954 -0.04047607 0.1914071 -1.148666 -0.2989265 1.8162386
-3.0031471 -0.58637315 -0.24040216 -0.45932874 -0.078093335 -0.06403855 0.41600806 -1.3095272
0.4312728 -0.16997622 2.619102 0.45336825 -0.018352475 0.336394 -0.7083125 -0.06607852
-0.44185862 0.11092509 -0.78463036 -3.3866198 1.1222491 -0.45385104 -0.27692047 0.08510284
-0.024785684 0.0150268115 -4.496375 5.6022124 -1.3953202 -2.5483427 1.350305 -0.71874434
-2.0413659 0.9737583 -2.1102211 -0.07342966 0.49729097 -1.3526809 -0.6424731 -1.7014638
-2.6251101 -0.9224364 0.05094749 -0.18930306 -0.47600615 -0.1936661 -0.97485274 -0.02304597
-0.63486755 -1.1707197 -0.7486648 -0.27537075 -0.08585983 -0.38901904 -0.07183633 -0.094071865
5.270356 -4.8255053 -0.14772329 7.1326165 0.32643184 -2.2816117 0.11831478 -0.9024687
-1.3738978 0.2156367 -10.337534 -2.3043249 -0.33599135 -2.0166523 -0.3101688 -0.16771452
1.2923658 0.08920262 -0.011411554 -0.011716945 -3.540114 0.4147325 -1.3603104 -3.2795699
-0.79400015 -1.8065112 -0.7978745 -0.5692786 -1.121534 -0.21518637 -1.6413822 -0.103383616
0.8912512 -0.7405824 0.50012815 1.1121163 -0.49949634 0.044326153 -0.39970616 0.115042284
10.340917 3.204092 0.22889328 1.9464576 -0.90935946 0.17619526 -1.4210979 0.47007844
0.021793017 -0.046845943 -6.6066327 0.19150545 -0.07096462 -2.0021815 0.8277126 -1.1489521
-0.26606646 -0.15293524 -1.7688411 0.0054299417 0.56148225 -2.6706004 -1.3840569 0.4013214
-1.4461889 -1.0168443 -1.2432467 0.20423104 -1.262082 -0.39399603 -1.8532697 3.966022
-0.3243666 1.6605796 2.7955935 0.28349274 -1.2637786 1.1172172 -2.4950767 0.025183642
-8.297162 6.392426 0.16695851 -0.40547863 2.0343482 0.0023241844 0.09896748 -0.38810447
-0.0058508785 0.005369484 14.514718 -1.878409 -1.7658877 4.087568 -0.5099373 -0.63694805
-0.49163514 0.013391539 0.2245165 -0.073641114 -3.988215 -3.0150552 4.0696487 -2.2924485
-0.31620455 -0.8653183 -1.5296117 1.0976151 0.67192596 -0.15788105 4.135496 -9.740181
2.8317418 0.11278081 -5.2740455 -0.1596794 -2.11704 -1.9726653 -1.9010425 -0.037929762
1.0014662 -3.778316 -8.1224165 0.6455663 -1.5581759 -0.65659523 1.7018135 0.30071858
0.0010544192 -0.09365723 -11.267053 -8.06348 -1.8693025 -0.8314063 -1.365568 -0.2813567
2.1049955 0.39693767 0.05014957 -0.023208085 -2.8222916 -1.6946213 3.5089254 -1.3333986
-1.0430903 0.46777704 0.3661085 0.8867735 -2.0960114 0.08532337 -12.835257 5.608013
-0.5191898 -0.51620084 1.5927358 -0.3322165 -1.5751572 1.099011 1.1451058 -0.044858977
0.8874604 -0.6321019 -0.7580466 -2.507236 1.7686741 0.21809806 -0.33232304 -1.0112892
-0.13229115 -0.008755651 0.4658912 -0.27001822 0.43430665 2.1427412 2.1870394 0.7758446
00000000: bdc4 40bf b9bc 7b40 5e2e 0bc0 6a59 a23f
00000010: 2bb5 f5be 0f8a 1fc0 a018 683f 845e 733f
00000020: 00e0 bcbf 103b bdbe f02f 1bbd 969f 7bc0
00000030: 259c 6640 5059 f6bf d173 513d 3346 0ebf
00000040: dfc4 a7bf 414b d43d e74e a7bf 3cca 25bd
00000050: 3900 443e 7d07 93bf e50c 99be 827a e83f
00000060: 9033 40c0 8d1c 16bf fc2b 76be 232d ebbe
00000070: 66ef 9fbd a526 83bd 02ff d43e 969e a7bf
00000080: cacf dc3e 3f0e 2ebe 5e9f 2740 e21f e83e
00000090: ee57 96bc d63b ac3e f853 35bf 2d54 87bd
000000a0: 4b3b e2be b22c e33d 89dd 48bf 61be 58c0
000000b0: dca5 8f3f 2a5f e8be 85c8 8dbe 664a ae3d
000000c0: 590b cbbc 0433 763c 4ee2 8fc0 5345 b340
000000d0: da99 b2bf 0c18 23c0 cbd6 ac3f a1ff 37bf
000000e0: bda5 02c0 3948 793f dd0d 07c0 4a62 96bd
000000f0: ec9c fe3e a624 adbf 1e79 24bf 91c9 d9bf
00000100: ce01 28c0 cb24 6cbf 51ae 503d a9d8 41be
00000110: 14b7 f3be 6850 46be f38f 79bf e7ca bcbc
00000120: ae86 22bf 25da 95bf 7fa8 3fbf 65fd 8cbe
00000130: 47d7 afbd 812d c7be ed1e 93bd c0a8 c0bd
00000140: c2a6 a840 8a6a 9ac0 c644 17be 653e e440
00000150: 1322 a73e ed05 12c0 054f f23d 3008 67bf
00000160: e2db afbf decf 5c3e 8a66 25c1 0f7a 13c0
00000170: 0f07 acbe d510 01c0 72ce 9ebe 5bbd 2bbe
00000180: 3e6c a53f ddaf b63d 87f7 3abc 6ef8 3fbc
00000190: 3a91 62c0 d157 d43e a71e aebf 79e4 51c0
000001a0: 9843 4bbf c23b e7bf 8141 4cbf 3ebc 11bf
000001b0: 6d8e 8fbf d159 5cbe d018 d2bf caba d3bd
000001c0: 0a29 643f cf96 3dbf 6608 003f d459 8e3f
000001d0: fcbd ffbe 578f 353d 49a6 ccbe 4a9b eb3d
000001e0: 6574 2541 d80f 4d40 0063 6a3e 8625 f93f
000001f0: c8cb 68bf 886c 343e 89e6 b5bf 1fae f03e
00000200: 4587 b23c 88e1 3fbd 8969 d3c0 011a 443e
00000210: e655 91bd be23 00c0 f9e4 533f dd10 93bf
00000220: dd39 88be 0e9b 1cbe 6369 e2bf a7ed b13b
00000230: 4dbd 0f3f 1eeb 2ac0 c728 b1bf 007a cd3e
00000240: b81c b9bf f427 82bf b522 9fbf f121 513e
00000250: e78b a1bf d9b9 c9be f137 edbf 4ed3 7d40
00000260: 6113 a6be df8d d43f 01eb 3240 f625 913e
00000270: 7fc3 a1bf f900 8f3f 56af 1fc0 ed4d ce3c
00000280: 2dc1 04c1 c18e cc40 2cf7 2a3e e59a cfbe
00000290: c332 0240 5851 183b 76af ca3d a1b5 c6be
000002a0: bab8 bfbb 7ff2 af3b 493c 6841 b56f f0bf
000002b0: 9c08 e2bf 5bcd 8240 408b 02bf 070f 23bf
000002c0: 9ab7 fbbe 3068 5b3c a7e7 653e 27d1 96bd
000002d0: ea3e 7fc0 aaf6 40c0 903a 8240 7ab7 12c0
000002e0: 90e5 a1be 8085 5dbf 51ca c3bf a77e 8c3f
000002f0: 5703 2c3f 92ab 21be fc55 8440 c8d7 1bc1
00000300: 423b 3540 a0f9 e63d fbc4 a8c0 ff82 23be
00000310: 957d 07c0 4c80 fcbf 5c55 f3bf 3d5c 1bbd
00000320: 0b30 803f eecf 71c0 6bf5 01c1 d543 253f
00000330: 4f72 c7bf a016 28bf 06d5 d93f c9f7 993e
00000340: 7034 8a3a 5dcf bfbd d945 34c1 0404 01c1
00000350: 4e45 efbf 0bd7 54bf efca aebf fc0d 90be
00000360: 3fb8 0640 6a3b cb3e a369 4d3d e21e bebc
00000370: 6da0 34c0 5ae9 d8bf 3c92 6040 ceac aabf
00000380: fc83 85bf 7980 ef3e 9372 bb3e 9703 633f
00000390: 0d25 06c0 05be ae3d 365d 4dc1 d874 b340
000003a0: 9fe9 04bf bd25 04bf c4de cb3f 4818 aabe
000003b0: c09e c9bf 64ac 8c3f d492 923f 0cbe 37bd
000003c0: 9b30 633f 6ed1 21bf 580f 42bf 8e76 20c0
000003d0: ea63 e23f 1955 5f3e 3f26 aabe ed71 81bf
000003e0: 5577 07be dd73 0fbc 4b89 ee3e d43f 8abe
000003f0: 715d de3e ac22 0940 74f8 0b40 c09d 463f

1.bias f4 [400]
-2.0845416 -0.40133905 -0.79026896 -1.1606109 -0.93271226 -1.2509228 -0.887222 -0.49165833
-0.51696813 0.9682884 -1.151694 -0.9035179 -1.6370627 -1.3117446 -1.2709512 -1.168868
-0.13764358 -1.4261916 -2.1569107 -0.08583647 -1.3730154 1.2094816 -1.4196774 -2.186399
-0.76549727 -0.9738872 -0.34849194 0.8737263 -0.7678099 -1.3910199 -0.8392998 -0.7777162
-1.3578085 -1.1737001 -0.23670965 -0.46186194 -1.0245453 0.117428005 -1.1425873 -1.5909859
-1.2421739 -3.451316 -0.8104988 -0.781817 -0.32577845 1.244149 -0.25899735 -1.8715425
-0.95467013 -0.99726415 -0.60080945 -0.5062047 -0.7981606 -1.8733732 -0.8495637 -0.17535347
-1.9347876 -0.6187922 -0.7786699 -0.78731257 -0.9074876 -0.46993244 -0.9691089 0.74505305
-2.2225904 -1.0306727 -0.9211728 -2.2767332 -0.3363862 -3.8545072 -0.70296 -3.1924844
-1.5062467 -2.1431367 -0.33886763 -0.26458973 -0.8859226 -1.6528742 -0.5904621 -1.3905724
-0.5385267 -0.78125674 0.015136325 -2.492834 -0.8334347 -0.28609836 -1.3525068 -2.189419
-2.076229 0.13519116 -1.4678501 -0.26258487 -1.1902074 -0.6862945 -0.25260773 -1.1007677
-0.50987655 -0.30333132 -0.71278286 -3.2795336 -1.2767924 -1.1776295 -0.9756515 -2.2418754
-0.8284962 -0.82424366 -0.83059824 -0.69113153 -1.0550975 -2.4123707 -0.7048435 0.24213925
-0.61633366 -1.7245526 -1.656919 -0.7055588 -0.3941226 -2.443926 -0.4343961 -0.31008825
-1.0986935 -0.9736011 -0.9591172 -0.833387 -1.02986 -1.7726532 -1.1197697 -1.3412846
-0.35893217 -0.39459616 -0.8123823 -0.77698904 -1.1049877 -0.5294269 0.9230612 -4.152351
-0.8438417 -0.43090326 -0.90611666 -0.3697965 -0.31170577 -2.5426235 -0.96982217 -0.76434094
-0.24917 -1.7701894 -2.9335766 0.7852623 -0.59500206 -1.2995129 -1.5251294 -2.2374146
-0.3507886 -0.9155938 0.005915615 -0.9837935 -1.197089 -1.3221802 0.22175428 -1.0399036
-2.0329063 -2.4505227 0.11268471 -0.796289 -0.941111 -1.3187399 -1.0326992 -1.290037
-0.43158373 -0.7359214 -0.43405104 -1.0361086 -0.88784325 -0.621385 -0.8363399 -1.5340854
-0.7518476 0.36373833 -0.8624264 -0.5607551 -1.0805892 -1.333214 -2.2843366 -0.86364233
-0.83624804 -1.0529127 -0.8367019 -2.5918274 -0.8651563 -1.0605942 -1.2134848 -0.8023806
-0.47578496 -0.92577076 -0.13342988 -0.3744717 -1.0323843 -2.6459725 -1.3310461 -0.7139988
-1.4756575 -0.659532 -0.8315704 -0.64720577 -0.83984816 -0.7153101 -0.6099528 -0.6540722
-1.0001253 -2.8811998 -1.0022941 -0.19839875 -0.75529295 -0.25656536 -0.39283374 -0.05304702
-0.607509 -0.7885285 -4.37303 -0.7284708 -1.762704 0.31062227 -0.63449806 -0.79910237
-0.8295604 -1.9512782 -1.0190855 -0.9634641 -1.0657679 -3.198123 -0.71920824 0.9529724
-0.9513924 -0.23007564 0.3290163 -0.80877024 -0.63662 0.6775763 0.7666685 -0.26468173
-0.8423158 -1.997636 -0.6478614 -0.589043 -2.5992591 0.14912537 -2.09324 -0.87007964
0.095180824 -0.68667597 -0.8520671 0.015268531 -0.13814574 -0.7763334 -0.9229281 -2.775671
00000000: 2169 05c0 507c cdbe 114f 4abf e68e 94bf
00000010: 3bc6 6ebf 3d1e a0bf fb20 63bf a4ba fbbe
00000020: 0658 04bf c0e1 773f b66a 93bf f34c 67bf
00000030: 458b d1bf 3fe7 a7bf 87ae a2bf 779d 95bf
00000040: 70f2 0cbe 728d b6bf d30a 0ac0 08cb afbd
00000050: f8be afbf 4bd0 9a3f fdb7 b5bf f6ed 0bc0
00000060: a1f7 43bf ac50 79bf 896d b2be 87ac 5f3f
00000070: 318f 44bf f10c b2bf 5adc 56bf 6918 47bf
00000080: abcc adbf ce3b 96bf 0464 72be 2b79 ecbe
00000090: 4d24 83bf 187e f03d 4d40 92bf 6da5 cbbf
000000a0: 8eff 9ebf 5de2 5cc0 d97c 4fbf 2925 48bf
000000b0: 6fcc a6be 4640 9f3f 4d9b 84be b48e efbf
000000c0: 4365 74bf b44c 7fbf a6ce 19bf a296 01bf
000000d0: 4154 4cbf b1ca efbf 027d 59bf dc8f 33be
000000e0: 1fa7 f7bf 2a69 1ebf e956 47bf 518d 49bf
000000f0: 1b51 68bf fc9a f0be 8517 78bf ccbb 3e3f
00000100: ec3e 0ec0 15ed 83bf fbd1 6bbf ffb5 11c0
00000110: d03a acbe 3fb0 76c0 30f5 33bf aa51 4cc0
00000120: b1cc c0bf 2729 09c0 0f80 adbe 4e78 87be
00000130: d3cb 62bf 6291 d3bf 8628 17bf 47fe b1bf
00000140: e3dc 09bf 7100 48bf 59fe 773c 988a 1fc0
00000150: fa5b 55bf 7c7b 92be f11e adbf 711f 0cc0
00000160: f0e0 04c0 8d6f 0a3e 83e2 bbbf 8671 86be
00000170: b758 98bf ffb0 2fbf cd55 81be f5e5 8cbf
00000180: 4587 02bf 3e4e 9bbe f078 36bf e1e3 51c0
00000190: ef6d a3bf 90bc 96bf 4cc4 79bf e37a 0fc0
000001a0: 5418 54bf a201 53bf 16a2 54bf ffed 30bf
000001b0: 6f0d 87bf 4864 1ac0 a070 34bf 5af3 773e
000001c0: 0bc8 1dbf 24be dcbf ec15 d4bf 809f 34bf
000001d0: 70ca c9be 4969 1cc0 2a69 debe e3c3 9ebe
000001e0: fda1 8cbf ec3d 79bf b488 75bf da58 55bf
000001f0: 74d2 83bf 4de6 e2bf 9d54 8fbf 37af abbf
00000200: f5c5 b7be 8208 cabe 49f8 4fbf c1e8 46bf
00000210: 3d70 8dbf 8588 07bf bd4d 6c3f 0fe0 84c0
00000220: 0206 58bf 5a9f dcbe 43f7 67bf f855 bdbe
00000230: e697 9fbe 58ba 22c0 4446 78bf d9ab 43bf
00000240: 6c26 7fbe 9195 e2bf b8bf 3bc0 f306 493f
00000250: 0e52 18bf 7056 a6bf 7137 c3bf cd31 0fc0
00000260: 909a b3be 5b64 6abf c6d7 c13b e4d9 7bbf
00000270: 363a 99bf 333d a9bf 8e13 633e 901b 85bf
00000280: 231b 02c0 5dd5 1cc0 3ec7 e63d 99d9 4bbf
00000290: a7ec 70bf 78cc a8bf 7d2f 84bf ef1f a5bf
000002a0: 8bf8 dcbe 5865 3cbf f03b debe 359f 84bf
000002b0: b249 63bf 1613 1fbf 5f1a 56bf e95c c4bf
000002c0: 1679 40bf e93b ba3e fac7 5cbf a58d 0fbf
000002d0: bf50 8abf c2a6 aabf 9232 12c0 aa17 5dbf
000002e0: 5a14 56bf d8c5 86bf 1932 56bf 80e0 25c0
000002f0: e27a 5dbf 8dc1 87bf 7853 9bbf d168 4dbf
00000300: 169a f3be 50ff 6cbf d8a1 08be c1ba bfbe
00000310: 2b25 84bf 9d57 29c0 b85f aabf a0c8 36bf
00000320: 58e2 bcbf 17d7 28bf cce1 54bf 47af 25bf
00000330: 4a00 57bf 901e 37bf de25 1cbf 4771 27bf
00000340: 1b04 80bf 9465 38c0 2c4b 80bf 0b29 4bbe
00000350: e15a 41bf 895c 83be 8121 c9be d547 59bd
00000360: b685 1bbf 01dd 49bf ddef 8bc0 107d 3abf
00000370: 49a0 e1bf e209 9f3e 776e 22bf f991 4cbf
00000380: 125e 54bf 7cc3 f9bf 6571 82bf 95a5 76bf
00000390: 156b 88bf 0cae 4cc0 081e 38bf 00f6 733f
000003a0: 748e 73bf f398 6bbe d374 a83e 910b 4fbf
000003b0: 87f9 22bf a475 2d3f 6344 443f 5d84 87be
000003c0: 02a2 57bf 89b2 ffbf 3fda 25bf 86cb 16bf
000003d0: 435a 26c0 52b4 183e a5f7 05c0 8abd 5ebf
000003e0: 2aee c23d ffc9 2fbf 1221 5abf dc28 7a3c
000003f0: 1476 0dbe c9bd 46bf 0445 6cbf 98a4 31c0

3.weight f4 [300, 400]
-0.06631694 -0.03507625 -0.014314721 -0.05087597 -0.017157027 -0.012581342 -0.0049484475 -0.054743566
-0.0064040134 -0.058011394 -0.036705695 0.024985358 -0.031814385 -0.07272147 -0.061510935 -0.053279527
-0.0046274206 0.0038244566 -0.056586098 0.012355402 -0.037283853 -0.043079674 0.009536286 -0.026242275
-0.05772529 -0.064701654 -0.07620387 -0.025167527 0.0022025567 -0.039183762 -0.05408568 -0.069034904
-0.016660072 0.008681145 -0.008052182 0.0519563 0.0027865896 -0.034243274 0.0012607675 -0.08203172
0.021159638 -0.0435729 -0.03071598 -0.062621824 -0.035612464 -0.06545416 0.026978476 -0.09091133
-0.038772486 0.015000734 0.02156852 -0.021185188 0.009297495 -0.025481943 -0.019121375 -0.040097203
-0.08425497 -0.055517685 0.012270093 0.014500054 -0.014590952 -0.029025814 -0.055650305 -0.074257776
0.015460249 0.02998284 -0.05919753 -0.025027456 -0.08874768 -0.06705604 0.02549796 -0.03572818
-0.036793612 -0.021585286 0.059335366 -0.004624498 0.01981875 -0.0011660287 -0.0046111224 -0.053824164
0.018429214 -0.06682507 -0.015752966 -0.031355243 -0.016214157 -0.03465131 0.023610353 -0.03943261
-0.07574193 -0.034505535 -0.07999175 -0.028460437 -0.09478564 0.02284108 -0.010603065 0.013473176
0.009897826 0.03451389 -0.039110746 -0.010699137 -0.03848415 -0.06777725 -0.014737356 -0.07763289
-0.04719091 -0.050644998 0.029637879 -0.028691282 -0.11183109 -0.060765132 -0.029616646 -0.0552517
-0.0066054584 -0.07749729 -0.022227526 0.019913746 9.044824e-05 -0.053560413 -0.050393913 -0.040436756
0.007094496 0.05210755 0.024655297 -0.0024079601 -0.034870613 0.06617835 -0.01642985 -0.045230657
-0.034262646 -0.057925712 0.037713014 -0.05074856 0.023052676 0.012480758 -0.061815664 0.033630833
0.009998595 -0.004773452 -0.0692927 -0.04419577 0.008553642 -0.03361519 0.014168875 -0.0010822328
0.009840238 -0.019606782 -0.05988969 -0.037747286 -0.09413595 -0.041960593 -0.09395862 -0.113413595
0.03308322 -0.049149666 0.0026454008 0.028242383 -0.0034368865 -0.042019453 0.013594807 0.047676686
-0.018369239 -0.049814258 -0.047759388 0.0017083149 0.007998299 0.0035566543 0.013211102 -0.047263924
-0.062352106 -0.07199429 -0.03449138 -0.026229981 -0.08585238 -0.010190449 -0.107754126 -0.00958099
-0.07640652 0.045681417 -0.07061742 0.005334108 -0.068301775 -0.006996987 0.009565157 -0.09431625
0.010458296 -0.017545948 -0.07520698 -0.034505535 -0.0045561744 -0.026266117 -0.04911763 -0.023772405
-0.029699348 -0.05621878 0.025475236 -0.03786575 0.01624433 -0.03135636 -0.047845814 0.006277725
-0.059802517 -0.020131676 -0.028364947 -0.009814008 -0.042871054 0.018691102 0.01673048 0.01589676
0.03426935 -0.060127363 -0.037779324 -0.09952868 0.020028483 0.0024174594 -0.038721822 -0.048046235
-0.0052393 -0.0056387447 0.007494779 0.0313802 -0.008946387 -0.009631654 0.027109148 0.03656264
-0.039024316 -0.10449226 -0.0057224706 0.017124616 0.017149203 -0.040404167 0.026993291 0.00076854555
-0.027859053 -0.030977868 0.055394 -0.0105149215 -0.015239269 -0.06034939 -0.06323687 0.009549188
-0.026991803 0.044005033 -0.008261677 0.011432647 -0.0046674674 0.018106604 -0.014647762 0.0068964968
-0.028844764 -0.047827933 0.039827492 -0.01761971 0.037808795 0.02190007 -0.031538714 0.012221105
00000000: 2dd1 87bd 1dac 0fbd 4b88 6abc 5263 50bd
00000010: e58c 8cbc f921 4ebc 9626 a2bb ca3a 60bd
00000020: c2d8 d1bb 5b9d 6dbd b658 16bd 18ae cc3c
00000030: cd4f 02bd feee 94bd e4f2 7bbd a23b 5abd
00000040: 9ea1 97bb bca3 7a3b d3c6 67bd 506e 4a3c
00000050: f4b6 18bd 5074 30bd 153e 1c3c 0afa d6bc
00000060: 5b71 6cbd 4d82 84bd c610 9cbd 212c cebc
00000070: c558 103b 277f 20bd f288 5dbd 2c62 8dbd
00000080: b47a 88bc 5c3b 0e3c 4ded 03bc 21d0 543d
00000090: 379f 363b ad42 0cbd 5640 a53a 3f00 a8bd
000000a0: fa56 ad3c 7f79 32bd 14a0 fbbc df3f 80bd
000000b0: 60de 11bd d50c 86bd f701 dd3c b82f babd
000000c0: e6cf 1ebd a3c5 753c 77b0 b03c 8f8c adbc
000000d0: 8554 183c 82bf d0bc 6ea4 9cbc f73c 24bd
000000e0: df8d acbd 8366 63bd 8008 493c a291 6d3c
000000f0: e30e 6fbc 8bc7 edbc 93f1 63bd 7614 98bd
00000100: fc4c 7d3c 939e f53c 1c79 72bd 6106 cdbc
00000110: 58c1 b5bd ad54 89bd 19e1 d03c b657 12bd
00000120: e6b4 16bd a0d3 b0bc a409 733d 1a89 97bb
00000130: ee5a a23c 6ed5 98ba e618 97bb ba76 5cbd
00000140: ddf8 963c 95db 88bd 5d0c 81bc 5b6e 00bd
00000150: 8dd3 84bc 88ee 0dbd 806a c13c 1784 21bd
00000160: 961e 9bbd ad55 0dbd b7d2 a3bd dd25 e9bc
00000170: f91e c2bd 371d bb3c 7ab8 2dbc 99be 5c3c
00000180: 7e2a 223c 705e 0d3d 9732 20bd 6f4b 2fbc
00000190: 8ea1 1dbd cdce 8abd f474 71bc fefd 9ebd
000001a0: 414b 41bd 2171 4fbd 23cb f23c fb09 ebbc
000001b0: b307 e5bd dce4 78bd 9c9e f2bc 9b4f 62bd
000001c0: 9a72 d8bb e6b6 9ebd 8016 b6bc 2722 a33c
000001d0: 07af bd38 2a62 5bbd d969 4ebd 03a1 25bd
000001e0: f278 e83b ba6e 553d e8f9 c93c dece 1dbb
000001f0: 7dd4 0ebd 8488 873d e597 86bc c843 39bd
00000200: fd56 0cbd 8343 6dbd f678 1a3d b9dd 4fbd
00000210: f7d8 bc3c 187c 4c3c 6c32 7dbd 7cc0 093d
00000220: 26d1 233c 9e6a 9cbb 55e9 8dbd a006 35bd
00000230: 9324 0c3c 15b0 09bd 9224 683c b5d9 8dba
00000240: f338 213c 679e a0bc e44e 75bd e69c 1abd
00000250: 59ca c0bd dfde 2bbd 616d c0bd 6345 e8bd
00000260: 4582 073d 2951 49bd 765e 2d3b 925c e73c
00000270: 633d 61bb 971c 2cbd c1bc 5e3c a148 433d
00000280: 167b 96bc 090a 4cbd 599f 43bd 89e9 df3a
00000290: 4c0b 033c c216 693b 6173 583c d197 41bd
000002a0: ec64 7fbd be71 93bd d546 0dbd 42e0 d6bc
000002b0: 5fd3 afbd d7f5 26bc 32ae dcbd 96f9 1cbc
000002c0: 067b 9cbd 701c 3b3d de9f 90bd bec9 ae3b
000002d0: cde1 8bbd fb46 e5bb 2db7 1c3c e128 c1bd
000002e0: 4659 2b3c 85bc 8fbc 1e06 9abd ad55 0dbd
000002f0: f64b 95bb 0a2c d7bc 912f 49bd 59be c2bc
00000300: 0c4c f3bc aa45 66bd 71b1 d03c 1e19 1bbd
00000310: d412 853c 876f 00bd f9f9 43bd 60b5 cd3b
00000320: 7cf3 74bd 2feb a4bc 9b5d e8bc efca 20bc
00000330: 8f99 2fbd 151e 993c 5c0e 893c ec39 823c
00000340: 055e 0c3d 1c48 76bd 7ebe 1abd b1d5 cbbd
00000350: c612 a43c 3d6e 1e3b c69a 1ebd 21cc 44bd
00000360: 6fae abbb 38c5 b8bb c396 f53b 8688 003d
00000370: de93 12bc 16ce 1dbc 0114 de3c b5c2 153d
00000380: f6d7 1fbd 0a00 d6bd 9083 bbbb ec48 8c3c
00000390: 7c7c 8c3c d77e 25bd 0921 dd3c 3878 493a
000003a0: ab38 e4bc 4cc5 fdbc d2e4 623d c746 2cbc
000003b0: 20ae 79bc ec30 77bd 5582 81bd 3374 1c3c
000003c0: ea1d ddbc 9f3e 343d fc5b 07bc ff4f 3b3c
000003d0: 8ef1 98bb 4d54 943c 2bfd 6fbc 02fc e13b
000003e0: db4b ecbc 39e7 43bd 2722 233d 3657 90bc
000003f0: 65dd 1a3d c767 b33c bd2e 01bd 083b 483c

3.bias f4 [300]
-0.050057147 -0.10218407 -0.059813693 4.174191 -0.098335095 1.4355251 -0.036950074 4.758026
-0.016784498 -0.46658278 -0.029017618 -0.099485464 0.6173612 -0.07156961 -0.057998728 -0.061600342
-0.058163386 -0.10058964 -0.027962243 -0.072320625 4.220237 -3.2475917 -0.072459206 -0.040159043
-0.031768937 -3.8197942 -0.16938017 5.3084154 -0.030303217 1.2542892 2.2787454 -0.047187928
-0.08361124 -0.054368056 -0.0555378 0.06875444 -0.037105046 3.3618326 -0.078392856 0.38965908
-0.028644344 -1.0774027 -0.06339631 -0.10664697 -0.08576297 -0.029519044 -0.07493876 3.2252405
2.41846 -0.034876574 -0.044434935 -0.073101446 2.4045422 -2.932419 -1.8191478 -0.080830686
-0.08721137 -0.03984463 -0.05241824 -0.08567505 -0.061852172 -0.06138353 -0.035979263 -0.032431293
-0.039180037 0.49061713 2.8086002 -0.06687424 -0.10932024 -0.031066157 -0.11087444 -0.5477403
-0.11168123 0.57717985 -0.85743695 2.709092 0.99710095 -0.09002918 0.20960316 4.5333676
3.6805973 -0.06207718 -0.49037683 -2.3264985 3.5166454 -0.06693236 1.0849434 -0.06708435
-0.07574938 -0.6282396 0.17082775 3.150912 -0.0482854 -1.0973345 -0.027377 0.6267825
-0.167598 1.1777167 -0.6493368 5.506205 3.8258321 -0.08389288 -0.026112635 1.7086872
-0.07529043 4.6486464 -0.07518935 -0.67235893 0.96871597 -0.0537586 -0.088542044 -0.11082824
-0.042530563 -0.9734358 -0.060488716 3.4548001 -0.13372464 -0.09802217 4.222804 -1.8197407
-0.085429184 -0.0821703 -0.14431939 1.6689992 -0.15547141 -0.08195125 4.161633 -4.114435
2.8808022 -0.08417898 -0.047066484 0.714485 3.5189905 -0.0658103 -0.06790391 1.2676415
-0.026739229 4.5234165 -0.082092814 3.6021237 0.0042296518 -0.12600537 -1.0705901 -0.12479064
2.6067944 -0.073332414 -0.10198291 -0.05338408 -0.6791977 4.098364 1.9474726 -0.10407801
-0.06614558 -0.073718354 3.403142 -0.027974164 -0.059991017 -0.053270586 -0.051853485 -0.07485531
-0.018255245 -0.035459213 -0.04197624 -0.074515566 -0.031051256 -3.7174976 -0.067661025 -0.06195052
-0.07353209 -0.0463624 -0.101956084 -0.02613685 -0.013954967 -0.09477521 -0.061681554 3.880053
-1.4336109 -0.06558529 -2.9441676 -0.0542712 3.6220684 0.0071239257 2.957183 -0.9927528
-3.445568 -0.0041064383 -0.111224614 -0.060458913 -0.11531051 -0.11665013 -0.111352764 -0.04751203
-0.15005335 -0.11105921 2.7259333 3.6603436 -0.08677924 -0.15373394 -0.057784896 -1.6665211
-0.06436638 -0.0685238 -1.3562878 -0.06332479 -1.6507285 -0.13416572 -0.06010203 -0.04328233
0.9581489 -0.057907086 2.5252893 -0.04190695 -0.05925341 -0.021691084 -0.08794898 -0.22971487
-0.107493356 -0.123729676 -0.06885461 -0.5018205 2.2879262 2.3453393 -0.07528745 -0.041214045
2.5154061 -0.047719155 -0.1450108 0.6427162 -0.016938353 1.1661352 -1.519312 1.8325078
-0.11467125 -0.1104125 -0.054507382 2.025889 -0.06337843 -0.03173094 -0.04570526 -0.025957663
-0.052139588 -0.03309216 -0.14386341 -1.2323428 2.9336298 -0.05145786 -0.13888045 -0.32475394
-0.043724895 3.6271756 -1.1480939 -0.055286717 4.415162 4.216017 -0.08947635 -0.113286935
00000000: b908 4dbd e245 d1bd 34ff 74bd f992 8540
00000010: e963 c9bd 49bf b73f f658 17bd c041 9840
00000020: a57f 89bc f0e3 eebe 5bb6 edbc 09bf cbbd
00000030: 620b 1e3f 1693 92bd 1390 6dbd a450 7cbd
00000040: bb3c 6ebd f101 cebd 1311 e5bc d61c 94bd
00000050: 2e0c 8740 8bd8 4fc0 7e65 94bd cf7d 24bd
00000060: 2520 02bd 8277 74c0 ff71 2dbe 8ade a940
00000070: 743e f8bc 8c8c a03f f7d6 1140 2148 41bd
00000080: 5f3c abbd 0ab1 5ebd 9b7b 63bd 21cf 8c3d
00000090: 76fb 17bd 4428 5740 6f8c a0bd 6581 c73e
000000a0: 8ba7 eabc 55e8 89bf edd5 81bd ba69 dabd
000000b0: 7fa4 afbd ecd1 f1bc 7e79 99bd 576a 4e40
000000c0: 0cc8 1a40 bdda 0ebd 6801 36bd 36b6 95bd
000000d0: 05e4 1940 c1ac 3bc0 d6d9 e8bf 8f8a a5bd
000000e0: e09b b2bd 1f34 23bd 82b4 56bd 6776 afbd
000000f0: b458 7dbd 4c6d 7bbd fe5e 13bd add6 04bd
00000100: 3f7b 20bd 2b32 fb3e 1bc0 3340 5df5 88bd
00000110: 4ae3 dfbd 747e febc 2312 e3bd b538 0cbf
00000120: 21b9 e4bd 0fc2 133f fd80 5bbf c361 2d40
00000130: 0242 7f3f 3861 b8bd 36a2 563e 5911 9140
00000140: e88e 6b40 a444 7ebd ac12 fbbe 5ae5 14c0
00000150: b810 6140 d513 89bd 6ddf 8a3f 8563 89bd
00000160: 7e22 9bbd 4fd4 20bf 78ed 2e3e 8ba8 4940
00000170: e9c6 45bd 7575 8cbf bb45 e0bc d174 203f
00000180: cf9e 2bbe 6cbf 963f f03a 26bf d532 b040
00000190: 6fda 7440 08d0 abbd 2aea d5bc 43b6 da3f
000001a0: de31 9abd b6c1 9440 e0fc 99bd b71f 2cbf
000001b0: c5fd 773f fa31 5cbd 8855 b5bd ebf9 e2bd
000001c0: 8734 2ebd 1733 79bf 04c3 77bd 721b 5d40
000001d0: 1def 08be d9bf c8bd 3621 8740 43ed e8bf
000001e0: 7ff5 aebd e748 a8bd 76c8 13be c4a1 d53f
000001f0: e633 1fbe 0fd6 a7bd 192c 8540 74a9 83c0
00000200: 105f 3840 0766 acbd c9c8 40bd 7de8 363f
00000210: 2437 6140 8dc7 86bd 3511 8bbd 1442 a23f
00000220: 3a0c dbbc d4bf 9040 4720 a8bd 3289 6640
00000230: e498 8a3b 8d07 01be 1909 89bf 3c92 ffbd
00000240: b8d5 2640 4e2f 96bd 6adc d0bd 44a9 5abd
00000250: e7df 2dbf cc25 8340 c846 f93f da26 d5bd
00000260: 5577 87bd a6f9 96bd 14cd 5940 132a e5bc
00000270: 24b9 75bd 4232 5abd 5264 54bd be4d 99bd
00000280: 068c 95bc ae3d 11bd 47ef 2bbd 9e9b 98bd
00000290: 345f febc 7beb 6dc0 dd91 8abd d4bf 7dbd
000002a0: fe97 96bd 80e6 3dbd 5ace d0bd f21c d6bc
000002b0: 60a3 64bc 8119 c2bd cca5 7cbd ca52 7840
000002c0: 9080 b7bf 9551 86bd 3e6d 3cc0 7a4b 5ebd
000002d0: f8cf 6740 d26f e93b 7c42 3d40 0c25 7ebf
000002e0: 3084 5cc0 4d8f 86bb bbc9 e3bd c4a3 77bd
000002f0: eb27 ecbd 43e6 eebd eb0c e4bd f99b 42bd
00000300: 96a7 19be 0373 e3bd b175 2e40 1243 6a40
00000310: 50b9 b1bd 6e6c 1dbe dbaf 6cbd 9050 d5bf
00000320: 85d2 83bd 3556 8cbd d79a adbf 6db0 81bd
00000330: 124b d3bf bd62 09be 8c2d 76bd d048 31bd
00000340: 3f49 753f fb2f 6dbd 579e 2140 9fa6 2bbd
00000350: b4b3 72bd 80b1 b1bc 981e b4bd 603a 6bbe
00000360: 7a25 dcbd fc65 fdbd a503 8dbd 4f77 00bf
00000370: 626d 1240 0a1a 1640 4e30 9abd 0fd0 28bd
00000380: 6afc 2040 2975 43bd b67d 14be 0d89 243f
00000390: 4dc2 8abc eb43 953f d178 c2bf 9e8f ea3f
000003a0: c3d8 eabd f31f e2bd 2243 5fbd 2aa8 0140
000003b0: 8dcc 81bd 4df8 01bd 7035 3bbd 2aa5 d4bc
000003c0: 5290 55bd a58b 07bd ee50 13be 69bd 9dbf
000003d0: 97c0 3b40 7ac5 52bd ad36 0ebe 2646 a6be
000003e0: e018 33bd a523 6840 bef4 92bf 5374 62bd
000003f0: 0249 8d40 9ce9 8640 603f b7bd fb02 e8bd

5.weight f4 [1, 300]
-0.029622234 -0.005886663 0.015876645 1.972727 0.021854624 0.22380821 -0.029745542 0.9748573
-0.011485361 -0.46961692 -0.025757615 -0.028037867 -0.19743262 0.016398184 -0.0070917024 -0.02230911
-0.004994921 0.007200388 -0.014605666 0.0037647588 1.3855702 0.6177603 -0.006669254 -0.041863732
0.0054264027 1.0808007 -0.018238854 1.8305122 -0.023904653 -0.80059433 0.2771056 0.01052349
-0.018146466 0.021184813 0.012058124 -0.33035508 -0.007085928 0.5472103 0.02208969 -0.61636335
-0.009503132 0.7699437 0.011266871 -0.01979342 -0.018958952 0.010992691 0.032250244 1.8065256
-0.8723787 0.016131828 0.008665126 -0.01748746 0.12788935 -7.675935 2.8568404 -0.022231996
0.017528437 -0.009880691 -0.03501292 0.018480623 -0.015950033 0.029156199 -0.004130746 0.010185232
0.01944324 -1.8960941 -0.46048442 -0.01201249 -0.022237211 0.009772285 0.02134314 -0.8742308
-0.16972086 -0.48314622 0.21597506 -0.7409673 -2.8435125 0.017347762 0.6043815 0.26875544
2.1451805 0.052140333 -1.555933 0.38546756 -1.4777716 -0.005184352 0.43030998 -0.011362985
-0.023536967 -1.2698781 -2.8299947 -1.2794241 -0.00036240998 -2.6679301 0.052831 -0.32938883
-0.028837314 -1.7396009 0.18972938 -1.7086402 -0.2426831 -0.003367363 -0.018057432 -2.8648527
0.008299117 1.0499434 -3.7066748 -5.1947165 1.5830684 -0.022335187 -0.017357076 0.015696248
-0.020879341 -0.67972785 -0.0075863283 1.4908518 0.020759387 0.024884032 0.18188602 0.20850267
0.03301393 -0.01687912 0.027146773 -3.1915834 0.030057719 -0.026436362 2.8734286 0.5861951
0.5563916 -0.0028576963 0.0037010561 -0.2539697 -0.27519467 -0.0035798445 -0.031329166 -2.5808032
-0.007788146 -0.6825786 0.0016698979 0.4118201 0.011612951 -0.11778172 -2.2310627 -0.02411029
0.5712558 0.015253868 0.0026201156 -0.8695065 -2.8373845 1.302148 -2.020861 0.010408192
0.025999757 -0.029884495 0.39506245 0.0048514963 -0.024641888 0.030133717 0.024864288 0.004428862
-0.0074396445 -0.0041644596 0.023394287 0.0016556951 0.022097513 -3.9142554 0.01794977 -0.00714693
-0.005619839 -0.018770825 0.024925383 0.021329729 -1.9980808 -0.012315355 0.0075275614 -1.1211034
0.777457 0.0044398517 -0.22289562 -0.030451484 -1.9037355 -0.014976892 0.44354877 -3.667149
0.29056856 -0.02979397 0.010079808 0.028861528 0.028677126 0.022583291 0.0021584583 -0.0072155683
0.010893226 0.013320068 0.47224456 1.6452737 -0.02898409 -0.0018863608 0.013266051 0.17050716
-0.013122069 -0.015667005 0.8229355 0.019047242 2.248599 -0.01766814 0.011924946 0.008515929
-2.3190162 0.010029889 -1.4932513 0.0052201147 0.010492196 0.0034380504 -0.018296968 0.16810673
0.0063773775 0.011384033 -0.00831737 -1.680687 0.4662715 -2.0559905 0.00030594852 0.014217118
-1.4944962 0.011805363 -0.028263992 -0.38779488 0.031619176 0.17544574 -1.7424003 -0.18198101
-0.023433775 0.00072989566 -0.023819344 0.38019717 0.003497469 -0.025115373 0.0026270072 -0.019798635
0.02653769 -0.0242254 -0.007702371 -0.17985567 1.2432982 -0.0066350745 -0.030245848 -0.5130196
-0.010350449 1.6811305 2.7431273 0.011890113 0.52500784 1.5885291 -0.0010698462 0.008244914
00000000: 54aa f2bc e9e4 c0bb bd0f 823c 5182 fc3f
00000010: 7808 b33c fb2d 653e ecac f3bc 3f90 793f
00000020: 182d 3cbc a171 f0be a201 d3bc abaf e5bc
00000030: c72b 4abe 7c55 863c 8361 e8bb 98c1 b6bc
00000040: 6fac a3bb 3bf1 eb3b 9a4c 6fbc 2cba 763b
00000050: 5d5a b13f 8a25 1e3f c289 dabb 4e79 2bbd
00000060: f7cf b13b ad57 8a3f a669 95bc 394e ea3f
00000070: b1d3 c3bc c0f3 4cbf c9e0 8d3e b76a 2c3c
00000080: e6a7 94bc c68b ad3c 708f 453c 4d24 a9be
00000090: 1331 e8bb f915 0c3f 70f5 b43c fdc9 1dbf
000000a0: 06b3 1bbc 081b 453f af98 383c cf25 a2bc
000000b0: ce4f 9bbc b01a 343c d518 043d 3b3c e73f
000000c0: 3654 5fbf e526 843c 2cf8 0d3c dd41 8fbc
000000d0: 6df5 023e 42a1 f5c0 79d6 3640 e01f b6bc
000000e0: cc97 8f3c 9fe2 21bc b569 0fbd ad64 973c
000000f0: a5a9 82bc fbd8 ee3c 355b 87bb f6df 263c
00000100: 6e47 9f3c 36b3 f2bf 9dc4 ebbe 09d0 44bc
00000110: d02a b6bc ef1b 203c cfd7 ae3c 97cd 5fbf
00000120: 4ecb 2dbe f15e f7be 9128 5d3e 08b0 3dbf
00000130: 1cfc 35c0 e51c 8e3c bfb8 1a3f 509a 893e
00000140: a34a 0940 1a91 553d d028 c7bf 015c c53e
00000150: 9f27 bdbf 7fe1 a9bb 9751 dc3e d02b 3abc
00000160: 99d0 c0bc 5e8b a2bf a21e 35c0 2bc4 a3bf
00000170: d801 beb9 5ebf 2ac0 5265 583d a7a5 a8be
00000180: 3b3c ecbc 3eab debf 6b48 423e b9b4 dabf
00000190: eb81 78be faae 5cbb 2eed 93bc bf59 37c0
000001a0: 05f9 073c 8c64 863f 293a 6dc0 1e3b a6c0
000001b0: fca1 ca3f 48f8 b6bc 6d30 8ebc 6b95 803c
000001c0: 270b abbc a502 2ebf bc96 f8bb 3bd4 be3f
000001d0: 970f aa3c 99d9 cb3c 5440 3a3e b981 553e
000001e0: 9d39 073d 1546 8abc e962 de3c e742 4cc0
000001f0: 9b3b f63c 1291 d8bc 41e6 3740 e210 163f
00000200: ae6f 0e3f 3048 3bbb 6b8d 723b 5108 82be
00000210: 51e6 8cbe d39b 6abb 0353 00bd e12b 25c0
00000220: b433 ffbb 79bd 2ebf 7ae0 da3a 16da d23e
00000230: 3f44 3e3c 8b37 f1bd bbc9 0ec0 f182 c5bc
00000240: d23d 123f 5ceb 793c 3fb6 2b3b fa97 5ebf
00000250: b597 35c0 c9ac a63f c955 01c0 1f87 2a3c
00000260: 71fd d43c 54d0 f4bc a045 ca3e 4df9 9e3b
00000270: c9dd c9bc fcda f63c 31b0 cb3c fd1f 913b
00000280: 43c8 f3bb 0576 88bb 60a5 bf3c e903 d93a
00000290: d805 b53c 2983 7ac0 650b 933c cb30 eabb
000002a0: a026 b8bb 46c5 99bc 5130 cc3c afbb ae3c
000002b0: 1dc1 ffbf 58c6 49bc c3a9 f63b 5180 8fbf
000002c0: 6c07 473f 2d7c 913b c03e 64be 6475 f9bc
000002d0: 9bad f3bf a361 75bc d318 e33e 92b2 6ac0
000002e0: 67c5 943e 7c12 f4bc c725 253c 036f ec3c
000002f0: 4bec ea3c 9800 b93c ec74 0d3b 9370 ecbb
00000300: 8079 323c 6a3c 5a3c 0aca f13e 5498 d23f
00000310: 0b70 edbc c43f f7ba da59 593c 6e99 2e3e
00000320: f2fd 56bc 1758 80bc e7ab 523f f608 9c3c
00000330: 0ce9 0f40 c6bc 90bc d960 433c 6586 0b3c
00000340: c36a 14c0 6754 243c dc22 bfbf 7f0d ab3b
00000350: 76e7 2b3c ea50 613b 86e3 95bc 2c24 2c3e
00000360: 52f9 d03b 1884 3a3c 9445 08bc c020 d7bf
00000370: 23bb ee3e 5995 03c0 b767 a039 eaee 683c
00000380: a74b bfbf 486b 413c e389 e7bc 0d8d c6be
00000390: 1c83 013d 0ca8 333e f906 dfbf 3b59 3abe
000003a0: 30f8 bfbc 7856 3f3a c920 c3bc 34a9 c23e
000003b0: cb35 653b c1be cdbc de29 2c3b bf30 a2bc
000003c0: 9265 d93c 5974 c6bc 2c64 fcbb 162c 38be
000003d0: 6524 9f3f 0a6b d9bb 24c6 f7bc 4155 03bf
000003e0: ee94 29bc 492f d73f 668f 2f40 c0ce 423c
000003f0: ea66 063f ec54 cb3f 153a 8cba ad15 073c
