results/c_3_0/c_2_0/best/target_policy.pt (torch, 500709 bytes, 5 tensors)

0.weight f4 [400, 9]
000000 dc 70 83 3c b7 28 37 3e d5 71 8a be c0 8b 49 be
       0.016045026 0.17886625 -0.27039972 -0.19682217
000010 13 ac f9 bd 77 87 3b 3d fa 63 5c bd b9 5d 5c 3e
       -0.12191024 0.045783486 -0.053806283 0.21520127
000020 c4 4e 01 bd 6a 28 0a 3f d0 9c 11 3e df a8 f1 be
       -0.031569257 0.53967917 0.14219975 -0.4719915
000030 44 8e 7a bf 55 ab cd bf c2 4c ac bf e3 5f c8 3d
       -0.9787333 -1.6067911 -1.3460925 0.09783914
000040 f4 2e 1f be 94 e4 0a 3e b5 31 99 bf c2 1a 71 bf
       -0.15545255 0.13563758 -1.1968294 -0.94181454
000050 29 da 6c 3f f8 fa 81 bf 54 da a7 bf e6 22 b3 3e
       0.92520386 -1.0154715 -1.3113503 0.34987563
000060 a4 35 d3 be 3c ba be 3d c8 2a 0e 3f 20 63 6e bf
       -0.41251862 0.09312865 0.5553403 -0.9312
000070 7f 91 91 bf 4e e2 a8 bf 21 6b 1b bf 09 3c 8b 3e
       -1.1372527 -1.3194063 -0.6071034 0.2719424
000080 1f 4d 9b bf 25 f3 3b 3e 33 8c 27 be db 47 4f 3d
       -1.213291 0.18354471 -0.16362076 0.050605636
000090 b8 5c e0 bf 32 a6 04 40 b6 01 1b be 81 e2 27 bf
       -1.7528296 2.0726438 -0.15137371 -0.6557999
0000a0 8f d5 62 3f 0e 1b 95 3d a0 ce f4 bd d8 52 19 bf
       0.88607115 0.07280551 -0.11953473 -0.59892035
0000b0 f2 03 79 3e c7 5c ce bf 60 21 12 bf 92 3f 4e 3f
       0.24317911 -1.6122063 -0.57082176 0.8056575
0000c0 33 27 92 bf a8 ad 04 c0 71 ec 08 3e b9 58 83 3e
       -1.1418213 -2.0730991 0.13371445 0.25653628
0000d0 03 5f ac be 84 18 f0 be 62 18 a8 3e 7d e2 7f bf
       -0.33666238 -0.46893704 0.32831103 -0.9995497
0000e0 0c 75 34 bf 47 15 8f bf ad 94 32 c0 51 de 51 bd
       -0.704911 -1.1178368 -2.7903244 -0.051237408
0000f0 55 84 89 be 50 84 0b bf 0f 29 29 be dd 85 63 bf
       -0.26858774 -0.5449877 -0.16519569 -0.88876134
000100 c2 d2 06 c0 4d 93 3b 3e b6 05 8d bf 14 1b 7d bf
       -2.1066136 0.1831791 -1.1017368 -0.9886944
000110 bf 44 b1 bd dc 78 71 be 62 7a 7c 3e 6e ba bd bd
       -0.086556904 -0.2358126 0.2465606 -0.09264074
000120 d6 a8 76 3e 9b 2b 86 3f f6 74 65 3f 27 51 e1 3e
       0.24087843 1.0482057 0.89631593 0.44007227
000130 a9 4e c3 3e 70 ad ff be 6f f7 a3 bf 4a d9 84 bd
       0.3814595 -0.4993701 -1.2809886 -0.06486757
000140 30 9e 4e bf db 28 94 3f c9 99 81 3f a6 3b 8c bf
       -0.80710125 1.1574968 1.0125057 -1.0955703
000150 9a 2a 42 bf 7f 81 c1 bf ff 09 98 3e 45 8a f4 ba
       -0.75846255 -1.5117644 0.29695126 -0.001865693
000160 4e b4 3a 3e d0 07 34 bf 88 60 48 3e 25 16 0c bd
       0.18232843 -0.7032442 0.19568074 -0.034200806
000170 71 2a 5a 3e 82 40 61 be 3e 45 a9 bf 0e 9a 98 bd
       0.21305253 -0.21997264 -1.3224256 -0.074512586
000180 12 ab 5c bd d6 1d 18 be 7f d7 33 bf 0d 39 8b be
       -0.053874083 -0.14855132 -0.70250696 -0.27191964
000190 73 82 75 3e 2e bb 2c 3e f1 23 40 be 9d 9d 07 3e
       0.23975544 0.16868278 -0.1876371 0.13243718
0001a0 57 06 37 be 7e a0 9f bd a6 85 80 be 17 a5 83 be
       -0.17873512 -0.07794283 -0.25101966 -0.2571189
0001b0 55 18 1b be dc 8c 8f bf 0c d0 f6 be 17 6f 31 3f
       -0.15146 -1.1214862 -0.48205602 0.69310135
0001c0 2c f9 78 bf 31 6f da 3e 83 ed 72 3c 08 f6 c6 be
       -0.97255206 0.42662957 0.014827135 -0.38859582
0001d0 7a 6d 50 bf 45 8a 3e be db ad b7 be 8a f8 82 3e
       -0.8141705 -0.18607433 -0.3587483 0.25580245
0001e0 0a c2 01 40 26 7b 55 3f 63 89 57 bf 2e e7 95 3e
       2.0274682 0.83391035 -0.8419401 0.2927794
0001f0 93 03 6d bf c7 8a 26 bf c2 04 09 40 89 f7 45 3f
       -0.9258358 -0.6505551 2.1409154 0.77330834
000200 7c 42 5a bf b9 2a be 3e 2a e9 65 bf 51 c7 99 3e
       -0.852577 0.3714197 -0.89808905 0.3003488
000210 93 f7 62 bf 17 d2 64 3d b2 5d 34 3e 20 35 80 bf
       -0.8865902 0.05586442 0.17613867 -1.0016212
000220 c3 34 4b bf 99 a6 a6 bb 43 5f 02 3e 59 71 12 be
       -0.79377383 -0.005085778 0.12731652 -0.14301051
000230 29 6e 18 40 8e 0d 8e 3e 88 36 7e 3e c7 4a 8f 3b
       2.3817236 0.27744716 0.2482549 0.004372928
000240 44 50 99 be 80 d1 21 be 68 6a 68 3e ab 9c 0d bb
       -0.2994405 -0.15802574 0.22696841 -0.0021608274
000250 93 a8 29 be ac c8 82 be 00 b8 9f be 48 0b 90 be
       -0.16568212 -0.25543725 -0.31195068 -0.28133607
000260 4b 78 8a bd b2 9d 8b 3e cf 3e 74 3f d8 c5 cb bf
       -0.06761225 0.2726875 0.9540834 -1.5919752
000270 c4 e3 11 3f 72 9f 91 3e d2 e9 8c 3e b4 a8 14 3d
       0.5698817 0.2844196 0.2752214 0.0362937
000280 5a 36 2b be 6b a6 74 3e eb 3e 95 bf 05 ce 1d c0
       -0.16719952 0.23891608 -1.1659826 -2.4656994
000290 dd a5 17 3e 62 ee e6 3d 9c c6 0b c0 1a a3 17 3f
       0.14809366 0.11275937 -2.1839972 0.5923325
0002a0 92 02 8a 3d 46 9f e3 be ef a9 d9 bb 73 52 da bf
       0.067387715 -0.44457453 -0.006642572 -1.7056412
0002b0 95 9b 61 3f 6a a0 11 3e 48 0d 1b c0 b9 95 a1 bf
       0.88128024 0.1422135 -2.4226856 -1.2623817
0002c0 df 0d fc 3c 4d 49 95 3c d2 b1 22 bd 60 5d 4b bf
       0.030768333 0.01822343 -0.039720364 -0.79439354
0002d0 49 3a 8f be bf 4b a3 be ba 18 bc 3f b1 67 49 3f
       -0.27974156 -0.31893727 1.4695046 0.78673846
0002e0 00 f1 0c 40 6a b4 94 3f 48 c2 0c bf 86 4d bc bd
       2.2022095 1.1617558 -0.5498395 -0.09194474
0002f0 43 98 6f be 49 3a 20 3f d5 61 83 3e c9 67 db be
       -0.23397927 0.62588936 0.25660577 -0.4285262
000300 32 7f 68 bf 7c 78 38 be f9 cc 11 be e6 92 a4 be
       -0.90819085 -0.18014711 -0.14238347 -0.32143325
000310 6c b9 f3 be 57 28 29 be 19 4f 4f c0 e9 2e e5 3d
       -0.47602403 -0.16519295 -3.2392027 0.11190588
000320 61 87 70 bd 14 0d 9c 3e d9 bd 39 bf 14 ac d7 be
       -0.058722857 0.30478728 -0.7255531 -0.42123473
000330 59 ac 45 bf 22 04 b0 3e 87 c6 79 3c 96 f4 8f 3e
       -0.77216107 0.34378153 0.0152450865 0.28116292
000340 80 db f6 3d 07 e3 2c 3d 00 9e 22 bb 5b f3 86 bd
       0.12053585 0.042208698 -0.0024813414 -0.06589385
000350 ab 4d 2b 3d 20 e2 9b bd ab 7e 19 bb 00 35 2e 3d
       0.041822117 -0.07611489 -0.0023421447 0.042531013
000360 d8 01 9c bf ad bc 9a bf 36 4c c2 3f 6e f0 13 c0
       -1.2188063 -1.2088829 1.5179508 -2.3115497
000370 ac 25 80 bc 4d d4 6a 3f 53 0c 16 3e 0a be bc bc
       -0.015642963 0.91730195 0.14653139 -0.023039836
000380 5c 4b a9 bd 0b bc a6 3f 8c f7 63 bf 4d 4d 89 bf
       -0.08266327 1.3026136 -0.890496 -1.0726715
000390 36 3d f4 bf 65 9b 15 bf 68 a0 12 bf f3 53 12 3f
       -1.908118 -0.5844024 -0.5727601 0.57159346
0003a0 c4 ca 88 3d c6 f4 0a 3e 84 c5 01 3f 46 e2 90 bf
       0.066792995 0.13569936 0.5069201 -1.1319053
0003b0 5d 31 18 3f dd 5d 9b be a3 4a fd 3c c1 ad 54 3f
       0.5945032 -0.3034505 0.030919379 0.8307763
0003c0 71 52 cb bd 32 23 d6 bd f0 f9 c6 be 65 53 07 bc
       -0.09927834 -0.10455932 -0.38862562 -0.008259629
0003d0 f0 48 3e 3e bd 1b 99 be d7 51 80 3e 14 e7 84 be
       0.18582511 -0.29903975 0.2506244 -0.2595755
0003e0 d5 c7 84 bc 2b 21 68 bd 63 c5 33 be a9 93 d9 3c
       -0.016208569 -0.056672256 -0.17555766 0.026559668
0003f0 a2 20 8d 3e 8b 8e c7 bd c9 a5 4a be 0c 7a fc bd
       0.2756396 -0.09743985 -0.19789805 -0.12327966

0.bias f4 [400]
000000 88 3e bd be 9f a7 bf be 2d 6d 7b be a5 cf 04 3f
       -0.3696177 -0.37432572 -0.24553366 0.5187934
000010 ea 5a b7 bd a5 55 fe bd 30 aa bc bd c4 13 95 3d
       -0.08952887 -0.12418679 -0.09212148 0.072791606
000020 02 50 cb be 86 59 f2 bd 15 c4 0e bf 76 2d 98 be
       -0.3970948 -0.118334815 -0.5576795 -0.29722184
000030 b7 a9 ae be d9 b2 0a be e2 27 ff bd 00 73 a0 be
       -0.34113857 -0.13544787 -0.12458779 -0.31337738
000040 3e f1 62 be 17 79 51 bd e0 30 98 3e 56 86 e6 bd
       -0.22162339 -0.05114087 0.2972479 -0.11256091
000050 14 6e 91 be 37 a1 95 be ba 83 63 bd 23 39 8d be
       -0.28404295 -0.2922456 -0.055545546 -0.27582654
000060 dc 38 d5 3c 82 4c 94 be 3b 92 e6 be a0 c5 2a be
       0.02602809 -0.2896462 -0.4503344 -0.1667695
000070 44 7f a6 be 95 3d 01 bf 2c 06 21 3e 68 e1 b2 be
       -0.3251897 -0.5048459 0.1572501 -0.34937596
000080 d6 55 87 be fd ac 86 be 5c a9 29 be 88 2d 3a be
       -0.26432675 -0.26303855 -0.16568512 -0.18181431
000090 55 12 2a bf 33 66 b7 be 8a 8b 45 be 38 9e c6 be
       -0.6643422 -0.3582016 -0.19291511 -0.38792586
0000a0 07 5f 91 bd 1b fb 17 be c8 4a 3c bf a6 5b f4 bc
       -0.07098203 -0.14841883 -0.7355161 -0.029828858
0000b0 3f 41 f2 3d 35 d3 0c bf bf 85 cb 3d 38 14 b0 be
       0.11828851 -0.55009776 0.099376194 -0.34390426
0000c0 3b c3 64 3d 39 8b ca be ac b6 d1 be a5 a7 ca 3d
       0.05585025 -0.39559343 -0.4095968 0.09895257
0000d0 22 59 1e 3e 7e 06 e9 bd aa 91 94 be 91 04 78 3d
       0.15463689 -0.113781914 -0.29017383 0.06055123
0000e0 ba cf 20 3e 45 54 16 be 02 05 bc 3d 44 53 91 b9
       0.15704241 -0.14680584 0.09180643 -0.00027718593
0000f0 0c d1 27 be fa 4e 20 be 86 e3 15 bf 82 aa 05 be
       -0.16388339 -0.15655127 -0.585503 -0.13053325
000100 c7 b3 86 be 21 47 b1 3d 03 08 e0 be 71 c5 2e 3e
       -0.26309034 0.08656145 -0.43756112 0.17067505
000110 09 f1 ca bd c0 12 c5 be 15 30 41 be f8 bb 60 3c
       -0.09909255 -0.38490868 -0.18865998 0.01371669
000120 51 4c af be ec cb 29 3e 88 ad b7 be 0e 9f 9c be
       -0.34237912 0.16581696 -0.3587458 -0.305901
000130 46 0a 4c bd 6b ed c3 3b 8c be cb 3e 82 d6 9b be
       -0.049814485 0.00597923 0.39793813 -0.30437094
000140 fd 5d 0f bf a5 59 02 be 82 7d 36 3e 54 80 05 be
       -0.5600279 -0.12729509 0.17821315 -0.13037235
000150 16 51 d1 bc 72 9b 29 be 24 e1 d5 be 67 46 83 3e
       -0.02555136 -0.16563204 -0.4177333 0.2563965
000160 7a d8 8e be 5b 75 19 be 5c 5d 18 be 44 91 90 be
       -0.27899534 -0.14986174 -0.14879364 -0.2823583
000170 76 a8 3a be 50 b5 ba be 5c 42 f8 be 93 14 aa bb
       -0.18228325 -0.36466455 -0.48488128 -0.005190441
000180 41 3f aa bd 65 72 37 be b5 37 32 bf 4e d6 32 bf
       -0.08312846 -0.17914732 -0.6961625 -0.69858253
000190 47 83 24 bf e8 76 d4 be 7f 1d da be 97 65 2c bf
       -0.64262813 -0.41496968 -0.4260063 -0.67342514
0001a0 80 84 09 be c6 b3 ba 3e 86 16 9a be 8b e6 a2 3e
       -0.13429451 0.3646528 -0.3009531 0.31816515
0001b0 80 06 1b be d3 03 45 3e 2c 39 82 be 3c 48 83 be
       -0.15139198 0.1923974 -0.25434244 -0.25641048
0001c0 3c 18 17 be 66 52 a5 be 9d 79 ad 3e e0 30 30 bd
       -0.14755338 -0.32289428 0.33881846 -0.04301536
0001d0 93 e5 f8 bd 8e b5 91 3e 48 cb 19 bf f7 b2 ba be
       -0.12153163 0.28458828 -0.6007581 -0.36464664
0001e0 42 06 59 3e 1d da 65 3e 57 4a 95 be dd 0f b0 bd
       0.21193793 0.22446485 -0.2915828 -0.08596776
0001f0 82 d7 92 be 9a 85 a4 be b0 ae c5 be 35 ab 9b be
       -0.28680044 -0.3213318 -0.38609838 -0.30404058
000200 56 a7 93 be 9c f4 6b bd 1a 34 9c 3e c2 39 99 bc
       -0.28838605 -0.057606325 0.305085 -0.018704299
000210 3f 68 cf be 98 d0 3d be af c4 39 be 77 48 9b bc
       -0.4050922 -0.18536603 -0.18141435 -0.018955452
000220 d1 e2 c1 be 5a 76 c3 bd cd 5a 23 3e 01 fd 96 bb
       -0.3786836 -0.09544058 0.15952606 -0.004607797
000230 72 42 31 3e 93 bd 5f 3e b9 72 33 be 12 25 12 3e
       0.17310503 0.2184966 -0.17524232 0.14271954
000240 d2 e7 da bd 2e 4e 92 be 5d 2f 47 3e 06 8a 5a be
       -0.106887475 -0.2857527 0.19451661 -0.21341714
000250 89 4c 1b be fc 68 ad be 57 a3 0d be 22 ce 1c bf
       -0.15165915 -0.3386916 -0.1383184 -0.61252034
000260 0d d3 bb be ad 25 84 bb af 1f 2f bf 61 48 3f be
       -0.36684456 -0.0040328116 -0.6840772 -0.18679954
000270 d1 7b 9e be 30 64 c0 be 13 9c bf bd de 54 a9 be
       -0.3095384 -0.37576437 -0.09355941 -0.3307256
000280 04 16 ff bd e5 a4 3e bc ad 76 9a bd 58 89 56 3e
       -0.12455371 -0.011635994 -0.07542167 0.2095083
000290 94 56 d9 be 80 5a f2 be f2 69 06 be 09 85 c4 be
       -0.42448866 -0.4733467 -0.13126352 -0.38382748
0002a0 15 7e b7 3d 5a e7 87 be 8e 8c f6 bd d1 40 7e bd
       0.08959595 -0.26543695 -0.120385274 -0.062073532
0002b0 9b c8 91 be 92 75 48 3e db 24 b7 3e 4c a8 16 be
       -0.28473362 0.195761 0.35770306 -0.14712638
0002c0 38 10 b9 be 96 3f e3 bd 59 08 88 be ee 90 19 be
       -0.36145186 -0.110961124 -0.2656887 -0.14996693
0002d0 9e d3 67 be d3 d1 9b bc ed b9 f3 bd 51 42 ae 3d
       -0.2263932 -0.01902095 -0.11900697 0.085087426
0002e0 15 2c 10 bf a6 1d 91 be fa 75 ec be ab 4b c8 be
       -0.56317264 -0.28342932 -0.4618376 -0.3912023
0002f0 21 a2 0a bc a3 18 3f 3d da 06 d7 3d 16 ba 98 be
       -0.008461506 0.046654355 0.10499354 -0.29829472
000300 d7 db 58 3d ee 3c 94 be 83 ac 07 3e d2 32 a3 3e
       0.05294403 -0.28952736 0.13249402 0.3187471
000310 d7 39 a0 bc 95 ca 96 bc d3 0c 9f be 5f cf 9a be
       -0.01955883 -0.018407146 -0.31064472 -0.30236337
000320 cd d9 04 bf f4 31 9e 3c 03 22 64 be 1e 4b 9b be
       -0.5189484 0.019310929 -0.222786 -0.30330747
000330 f2 60 d8 be e3 5b c0 bd b3 46 e7 be cc 34 36 be
       -0.42261463 -0.09392526 -0.45171127 -0.17793578
000340 df 39 0a bf 9b e5 65 3e 50 87 1d be 8f 6e 69 be
       -0.53994554 0.22450869 -0.15383649 -0.22796081
000350 be 64 9a be dc c4 f0 be 32 00 76 be 72 b9 96 bd
       -0.30154985 -0.47025192 -0.24023512 -0.0735959
000360 49 00 96 be 02 68 d0 be 4b 8a 4c be f6 f3 12 bf
       -0.29297093 -0.40704352 -0.1997463 -0.57403505
000370 54 e6 4d 3d a2 79 88 3c 85 b0 b1 be ce ee a9 be
       0.050268486 0.016659562 -0.34704986 -0.33190006
000380 13 12 de bd dc f3 dc be 1b 33 ed be 38 d6 e4 bd
       -0.10843291 -0.431548 -0.46328053 -0.111736715
000390 cf 9d 6f be e0 7d 96 be 05 2b 27 be fb 06 84 3d
       -0.23400043 -0.2939291 -0.16325004 0.06446644
0003a0 db 10 ae ba 39 14 68 3d 7c d0 fe be 65 31 d1 be
       -0.001328017 0.05665991 -0.49768436 -0.40857998
0003b0 0e 87 3e bd 33 fe b1 bd 6f 33 ee bd a2 5b cf be
       -0.046515517 -0.08691063 -0.11630904 -0.40499598
0003c0 da e1 97 be c7 1b 18 be 95 c1 a6 3d 2f d8 f1 bd
       -0.296645 -0.14854346 0.081423916 -0.11808812
0003d0 27 5c aa be 3b 76 63 bd 9f b7 01 bf b3 52 b8 3d
       -0.33273432 -0.055532675 -0.5067081 0.090001486
0003e0 65 d5 41 3e 85 7e fa 3d 6f 30 5c be ff 20 74 be
       0.1892906 0.12231163 -0.21502851 -0.23840712
0003f0 03 ee 14 3d d3 73 5c bd 38 60 9e 3d d3 0e fd be
       0.0363598 -0.053821396 0.07733196 -0.49425372

2.weight f4 [300, 400]
000000 b3 65 7f 3c 47 9e 52 bd f1 04 7a 3e 8e 2b 28 be
       0.015588212 -0.051420476 0.24415947 -0.16422865
000010 c7 7a c0 3f 21 62 8d be fd 82 8d bd ba 74 d3 bd
       1.5037469 -0.2761393 -0.0690975 -0.10324998
000020 43 5a 98 3f 6a f1 69 bf c6 d9 a0 3d 73 57 f8 bd
       1.1902546 -0.91383994 0.07854037 -0.121260546
000030 82 52 5e be 6b 08 77 bf e2 d7 a2 be 13 e7 41 3e
       -0.21711162 -0.9649722 -0.3180533 0.18935804
000040 03 bf 04 3d d9 24 e3 be 8a bf 03 bf e4 37 99 3e
       0.032408725 -0.4436405 -0.5146414 0.29925454
000050 cd 0e 21 3e 52 17 e5 be 91 ed 73 3e 9a fc df bb
       0.15728302 -0.44744354 0.23821093 -0.0068355324
000060 57 78 ae 3e 34 78 c9 be 96 5a aa be 31 6b ca 3c
       0.34076187 -0.3934952 -0.33272237 0.024709316
000070 e7 35 85 bb 02 e5 50 3e c7 70 1b bd d5 2b 1e bd
       -0.0040652636 0.2039986 -0.03794935 -0.03861602
000080 55 9d 89 be 49 bd c4 3c 96 da 88 3e a7 bf f8 bc
       -0.26877847 0.02401604 0.26729268 -0.030364824
000090 6a 79 06 3f bc a0 4b be c3 c1 1c bf 12 19 93 be
       0.52529013 -0.19885534 -0.61233157 -0.28730065
0000a0 bc 09 1f bf de 4f d3 3e 2b 71 fe be 73 28 01 be
       -0.6212423 0.4127187 -0.49695715 -0.12613086
0000b0 d6 14 a6 bf dc 64 05 be ee db 14 3f ad 08 05 3e
       -1.2975109 -0.13026756 0.58148086 0.12991591
0000c0 66 86 de be a9 b2 58 3f 44 35 e3 be 51 90 25 bf
       -0.43461913 0.84647614 -0.44376576 -0.64673334
0000d0 4e 64 9a 3e e3 6e 96 bf d9 6b 5a bc 1c d9 1e 3e
       0.3015465 -1.175259 -0.013331377 0.15512508
0000e0 50 19 da be 41 fa ed bd e8 75 4c bf 8e c9 dd be
       -0.42597437 -0.11619998 -0.7986741 -0.43317837
0000f0 eb 40 d9 bd 59 a1 f1 be 0c 53 0f 3f 37 37 4c 3f
       -0.10608085 -0.4719341 0.55986094 0.7977175
000100 fb f9 28 3f 85 df 64 3e 97 d2 af be d0 5b c8 3c
       0.6600644 0.22350891 -0.34340355 0.024457842
000110 2d 3a 1d bf 54 27 93 3f 2c 10 1d 3f 4c f1 a9 bf
       -0.61416894 1.1496377 0.613528 -1.3276763
000120 52 09 bb 3e dd c7 1c bf 6f 4f 3f be 24 e1 0f 3e
       0.36530548 -0.6124247 -0.18682645 0.14050728
000130 bd 40 ae 3f 46 f6 a9 bf 04 39 8a bd 57 8c 29 be
       1.3613507 -1.3278282 -0.06749156 -0.16557442
000140 b4 9d fe bc 8f 49 c3 3e 38 fa 22 bf a9 1d 42 bc
       -0.031081058 0.38142058 -0.63663054 -0.011847892
000150 f4 73 f2 bd fe 63 97 3e f0 15 51 3f b6 a0 44 be
       -0.118385226 0.29568475 0.816741 -0.19201931
000160 3c ff 0a bf 78 88 07 3e c4 35 29 bf 9a d8 36 bd
       -0.54295707 0.13235652 -0.66097665 -0.04464016
000170 09 df 86 bd 96 79 10 bd a8 84 cf 3d d8 c7 8a be
       -0.06585509 -0.035272203 0.10132724 -0.27105594
000180 c0 30 39 3c 29 be d8 3d a8 13 2d bf 3e 33 2c 3f
       0.011303127 0.10583145 -0.6760812 0.6726569
000190 55 d4 1d 3f 77 43 8c 3c 66 89 5b 3e 51 ec 81 3d
       0.6165212 0.017122013 0.21439132 0.06343902
0001a0 0e ee bd bd 78 97 8c bf 89 08 df bd 73 07 c3 3e
       -0.09273921 -1.0983725 -0.108903 0.3809162
0001b0 97 70 be be 21 7d 4d 3e f4 a8 d0 bd f1 78 cf be
       -0.37195274 0.20067264 -0.10188475 -0.40521958
0001c0 1b a2 a3 bd 58 bf 16 3d e6 1a b0 3e f7 14 49 3f
       -0.079899035 0.036803573 0.34395522 0.78547615
0001d0 e4 11 f6 3e 15 4a 06 bf f5 f9 42 3e 97 0e 26 bf
       0.48060524 -0.5245679 0.19040664 -0.6486601
0001e0 18 45 67 3e 96 f7 52 3f c0 b7 bd 3e 53 d8 df 3d
       0.22584951 0.82409036 0.37054253 0.109299324
0001f0 e7 5c a5 bb 7f fe 5a 3f 6c 15 06 3f ca 69 d4 bd
       -0.005046475 0.8554458 0.5237644 -0.1037174
000200 b9 85 17 3f a6 ed c3 bd 6b 9d 6e be 13 49 9b 3d
       0.5918842 -0.09566812 -0.23302238 0.07582297
000210 34 66 18 bf 17 fb bb 3d bf c2 ab be 79 66 17 3f
       -0.5953095 0.09178751 -0.33547017 0.59140736
000220 da c9 57 3c d4 66 ae be f4 19 f6 be 64 c0 8b bf
       0.013170684 -0.34062827 -0.48066676 -1.0918088
000230 ba f3 ad 3e d5 cc c1 3e d7 8d 46 be 82 f8 ce bf
       0.3397501 0.37851587 -0.19390045 -1.6169589
000240 e4 81 33 3c 5b ad 15 3f 5a 83 10 bf 70 f6 c8 3c
       0.010956261 0.58467644 -0.56450427 0.024531573
000250 d2 99 8d 3c 9a 7b 9a bd 1d cc 6c 3e ae 63 9f 3e
       0.017285261 -0.075431064 0.23124738 0.31130737
000260 47 12 bb bd 2b de 10 3e 3e ee 91 3e 7c e8 5c 3e
       -0.091343455 0.1414725 0.28502077 0.21573061
000270 1f 12 88 3e fa 74 40 bf ce 66 c1 be 79 72 cb be
       0.26576325 -0.7517849 -0.37773746 -0.39735773
000280 c2 75 55 bd bc 33 c7 be 9c 16 68 3e e5 2c 8b bf
       -0.052114256 -0.38906658 0.22664875 -1.0873076
000290 58 c3 85 3e 4f 6f 35 bf b7 56 11 3f 03 2c f3 3d
       0.26125598 -0.7087297 0.5677294 0.11873629
0002a0 8e 08 1c 3f 53 65 4a bc 78 f4 3b bf e9 e2 f5 be
       0.60950553 -0.012353259 -0.73419905 -0.4802468
0002b0 cd 5c 14 3d 1f d0 b9 be f6 38 d2 bf e1 dc 8d 3f
       0.036221314 -0.36291596 -1.6423633 1.1083032
0002c0 a8 3d c6 bf 77 c3 61 3d 7c 62 4a bc b3 94 f9 3b
       -1.5487566 0.05511805 -0.012352582 0.0076166033
0002d0 cb 32 86 bd 03 5a 56 be 9b 3f 5a 3e 1e ab a8 bf
       -0.06552657 -0.20932774 0.21313326 -1.3177221
0002e0 98 f3 68 bf 19 9a 5b bd 45 a0 54 bf f4 8f e5 3e
       -0.90996695 -0.053613756 -0.8305705 0.4483639
0002f0 63 eb 0c 3f 8e 66 0c 3e e3 71 17 bf 7c e7 0f 3d
       0.5504667 0.13710997 -0.5915815 0.03513287
000300 5d de 9e bd 96 24 f0 bf 51 b2 5c bf e9 60 50 bf
       -0.07757256 -1.8761165 -0.8620959 -0.81397873
000310 64 2d 7f bf 55 25 e4 3e 54 e8 b4 bb 67 24 bc bd
       -0.99678636 0.44559732 -0.0055208597 -0.09186631
000320 85 40 93 3f 44 b1 58 bf 9d b9 da bc 67 8a 9c 3a
       1.1504065 -0.84645486 -0.026699835 0.0011943103
000330 a5 dd c4 be 1e de 11 3e 5b 7c 7f bd e3 18 65 bf
       -0.3845035 0.14244887 -0.062374454 -0.894911
000340 9d 3c 2f bf 31 f4 80 bf 32 2a 05 bf 7d cb a0 3d
       -0.68451864 -1.0074521 -0.5201751 0.07851312
000350 b4 99 4e 3e d1 53 52 bf fe 6e 1c bf 2b 5a 52 3e
       0.2017582 -0.82159144 -0.6110686 0.20542209
000360 d6 f2 2c 3e bc 46 fd bb c8 56 5e 3f 4f c5 af bd
       0.1688951 -0.0077293795 0.8685117 -0.085825555
000370 e9 a5 c5 3e 2c 55 0b bf 1f a7 26 3f 1f a8 15 be
       0.38603142 -0.54426837 0.65098757 -0.14614914
000380 f9 4b 36 3e b4 50 c7 3e e3 af e9 bc 92 d8 06 be
       0.17802419 0.3892876 -0.028526252 -0.13168553
000390 d4 8f 54 3e 9a 91 1d 3f 07 3d 12 be be d1 c0 be
       0.20757991 0.61550295 -0.14281093 -0.3766002
0003a0 7b bd 4c 3f 8c 52 ab 3e 9a 5d 68 3f a3 a6 c3 3e
       0.79976624 0.33461416 0.90767825 0.3821307
0003b0 d0 c7 70 3d cd 5a f2 3e 22 03 12 3f 2a 9a 5a 3f
       0.058784306 0.473349 0.5703603 0.85391486
0003c0 9d e2 82 bc 58 79 38 bf bd 84 6e 3f 90 dc 85 be
       -0.015977198 -0.72060156 0.9317129 -0.26144838
0003d0 1b 4a e5 3e a7 45 e3 be 18 e4 42 3e f1 52 aa be
       0.447831 -0.44389078 0.19032323 -0.33266404
0003e0 e2 30 44 bf e3 24 e3 be a3 3d 83 3f 57 f5 a2 bf
       -0.7663709 -0.4436408 1.0253185 -1.2731122
0003f0 69 5e 3e be 8a 63 44 3f 96 ef 5c 3f 12 6d b8 3e
       -0.18590702 0.76714385 0.8630308 0.36020714

2.bias f4 [300]
000000 40 e8 dc be df 54 a9 bd 2f 94 26 bd f0 7b ce be
       -0.43145943 -0.08268141 -0.040668663 -0.40328932
000010 49 a1 ff be 3e 73 99 bd a2 ae 9a be 04 9e 79 bd
       -0.49927738 -0.07492684 -0.3021136 -0.06094171
000020 3f 7a 04 bf 6b 68 74 3b f6 91 9a bd 6f 96 bf bd
       -0.5174903 0.0037293683 -0.07547371 -0.09354865
000030 56 4e 92 bd 4a 96 98 3d 4b f8 e8 bd 46 66 94 bd
       -0.07143848 0.0745054 -0.11375483 -0.072460696
000040 37 6f 25 bd f6 65 19 bd 76 c8 93 bd 9c d9 fd bd
       -0.040389266 -0.037450753 -0.07215969 -0.12395021
000050 7d c6 88 bd bf 51 29 bc 43 f0 64 bd 4f 28 2c bd
       -0.06678484 -0.010334431 -0.055893194 -0.04203063
000060 d8 d3 34 bd 51 7f 43 bd 4b 97 42 be 9e 8e 16 bd
       -0.044147342 -0.04772884 -0.19003026 -0.036757104
000070 b6 98 9c bd 2d 37 f8 bd 71 b4 43 bd 9b 52 ee bc
       -0.07646315 -0.12119899 -0.047779504 -0.029092124
000080 d6 35 94 bc e5 c4 8b bd 1d 18 cb be eb 1f 65 bd
       -0.018092077 -0.06824664 -0.39666834 -0.055938642
000090 fe 0e 98 bd 79 22 94 be e5 79 3c be bd 15 81 bd
       -0.074247345 -0.2893255 -0.18405874 -0.063029744
0000a0 02 0f ce be 97 79 a9 bd 92 d6 08 3e 99 1d 49 bd
       -0.40245825 -0.082751445 0.13363102 -0.049100492
0000b0 22 a8 9d be 0d 44 85 bd d2 0f 00 bd 61 d2 44 bd
       -0.30792338 -0.0650712 -0.031265087 -0.048052195
0000c0 06 e7 8a bd ba 49 57 bd bb cf 62 bd cc 13 73 bc
       -0.067823455 -0.052560546 -0.05537389 -0.014836263
0000d0 e4 62 3a bf 0e be 12 bd d1 9d 40 bd 78 78 b1 bc
       -0.72807145 -0.03582578 -0.047025505 -0.02166389
0000e0 75 63 0f bd 50 1a bf bd 81 01 c6 bc 9d 32 04 bd
       -0.03500696 -0.093311906 -0.024170639 -0.03227483
0000f0 24 d2 96 bd 65 08 07 bd f1 21 b8 be c0 bd b0 bd
       -0.073643 -0.03296699 -0.35963395 -0.08629942
000100 fb 36 d1 be ba 0c 5d bc 48 4a ba bc f2 99 56 bd
       -0.4086226 -0.013491804 -0.022740498 -0.052392907
000110 dc 1d a6 3e 99 f9 ce bc 5f 78 a1 bd 84 04 89 be
       0.32444656 -0.025265502 -0.07884287 -0.26761258
000120 e1 6a 4f bd bb f0 69 bd 48 cb b1 bd 68 e9 b9 bd
       -0.050639037 -0.057114344 -0.08681351 -0.09077722
000130 a8 c9 b7 bc e5 46 87 bd 9e 1e 98 bd 00 10 b5 bd
       -0.022435024 -0.06605319 -0.07427715 -0.088409424
000140 23 26 e8 bc 04 59 d0 bc cd 7c 07 bd ac 25 fc bc
       -0.028338498 -0.025433071 -0.033078004 -0.030779682
000150 f5 29 0a bd cd 50 1f 3b 95 0c 85 bd 8f 5d a0 bd
       -0.03373142 0.0024309636 -0.064965405 -0.07830345
000160 55 3a 0d bd c1 e6 9d be f2 62 5b bd 19 bb 60 bd
       -0.034479458 -0.30840114 -0.05356116 -0.05486593
000170 be 66 99 bd a4 e4 74 bd 22 a5 7c 3e ed 65 83 bd
       -0.074903 -0.05978836 0.24672368 -0.06415925
000180 71 f8 30 3e ad 10 8c bd a4 75 8f bd f4 7d 7f bf
       0.17282273 -0.06839118 -0.0700486 -0.99801564
000190 1c 2b ff bc 07 38 a2 3c ad 90 98 3a ab 78 6a bd
       -0.031148486 0.019802107 0.0011639796 -0.057243984
0001a0 9f 9d 06 bf 0d 79 8f 3e bc 71 fa bc 1a 10 5e bd
       -0.5258426 0.28022042 -0.03057181 -0.054214574
0001b0 07 d4 a2 bc 48 e4 31 bd d1 33 2d bf 5a cf 54 bd
       -0.019876493 -0.043430597 -0.6765719 -0.05195556
0001c0 0d 32 88 bd 6e 76 93 bc dd c4 0e bb f8 39 31 bc
       -0.066501714 -0.018000808 -0.002178482 -0.0108170435
0001d0 3c b5 0e bd 44 b2 5d 3e ba d8 54 bd 4e 76 9f bd
       -0.034840807 0.21650034 -0.0519645 -0.07786237
0001e0 52 1b 5c bd 6b ab cc be 11 21 c1 bc e7 46 1f be
       -0.053736992 -0.39974532 -0.023575338 -0.15554391
0001f0 28 af b1 bd 69 8c 8f be 52 79 5d bc a4 30 79 bd
       -0.086759865 -0.28036812 -0.013517695 -0.060837403
000200 3e ea 9a bd 70 7a bc bc e2 77 49 be f9 52 4a bd
       -0.075642094 -0.023007601 -0.19674638 -0.049395535
000210 b2 f9 5e bd f5 86 56 bd 3f 83 27 bd 64 a2 a2 be
       -0.054437347 -0.0523748 -0.04089665 -0.3176452
000220 52 19 6d bd fd 18 0e bd 99 41 5c bc fe 99 05 bd
       -0.057885475 -0.0346918 -0.013443374 -0.03261756
000230 fe e2 2f bd 1d 96 82 bb e5 46 07 bd a2 82 21 bf
       -0.042941086 -0.00398518 -0.033026595 -0.63089955
000240 68 d1 bd bc c3 33 60 bd 3a ce fd be 59 63 4d bd
       -0.023171142 -0.054736864 -0.495714 -0.050143573
000250 77 a8 a9 bc 51 8d 28 be 9c 55 d2 be 1b b4 7d 3a
       -0.020710213 -0.16460158 -0.4108094 0.0009678022
000260 94 94 7f bd ad 16 0b bd 40 f1 b6 bb 47 e7 af bd
       -0.062397555 -0.033957172 -0.0055829585 -0.085890345
000270 5a 4b f6 bd 5d 0e 89 bd 36 14 97 bd 59 9b 4c bc
       -0.12026091 -0.06692193 -0.07376902 -0.01248821
000280 6d a6 0b bd 1e 3f 9d bd ee e9 1f bd 55 89 84 bd
       -0.034094263 -0.07678054 -0.039041452 -0.064715065
000290 63 05 e2 bc 35 2d e1 be 3a c5 55 be 0b d3 e9 bd
       -0.02759046 -0.43979803 -0.20876017 -0.114172064
0002a0 cd c6 65 be 30 46 33 bc f7 bb ac bd c4 19 f5 bc
       -0.22439118 -0.010942027 -0.08434289 -0.029919513
0002b0 a6 2a 13 bd 2d 80 88 bd 62 c6 a7 bb be e5 01 3e
       -0.035929345 -0.066650726 -0.0051200846 0.12685296
0002c0 5d 47 8c bd 78 86 37 bc c8 a2 3e bd 5d c2 84 bd
       -0.06849549 -0.011201493 -0.04654196 -0.06482384
0002d0 20 3a 3b bd 91 47 43 3d 27 48 a5 bd 55 6a 85 bd
       -0.04570973 0.047675673 -0.080704026 -0.06514422
0002e0 79 b1 cd bd 5e f1 11 bd 0a 29 ad 3e 12 3a 5a bd
       -0.10043616 -0.035630576 0.33820373 -0.053278036
0002f0 85 de 3a be 63 bb e5 bb a6 fe 91 bd a5 41 0b bd
       -0.18248947 -0.0070108636 -0.071286485 -0.03399815
000300 32 43 59 bb f9 c4 d0 be 9e 52 a6 be 46 c6 9d bd
       -0.0033151624 -0.40775278 -0.32484907 -0.07703833
000310 3d a1 09 bd c9 ac cd bd 1f 5b 07 3e ca 8b 5f bd
       -0.033601034 -0.10042722 0.13218354 -0.054576673
000320 72 a6 d6 bc 3e 4e 9b bd 71 8f c5 bd 98 83 38 bf
       -0.026202414 -0.07583283 -0.096465 -0.72075796
000330 4a 23 05 bf d5 f1 96 be 99 94 ca bd 29 df 42 bd
       -0.5200697 -0.29481378 -0.09891624 -0.047576103
000340 5b 07 ed bc 28 b6 34 bd e6 4f 92 bd f7 43 a7 bd
       -0.028934171 -0.04411903 -0.07144146 -0.0816726
000350 c3 29 04 3e 8b 05 6c bd 8e 98 12 bd 9d 8c 0e bc
       0.12906556 -0.057622474 -0.03579002 -0.008700517
000360 46 42 9a bd c5 27 f6 bc 75 80 06 bc 47 02 51 bf
       -0.07532172 -0.03004826 -0.0082093375 -0.816441
000370 47 82 20 bc f1 e8 4d bd cd 94 f9 bd c3 1f c4 3d
       -0.009796686 -0.05027098 -0.121865846 0.095763706
000380 32 b2 49 be c4 46 3c 3e 05 b5 8a bd 8b c7 ed bc
       -0.19696882 0.1838637 -0.06772808 -0.029025814
000390 e8 2d 2a be 38 21 4b bd 70 fe 3f bd 26 6b 9b bd
       -0.16619074 -0.049592227 -0.04687351 -0.07588796
0003a0 11 2e f1 bd 03 2e e2 ba 4f 83 a1 bd 0b 64 ef bc
       -0.117763646 -0.0017256144 -0.07886373 -0.029222509
0003b0 ed 02 87 bd 48 a1 29 bf c9 22 cb bd a3 7e ec bc
       -0.06592355 -0.6626172 -0.09918744 -0.028868979
0003c0 43 27 80 bd 1f 92 a4 bd 0a 45 d7 bd 6f c1 ac bd
       -0.062574886 -0.08035683 -0.10511215 -0.08435332
0003d0 44 e2 81 be 99 e5 49 bd ae 31 93 bd e6 87 91 bc
       -0.2536794 -0.049291227 -0.0718721 -0.017764997
0003e0 44 80 ff bc df c8 06 be 5b 55 e0 bc fa e5 57 bd
       -0.031189092 -0.13162564 -0.02738445 -0.052709557
0003f0 cd 75 04 bc 4a 65 5b bc 12 dd b0 3e c1 c3 c8 bc
       -0.0080847265 -0.013390848 0.34543663 -0.024507405

4.weight f4 [1, 300]
000000 1f be de bf 3d 47 98 3b 23 60 ef bc 26 86 d6 bf
       -1.740177 0.004647164 -0.029220646 -1.6759689
000010 52 d5 d1 3f 9e 05 98 3c f3 0a 89 3f 4f ed 39 bc
       1.6393225 0.018557366 1.0706466 -0.011348083
000020 56 31 8c bf 54 7a 7a bc b5 b5 13 3b 15 86 fd be
       -1.0952556 -0.015287954 0.0022538726 -0.4951636
000030 66 48 a6 3c c9 da e0 bf 83 08 fb 3b 18 38 4f 3b
       0.020298194 -1.7566768 0.007660927 0.0031619128
000040 3d b9 85 b7 a5 be 0b ba 18 e7 cf 3c f5 a7 0e bc
       -1.5941094e-05 -0.00053308374 0.025378749 -0.008707036
000050 1d 1e 16 bc d6 91 8d 3b d8 57 b8 bc 08 b9 33 bd
       -0.009162453 0.0043203635 -0.022502825 -0.04387763
000060 46 55 1b bd 05 6e 1a bb c5 bf b0 3f 60 e6 30 bc
       -0.03792312 -0.0023564112 1.3808523 -0.010797113
000070 66 eb a8 3b 92 b8 26 40 5f e3 a4 3c 3f 6c af 3c
       0.005155015 2.6050153 0.02012795 0.02141392
000080 75 7a 87 3c a8 ed ca 3b 85 37 1a c0 b1 56 c3 bc
       0.016537884 0.0061928816 -2.4096386 -0.023845049
000090 78 17 3d 3c cd 44 95 3f 08 45 2b 40 fd 27 98 3c
       0.01154124 1.1661621 2.6760883 0.018573755
0000a0 b5 34 bc 3f 51 b5 53 3b 2d ae 03 c0 27 28 bb 3b
       1.4703585 0.0032304118 -2.0575058 0.0057115736
0000b0 fa 8a ae bf 16 8b a4 3c 59 37 cc 3a e4 73 73 bc
       -1.3636162 0.020085853 0.001558046 -0.014859173
0000c0 08 bf 4b 3b 55 69 01 3d 66 76 16 bc 1a ae 65 bb
       0.0031089205 0.031594593 -0.009183502 -0.00350464
0000d0 9d 1f 67 3f 09 e3 c5 bc 75 69 0e 3d 37 59 b1 b9
       0.90282613 -0.02415611 0.03476854 -0.0003382654
0000e0 9d 20 87 3c eb 3d e0 3c f0 e3 39 bb 3c 53 fd 3a
       0.016495043 0.027373275 -0.002836462 0.0019327174
0000f0 a3 c6 d8 3f e3 b1 f1 3b 7e 9b f3 3f ba b8 d1 3c
       1.6935619 0.007375942 1.9031827 0.02560078
000100 1a 0c d8 3f 40 e7 c0 bc d7 a9 3b bd c4 49 06 bc
       1.6878693 -0.023547769 -0.04581627 -0.008196298
000110 f4 af 21 c0 61 29 dc bc 69 eb da ba dd 46 73 3f
       -2.5263643 -0.0268752 -0.0016702238 0.95030004
000120 5c 5f 88 bc 44 74 01 3d 71 cd c3 3b 2e af 15 3d
       -0.016647033 0.03160502 0.0059754183 0.036544017
000130 bd 11 8a 3c fd ac 06 bd 37 27 31 3c ce 35 97 bc
       0.016854161 -0.03287982 0.010812572 -0.018458273
000140 da 40 59 3c 63 97 fa be 26 26 9a 3b a5 6b 04 3d
       0.013260091 -0.48943624 0.0047042547 0.03232922
000150 79 58 c7 3c dd ee 07 3c 11 53 5a 3c ce bd 91 3d
       0.02433418 0.008296696 0.013325469 0.071162805
000160 82 fe 6b bc 50 71 34 3f dc 93 79 3c 58 a3 10 be
       -0.014403941 0.704854 0.015233006 -0.1412481
000170 86 9d 90 3c bb 89 f6 bb cd 3f 09 c0 ed 59 05 bd
       0.017653238 -0.007523743 -2.144519 -0.032556463
000180 ee e6 79 bf 25 81 0f bc 67 50 15 40 55 cd 2a 40
       -0.97617996 -0.008758818 2.3330324 2.6687825
000190 ed 64 18 bc 68 39 0d 40 cd 2a 1d bd 54 f3 83 bb
       -0.009301406 2.2066288 -0.038370896 -0.0040268097
0001a0 f4 f4 27 c0 8a 7a fa bf 92 ea 60 bb f7 bd b4 ba
       -2.6243258 -1.9568646 -0.0034319502 -0.0013789524
0001b0 a1 9b ca bb c3 1f f4 bc 18 8c 22 40 77 69 a7 bc
       -0.006183103 -0.029800301 2.5398006 -0.020436032
0001c0 8e bf 98 3b 97 4d a8 bb 09 0a cc b7 86 b6 90 bb
       0.004661507 -0.0051362026 -2.4323368e-05 -0.0044162897
0001d0 d7 b6 a4 bc de 9c 49 c0 96 89 9e bc bf 4a 26 3c
       -0.020106716 -3.1501994 -0.019352715 0.010149657
0001e0 c7 df 38 bc fc ed cd 3d 85 20 10 3b 15 8e 02 40
       -0.011283821 0.100551575 0.002199204 2.039922
0001f0 0f 2a 33 bd 72 5f 74 bf 27 e7 30 3b e1 c4 c0 bc
       -0.043741282 -0.9545814 0.0026993246 -0.02353138
000200 8d 7e 0e bc d9 d6 59 bb 83 43 80 be eb e3 ee bc
       -0.008697164 -0.0033239631 -0.25051507 -0.029161414
000210 0c d2 7e bc 98 8e f3 bf cb cb 7e 3b 0c ed 6a bf
       -0.015553009 -1.9027891 0.0038878794 -0.91767955
000220 a6 82 95 bc d6 34 29 3c 1e 49 ac bc 2d 99 88 3c
       -0.018250775 0.0103275385 -0.021030959 0.016674602
000230 10 6f 4d ba e6 77 9c bc 96 a3 a2 3c b8 21 b7 bf
       -0.0007836679 -0.01910014 0.019853394 -1.4307165
000240 83 fe eb 3a ca 5a e3 3c 0d 23 d6 3f 1e 4a 17 3c
       0.0018004928 0.027753253 1.6729447 0.0092339795
000250 8e 07 26 bc fc 44 a4 3e 04 39 04 40 a6 80 26 3b
       -0.010133637 0.3208388 2.06598 0.002540627
000260 a2 f7 5c bc 00 f2 39 3c 5f fc a4 3c b5 3c 5f c0
       -0.013486775 0.011349201 0.020139871 -3.4880803
000270 7e 1f 07 40 2e 2f a2 3c 70 78 b4 3c 47 6a a4 bc
       2.1112971 0.019797888 0.022030085 -0.020070208
000280 76 19 13 3c 6b fa fd 3a 86 f6 af bc a7 b7 21 bb
       0.008978238 0.0019376999 -0.021479856 -0.0024676116
000290 50 92 44 bd 8e 40 9b bf ea 4e f9 3e 1f 63 30 3e
       -0.047991097 -1.2129076 0.4869302 0.17225312
0002a0 1f f5 aa bd 67 d8 27 3c a8 7d b3 ba 93 d0 f5 3b
       -0.083475344 0.010244465 -0.0013694065 0.0075016706
0002b0 eb d8 f4 bb 0f 90 22 3c 67 bd 2b 40 d2 be cc bf
       -0.0074721477 0.009922042 2.6834352 -1.5995734
0002c0 f7 1e a9 3c 75 ca 82 3b b8 2d b2 3a b5 78 99 bb
       0.020644648 0.00399142 0.0013593948 -0.004683579
0002d0 91 b3 4c bb 28 6e 90 be b0 49 c1 3c 14 84 08 3b
       -0.003123496 -0.28209043 0.023594707 0.0020830678
0002e0 fb d1 6b 3c bf 3c a0 3c cb 33 15 c0 d5 55 97 bc
       0.014393325 0.019560216 -2.3312862 -0.018473545
0002f0 1e 65 39 bf 4f 96 bb b7 86 a0 9c 3c 7a 6a dd bb
       -0.7241992 -2.236213e-05 0.019119512 -0.0067570778
000300 15 2b 02 bd 5e 29 2a c0 78 49 40 40 b7 b9 23 bc
       -0.031779367 -2.6587749 3.0044842 -0.009993008
000310 9d e7 03 bd 86 b6 90 3c d7 c9 65 3e 9e 15 26 3d
       -0.032203306 0.017665159 0.22440277 0.04054796
000320 85 2d 12 3d ca cd ed bb f3 58 e5 bc 6d 60 1f c0
       0.035687942 -0.007257198 -0.027996516 -2.4902604
000330 5c cb de bf b3 72 68 bf ca dc 5e 3b 64 af 00 3c
       -1.740581 -0.9080002 0.0034006112 0.007854316
000340 5c da 00 3d 85 c0 9f bc 3d 01 93 bb e4 1e 7d 3c
       0.031458244 -0.01950098 -0.0044862316 0.015449259
000350 e0 cc 40 c0 4f 33 26 bd 60 0c b3 3c d5 0b 82 3c
       -3.0125046 -0.040576275 0.021856487 0.015874783
000360 cc e3 fa bc 30 16 5b be 12 08 5a 3c fb e3 02 c0
       -0.0306262 -0.21395183 0.013307588 -2.0451648
000370 ed 5f 1d 3c 74 4e 06 3c 19 4c 1f 40 1a 74 1c bf
       0.00960539 0.008197416 2.4890196 -0.61114657
000380 1f c1 d5 be 11 83 64 be 1c 6b 85 3b a6 e1 9a 3c
       -0.41748902 -0.22315623 0.0040716063 0.018906426
000390 a0 b9 99 3f d0 32 3d bc b7 23 bc 3c f8 c3 b3 bc
       1.2009773 -0.011547759 0.022966249 -0.021944031
0003a0 d0 a9 99 3f aa 5f 6a bc 6f 73 a0 3c 0b 22 e1 bc
       1.2004948 -0.014305035 0.019586293 -0.027482053
0003b0 14 d1 77 bb 1e 13 05 40 9a 6a 51 bd 8c c3 f6 bb
       -0.003781383 2.0792918 -0.051127054 -0.007530635
0003c0 1a 71 d2 bc f1 1e c5 3c d4 29 fd 3c a0 19 cf 3b
       -0.025688697 0.024062606 0.030903734 0.0063201934
0003d0 2b 39 34 40 8a fd e4 3c 21 aa d2 bc b0 57 c7 3c
       2.8159893 0.027952928 -0.02571589 0.024333805
0003e0 17 58 a0 bd 65 9b 11 40 9c 9e 0b 3d 7b ee 79 b9
       -0.07829302 2.2751095 0.03408681 -0.00023835331
0003f0 99 c1 4f 3d 97 8a 3b bc f4 b5 38 c0 1d b4 16 3d
       0.05072174 -0.011446617 -2.8861055 0.036792863
