results/Train_two_masses/best/target_policy.pt (torch, 496037 bytes, 5 tensors)

fc1_policy.weight f4 [400, 6]
0	0xbd26ec77	-0.040752854
1	0xbec4a129	-0.38404205
2	0xbeb0d9e0	-0.34541225
3	0xbf6d0d9a	-0.9259888
4	0xbe9e8ccb	-0.30966792
5	0xbe6e4f7b	-0.23272507
6	0x3f395485	0.7239459
7	0x3f8bcf06	1.0922554
8	0xbff938fc	-1.9470515
9	0x3e2e050b	0.16994111
10	0xbddbb7e9	-0.107284375
11	0xbf4699a7	-0.77578205
12	0xc01d25d0	-2.455433
13	0xbfd0e582	-1.632004
14	0xc00e983c	-2.2280416
15	0xbe1cca76	-0.15311608
16	0x3e6b4ff6	0.22979721
17	0x3eebf05e	0.46081823
18	0xc010bfdc	-2.2617102
19	0xbee280cc	-0.4423889
20	0x3ed4be8a	0.4155162
21	0x3f692f9f	0.9108829
22	0xbe2eccea	-0.17070356
23	0x3da5b1b4	0.08090535
24	0x3d84103d	0.0644841
25	0xbe8f6b45	-0.28011528
26	0x3f5d93e1	0.8655377
27	0xbed6eb31	-0.41976312
28	0xbe3712d7	-0.1787828
29	0xbd8a38cd	-0.06749115
30	0x3e4925af	0.19643281
31	0x3ed24976	0.4107167
32	0xc00ac59f	-2.1683118
33	0xbe110faa	-0.14166132
34	0xbf20fe7f	-0.6288833
35	0xbe8babd2	-0.27279526
36	0xbe7407d0	-0.23831105
37	0x3eb3ad06	0.35092944
38	0x3e3a8a38	0.18216789
39	0x3e4a9d95	0.19786675
40	0x3cafe2ba	0.021470416
41	0xbe56534f	-0.20930217
42	0xbe2e7a0e	-0.17038748
43	0xbf906abd	-1.1282574
44	0xbf984675	-1.1896502
45	0xbf4831a9	-0.78200775
46	0x3e12429d	0.14283223
47	0xbbc88221	-0.006119028
48	0xc02da203	-2.7130134
49	0xbed0dd8b	-0.40794024
50	0xbe94e4d8	-0.29080844
51	0x3e939d05	0.28830734
52	0x3e5a7511	0.2133372
53	0xbe7864f8	-0.24257267
54	0x3f7c0cf1	0.98457247
55	0xbfb086a2	-1.3791087
56	0xbdbef685	-0.093243636
57	0xbfcc182f	-1.594488
58	0xbe70566b	-0.23470466
59	0x3db20350	0.08692038
60	0x3fb28db1	1.3949491
61	0x3f2ea8db	0.68226403
62	0xbfb0804d	-1.3789154
63	0xbe0ca7f5	-0.13735946
64	0x3e92a390	0.28640413
65	0xbd8e815c	-0.06958267
66	0xc06b92c5	-3.680833
67	0x3e9d4024	0.30712998
68	0x3eab1e23	0.3342143
69	0x3e9c96e8	0.30583882
70	0x3dc2435d	0.09485505
71	0xbf36db60	-0.7142849
72	0xbfd3b2b9	-1.6538917
73	0x3fc78d48	1.5589991
74	0x3f9fe1a1	1.2490731
75	0x3e51f0eb	0.20502059
76	0x3c4e96ba	0.012609178
77	0xbf087937	-0.5330996
78	0xbfe197a3	-1.7624401
79	0xbf23d006	-0.63989294
80	0xbfdf5367	-1.7447327
81	0x3ef694bd	0.48160353
82	0x3e91f611	0.28508046
83	0xbe9c39fc	-0.3051299
84	0x3f590c27	0.8478417
85	0xc003d8b0	-2.0601006
86	0xbe29e5d0	-0.16591573
87	0xbf52ee10	-0.82394505
88	0xbe78cc7c	-0.24296755
89	0x3e0128a8	0.12613165
90	0x3e19408c	0.14966029
91	0x3e5368cd	0.20645447
92	0x3e95a23b	0.29225335
93	0x3e1c4fe9	0.15264858
94	0xbecee0a8	-0.40405774
95	0xbe8797b8	-0.2648294
96	0x3e2eb317	0.17060505
97	0xbe98f63d	-0.29875365
98	0xbf0397ec	-0.5140369
99	0xbdf86fac	-0.12130675
100	0x3e00dd7c	0.1258449
101	0x3d21c106	0.039490722
102	0xc021f69a	-2.5306764
103	0xc0003f83	-2.0038764
104	0xbfb9f7e0	-1.452877
105	0x3d17c63f	0.037054297
106	0xbee598ad	-0.44843045
107	0xbf29eef8	-0.6638026
108	0x3e367067	0.17816316
109	0x3f81d332	1.0142577
110	0xbd322b45	-0.043498296
111	0x3f476152	0.77882874
112	0xbf7b88a4	-0.9825537
113	0x3ed71b8b	0.420132
114	0x3fca4a00	1.5803833
115	0xbffca02f	-1.9736384
116	0x4002e448	2.0451832
117	0xbd75fda3	-0.06005634
118	0x3c53a729	0.012918272
119	0x3e27ed0a	0.16399017
120	0x3eeed488	0.46646523
121	0xbf0521f8	-0.5200496
122	0xbf2978c4	-0.661999
123	0x3fc67880	1.5505524
124	0xbf417834	-0.7557404
125	0xbf54fd72	-0.83199227
126	0xbdd14c86	-0.10219674
127	0xbe4ba2cc	-0.19886321
128	0xbe123f1d	-0.14281888
129	0xbeab51e4	-0.33460915
130	0xbdb1d97c	-0.0868406
131	0x3db2b85d	0.08726571
132	0xbe882be2	-0.2659598
133	0xbcaba185	-0.020951042
134	0x3e95a11f	0.29224488
135	0xbd2be6af	-0.041968044
136	0x3c39e519	0.011346125
137	0xbd1041f0	-0.035219133
138	0xbf301711	-0.68785197
139	0x3fb4e64a	1.4132779
140	0x3efc0b57	0.49227402
141	0x3fa9a469	1.3253299
142	0xbd345e99	-0.044035528
143	0xbf226ffe	-0.63452137
144	0xc04ef8b9	-3.2339308
145	0x3e250010	0.16113305
146	0xc02ad93b	-2.6695087
147	0x3c2313f4	0.009953488
148	0x3e43046b	0.19044654
149	0x3aed30e7	0.0018096239
150	0xc08087d1	-4.016579
151	0xbce802d5	-0.028321663
152	0xc00a234a	-2.1584039
153	0xbcb0eac5	-0.021596322
154	0x3e7daf0b	0.24773805
155	0xbf2ab550	-0.6668291
156	0x3e82628d	0.25465813
157	0xbea39005	-0.31945816
158	0xbdb0c231	-0.08630789
159	0xbe29819e	-0.16553351
160	0xbda10b50	-0.07863486
161	0xbda42922	-0.08015658
162	0xbeffca7b	-0.49959168
163	0xbf1ceabd	-0.6129568
164	0xbe592582	-0.21205714
165	0x3dddee81	0.10836507
166	0xbd16b036	-0.03678914
167	0x3c99332d	0.01870116
168	0xbf1868d5	-0.5953496
169	0xbff1292b	-1.8840688
170	0x3f16407d	0.5869215
171	0xbf0fecf4	-0.56220937
172	0x3d925c66	0.0714653
173	0xbd25bbc7	-0.04046228
174	0xbf8e9214	-1.113833
175	0x3d73b0d3	0.059494805
176	0xbeb2332f	-0.34804675
177	0xbeaa1c16	-0.33224553
178	0x3cdfbdc9	0.027312176
179	0xbea36dee	-0.31919807
180	0xbff0e5f2	-1.8820174
181	0xbf0f5733	-0.5599243
182	0x40809f66	4.019458
183	0xbe585e54	-0.21129733
184	0x3e283f85	0.16430481
185	0x3dde9813	0.108688496
186	0xbfad83ae	-1.355581
187	0xbfeed973	-1.866011
188	0xbff2eef3	-1.8979172
189	0x3fa64e86	1.2992713
190	0xbe445eb5	-0.19176753
191	0xbdde4d90	-0.108546376
192	0xbeea286e	-0.4573397
193	0xbf46fbd5	-0.77728015
194	0xbe7e42f7	-0.24830233
195	0xbfec2704	-1.8449407
196	0xbebe93ef	-0.3722224
197	0x3d4a3f8d	0.049377013
198	0xbffc9840	-1.9733963
199	0x3e8b431c	0.27199638
200	0xc03c3628	-2.9408054
201	0x3f3a24e0	0.72712517
202	0xbea52051	-0.32251218
203	0xbd7c01a4	-0.061525002
204	0xbf8b5e84	-1.0888219
205	0x3f8b6b44	1.089211
206	0x3f8736cb	1.0563596
207	0x3fe39716	1.7780483
208	0xbf10c4b0	-0.5655012
209	0xbdf2af04	-0.11849788
210	0x3f84043d	1.0313793
211	0xc0131b4d	-2.2985413
212	0xbcf43230	-0.029809088
213	0x3c8df849	0.017330306
214	0x3c7afc6b	0.01531897
215	0xbccb94e5	-0.024851272
216	0xbf5e0aac	-0.86735034
217	0xbfa2b08a	-1.2710125
218	0x3f707f16	0.9394392
219	0xbf18ad48	-0.59639406
220	0xbc874cf2	-0.016516183
221	0x3ea6763f	0.3251209
222	0x3d465db0	0.04842919
223	0xbc5a62b2	-0.013329195
224	0xbece33f0	-0.40274
225	0x3ddaf1a9	0.10690624
226	0xbe94e216	-0.2907874
227	0xbe45d819	-0.19320716
228	0xbf02e824	-0.5113547
229	0xbed0a361	-0.40749648
230	0xbee6d312	-0.4508291
231	0x3e797adb	0.24363272
232	0xbe3fc4a0	-0.1872735
233	0x3d82e824	0.063919336
234	0x3ff08b46	1.8792503
235	0xbfb44fd2	-1.4086859
236	0x3f81c0f8	1.0137014
237	0xbebcd599	-0.36881712
238	0x3a8ed442	0.0010896998
239	0x3e941a30	0.2892623
240	0xbfc743a3	-1.5567516
241	0x3fb3cc29	1.404668
242	0xbff88dc3	-1.9418262
243	0xbc82acd5	-0.015951553
244	0x3e16a0fb	0.14709847
245	0xbf2d9453	-0.6780445
246	0x3feb10a2	1.8364451
247	0xc0006c13	-2.0065963
248	0x3fe0a754	1.7551064
249	0xbde6f15c	-0.112765044
250	0x3c037659	0.008023822
251	0x3e1b4c70	0.15165877
252	0x3ff4bce7	1.9120148
253	0x3e169c96	0.1470817
254	0xbe7e9007	-0.2485963
255	0x3d55ccb8	0.05219719

fc1_policy.bias f4 [400]
0	0xbee875d3	-0.45402393
1	0xbe2b9300	-0.16755295
2	0xbd3e3a21	-0.046442155
3	0xbea02109	-0.31275204
4	0xbf0434f5	-0.51643306
5	0xbdb8a9a1	-0.09016729
6	0xbe59c63c	-0.21267027
7	0xbf0adb4e	-0.5424088
8	0xbea70370	-0.3261981
9	0x3ccbd6a8	0.02488263
10	0xbf0f95b8	-0.5608783
11	0xbd1deeae	-0.0385577
12	0xbd10889f	-0.035286542
13	0xbf1c1a74	-0.60977864
14	0xbd31928d	-0.043352652
15	0xbeb9503a	-0.3619402
16	0xbee3aff3	-0.44470176
17	0x3dc7268c	0.09724149
18	0xbe3828bf	-0.17984293
19	0x3df81bd0	0.1211468
20	0xbd4356b5	-0.047690112
21	0xbeae48f6	-0.3404004
22	0xbecf70f9	-0.4051588
23	0xbe09700e	-0.13421652
24	0x3e1c833c	0.15284437
25	0x3e45680e	0.19277975
26	0xbeb8d470	-0.36099577
27	0xbeac798f	-0.33686492
28	0xbeee9dcc	-0.46604764
29	0xbe957a0e	-0.29194683
30	0x3d6f4cf8	0.058423012
31	0xbe86f2bc	-0.26357067
32	0xbed8e790	-0.42364168
33	0x3e10956b	0.14119498
34	0xbd24ded0	-0.040251553
35	0x3e1ce4ce	0.15321657
36	0x3d163e25	0.03668036
37	0xbe3e82c0	-0.18604565
38	0xbed48e82	-0.41514975
39	0xbe1caceb	-0.15300338
40	0xbe21cd33	-0.15800934
41	0x3ddc9efc	0.10772511
42	0xbe940d7f	-0.28916547
43	0xbefa3404	-0.4886781
44	0xbef40084	-0.47656643
45	0x3e169507	0.14705287
46	0xbe0653ed	-0.13117953
47	0xbe782fcf	-0.24236988
48	0xbe801a1a	-0.25019914
49	0xbecff5a6	-0.40617102
50	0xbd05ffd7	-0.03271469
51	0xbd3d0198	-0.046144098
52	0xbe403f49	-0.18774141
53	0xbe19df0e	-0.15026495
54	0x3d130775	0.035895783
55	0x3e0b78b1	0.13620259
56	0xbe078247	-0.1323329
57	0xbed90c22	-0.4239207
58	0xbda0a6c5	-0.07844309
59	0x3b938512	0.004501947
60	0xbcc32742	-0.02382243
61	0xbea2275f	-0.31670663
62	0x3e03527a	0.12824431
63	0xbf1978c4	-0.599499
64	0xbe17e4d4	-0.14833385
65	0xbe923d26	-0.28562278
66	0xbee444e6	-0.44583815
67	0xbee3c123	-0.4448329
68	0xbeac094d	-0.33600846
69	0xbbdab8ea	-0.0066748755
70	0x3e41f7f8	0.18942249
71	0xbea37b0c	-0.31929815
72	0xbec29e1b	-0.3801125
73	0xbdaac5c9	-0.08338506
74	0x3bd9682b	0.0066347322
75	0xbebcd38e	-0.36880153
76	0x3d90907a	0.07058807
77	0xbe6dae8b	-0.23211114
78	0xbe3283f2	-0.17433146
79	0x3de3817e	0.11108683
80	0xbf00a1eb	-0.5024707
81	0xbf040ed7	-0.51585144
82	0xbe0263ea	-0.12733427
83	0xbf2b9304	-0.67021203
84	0xbeb6231b	-0.35573658
85	0xbed321aa	-0.4123662
86	0x3e1f1401	0.15534975
87	0xbeb65374	-0.35610545
88	0xbe8edf6d	-0.27904835
89	0xbe35230b	-0.17689149
90	0xbed786aa	-0.42094928
91	0xbe3e0297	-0.18555675
92	0x3dd2ee6a	0.1029938
93	0xbebfbf02	-0.37450415
94	0xbf1c4e45	-0.6105693
95	0xbf203fdf	-0.6259746
96	0xbe87b515	-0.26505342
97	0x3e48c2ed	0.19605608
98	0xbf3d8178	-0.7402568
99	0xbe999b2c	-0.300012
100	0x3debba7c	0.115101784
101	0x3d807048	0.06271416
102	0xbf209b1f	-0.62736696
103	0xbf1b0406	-0.60553014
104	0xbe3615f5	-0.17781813
105	0xbe944896	-0.2896163
106	0x3e7b6568	0.24550402
107	0x3dbd9e1f	0.09258675
108	0xbe981bb5	-0.2970864
109	0x3d691ce8	0.056912333
110	0xbefd407c	-0.4946326
111	0xbe61d16d	-0.22052546
112	0x3cfaaf21	0.030601086
113	0x3c2e7893	0.010648864
114	0xbf0086bd	-0.50205594
115	0xbeb83000	-0.3597412
116	0x3e28dc73	0.16490345
117	0xbe47c3cc	-0.19508284
118	0xbea12977	-0.31476948
119	0xbf13d29e	-0.5774325
120	0x3e01714c	0.12640876
121	0x3da41901	0.080125816
122	0xbea839d7	-0.32856628
123	0xbe99b216	-0.3001868
124	0xbe39f5ec	-0.18160218
125	0xbed2dc22	-0.41183573
126	0xbefd97fc	-0.49530017
127	0xbf0ddd28	-0.5541558
128	0xbe09b8f3	-0.13449459
129	0xbe14e12e	-0.14539024
130	0xbd6437d7	-0.055717316
131	0xbf084ef5	-0.5324548
132	0xbe7d0b24	-0.24711281
133	0x3de981c2	0.114017025
134	0xbf024ac0	-0.5089531
135	0xbdeca7f5	-0.11555473
136	0xbef8dab4	-0.48604357
137	0x3e211347	0.1573001
138	0xbec8832e	-0.39162582
139	0xbe8d0df2	-0.27549702
140	0xbeafecaa	-0.34360248
141	0xbf2a4d91	-0.66524607
142	0xbe924378	-0.285671
143	0xbf076175	-0.5288308
144	0xbe912543	-0.2834874
145	0xbeb75d6c	-0.35813463
146	0xbe4506a1	-0.1924081
147	0xbd7cb768	-0.061698347
148	0xbf080309	-0.5312963
149	0x3c64f022	0.013973268
150	0xbe7ba05f	-0.24572895
151	0x3e262e43	0.16228585
152	0xbe90f57f	-0.283123
153	0xbef11a07	-0.4709017
154	0xbd82038c	-0.06348333
155	0x3e0b8ec6	0.13628682
156	0xbecf2a95	-0.40462175
157	0xbd7bbadd	-0.061457504
158	0xbc12d369	-0.008961537
159	0xbe900006	-0.28125018
160	0xbea330ff	-0.3187332
161	0xbebb6518	-0.36600566
162	0xbe28549f	-0.1643853
163	0xbe9f075e	-0.31060308
164	0x3d8de166	0.06927757
165	0xbe8f27fc	-0.27960193
166	0xbe804bdd	-0.2505788
167	0x3e201e28	0.15636504
168	0xbc988354	-0.01861731
169	0xbe853d05	-0.26023117
170	0xbe91734e	-0.28408283
171	0xbf0b84ba	-0.544994
172	0x3e610529	0.21974625
173	0xbe82f0bf	-0.255743
174	0xbd684f92	-0.05671651
175	0xbeb64785	-0.3560144
176	0xbf42fd21	-0.76167494
177	0xbe854fe4	-0.26037514
178	0x3a9e5abd	0.0012081485
179	0xbdf157ac	-0.117843
180	0xbf038aa5	-0.5138343
181	0x3dc90b8f	0.09816658
182	0xbea6921d	-0.3253335
183	0xbe457e41	-0.19286443
184	0xbeaf772f	-0.34270617
185	0x3de136ca	0.10996778
186	0x3b256739	0.0025238527
187	0x3e8f694f	0.28010032
188	0xbdad4941	-0.08461238
189	0x3b6b9efb	0.0035952914
190	0xbd9f32a0	-0.07773328
191	0x3c5afa0c	0.01336528
192	0xbef4f346	-0.47841853
193	0xbea68020	-0.32519627
194	0xbecece01	-0.40391544
195	0xbe02e01b	-0.12780802
196	0x3ca48e58	0.020087406
197	0x3e171abd	0.14756294
198	0x3d59cee2	0.053175814
199	0x3d2d3625	0.042287964
200	0xbec054ee	-0.37564796
201	0xbe836a9d	-0.25667277
202	0xbe97db06	-0.2965929
203	0xbebbad67	-0.36655733
204	0x3d19d1a5	0.03755345
205	0xbe051480	-0.12996101
206	0xbf0a0dd5	-0.53927356
207	0xbe916a02	-0.2840119
208	0xbef27f4b	-0.47362742
209	0xbf152356	-0.58257043
210	0xbf14e312	-0.5815898
211	0xbe6a4fef	-0.22882055
212	0xbf024932	-0.5089294
213	0x3ce47533	0.027887916
214	0xbec08d44	-0.37607777
215	0xbe917196	-0.28406972
216	0xbe8494fb	-0.25894913
217	0xbec77785	-0.38958374
218	0x3e0efbdb	0.13963263
219	0xbe0e01c6	-0.13867864
220	0xbf30bf50	-0.6904192
221	0x3d5c498c	0.053781077
222	0xbe22389b	-0.15841906
223	0xbf0acae5	-0.5421584
224	0xbe99693b	-0.29963097
225	0xbf1b74d4	-0.6072514
226	0x3e8d5535	0.2760407
227	0xbeb75561	-0.35807326
228	0xbe0c819d	-0.13721319
229	0x3d15a337	0.036532607
230	0xbe853a74	-0.2602116
231	0xbe3ccfad	-0.18438597
232	0xbf00e684	-0.5035174
233	0xbf092d9d	-0.53585225
234	0xbecab489	-0.39590862
235	0xbdb79c80	-0.08965397
236	0xbe09a132	-0.13440397
237	0x3e40b7bf	0.18820094
238	0xbc7eda01	-0.015554906
239	0xbe023311	-0.12714793
240	0xbd95920c	-0.07303247
241	0xbeccc1a1	-0.39991477
242	0x3cb5a0e5	0.022171447
243	0xbda43077	-0.080170564
244	0xbe66ce1d	-0.22539563
245	0x3d449d8b	0.048001807
246	0xbc774aa3	-0.015093478
247	0xbf034c8c	-0.51288676
248	0xbdb64ca6	-0.08901338
249	0xbe90291e	-0.2815637
250	0x3d8c971e	0.06864761
251	0xbe9828aa	-0.29718524
252	0x3e383202	0.17987826
253	0xbebec409	-0.37258938
254	0xbe93211b	-0.28736195
255	0xbd8694d2	-0.06571354

fc2_policy.weight f4 [300, 400]
0	0xbedc2bba	-0.4300211
1	0x3e7b30e5	0.2453037
2	0x3f84b314	1.036715
3	0xbe8f68c2	-0.2800961
4	0x3db21580	0.08695507
5	0xbf1fe210	-0.6245432
6	0x3cabf767	0.020991994
7	0x3f2a907f	0.66626734
8	0xbe1145b6	-0.14186749
9	0xbf33451a	-0.70027316
10	0xbefa8d1e	-0.4893579
11	0xbf222c76	-0.6334909
12	0x3ed4b2ae	0.41542572
13	0xbea28790	-0.3174405
14	0xbf8efd5c	-1.1171069
15	0xbbd1a027	-0.0063972655
16	0x3bc35f49	0.0059622866
17	0x3e15820a	0.14600387
18	0xbeacbf7c	-0.3373984
19	0x3e028a7b	0.12748139
20	0xbd86d09b	-0.06582757
21	0x3cd667c7	0.026172532
22	0xbb92adcd	-0.004476285
23	0x3e55afca	0.2086784
24	0x3f63dadc	0.8900583
25	0x3e9e57c8	0.30926347
26	0xbcc99800	-0.024608612
27	0x3d447568	0.04796353
28	0xbf20bcdf	-0.62788194
29	0x3d9fa146	0.07794432
30	0xbd9e204d	-0.07721005
31	0x3e56a91f	0.20962952
32	0xbefff31c	-0.49990165
33	0x3e82df92	0.25561196
34	0x3df1acb6	0.1180052
35	0xbf2bc92e	-0.6710385
36	0xbdf77858	-0.120835006
37	0x3d1159cd	0.03548603
38	0x3c94288d	0.018085742
39	0xbda20a5d	-0.07912133
40	0x3f2087a3	0.62706965
41	0xbdd96114	-0.10614219
42	0xbf1dc66e	-0.61630905
43	0x3e5d9e09	0.21642317
44	0xbc9c2515	-0.01906065
45	0x3f006c95	0.50165683
46	0xbd37a4ef	-0.044835027
47	0xbf237e5f	-0.638647
48	0xbb028f80	-0.0019921958
49	0xbf2a8fb7	-0.6662554
50	0x3d2e4fa5	0.042556424
51	0xbfee86a0	-1.8634834
52	0xbd148732	-0.036261745
53	0x3b5274b3	0.0032113015
54	0xbf98aaf1	-1.1927167
55	0xbf30151a	-0.687822
56	0xbe9a9ec5	-0.30199257
57	0xbeda3874	-0.42621195
58	0x3d5a83b9	0.053348277
59	0x3e805a3c	0.25068843
60	0x3f2f92a3	0.68583125
61	0x3dd059f1	0.10173405
62	0x3f10d73e	0.56578434
63	0xbf654f93	-0.89574546
64	0xbebbc07c	-0.3667029
65	0xbf1a96a5	-0.60386115
66	0x3dc78042	0.0974126
67	0xbda1226f	-0.07867896
68	0x3c9da869	0.019245343
69	0xbedbd5c0	-0.42936516
70	0x3e0e38a5	0.13888796
71	0xbcf8329d	-0.030297572
72	0xbd40fb2d	-0.04711454
73	0xbeb8ec34	-0.3611771
74	0x3dc843b7	0.097785406
75	0xc055cbf3	-3.340573
76	0xbebf7d7c	-0.37400424
77	0xbc0876a7	-0.00832907
78	0x3f716986	0.9430164
79	0x3eda9afe	0.42696375
80	0xbde7701b	-0.11300679
81	0xbf6d607e	-0.9272536
82	0x3cad9fc0	0.021194339
83	0xbe8fc3bd	-0.28079024
84	0x3c5e007a	0.013549918
85	0x3d6f0e1a	0.058363058
86	0x3f2e17cb	0.68005055
87	0xbf25c0d5	-0.64747363
88	0x3d308260	0.043093085
89	0xbf54409f	-0.82911104
90	0x3c2d59c6	0.010580486
91	0xbf9c43c9	-1.2208186
92	0xbebe0f1b	-0.371209
93	0xbf56deb5	-0.83933574
94	0xbe5b23ab	-0.21400325
95	0xbe0c5315	-0.13703568
96	0x3e9a35a4	0.3011905
97	0x3ee44806	0.445862
98	0xbee0397f	-0.43793866
99	0xbe4db0eb	-0.2008702
100	0x3e8f7e6d	0.28026143
101	0xbf02795c	-0.5096643
102	0x3e959421	0.29214576
103	0x3e6539b2	0.2238529
104	0x3c09f140	0.008419335
105	0xbc4e8148	-0.012604065
106	0x3f1e4e83	0.6183855
107	0xbf028108	-0.50978136
108	0x3f11f2b7	0.5701098
109	0x3e22976c	0.15878075
110	0xbf1fe9ed	-0.6246632
111	0xbfd6414e	-1.673868
112	0xbf312835	-0.69201976
113	0xc0075582	-2.114594
114	0xbe527a4d	-0.20554467
115	0xbc9cb2c0	-0.019128203
116	0xbde04fb6	-0.10952704
117	0x3fa040e1	1.25198
118	0x3ea84436	0.3286454
119	0x3e290146	0.16504392
120	0xbf0fe627	-0.5621056
121	0x3bf1e381	0.007381857
122	0x3d3683c3	0.04455925
123	0xbedd7c23	-0.4325877
124	0xbf18712e	-0.595477
125	0xbcc4f3f8	-0.024042115
126	0xbee8b133	-0.45447692
127	0xbf8c36a1	-1.0954171
128	0x3ee07e3b	0.43846306
129	0x3e741f24	0.23840004
130	0xbe230da5	-0.15923174
131	0xbf00b7fc	-0.5028074
132	0xbf603c07	-0.87591594
133	0x3ee9c606	0.45658892
134	0xbea5dfb6	-0.3239724
135	0xbf5ba1d4	-0.85793805
136	0x3eba04bf	0.36331746
137	0xbf68b4fb	-0.90901154
138	0xbf43e030	-0.7651396
139	0x3ba9a61f	0.005177274
140	0xbd0af8a2	-0.03392852
141	0xbe9bbf86	-0.30419558
142	0x3bbcf48d	0.0057664574
143	0x3e4c7da9	0.1996981
144	0xbc4bfcda	-0.012450421
145	0xbcc14be7	-0.023595763
146	0xbf9cbde2	-1.2245448
147	0xbe8259d6	-0.25459164
148	0xbeefb8ae	-0.46820587
149	0x3e31e34c	0.17371863
150	0xbec3c716	-0.38237828
151	0x3f5b3679	0.85629994
152	0x3ce5afe0	0.028037965
153	0xbeeed513	-0.46646938
154	0xbf2f962d	-0.68588525
155	0x3d25822e	0.040407352
156	0x38343333	4.2963027e-05
157	0xbca78a53	-0.0204517
158	0xbb8067c9	-0.003918622
159	0xbf13e49f	-0.57770723
160	0x3cb56e87	0.02214743
161	0x3d709bc3	0.058742296
162	0x3c502981	0.012705208
163	0xbd4f96a1	-0.05068076
164	0xbe9f9f20	-0.3117609
165	0x3eab65e5	0.33476177
166	0x3d19b807	0.037529018
167	0xbf04fc63	-0.5194761
168	0x3f1fa3e3	0.62359446
169	0x3c903026	0.017601084
170	0xbf7a82ec	-0.9785602
171	0xbdbee731	-0.0932144
172	0xbefe9286	-0.49721164
173	0xbe8bf47d	-0.27334967
174	0xbce5dea1	-0.02806026
175	0xbe605565	-0.21907575
176	0xbe17c1a5	-0.14819963
177	0xbeaf8c69	-0.34286812
178	0xbee3311d	-0.44373408
179	0x3dafbc20	0.08580804
180	0x3e964aa6	0.29353827
181	0xbf2ae8c2	-0.6676141
182	0xbf460cbb	-0.77363175
183	0x3ce9da13	0.028546369
184	0xbf209827	-0.62732166
185	0xbf1bce82	-0.6086198
186	0xbf515c63	-0.81781596
187	0xbe3a86c5	-0.18215473
188	0x3f73962f	0.95151037
189	0x3f30c32d	0.69047815
190	0x3ef37ebf	0.47557637
191	0x3e20a08c	0.15686244
192	0xbef8c7b0	-0.4858985
193	0xbfe93f05	-1.8222357
194	0x3cc1540a	0.023599643
195	0xbfe7f068	-1.8120241
196	0xbf842a81	-1.0325471
197	0x3d26cc65	0.04072227
198	0xbe221d18	-0.15831411
199	0xbf462234	-0.7739594
200	0xbcfb15cb	-0.03065004
201	0xbb9e7b27	-0.0048364582
202	0xbfdd3621	-1.7282144
203	0x3d11c960	0.035592437
204	0x3f105982	0.5638658
205	0xbe72d3e0	-0.23713636
206	0xbe190e75	-0.14946921
207	0x3c89b680	0.016810656
208	0x3d23f6a7	0.040030148
209	0x3da712bf	0.081578724
210	0x3ec72b29	0.38900116
211	0xbd520134	-0.05127068
212	0xbf31cad1	-0.694501
213	0xbea0815a	-0.31348687
214	0xbd367eca	-0.04455451
215	0x3d2b94df	0.04189002
216	0xbf2e07ff	-0.6798095
217	0xbc5fa95a	-0.013651216
218	0x3f0679f1	0.5252982
219	0xbf143478	-0.5789256
220	0xbdd1cdd2	-0.10244335
221	0x3e166132	0.14685515
222	0xbebc393a	-0.3676241
223	0x3eb1e447	0.34744474
224	0xbd2dd481	-0.042438988
225	0xbfb93744	-1.4469991
226	0x3fc5ae85	1.5443884
227	0xbcaf84fa	-0.021425713
228	0xbea32ac5	-0.31868568
229	0xbe5ea67a	-0.21743193
230	0xbf785fdb	-0.97021264
231	0x3e8232a8	0.25429273
232	0xbeed134b	-0.46303782
233	0xbf1ef3d6	-0.62090814
234	0x3eedd022	0.46447855
235	0x3e901b2a	0.28145725
236	0xbce683e3	-0.02813906
237	0xbe3181b8	-0.1733464
238	0xbc5b898d	-0.013399494
239	0xbf93b419	-1.1539336
240	0xbf0ea611	-0.5572215
241	0xbedcd091	-0.43127874
242	0xbf820de7	-1.0160493
243	0xbbf15f13	-0.00736607
244	0xbe28b3cb	-0.16474836
245	0x3e067c0f	0.13133262
246	0x3f7ab187	0.97927135
247	0x3e1df894	0.15426856
248	0xbd0b88ef	-0.034066137
249	0xbd7430f4	-0.059616998
250	0xbfb17bd9	-1.386592
251	0xbe9cda87	-0.30635473
252	0xbf361077	-0.71118873
253	0x3cefc6a0	0.029269516
254	0xbf677a7b	-0.90421265
255	0x3e4cc970	0.19998717

fc2_policy.bias f4 [300]
0	0xbeed8640	-0.46391487
1	0xbd593072	-0.053024717
2	0xbd693e9b	-0.05694447
3	0xbca351cf	-0.01993647
4	0x3d003fdd	0.031310905
5	0xbc2795ff	-0.010228633
6	0xbcac6797	-0.02104549
7	0xbe965206	-0.29359454
8	0xbf532993	-0.8248531
9	0xbe03c6cd	-0.12868805
10	0xbf016f9b	-0.5056092
11	0x3e10f947	0.14157592
12	0xbceed9c3	-0.029156571
13	0xbdc98cf4	-0.09841338
14	0xbd400191	-0.046876494
15	0xbf8b7124	-1.0893903
16	0x3d5ddda3	0.054166447
17	0xbcd52d1a	-0.026022483
18	0xbcf67e04	-0.030089386
19	0xbd388528	-0.045048863
20	0xbd8c97d5	-0.06864897
21	0x3e898b40	0.26864052
22	0xbf8ab372	-1.0836012
23	0xbd0b6e2d	-0.03404062
24	0xbdafe6e7	-0.08588963
25	0xbd399378	-0.045306653
26	0xbde862df	-0.11346983
27	0x3dcb2709	0.09919555
28	0xbdb18048	-0.08667046
29	0xbd94e8be	-0.072709545
30	0xbad4fd72	-0.0016249849
31	0xbd71134c	-0.058856294
32	0xbce082ab	-0.027406057
33	0xbd0f869d	-0.035040487
34	0xbd18c8ee	-0.037300996
35	0xbdb8b8b8	-0.09019607
36	0xbf0e4a17	-0.555818
37	0xbd71e3e4	-0.059055224
38	0xbd9afdc6	-0.07567935
39	0xbda0ddaf	-0.07854783
40	0xbd7c3eac	-0.061583206
41	0xbb012ad5	-0.0019709368
42	0xbc9a34fe	-0.018824097
43	0xbd98072e	-0.074232444
44	0xbd8cfe2d	-0.06884418
45	0xbd91e416	-0.07123582
46	0xbdb81d40	-0.08989954
47	0xbd0dfcdd	-0.034664977
48	0xbf5b4957	-0.8565878
49	0xbd795c64	-0.060879126
50	0xbcd0f56a	-0.025507648
51	0xbd38384d	-0.044975568
52	0xbd9387ab	-0.07203611
53	0xbde5a263	-0.112126134
54	0xbce915fb	-0.028452864
55	0xbd16d5b6	-0.036824904
56	0xbde65a52	-0.11247696
57	0xbf0c0b63	-0.54704875
58	0xbdd9057a	-0.10596748
59	0xbed6c1c8	-0.41944718
60	0xbd6b950b	-0.057515185
61	0xbc249e9f	-0.010047584
62	0xbf35de73	-0.71042556
63	0xbdbad238	-0.09122127
64	0xbd19f4ee	-0.0375871
65	0xbc3e4cd8	-0.011615001
66	0xbe2eaa57	-0.17057167
67	0xbe93375f	-0.28753182
68	0xbcfbb784	-0.030727156
69	0xbd985b8e	-0.07439338
70	0xbd02a9a5	-0.031900067
71	0xbb458b89	-0.0030142984
72	0x3e27ca69	0.16385807
73	0x3b6c35fa	0.0036042915
74	0xbb74ee04	-0.0037373314
75	0xbdae5b3e	-0.08513497
76	0xbd3878a8	-0.04503694
77	0xbd3e4440	-0.046451807
78	0xbd986cbe	-0.07442616
79	0x3c104e9d	0.008807805
80	0xbd048e05	-0.032362003
81	0xbd911da6	-0.07085733
82	0xbc78ef04	-0.0151937045
83	0xbdea037b	-0.11426445
84	0xbdaf4c37	-0.08559459
85	0x3e454691	0.192652
86	0xbf1b8621	-0.6075154
87	0xbda24fa0	-0.079253435
88	0xbd8fbedd	-0.07018826
89	0xbc3a3148	-0.011364289
90	0xbd8df125	-0.0693076
91	0xbd4cc719	-0.04999456
92	0x3cf2ec99	0.029653834
93	0xbd53a422	-0.0516702
94	0xbd88c80d	-0.06678782
95	0xbc399f30	-0.011329457
96	0xbf35c5b3	-0.7100479
97	0xbd705e0c	-0.05868344
98	0xbdb0cc98	-0.08632773
99	0xbd5f4642	-0.054510362
100	0xbb087925	-0.002082416
101	0xbf829310	-1.020113
102	0xbd24a4df	-0.040196296
103	0xbd0edd15	-0.03487881
104	0xbcd03922	-0.025417868
105	0xbccc46f9	-0.024936186
106	0xbd4238c1	-0.047417406
107	0xbc061d3d	-0.008185682
108	0xbd81dc2d	-0.06340823
109	0xbc9d92b6	-0.019234996
110	0xbc73731c	-0.014858987
111	0xbccc1689	-0.02491309
112	0xbc36e010	-0.011161819
113	0xbd56f172	-0.052476354
114	0xbda50817	-0.08058184
115	0xbd75707c	-0.059921727
116	0xbcd5fdb2	-0.026121948
117	0xbd8e707d	-0.06955049
118	0xbe28aff6	-0.16473374
119	0x3de95a1c	0.1139414
120	0xbda50fe7	-0.08059674
121	0xbd752a2c	-0.05985467
122	0xbd1723d6	-0.03689941
123	0xbebc48f9	-0.36774424
124	0x3cd6f3f7	0.026239378
125	0xbf6394d4	-0.8889897
126	0xbdc4d711	-0.09611333
127	0xbdcfb901	-0.101427086
128	0xbd2222af	-0.039583858
129	0x3e3379d7	0.17526947
130	0xbd9a8c7e	-0.07546328
131	0xbe600018	-0.21875036
132	0xbebd73dd	-0.3700246
133	0xbf1d9927	-0.61561817
134	0xbda2e537	-0.079538755
135	0xbd4b25e9	-0.0495967
136	0xbcbac1d0	-0.022797495
137	0xbd977dae	-0.073970184
138	0xbcff0a4c	-0.03113284
139	0xbd7ded24	-0.061993733
140	0xbd27fac7	-0.041010644
141	0xbbf33ba4	-0.007422881
142	0xbc5ab7da	-0.013349498
143	0x3e9b8e6f	0.30382106
144	0xbe4b1119	-0.19830741
145	0xbd066db5	-0.03281947
146	0xbd141a7e	-0.036158077
147	0xbc077ccd	-0.008269501
148	0xbd0dec75	-0.03464933
149	0xbe8f4fbf	-0.2799053
150	0xbec76a71	-0.38948396
151	0xbc66c2ab	-0.014084498
152	0xbaad18ef	-0.0013206283
153	0xbcdb767a	-0.026789892
154	0xbd16ef7e	-0.03684949
155	0xbd2d4f9f	-0.04231226
156	0xbd8d6de5	-0.06905726
157	0xbe844b23	-0.25838575
158	0xbcd11bb2	-0.025525901
159	0xbe0907ef	-0.13381933
160	0xbdb9fcf0	-0.09081447
161	0xbdecd7b3	-0.11564579
162	0xbebf9e51	-0.37425473
163	0x3e108d9b	0.14116518
164	0xbbf9b254	-0.0076201353
165	0xbd17a7de	-0.037025325
166	0xbf59f0be	-0.8513297
167	0xbcb396a8	-0.021922424
168	0xbd8c3f8d	-0.06848059
169	0xbc4fc0d1	-0.012680248
170	0xbc0d140d	-0.0086107375
171	0xbe246956	-0.16055807
172	0xbec37036	-0.38171548
173	0xbcf0e537	-0.029406173
174	0xbd3230d8	-0.043503612
175	0xbd65ad53	-0.056073498
176	0xbd5ab32a	-0.05339352
177	0xbf1bf208	-0.60916185
178	0xbd89838d	-0.067145444
179	0xbd9d1a66	-0.07671051
180	0xbc682ad3	-0.014170366
181	0xbec26481	-0.37967303
182	0xbdbe3a18	-0.09288424
183	0xbd285ba7	-0.04110303
184	0xbd599dd2	-0.053129025
185	0xbd16eeb6	-0.036848746
186	0x3c0be294	0.008537907
187	0x3d3bac29	0.04581848
188	0xbf445b1f	-0.7670154
189	0xbd422150	-0.04739505
190	0xbe048bfa	-0.12944022
191	0xbe0fe45d	-0.14051957
192	0x3e7f8fc6	0.24957189
193	0xbf3eadfa	-0.7448422
194	0xbe33cbc8	-0.17558205
195	0x3e4be473	0.19911365
196	0xbe57d3a6	-0.21076831
197	0xbc75ab14	-0.0149944015
198	0xbe4124a6	-0.18861637
199	0xbdcbcea9	-0.09951527
200	0x3b816634	0.003948951
201	0xbd84a895	-0.06477467
202	0xbd006feb	-0.031356733
203	0xbdb0cfb8	-0.08633369
204	0xbe8d4cb5	-0.27597585
205	0xbf2bd007	-0.671143
206	0x3abe2757	0.0014507574
207	0xbc9bf882	-0.019039396
208	0xbed17713	-0.4091116
209	0xbd74e184	-0.05978538
210	0xbc8337d5	-0.016017834
211	0xbe788084	-0.24267775
212	0xbdaeef3f	-0.08541726
213	0xbc9bacc6	-0.019003283
214	0xbc4c9131	-0.012485788
215	0xbd477561	-0.048695926
216	0xbe70ea0c	-0.23526782
217	0xbcd8c632	-0.026461694
218	0xbe5c81e9	-0.21533932
219	0xbe462c79	-0.19352902
220	0xbc528baa	-0.012850681
221	0xbd5cc7fa	-0.05390165
222	0xbdb8f738	-0.09031528
223	0xbd8a8a0d	-0.06764612
224	0xbcff9d2c	-0.031202875
225	0xbd61045b	-0.054935794
226	0xbd771fbc	-0.060333
227	0xbf1ef62e	-0.6209439
228	0xbf7a6ae9	-0.9781938
229	0xbebcc268	-0.3686707
230	0xbd68061c	-0.05664645
231	0xbcafa3b7	-0.02144037
232	0xbcadc1b0	-0.021210521
233	0xbeb62af7	-0.35579655
234	0xbd03a5fd	-0.03214072
235	0xbd514c22	-0.051097997
236	0xbd5d355a	-0.05400596
237	0xbd335cd8	-0.043789715
238	0xbdbb1ec8	-0.091367304
239	0xbd0723bd	-0.032993067
240	0xbd946bbe	-0.07247113
241	0xbb9451b8	-0.004526343
242	0x3b03500c	0.0020036725
243	0xbd5e6f6a	-0.05430547
244	0xbd0f404d	-0.03497343
245	0xbdf46cf9	-0.119348474
246	0xbd924bfe	-0.071434006
247	0xbd19558e	-0.037435107
248	0x3b69466a	0.0035594949
249	0xbdad3e6f	-0.08459174
250	0xbd4c2949	-0.04984406
251	0xbc87ac75	-0.016561726
252	0xbd18df96	-0.037322603
253	0xbd6e7c03	-0.058223736
254	0xbd931e26	-0.07183485
255	0xbf489fbc	-0.78368735

fc3_policy.weight f4 [1, 300]
0	0xbf4fae09	-0.8112493
1	0xbd12d3ee	-0.035846643
2	0x3d455b18	0.048182577
3	0xbad5c891	-0.0016310384
4	0xbfbd04c8	-1.4767084
5	0xbcd13a29	-0.025540428
6	0x3c8c330c	0.017114185
7	0x3f3423d2	0.7036716
8	0xbfb4e26f	-1.4131602
9	0x3bbaecc7	0.0057044956
10	0xbf4ff83d	-0.81238157
11	0xbfeec69e	-1.8654363
12	0xbc42fc10	-0.011900917
13	0x3f14dc39	0.58148533
14	0xbc00c095	-0.007858415
15	0xbf4b6b08	-0.7946019
16	0xbe01e405	-0.12684639
17	0xbc1e28b5	-0.00965326
18	0x3bca4d80	0.0061737895
19	0x3b960455	0.004578153
20	0x3cc234d9	0.02370684
21	0xc0a31e52	-5.097451
22	0xbf384ddd	-0.7199381
23	0xba881b65	-0.0010384141
24	0x3d397757	0.045279827
25	0x3c87c575	0.016573647
26	0xbf8aeb9a	-1.085315
27	0xbf986be2	-1.1907923
28	0x3c582ab9	0.01319378
29	0x3c895c7c	0.016767733
30	0x3c298166	0.010345792
31	0x3cd2a189	0.025711792
32	0xbcaf2a9e	-0.021382626
33	0xb982ce5d	-0.00024949285
34	0x3d24f48e	0.040272288
35	0x3c71ac6c	0.014750581
36	0x3f6dcf17	0.9289412
37	0x3c6928bb	0.014230902
38	0x3c03b1b4	0.008037973
39	0x3c9d72ae	0.019219723
40	0x3d2bb576	0.0419211
41	0x3c95b24d	0.018273497
42	0xbc0c795d	-0.008573857
43	0x3ca7fac6	0.02050532
44	0x3ce4100b	0.027839681
45	0xbc4f8891	-0.012666837
46	0xba9e44d5	-0.0012074957
47	0xbad6bac1	-0.0016382561
48	0xbe10e3a0	-0.14149332
49	0x3cdc16a1	0.026866259
50	0x3beabe33	0.007163787
51	0x3fba36ec	1.4548011
52	0x3f853ee7	1.0409821
53	0xbc766694	-0.015039105
54	0x3c80d4e4	0.015726514
55	0x3d12d89d	0.03585111
56	0xbf2f9695	-0.68589145
57	0xbe8b5092	-0.27209908
58	0xbc98793e	-0.0186125
59	0x3f5f76b4	0.872905
60	0xbc2c75a7	-0.010526097
61	0x3cbcca20	0.0230456
62	0xbf3c8544	-0.7364085
63	0xbbb7a1cf	-0.005604006
64	0xbbf52d4b	-0.007482206
65	0x3b3b0a77	0.0028540173
66	0xbfa130b0	-1.2592983
67	0x3fd71197	1.6802243
68	0x3cf010b3	0.029304838
69	0x3badb917	0.0053016054
70	0xbb93365e	-0.004492565
71	0xbc8259f4	-0.015912034
72	0xbea483b9	-0.32131746
73	0xbbc465c8	-0.0059935786
74	0xbb38af58	-0.0028180685
75	0x40063c88	2.0974445
76	0xbb7bd853	-0.00384285
77	0xbbaa7e87	-0.0052030715
78	0xbcc4a768	-0.024005607
79	0xbb82c2a4	-0.003990488
80	0xbc5f1b49	-0.013617345
81	0xbb91ac9d	-0.004445626
82	0xbc054bdc	-0.008135762
83	0x3c01624c	0.007896971
84	0x3c7bf21c	0.015377548
85	0xc01c715f	-2.4444196
86	0x3ee8311d	0.4534997
87	0x3e0deb99	0.13859405
88	0x3c63ac0a	0.013895998
89	0x3c3b4c18	0.011431716
90	0xbd061185	-0.03273155
91	0x3cf39c83	0.029737717
92	0xbf21ad40	-0.63154984
93	0x3c298eae	0.010348959
94	0xbcc92a19	-0.024556207
95	0x3c270577	0.010194174
96	0xbf671db1	-0.9027968
97	0xbac49570	-0.0014998149
98	0xbbe58a2b	-0.0070049963
99	0x3c20493e	0.009783087
100	0x3d12f32d	0.03587644
101	0xbf7ddedf	-0.991682
102	0x3c8cfd64	0.01721067
103	0xbcaedbb7	-0.021345003
104	0xbc784bbc	-0.015154775
105	0x3ba3008e	0.0049744314
106	0x3cf794ec	0.030222379
107	0x3d443940	0.04790616
108	0xbd0f6cd5	-0.0350159
109	0xbbdc031a	-0.006714237
110	0xbf4c167f	-0.79721826
111	0xbc6a02b2	-0.014282869
112	0x3ccc2ad8	0.024922773
113	0xbcad5ce7	-0.021162463
114	0x3d07a314	0.033114508
115	0xbdadfc47	-0.08495384
116	0x3b9a737e	0.004713475
117	0xbca4539f	-0.020059405
118	0xbe7f77db	-0.24948065
119	0xc17f720e	-15.965345
120	0xbcbfcc6f	-0.023412911
121	0x3cc8d680	0.024516344
122	0xbc961d55	-0.018324533
123	0x3e8c4705	0.27397934
124	0x3f8e6baa	1.1126606
125	0xbf53cd58	-0.82735205
126	0x3c840d1d	0.016119534
127	0x3b501149	0.0031748584
128	0x3cf1dda3	0.02952463
129	0xbf237574	-0.63851094
130	0x3c5c8fb9	0.0134620005
131	0x3ecd89a8	0.40144086
132	0x4029ae99	2.6512816
133	0xbeb48bcb	-0.35262904
134	0x3ca293f6	0.019845944
135	0xbc4526c0	-0.0120331645
136	0x3c2e0fcf	0.010623886
137	0x3ca3b9b7	0.019986017
138	0x3c36ad47	0.011149711
139	0x3cb4d310	0.022073299
140	0x3cafb037	0.02144633
141	0x3c045754	0.008077461
142	0xbd798824	-0.06092085
143	0xc0847c40	-4.140167
144	0x3e9a0b37	0.3008668
145	0x3b9602c5	0.004577967
146	0xbcc0fa00	-0.02355671
147	0x3c254827	0.010088003
148	0xbc821215	-0.015877763
149	0xbd010e6b	-0.03150789
150	0x3ebf3d2a	0.37351352
151	0xbc524c61	-0.012835593
152	0x3c95962d	0.018260086
153	0x3c6cc74a	0.014451811
154	0xbd16e875	-0.036842782
155	0x3c085e95	0.008323331
156	0x3b875685	0.004130187
157	0xc05b3fa9	-3.4257605
158	0x3c977ce6	0.018492173
159	0x3e20b93c	0.15695661
160	0x3c4764f8	0.012170069
161	0xbcdd2362	-0.02699441
162	0x3eaa62a3	0.3327838
163	0xbf10b9b5	-0.56533366
164	0x3b4ae381	0.0030958357
165	0x3b1f28f5	0.0024285887
166	0x3f614ab3	0.88004607
167	0x3caa3837	0.020778758
168	0x3b939bee	0.0045046723
169	0x3ccbb288	0.024865404
170	0x3b2a150e	0.002595249
171	0x3f33afdb	0.7019021
172	0x400fc134	2.2461672
173	0x3f4bfa16	0.79678476
174	0x3b807adb	0.0039208955
175	0x3c36e268	0.011162378
176	0xbc0eb85d	-0.008710948
177	0x3f951b95	1.1649042
178	0x3bdc626a	0.006725599
179	0xbc90d5c6	-0.01768006
180	0x3cad382e	0.021144953
181	0x3d05cb34	0.032664493
182	0x3ba006d6	0.0048836274
183	0xbc42cba1	-0.011889369
184	0x3c96407e	0.0183413
185	0xbd088b1d	-0.033335794
186	0xbc98a04d	-0.018631125
187	0xc01908f1	-2.3911707
188	0xbf81bcd1	-1.0135747
189	0x3d140a15	0.036142427
190	0xbf161494	-0.5862515
191	0x3c1ce79d	0.009576705
192	0xc024721c	-2.5694647
193	0xbf2e25ad	-0.6802624
194	0xbb8fccec	-0.0043884423
195	0x3fa0b92f	1.2556514
196	0x3e7e2494	0.24818641
197	0x3ba3085f	0.004975363
198	0x3e8f76d5	0.2802035
199	0xbc1998bd	-0.009374795
200	0x3d2a2576	0.04153963
201	0xb9d4def9	-0.0004060192
202	0xbcf1535b	-0.029458692
203	0x3c8501a4	0.016236134
204	0xc01077c5	-2.2573102
205	0x3e47fee0	0.19530821
206	0x3cdadbc9	0.02671613
207	0x3fbacc6f	1.4593638
208	0x3fa12ce0	1.259182
209	0x3c9c2ce6	0.019064378
210	0x3c2a7a9f	0.010405212
211	0xbf825e40	-1.0185013
212	0xbd1eb876	-0.038750134
213	0x3c187f7d	0.009307739
214	0xbcd0ce5a	-0.025489021
215	0xbb502662	-0.003176116
216	0xbe16d2d8	-0.14728868
217	0xbc334180	-0.010940909
218	0x3e979c39	0.29611376
219	0xbbba5858	-0.005686801
220	0xbc87a7c5	-0.016559491
221	0x3c8d2f64	0.017234512
222	0xbbd2f77a	-0.006438193
223	0x3cb300a8	0.021850899
224	0xbcfadcc4	-0.030622847
225	0x3d0f3f84	0.034972683
226	0xbab923c0	-0.0014125034
227	0xbbf44863	-0.007454918
228	0x3eedf74d	0.46477738
229	0x3f49056d	0.78523904
230	0xbcfd2f4b	-0.03090634
231	0x3d0b60e4	0.03402795
232	0x3cfa397b	0.030544987
233	0xbed57ed7	-0.41698334
234	0x3c31dbaf	0.010855599
235	0xba863255	-0.0010238389
236	0x3c88c425	0.016695092
237	0x3ac02969	0.0014660779
238	0x3c19f4ee	0.009396775
239	0x3c04662d	0.008081001
240	0xbc87b50d	-0.016565824
241	0xbffda0c7	-1.981469
242	0x3cb609ff	0.022221563
243	0x3afe9453	0.0019422866
244	0x3ca3aba7	0.019979311
245	0x3f9feb23	1.2493633
246	0x3bb82448	0.0056195594
247	0xbaa7c5a6	-0.0012799993
248	0x3c643fb2	0.013931202
249	0xbc1d52a5	-0.0096022235
250	0xbb7f21bc	-0.003893002
251	0x3c11aa45	0.008890693
252	0xbccb1a31	-0.024792762
253	0xbcce77e8	-0.02520366
254	0x3cd76a89	0.026295917
255	0xbf761e4b	-0.96139973
