results/c_2_0/131470_except/q_func2.pt (torch, 502309 bytes, 5 tensors)

1.weight f4 [400, 10]
0	0x3e906f68	0.28209996
1	0x3f8aa041	1.0830156
2	0xbca5028d	-0.020142818
3	0x3e0a978e	0.13534376
4	0x4011f5f3	2.2806365
5	0x3ed0f984	0.40815365
6	0xbee2cbfc	-0.44296253
7	0xbf3e08d1	-0.742322
8	0x3cd7323a	0.026269067
9	0x3e31f28c	0.1737768
10	0x3f9cd393	1.2252067
11	0x3f8bcd00	1.0921936
12	0x3f122ebf	0.5710258
13	0xbebe37f0	-0.37152052
14	0x3f8f8a51	1.1214086
15	0xbddc1a14	-0.107471615
16	0xbb193b1f	-0.0023381186
17	0xbd35d7d0	-0.044395268
18	0x3ed35e76	0.41283005
19	0xbcd434e2	-0.025904123
20	0x3efa60c0	0.4890194
21	0xbe80e9e8	-0.25178456
22	0xbf8ba940	-1.0911026
23	0xbef508c5	-0.47858253
24	0xc01ae955	-2.4204915
25	0xbf64319b	-0.8913819
26	0xbf0d2662	-0.5513669
27	0xbf87846b	-1.0587286
28	0xbf8129fb	-1.0090936
29	0xbd576dc9	-0.052594934
30	0xbf623960	-0.883688
31	0xbfc5bc48	-1.5448084
32	0x3eec3f73	0.46142158
33	0x3fe2d0b0	1.7719936
34	0x3ed1664b	0.40898356
35	0x3e4de414	0.20106536
36	0x3e4b6315	0.19862016
37	0x3e9bc3cc	0.3042282
38	0xbf640b31	-0.89079577
39	0x3c4daca1	0.012553365
40	0xc0072d52	-2.1121411
41	0x3eac969b	0.33708653
42	0x3f148fd2	0.5803195
43	0xbeb65aa6	-0.35616034
44	0xc006988a	-2.1030602
45	0x3ed3fb6f	0.41402766
46	0xbf1f65c7	-0.62264675
47	0xbf5d45ae	-0.8643445
48	0x3e9465a3	0.28983793
49	0x3cf94b9b	0.03043156
50	0xbfbca248	-1.4737024
51	0xbfd62a92	-1.6731741
52	0xbeecb8ef	-0.46234843
53	0xbf3fcad7	-0.74918884
54	0xbee156a2	-0.44011408
55	0x3d62a032	0.055328555
56	0x3efcc3b9	0.49368075
57	0x3e016a65	0.12638243
58	0x3bd22929	0.006413598
59	0xbb67af35	-0.0035352234
60	0x3f86d4d9	1.0533706
61	0xbe23383a	-0.15939417
62	0xc008ad8b	-2.1355922
63	0x3ee70d9d	0.45127574
64	0xc026fb8a	-2.6091027
65	0xbf5b29ed	-0.8561085
66	0xbd847aa1	-0.06468702
67	0xbef752af	-0.4830527
68	0x3f0ae2c8	0.5425229
69	0xbd7d98e8	-0.0619134
70	0xbee74415	-0.4516913
71	0xbf028113	-0.509782
72	0x3e842253	0.25807437
73	0xbf9a7d69	-1.2069522
74	0xbfc0ee50	-1.5072727
75	0x3f8d848a	1.1056073
76	0xbf63b8ae	-0.88953674
77	0xbd562565	-0.052281756
78	0xbe76070c	-0.24026126
79	0x3da2a9d0	0.079425454
80	0x3e7fb1da	0.24970189
81	0xbf405a71	-0.75138
82	0xbf0b9a3e	-0.5453223
83	0xbe3c80e8	-0.18408549
84	0xbef5e626	-0.48027152
85	0x3d80b25c	0.06284019
86	0x3dea9fc2	0.11456253
87	0xbd60d395	-0.05488928
88	0xbaa89766	-0.0012862503
89	0xbd5ca8b1	-0.053871814
90	0x40355679	2.8334029
91	0xbe64b0fb	-0.22333138
92	0x3e5f225f	0.21790455
93	0xbf593c23	-0.84857386
94	0x3c80746f	0.01568052
95	0x3e28bc8f	0.1647818
96	0xbf62dd1a	-0.88618624
97	0xbe546656	-0.20742163
98	0x3e21d345	0.15803249
99	0x3d0ba929	0.03409687
100	0x3f37c39d	0.7178286
101	0xc00d3d02	-2.2068486
102	0xbfd1a3d4	-1.6378121
103	0xbfc9e5e5	-1.5773283
104	0xbfde575a	-1.7370408
105	0x3e1da047	0.15393172
106	0xbf225a21	-0.63418776
107	0xbf6be02d	-0.9213894
108	0xbe8b7bbe	-0.27242845
109	0x3c8d8220	0.017273962
110	0xc0280af8	-2.6256695
111	0x3f4f4d6c	0.8097751
112	0xbf501d5c	-0.812948
113	0xbf81348f	-1.0094165
114	0x3f461429	0.7737451
115	0xbf00394d	-0.50087434
116	0xbf51240e	-0.8169564
117	0x3e34ace5	0.17644079
118	0x3dad25e2	0.08454491
119	0xbcf97060	-0.030449092
120	0xbf19cb98	-0.60076284
121	0xbfc37fcb	-1.5273374
122	0x3e1abb48	0.15110505
123	0x3e51a70e	0.20473883
124	0xc00a1d9d	-2.1580575
125	0xbeea4beb	-0.45761046
126	0xbf3be5b7	-0.7339739
127	0xbf1ae940	-0.6051216
128	0x3c7f6ac7	0.015589423
129	0x3db004e1	0.085946806
130	0xbfb9bf3f	-1.4511489
131	0x3f6e5558	0.93098974
132	0x3f23302e	0.6374539
133	0xc02cfb87	-2.702852
134	0x402b95cf	2.6810186
135	0x3df61d3d	0.120172955
136	0xbf9525d6	-1.1652172
137	0xbf019759	-0.50621563
138	0xbf4db074	-0.8034737
139	0x3cb5d533	0.022196388
140	0x3fd4f14e	1.663614
141	0xbed2bb27	-0.4115841
142	0x3fa64911	1.2991048
143	0x3e1bf68c	0.15230769
144	0x3f4bccf9	0.7960964
145	0x3f1155cf	0.5677156
146	0xbf93630d	-1.1514603
147	0x3dbe577a	0.092940286
148	0xbf7ac367	-0.9795441
149	0x3d0e8d48	0.034802705
150	0x3fcbd74e	1.5925081
151	0xbf81176a	-1.008527
152	0x3f1826f4	0.5943444
153	0x3e9c1002	0.30480963
154	0xbfa6e041	-1.3037187
155	0x3e68b5f5	0.22725661
156	0x3e847c07	0.25875875
157	0xbdf772db	-0.12082454
158	0xbd8e7a3f	-0.0695691
159	0x3cabdb19	0.020978497
160	0x3ecdaa44	0.40168965
161	0xbfd16dfc	-1.636169
162	0xbe6c4159	-0.23071803
163	0x4017411b	2.3633487
164	0x3f5140e2	0.8173963
165	0xbeb40bee	-0.35165352
166	0xbe00cfe1	-0.125793
167	0xbe42d4fc	-0.1902656
168	0xbea876cf	-0.32903144
169	0xbddaf964	-0.10692099
170	0xc020b3a4	-2.5109644
171	0x3fc1b2c7	1.5132684
172	0x3e80b709	0.25139645
173	0xbf834da4	-1.0258069
174	0x3f5b473c	0.8565557
175	0x3dd1e240	0.10248232
176	0x3db0006d	0.08593831
177	0xbd605ef6	-0.05477806
178	0xbb633841	-0.003467098
179	0x3b888f75	0.004167492
180	0x3d8aded8	0.06780785
181	0xbea23c8b	-0.31686816
182	0xc010b712	-2.2611737
183	0x3d672c79	0.056438897
184	0xc016a0d3	-2.353566
185	0xbf3a57d5	-0.7279027
186	0x3f0e7f41	0.55662924
187	0x3e7c647d	0.24647708
188	0xbeae1f75	-0.34008375
189	0xbd8ed202	-0.069736496
190	0x3e0cf1e0	0.13764143
191	0x3f84519b	1.0337404
192	0xbf4edde4	-0.8080733
193	0x3d761248	0.060076028
194	0x404dd436	3.2160773
195	0xbddfd922	-0.10930087
196	0xbcca8556	-0.024721783
197	0xbed0c00f	-0.4077153
198	0x3e0a583e	0.13510224
199	0xbc55e441	-0.013054908
200	0xbfb87582	-1.441086
201	0xbfedf9f8	-1.859191
202	0xbf84ca10	-1.0374165
203	0xc01b5ae4	-2.4274225
204	0xbfc0278a	-1.5012066
205	0xbf371381	-0.71514136
206	0xbfb0e2de	-1.3819234
207	0xbe030fc6	-0.12798986
208	0xbf720677	-0.94541115
209	0xbd25ca42	-0.04047609
210	0x3ecf72f3	0.40517387
211	0xbf8f851e	-1.1212499
212	0x3e1caf32	0.15301207
213	0x3fd3d43a	1.6549141
214	0xc05ba4fb	-3.4319446
215	0xbf112543	-0.5669748
216	0xbe8b201d	-0.27172938
217	0xbe8cc1b4	-0.27491534
218	0xbb188b89	-0.0023276529
219	0xbe00c40f	-0.1257479
220	0x402a3888	2.6597004
221	0x3dc3f68b	0.09568509
222	0xbf37e8d7	-0.7183966
223	0x3fcee873	1.6164688
224	0xbf81e854	-1.0149026
225	0xbe4724e8	-0.19447672
226	0xbe796d81	-0.24358179
227	0xbd8a1419	-0.067421146
228	0x3e0cd7ab	0.13754146
229	0xbb7d9342	-0.0038692509
230	0xbff3df93	-1.9052604
231	0x3fc2e9f9	1.5227653
232	0x3ee3b14e	0.4447121
233	0x3f3b8255	0.73245746
234	0x3f1bbdeb	0.60836667
235	0xbd821417	-0.06351488
236	0x3c25aa6b	0.010111432
237	0xbf5d25ee	-0.86386
238	0xbcd745ac	-0.02627834
239	0xbc08e2a5	-0.0083548175
240	0xc0810b3f	-4.032623
241	0x3f0d013b	0.5508
242	0x3f50031e	0.81254756
243	0xc00fbc20	-2.2458572
244	0x3e8e6388	0.2781031
245	0x3eaa57b2	0.3327003
246	0xbf77e040	-0.96826553
247	0x3e610a71	0.2197664
248	0x3d06012e	0.03271597
249	0x3c9f8402	0.019472126
250	0x3f4a5d8b	0.79048985
251	0xbe858ffa	-0.26086408
252	0xbf58f96d	-0.84755594
253	0x3fff9da2	1.9969981
254	0xbfd7406f	-1.6816539
255	0xbd09a6ca	-0.033606328

1.bias f4 [400]
0	0xbf4f5d82	-0.81002057
1	0xbf9a6d93	-1.2064689
2	0xbe12780d	-0.14303608
3	0xbedfc213	-0.43702754
4	0xbed1ad5e	-0.4095258
5	0x3e0b4ce2	0.13603547
6	0xbec49772	-0.38396794
7	0xbf2dd711	-0.6790629
8	0x3e95ba85	0.29243866
9	0xbf6a500e	-0.91528404
10	0xbe02ec44	-0.1278544
11	0x3e334019	0.1750492
12	0xbe266049	-0.16247667
13	0xbe1787e3	-0.1479793
14	0xbeab52dd	-0.33461657
15	0xbee49106	-0.44641894
16	0xbefa69e8	-0.48908925
17	0xbd25aa88	-0.040445834
18	0xbe92ef65	-0.2869827
19	0xbd2590a1	-0.040421132
20	0x3dfdcd58	0.12392682
21	0xbe16118f	-0.14655136
22	0xbdab07d4	-0.083511025
23	0xbdc3dca8	-0.09563571
24	0xbe6561e8	-0.2240063
25	0xbf13fc7c	-0.57807136
26	0xbeb4e1fb	-0.3532866
27	0xbe9623bc	-0.29324138
28	0xbdedc264	-0.11609343
29	0xbf17fb66	-0.5936798
30	0xbf0c82c9	-0.5488706
31	0xbf0c1f88	-0.5473561
32	0x3d21eda6	0.03953328
33	0xbef2fd82	-0.47459036
34	0xbdf62636	-0.12019007
35	0xbe6b314d	-0.22968026
36	0x3da0af7f	0.07845973
37	0xbf24ef14	-0.64427304
38	0xbf19b13f	-0.6003608
39	0xbd3e4890	-0.04645592
40	0xbf094665	-0.5362304
41	0x3e94425a	0.28956872
42	0xbf2316a9	-0.6370645
43	0x3e5b0e70	0.21392226
44	0xbf53806c	-0.8261783
45	0xbd0f78a9	-0.03502718
46	0xbf4017af	-0.7503614
47	0xbe454799	-0.19265594
48	0xbe2ab33b	-0.16669933
49	0xbea1979b	-0.31560978
50	0xbd68ef27	-0.0568687
51	0xbd3b5220	-0.045732617
52	0xbec2f7d8	-0.38079715
53	0xbe8bd106	-0.2730791
54	0xbd7c2b01	-0.06156445
55	0x3ea149d0	0.31501627
56	0xbce1b88c	-0.02755382
57	0xbecf9100	-0.40540314
58	0xbe04dd1b	-0.1297497
59	0x3dca57af	0.098800056
60	0xbeb91418	-0.36148143
61	0xbf211afb	-0.62931794
62	0x3f04d232	0.5188323
63	0xbec5b760	-0.38616467
64	0xbd89b544	-0.06724027
65	0xbe449e16	-0.1920093
66	0xbb2f1901	-0.0026717784
67	0xbe6b54ef	-0.22981618
68	0xbdfcc9d1	-0.12343181
69	0xbece8326	-0.40334433
70	0xbef593a0	-0.4796419
71	0xbe246c23	-0.16056876
72	0xbf15d3ac	-0.5852611
73	0xbe7b1302	-0.2451897
74	0xbe13df22	-0.14440587
75	0xbea833d8	-0.32852054
76	0xbf696434	-0.9116852
77	0xbf768d75	-0.96309596
78	0xbed24691	-0.41069463
79	0xbec1e5df	-0.3787069
80	0xbf1a94cb	-0.6038329
81	0x3e2da5ab	0.16957729
82	0xbf1262a4	-0.57181764
83	0xbf01552f	-0.50520605
84	0x3e195c9e	0.14976737
85	0x3e091b11	0.13389231
86	0x3cb7b263	0.022423929
87	0xbe0edf03	-0.1395226
88	0xbe06f98c	-0.13181132
89	0xbf2a91b9	-0.66628605
90	0x3b9e11ce	0.0048239
91	0xbec75ebd	-0.38939467
92	0x3e0def2e	0.13860771
93	0xbe7120c0	-0.2354765
94	0x3e54f9db	0.20798437
95	0x3c2e233a	0.010628516
96	0xbe26d372	-0.16291597
97	0xbe9bd8ae	-0.3043875
98	0x3e8f5e22	0.28001505
99	0xbeea4899	-0.45758513
100	0xbe1077ce	-0.14108202
101	0xbad7a6ef	-0.0016452948
102	0xbef269a6	-0.47346228
103	0xbf572d9c	-0.8405397
104	0x3e917f86	0.28417605
105	0xbf0a8eec	-0.5412433
106	0xbf0b5659	-0.5442863
107	0xbf1f2676	-0.6216806
108	0x3e7e3910	0.24826455
109	0xbd0e5844	-0.034752145
110	0xbdb3330d	-0.087499715
111	0xbf3b80c6	-0.7324337
112	0xbcde6e52	-0.027152214
113	0xbe1b142d	-0.15144415
114	0xbbce2e8f	-0.0062921713
115	0xbdaf77a7	-0.08567744
116	0xbe532123	-0.2061811
117	0xbeb5841e	-0.3545236
118	0xbe800610	-0.25004625
119	0xbf05d3b1	-0.5227614
120	0x3d7b7e97	0.061400022
121	0xbd422af0	-0.04740423
122	0xbec500ca	-0.38477165
123	0xbe9e1238	-0.30873275
124	0xbf374248	-0.7158551
125	0xbe9feafb	-0.31233963
126	0xbe476184	-0.19470793
127	0xbe7c20ce	-0.24621889
128	0xbe3be472	-0.18348864
129	0xbf200ac8	-0.6251645
130	0xbbc0d20a	-0.0058844136
131	0xbf38ac2d	-0.7213772
132	0xbeab299f	-0.33430192
133	0xbf0b7770	-0.5447912
134	0x3cea88b1	0.028629633
135	0xbf0902b3	-0.53519744
136	0x3e969e00	0.2941742
137	0xbf1e9722	-0.6194936
138	0xbe4df937	-0.20114599
139	0x3e1f2db6	0.15544781
140	0x3bbb5300	0.0057166815
141	0xbea90ca2	-0.3301745
142	0xbe9faad4	-0.3118502
143	0xbe54444e	-0.20729181
144	0xbf48962d	-0.7835415
145	0xbeb295f9	-0.34880045
146	0xbdf04f77	-0.11733907
147	0xbe594591	-0.21217944
148	0x3c7e065b	0.015504445
149	0x3e9919a6	0.2990238
150	0xbdf8b62d	-0.12144122
151	0xba4a40eb	-0.0007715362
152	0xbe5dd8e7	-0.21664773
153	0xbedf8bc4	-0.4366132
154	0x3e3ac8cc	0.1824066
155	0xbeda73e0	-0.4266653
156	0xbe3789d2	-0.17923668
157	0xbdb43cf6	-0.0880069
158	0xbf6834f4	-0.907058
159	0xbe913094	-0.28357375
160	0xbc37108e	-0.011173381
161	0x3e1868b8	0.14883697
162	0xbe8d41d5	-0.27589288
163	0xbec327ad	-0.38116208
164	0xbecbf16d	-0.3983263
165	0xbf22cb24	-0.6359122
166	0x3b8cba56	0.004294674
167	0xbeac3618	-0.3363502
168	0xbeff120a	-0.4981845
169	0xbe1ae5eb	-0.15126769
170	0xbe5a991f	-0.21347474
171	0x3dac3d3d	0.08410118
172	0x3e1fa4a9	0.15590157
173	0xbf1d0fd1	-0.6135226
174	0xbf2103e7	-0.6289658
175	0xbe254677	-0.16140161
176	0xbe04f0cd	-0.12982483
177	0xbe809442	-0.25113112
178	0xbe19c7ed	-0.15017672
179	0x3eb3828e	0.35060543
180	0xbe950779	-0.29107264
181	0xbec9da36	-0.39424294
182	0xbeb793f9	-0.35855082
183	0x3e841c90	0.2580304
184	0xbf179460	-0.5921078
185	0xbe3f80c5	-0.18701465
186	0x3e997000	0.29968262
187	0xbd87cdac	-0.06631026
188	0xbe7a719c	-0.24457401
189	0xbe997d1d	-0.29978266
190	0xbe6491d2	-0.22321251
191	0x3ea07065	0.3133575
192	0x3be74e1d	0.0070588724
193	0xbf16ec04	-0.5895388
194	0xbe9fd6a3	-0.31218442
195	0xbed1e4a0	-0.4099474
196	0xbee683dd	-0.4502248
197	0xbe0258b6	-0.12729153
198	0xbdef3d1b	-0.11681577
199	0x3e822c1f	0.25424287
200	0xbf6f0357	-0.9336447
201	0xbea752df	-0.32680413
202	0xbe3eb1bb	-0.18622486
203	0x3bc7012f	0.006073139
204	0xbf53be04	-0.82711816
205	0xbe2b6c20	-0.16740465
206	0x3e7ab301	0.24482347
207	0xbeed82dd	-0.46388903
208	0xbe747b6a	-0.23875204
209	0xbf84e721	-1.0383035
210	0xbcf9f642	-0.030512933
211	0xbf55ee0c	-0.83566356
212	0xbdf1e5f2	-0.11811437
213	0xbf26d763	-0.65172404
214	0x3d328c13	0.043590616
215	0xbef34f64	-0.47521508
216	0x3c781819	0.015142464
217	0xbf26c320	-0.6514149
218	0xbea97b76	-0.33102006
219	0x3e909034	0.28235018
220	0x3dd55242	0.1041608
221	0xbf8aab84	-1.0833592
222	0xbf32c20b	-0.69827336
223	0xbe1d5c30	-0.15367198
224	0xbe751a52	-0.23935822
225	0xbf6fafd8	-0.9362769
226	0xbec77023	-0.3895274
227	0xbf27f141	-0.656025
228	0xbf29cc8b	-0.6632773
229	0x3cdc3660	0.026881397
230	0x3eba19b8	0.36347747
231	0xbeeec504	-0.46634686
232	0x3e0753e5	0.13215597
233	0x3d482486	0.048862956
234	0xbe2792a0	-0.16364527
235	0xbe9d055b	-0.30668148
236	0xbd1d4efd	-0.038405407
237	0x3e86f740	0.26360512
238	0x3d506f53	0.050887417
239	0xbf1553e7	-0.5833115
240	0xbe7f1c7b	-0.24913208
241	0xbe6a2402	-0.22865298
242	0xbe92e311	-0.28688863
243	0xbf339222	-0.70144856
244	0xbd9a4490	-0.075326085
245	0xbedb2cac	-0.4280752
246	0xbe1b139f	-0.15144204
247	0x3e824987	0.25446722
248	0x3dd6b543	0.10483792
249	0xbf1e0c85	-0.61737853
250	0xbeadc844	-0.33941853
251	0xbf1ca2e4	-0.6118605
252	0xbd98e041	-0.07464648
253	0xbf203d14	-0.625932
254	0xbd801ca5	-0.062554635
255	0xbe749020	-0.23883104

3.weight f4 [300, 400]
0	0xbf5af644	-0.8553202
1	0x3f4ba88f	0.79554075
2	0xbe9db25c	-0.3080014
3	0xbef5ff33	-0.48046264
4	0xbdb10868	-0.086441815
5	0xbfea99b8	-1.8328161
6	0x3e50ffb5	0.20410044
7	0xbf967505	-1.1754462
8	0xbc01652e	-0.007897658
9	0x3e3ee76d	0.1864297
10	0x3fce6fa4	1.612782
11	0xbfde8e2b	-1.7387136
12	0x3eaea72c	0.34111917
13	0xbfac8818	-1.3479033
14	0xbfca9801	-1.5827638
15	0x3f961a59	1.1726791
16	0x3f458bdb	0.7716653
17	0xbf7cffe4	-0.9882796
18	0xbf123121	-0.57106215
19	0xbf8ad08f	-1.0844897
20	0xbf40d769	-0.7532869
21	0x3f16b87b	0.58875245
22	0xbf04a3c2	-0.51812375
23	0xbf5dad30	-0.8659239
24	0xbfb9fd81	-1.4530488
25	0xbd14a5ac	-0.03629081
26	0xc02f4b8b	-2.7389858
27	0xbb478c00	-0.0030448437
28	0xbee76b1b	-0.45198902
29	0xbf838051	-1.0273534
30	0xbebe27d0	-0.3713975
31	0xbfa85642	-1.3151324
32	0x3e743dac	0.23851651
33	0xbfc442d4	-1.5332894
34	0xbcbc8da1	-0.023016753
35	0xbf73bc47	-0.95209163
36	0xbefa5649	-0.48893955
37	0x3e21b569	0.15791859
38	0x3f9283b3	1.1446441
39	0xbfeb79c9	-1.8396541
40	0xbf3956e5	-0.72398216
41	0x3e7d95cd	0.24764176
42	0x3f1216a9	0.57065827
43	0xbdb5a270	-0.08868873
44	0xbe3c5a92	-0.18393925
45	0x3e416fe3	0.18890338
46	0xbc86bb34	-0.016446687
47	0xbe1c33c6	-0.15254125
48	0xbeeac952	-0.4585672
49	0xbd22c31f	-0.039736863
50	0xbe91c5cd	-0.28471223
51	0xbe56c016	-0.20971712
52	0x4024d04a	2.575213
53	0x3e70fe86	0.23534593
54	0xbedd54ad	-0.43228665
55	0x3efb2249	0.49049595
56	0x3f2b1b5b	0.66838616
57	0x40007643	2.0072181
58	0xbf4b019b	-0.79299325
59	0x3ea1fd1e	0.31638426
60	0xbe7b9475	-0.2456835
61	0x3fb15a76	1.3855731
62	0x3eaf4e85	0.34239593
63	0xbe973a32	-0.29536587
64	0x3effd482	0.49966818
65	0xbc8f1f8f	-0.017471103
66	0xbfa1599e	-1.2605474
67	0xbe7e8472	-0.24855211
68	0x3f45ff68	0.77342844
69	0x3f401c42	0.7504312
70	0x3e5b060f	0.2138903
71	0xbf0691f5	-0.5256646
72	0x3ed187cc	0.40923917
73	0xbede5892	-0.4342695
74	0x3e2ab2af	0.16669725
75	0xbbcb2c66	-0.006200361
76	0xbf783323	-0.9695303
77	0xbda4abd7	-0.08040588
78	0xbfca8558	-1.5821943
79	0x3f720ffe	0.9455565
80	0xbd7fa037	-0.062408652
81	0x3eefcf16	0.46837682
82	0x3e827eb2	0.25487286
83	0x3f0998b5	0.5374864
84	0xc050110a	-3.25104
85	0xbfa493d0	-1.2857609
86	0x3f764260	0.9619503
87	0xbfe20147	-1.765664
88	0xbd0a79dd	-0.033807624
89	0x3fe8d21e	1.8189123
90	0xbf4fd393	-0.8118221
91	0x3db5532b	0.08853754
92	0x3cb9e62a	0.022692759
93	0xbf2f44ba	-0.68464243
94	0x3f45ac3a	0.7721592
95	0x3cd2bcc5	0.025724778
96	0xbddf5390	-0.1090461
97	0x3e336127	0.1751753
98	0x3f599e60	0.85007286
99	0x3e54aa06	0.20767984
100	0x3e367375	0.17817481
101	0x3f14b118	0.58082724
102	0xbf83647e	-1.0265043
103	0x3bfc2170	0.0076944157
104	0xbfff9367	-1.9966859
105	0xbf0f6fd8	-0.56030035
106	0xbfa7ddf9	-1.3114616
107	0x3e61dc87	0.22056781
108	0xbeb69f8d	-0.35668603
109	0x3f4c8760	0.79894066
110	0x3e677262	0.22602227
111	0xbef324c5	-0.4748899
112	0xbfb159f1	-1.3855573
113	0xbf768780	-0.96300507
114	0x3f1061e9	0.563994
115	0xc044552a	-3.067698
116	0xc03bfa07	-2.9371355
117	0xbd3778f0	-0.04479307
118	0x3c543afa	0.012953514
119	0xbf08fbfd	-0.53509504
120	0x3ea9a953	0.33136997
121	0x3e1987ff	0.14993285
122	0x3f1802ad	0.5937908
123	0xc00c7062	-2.1943593
124	0xc00b2967	-2.174402
125	0xbe7aa9f3	-0.24478893
126	0x3f58222a	0.8442713
127	0x3fcbad79	1.5912315
128	0xbf257a90	-0.6464014
129	0xbf4fc40c	-0.8115852
130	0x3e7ddb3f	0.24790667
131	0x3f1e7fd3	0.61913794
132	0x3d4eeb1e	0.050517194
133	0x3eedfe3b	0.46483025
134	0xbed56bcf	-0.41683814
135	0x3eb93263	0.36171255
136	0xbf0be4ec	-0.5464618
137	0x3e110042	0.14160255
138	0x3e488ad8	0.19584215
139	0xc0121af9	-2.2828963
140	0x3d52db16	0.051478468
141	0xbf49fe71	-0.7890387
142	0xbe244952	-0.16043594
143	0xbd66072d	-0.056159187
144	0x3f187f61	0.59569365
145	0xbf51eedf	-0.82005113
146	0x3f184873	0.5948555
147	0xbd11db28	-0.035609394
148	0xbf046903	-0.51722735
149	0xbad49201	-0.0016217829
150	0x3f6c2716	0.9224714
151	0xbfb714ee	-1.4303262
152	0xbf5e5f61	-0.86864287
153	0xbf3c4c13	-0.7355358
154	0x3e8012d8	0.25014377
155	0x3e0b86b2	0.13625601
156	0x3e2730cf	0.16327213
157	0x3eb7659e	0.35819715
158	0x3e900098	0.28125453
159	0x3d00e3cf	0.031467255
160	0x3ec9f643	0.39445695
161	0x4013fc52	2.3122754
162	0xbe807250	-0.25087214
163	0xbeb0f45f	-0.3456144
164	0xbf0e96ea	-0.55699027
165	0xbfc93417	-1.5719022
166	0x3f0e30ba	0.555431
167	0xbf95c8ca	-1.1701901
168	0xbfb5768b	-1.4176801
169	0xbd1ab879	-0.037773583
170	0xc05211a9	-3.282328
171	0xbee6602d	-0.4499525
172	0x3de037a5	0.10948113
173	0x3f13983a	0.57654154
174	0x3f936660	1.1515617
175	0xbfe36cb6	-1.7767551
176	0xbe8a352a	-0.26993686
177	0xbc65ef2d	-0.014034075
178	0xbfb4837b	-1.4102625
179	0xbf9a87f3	-1.2072738
180	0xbfc78ee0	-1.5590477
181	0xc00eae40	-2.2293854
182	0x3ec2bfa2	0.3803683
183	0xbf4bf30f	-0.79667753
184	0xbe914b07	-0.28377554
185	0xbe47a138	-0.19495094
186	0x3f595698	0.84897757
187	0xbf08b54d	-0.53401643
188	0x3f0f93ff	0.560852
189	0xbfae3f41	-1.3613054
190	0x3f436154	0.76320386
191	0x3f0ddf3e	0.55418766
192	0xbd2c0fa8	-0.04200712
193	0xbf35792b	-0.7088801
194	0xbfac2c80	-1.345108
195	0x3ee50505	0.44730392
196	0x3eb94cda	0.36191446
197	0xc010e277	-2.2638223
198	0x40106951	2.256428
199	0xbec1dbb8	-0.37862945
200	0x3f03db7d	0.5150679
201	0x3df99887	0.121872954
202	0x3d838018	0.06420916
203	0xbfb2a09a	-1.3955262
204	0x3ecafe80	0.39647293
205	0xc00bafd6	-2.1826072
206	0xbf555599	-0.83333737
207	0xc068f47d	-3.6399224
208	0xbfff0afc	-1.9925227
209	0x3f2e38a2	0.68055165
210	0xc04b7b96	-3.179418
211	0x3e8b8639	0.2725084
212	0x3df01316	0.1172239
213	0x3f95680f	1.1672381
214	0xbfdee08e	-1.7412279
215	0x3d7ee4da	0.06222997
216	0xc030de7a	-2.763579
217	0xbe52611a	-0.20544854
218	0xbf0afd29	-0.5429254
219	0x3ed55ce7	0.4167244
220	0xbffc4294	-1.9707818
221	0x3fa01e81	1.2509309
222	0x3f34b284	0.70584893
223	0xc08afa5b	-4.343061
224	0xbfbd8bf1	-1.4808332
225	0x3eabfbca	0.33590537
226	0xbee0de09	-0.439194
227	0x3e0f5241	0.13996221
228	0xbfa1ba17	-1.2634915
229	0xbe679bc3	-0.22618012
230	0x3f32d95d	0.6986292
231	0x3d8c616d	0.0685452
232	0xbf285014	-0.6574719
233	0xbea91185	-0.3302118
234	0x3f58ea87	0.8473286
235	0xbc2e1bcd	-0.010626745
236	0x3efb17db	0.49041638
237	0x3fc65770	1.5495434
238	0x3ee67872	0.45013767
239	0x3ebbcc07	0.36679098
240	0x3e93c5a1	0.28861716
241	0xbfa9c6a4	-1.3263745
242	0x3fb4585f	1.4089469
243	0x3ce415f7	0.027842505
244	0x3ea13df4	0.3149258
245	0xbe8feb19	-0.28109053
246	0xbf9fadc7	-1.2474908
247	0xbf6d990e	-0.9281167
248	0xbe098bf0	-0.13432288
249	0xc03b2cba	-2.924605
250	0x3fa366d6	1.2765758
251	0xbe0558f1	-0.1302221
252	0x3e7846e4	0.24245793
253	0xbec6e376	-0.38845414
254	0xbf0fe915	-0.5621503
255	0xbfbd58ad	-1.4792687

3.bias f4 [300]
0	0x3eeeb2b4	0.46620715
1	0xbd1735d8	-0.036916584
2	0x3c08f750	0.008359745
3	0xbd1317a7	-0.03591123
4	0xbe3a3d7b	-0.18187515
5	0x3e56a48c	0.20961207
6	0xbca3992f	-0.019970505
7	0xbda5892c	-0.08082804
8	0xbc9e517b	-0.019325962
9	0xbd8e80cc	-0.0695816
10	0xbe0fda16	-0.14048037
11	0xbcbecdd1	-0.0232915
12	0xbd6cc642	-0.05780626
13	0xbd431ceb	-0.047635
14	0xbe6b88a7	-0.23001347
15	0xbe6870ed	-0.22699328
16	0xbd3dd1ac	-0.046342537
17	0xbd765a31	-0.060144607
18	0xbd469c4d	-0.048488904
19	0xbd79376c	-0.06084387
20	0x3a835c3b	0.0010021994
21	0xbdd37798	-0.10325545
22	0xbd62d652	-0.055380173
23	0xbdb9eb94	-0.09078136
24	0xbe6a16f1	-0.22860314
25	0x3f5efece	0.8710755
26	0x3f4cdbca	0.8002287
27	0xba5f2d79	-0.0008513551
28	0xbf48be67	-0.7841553
29	0xbda18b62	-0.07887913
30	0xbe7f8e0d	-0.24956532
31	0xbe0ac9eb	-0.13553588
32	0xbd868c63	-0.065697454
33	0xbd882ac8	-0.06648785
34	0x3ebacb6c	0.36483324
35	0xbdd48888	-0.10377604
36	0xbd8703dd	-0.06592534
37	0xbac91a0d	-0.0015342847
38	0xbd4e2c99	-0.0503355
39	0xbe7373c3	-0.23774628
40	0xbc7b7513	-0.015347737
41	0x3f2f3d32	0.6845275
42	0xbda3abd6	-0.079917595
43	0xbd095839	-0.0335314
44	0xbe0e1f04	-0.13879019
45	0xbaebbc8f	-0.0017985272
46	0xbc9eb128	-0.019371584
47	0xbdc2ae67	-0.09505921
48	0xbd8a1fd1	-0.0674435
49	0xbd371b01	-0.044703487
50	0xbea8a070	-0.32934904
51	0xbc88fb19	-0.016721295
52	0xbd7fa685	-0.062414665
53	0xbe96ed68	-0.29478002
54	0xbe50601a	-0.2034916
55	0xbe8c8899	-0.27447966
56	0xbd32ab85	-0.043620605
57	0xbcb35a50	-0.02189365
58	0xbdee01eb	-0.116214596
59	0x3f64dcfb	0.8939969
60	0xbd055ceb	-0.032559317
61	0x3dbdf494	0.09275165
62	0x3f93f7f7	1.1560048
63	0xbd330a0d	-0.043710757
64	0xbd22279b	-0.039588552
65	0xbcd6df56	-0.026229542
66	0xbd0783ed	-0.0330848
67	0xbd33824a	-0.043825425
68	0x3a767147	0.0009401035
69	0xbc9bccce	-0.019018557
70	0xbd975f41	-0.07391215
71	0xbda1676d	-0.07881055
72	0x3ea85399	0.3287628
73	0xbc0bbd3b	-0.008529003
74	0x3f592fa2	0.84838307
75	0xbd4751b8	-0.048661917
76	0xbd82780a	-0.06370552
77	0xbc7bee6f	-0.015376671
78	0x3f1f06cb	0.6211974
79	0xbd8e95c9	-0.06962163
80	0xbd8f6ccf	-0.070031755
81	0xbcddfd33	-0.027098274
82	0xbd028373	-0.03186364
83	0xbd48a690	-0.04898697
84	0x3e861340	0.26186562
85	0xbe38b62a	-0.1803824
86	0xbbd0c430	-0.0063710436
87	0xbd59055a	-0.05298362
88	0xbe9f47d4	-0.31109488
89	0xbd524d81	-0.051343445
90	0xbf076cd5	-0.5290044
91	0x3d98744d	0.074440576
92	0xbd829ffe	-0.06378172
93	0xbb94d273	-0.004541689
94	0x3a60b0f3	0.00085712894
95	0xbb33fe67	-0.0027464868
96	0xbe93651d	-0.2878808
97	0xbe42a84e	-0.19009516
98	0xbda154be	-0.078774914
99	0x3c397092	0.011318343
100	0xbcb81fb4	-0.022476055
101	0x3b0bf82b	0.0021357636
102	0xbca096af	-0.019603102
103	0xbd29a8d7	-0.041420784
104	0xbdfbca76	-0.12294476
105	0x3ead3c66	0.33835143
106	0xbe530918	-0.20608938
107	0xbeef3764	-0.46721947
108	0x3ceee72d	0.029162968
109	0xbceae50b	-0.02867367
110	0xbbb1b695	-0.005423377
111	0xbd5497e5	-0.05190267
112	0xbc1dd8ac	-0.009634178
113	0xbbaf6745	-0.005352887
114	0x3e92d6f6	0.28679627
115	0xbe0a822e	-0.13526222
116	0xbd1bfd20	-0.038083196
117	0xbad082de	-0.0015908142
118	0xbd5c8db2	-0.05384607
119	0xbd5a1b24	-0.05324854
120	0xbcb3829e	-0.021912869
121	0x3f065209	0.52468926
122	0xbd2e44bf	-0.04254603
123	0xbe0ec215	-0.13941224
124	0xbe176270	-0.14783645
125	0x3de2ef31	0.110807784
126	0xbd99dab7	-0.0751242
127	0xbd007f4b	-0.031371396
128	0x3e96b271	0.29433015
129	0x3efca1a9	0.49342087
130	0xbd479e3f	-0.0487349
131	0xbcfe98cd	-0.03107872
132	0xbd4c9a0c	-0.049951598
133	0xbd0325c3	-0.032018434
134	0xbd8ec10e	-0.06970416
135	0xbdc1752e	-0.094461784
136	0xbd64f17a	-0.055894352
137	0xbeb3a37f	-0.35085675
138	0xbc139352	-0.009007292
139	0xbd50dfb6	-0.050994597
140	0xbd083043	-0.03324915
141	0xbd900fa0	-0.0703423
142	0x3ec251af	0.37952945
143	0xbbd33df2	-0.0064465934
144	0xbe08431f	-0.13306855
145	0xbcca5a48	-0.024701253
146	0xbca81eaf	-0.020522444
147	0xbd8c392a	-0.06846841
148	0xbd590649	-0.05298451
149	0xbcb21ccb	-0.021742245
150	0xbd80ed75	-0.06295291
151	0x3d530746	0.05152061
152	0xbc24a350	-0.010048702
153	0xbe9c7d33	-0.3056427
154	0xbcf9e456	-0.030504387
155	0x3c9bc7b2	0.01901612
156	0xbc8cf4e3	-0.017206615
157	0x3ecf3713	0.40471706
158	0xbd961d41	-0.073297985
159	0xbd24a99a	-0.040200807
160	0xbdc42c88	-0.09578806
161	0xbc6a5fc3	-0.014305058
162	0xbc728adc	-0.0148036145
163	0x3b3931ca	0.0028258436
164	0xbe5209e0	-0.2051158
165	0x3ac077fe	0.0014684198
166	0x3e8d05b5	0.27543417
167	0x3fb569d5	1.4172922
168	0x3e860b3b	0.26180443
169	0xbd146f86	-0.03623917
170	0xbcfc32ef	-0.030786006
171	0xbd9a847c	-0.07544801
172	0xbb1a61e1	-0.0023556876
173	0xbd8e5111	-0.06949056
174	0x3eac7a23	0.33686933
175	0x3eeb409a	0.45947725
176	0xbc91d6a1	-0.017802538
177	0xbd361b97	-0.044459905
178	0xbda9952f	-0.08280408
179	0x3b7b839c	0.0038378006
180	0x3c8ea761	0.017413797
181	0xbe10b3d4	-0.14131099
182	0xbc932854	-0.017963566
183	0xbda1df25	-0.079038896
184	0xbebedb68	-0.3727677
185	0xbc97e5d8	-0.018542215
186	0xbe049438	-0.12947166
187	0xbe2c985e	-0.16854998
188	0xbce7b5a9	-0.028284865
189	0x3d0dbc70	0.034603536
190	0xbe290cb9	-0.1650876
191	0xbd0eadf2	-0.034833856
192	0xbd6be1eb	-0.0575885
193	0xbd2e1217	-0.04249772
194	0xbd9af60a	-0.075664595
195	0x3f798978	0.97475386
196	0xbd632602	-0.05545617
197	0xbc8da718	-0.01729159
198	0x3dedf0da	0.116182044
199	0xbc22ab75	-0.009928574
200	0xbc9f5847	-0.019451274
201	0xbdb1f2d6	-0.086888954
202	0xbe6c7096	-0.23089823
203	0xbd28d009	-0.041214023
204	0x3f13d9fa	0.5775448
205	0x3e8be48e	0.2732281
206	0x3eb68c5f	0.3565397
207	0xbd36d601	-0.044637684
208	0x3c27950e	0.0102284085
209	0x3ed95c76	0.42453355
210	0x3c341713	0.010991829
211	0xbd4e90be	-0.050431006
212	0xbebdf3a3	-0.37099943
213	0xbc00aea5	-0.0078541385
214	0xbd9ab629	-0.075542755
215	0xbd44c2a2	-0.04803718
216	0xbd2d5845	-0.04232051
217	0xbe7a6dee	-0.24455997
218	0x3cbacafc	0.022801869
219	0xbe54e7f9	-0.20791616
220	0xbe687078	-0.22699153
221	0xbc678792	-0.014131444
222	0xbdfc9c78	-0.123345315
223	0x3f1dc7a8	0.61632776
224	0xbf41e490	-0.75739384
225	0xbe7f1dd5	-0.24913724
226	0x3ed6fda2	0.4199038
227	0xbe8c09ef	-0.2735133
228	0xbd30a0c5	-0.04312207
229	0xbe349641	-0.17635442
230	0xbd06183b	-0.03273795
231	0xbd41e1a4	-0.04733433
232	0xbd8ef020	-0.06979394
233	0xbd9010c6	-0.07034449
234	0xbdf4954b	-0.11942538
235	0xbd0d1148	-0.03444031
236	0xbc5d6a5f	-0.01351413
237	0xbd8440dd	-0.06457684
238	0x3cc05b6c	0.023481093
239	0xbe63eb7d	-0.222578
240	0xbd95d504	-0.0731602
241	0xbd2cffde	-0.0422362
242	0xbd0c5dd7	-0.03426918
243	0xbce10791	-0.027469428
244	0xbdb1e49a	-0.086861804
245	0xbd0d8396	-0.03454932
246	0x3ff5fb2c	1.9217277
247	0xbc8d7da4	-0.017271824
248	0xbd94d4c1	-0.07267142
249	0xbd0969f4	-0.03354831
250	0xbe8e3847	-0.2777731
251	0x3de05d3e	0.109552845
252	0xbc935a57	-0.017987413
253	0xbd234756	-0.039862953
254	0x3d3127b6	0.043250762
255	0xbd980236	-0.07422297

5.weight f4 [1, 300]
0	0x3fc8b74f	1.5680941
1	0xbc6d98bb	-0.014501746
2	0x3c3c6061	0.011497588
3	0x3c9d6cee	0.01921698
4	0xc035633f	-2.8341825
5	0x3f9b961d	1.2155186
6	0xbcce8668	-0.025210574
7	0x3c85bb12	0.016324554
8	0xbbfdf01e	-0.0077495715
9	0x3c71ee09	0.014766225
10	0x3cfc84da	0.030825067
11	0x3c2f77ef	0.010709747
12	0x3c42a9dc	0.011881318
13	0x3d360ea3	0.044447552
14	0xbfff0a24	-1.992497
15	0xc02819eb	-2.626582
16	0x3acee58c	0.0015784963
17	0xbc336c02	-0.010951044
18	0x3d3b7e67	0.045774844
19	0x3bc75353	0.006082931
20	0x3caf9986	0.02143551
21	0xbccb80d7	-0.024841709
22	0xbc1f370e	-0.009717716
23	0xbcb56862	-0.0221445
24	0x3fdaf478	1.7105856
25	0x3f9c2ca6	1.2201126
26	0x401c122b	2.438609
27	0xbc735b0d	-0.014853251
28	0xbfa300a3	-1.2734569
29	0x38c1fc6a	9.249973e-05
30	0xc0997494	-4.7954807
31	0xbcf09378	-0.029367194
32	0xbc066400	-0.008202553
33	0xbcd4d3b5	-0.025979856
34	0x3fda8310	1.7071247
35	0x3cab7bd3	0.020933067
36	0xbc82301f	-0.015892087
37	0x3c069756	0.008214792
38	0x3b6c99e1	0.003610246
39	0x4018c1d1	2.3868296
40	0xbff7cd55	-1.9359537
41	0x3fd36ae8	1.6517
42	0xbcc49053	-0.0239946
43	0xbc049cbf	-0.008094012
44	0xbca6c3de	-0.020357069
45	0x3b834c29	0.0040068817
46	0xbba7a7b5	-0.005116428
47	0xbc65eb3c	-0.014033135
48	0x3ca50d1b	0.02014785
49	0xbcb03779	-0.021510826
50	0xbebc61d4	-0.36793387
51	0x3c9081b6	0.017639976
52	0xbcac1fd3	-0.021011269
53	0xbf015a36	-0.50528276
54	0x3f8acfc7	1.0844659
55	0xbf9d5dab	-1.229421
56	0xbcb1fa41	-0.021725776
57	0x3d065a47	0.03280094
58	0x3c822269	0.015885549
59	0x3fac4133	1.3457397
60	0x3b348dd2	0.0027550352
61	0x3e945ce7	0.2897713
62	0x3f69e0d3	0.9135868
63	0x3cc9a951	0.02461687
64	0x3bdf6ee9	0.0068186414
65	0x3cfdb88e	0.030971792
66	0x3bd24886	0.006417337
67	0xbc9c08d2	-0.019047175
68	0x3cb14c96	0.021642964
69	0x39e0d879	0.00042885894
70	0x3c863c46	0.016386162
71	0x3cb048cf	0.021519093
72	0x3f0ecd73	0.5578224
73	0xbcd3152d	-0.025766933
74	0x400eff19	2.23432
75	0x3aa1396d	0.0012300439
76	0x3b7989e3	0.0038076572
77	0x3b9203d4	0.0044560228
78	0x4006f676	2.1087928
79	0x3ce22554	0.02760569
80	0x3c4147ff	0.01179695
81	0xbc0ce024	-0.008598361
82	0xbc9a41b1	-0.018830152
83	0xbb78701c	-0.003790862
84	0x3f54ca21	0.83120924
85	0x3fb75142	1.4321673
86	0x3b712c13	0.0036799952
87	0xbac7d03c	-0.0015244554
88	0xbe9ee962	-0.31037432
89	0x3b04e8f5	0.0020280455
90	0xc01167d2	-2.2719617
91	0xc025eb17	-2.5924737
92	0xbd10c43f	-0.035343405
93	0xbd45b124	-0.048264638
94	0xbcc203df	-0.023683487
95	0xbc453674	-0.012036908
96	0xc03ea7f8	-2.979002
97	0x3f4ce2da	0.8003365
98	0x3b24c541	0.0025141987
99	0x3c9cce53	0.019141352
100	0xbbcb6af4	-0.006207818
101	0xbcb206ac	-0.021731697
102	0x3c60ece7	0.013728357
103	0xc039caaf	-2.9029958
104	0xbfba8c77	-1.4574116
105	0x3f862c34	1.048224
106	0xc092faf0	-4.593132
107	0x3f532d51	0.8249102
108	0x3ed119b1	0.40839913
109	0xbba290de	-0.004961117
110	0x3c6c284b	0.0144139035
111	0xbadaf6e1	-0.0016705656
112	0xbc243d21	-0.01002434
113	0x3c250f4b	0.010074447
114	0x3fd561d0	1.6670475
115	0xbfe914ce	-1.8209474
116	0x3d2d637c	0.042331204
117	0xc01baa9d	-2.4322884
118	0xbccbb2c1	-0.02486551
119	0x3ca10538	0.019655809
120	0x3d29c14f	0.04144412
121	0x401b0387	2.4220903
122	0x3b5c593e	0.0033622528
123	0xbc56a59c	-0.013101008
124	0xbfa3b140	-1.2788467
125	0x3ed51a37	0.41621563
126	0xbcafccbc	-0.02145993
127	0x3cb23eb3	0.021758413
128	0x3f4c1776	0.797233
129	0x406675cf	3.6009405
130	0xbcf386bc	-0.029727332
131	0xbb5341dd	-0.0032235302
132	0x3c052cfb	0.0081284
133	0xbcc0510c	-0.023476146
134	0x3b9eda58	0.004847806
135	0x3c98da0f	0.018658666
136	0xbcd48a96	-0.02594499
137	0xbf1f9667	-0.6233887
138	0xbca0a809	-0.019611375
139	0xb84cb649	-4.8807156e-05
140	0xbb8217c6	-0.003970119
141	0xbfc37446	-1.5269859
142	0x3f319989	0.693749
143	0xbc95b491	-0.018274577
144	0xbf9b9cdc	-1.2157245
145	0xbb049682	-0.0020231311
146	0x3cc4b5cc	0.024012469
147	0xbfdd9647	-1.7311486
148	0xc014037d	-2.312713
149	0x3cefcb41	0.029271724
150	0xbb4318e0	-0.0029769465
151	0xc01dd6c7	-2.466234
152	0x3ce9f900	0.028561115
153	0xbf97abdb	-1.1849321
154	0x3d02c094	0.031921938
155	0x3d1a04e3	0.037602317
156	0x3c133f03	0.008987191
157	0x3fe5a6df	1.794155
158	0x3b942cb7	0.004521932
159	0xbca61dba	-0.020277847
160	0xbc9b4cd9	-0.018957542
161	0xbfcf427d	-1.6192166
162	0x3cbca3b0	0.023027271
163	0x3c249ddc	0.010047402
164	0xbee6cd1c	-0.4507836
165	0xbbe7c839	-0.007073429
166	0x3f953ed3	1.1659797
167	0x3fba7b0b	1.45688
168	0x4046cb8f	3.1061742
169	0xbcf4ddb3	-0.02989087
170	0xbca7a673	-0.020465111
171	0x3ab8356d	0.0014054008
172	0x3bee2839	0.0072679785
173	0xbad32bb8	-0.0016111052
174	0x3f09c131	0.5381041
175	0x3f96cfb8	1.1782141
176	0x3d765532	0.060139842
177	0xbd0caf25	-0.03434672
178	0xbd1388ec	-0.03601925
179	0x3b955946	0.0045577614
180	0xbc758d1f	-0.014987259
181	0xc00568f5	-2.084531
182	0xc0a5ff65	-5.187426
183	0xb812d770	-3.5009754e-05
184	0x3f6dedcb	0.9294097
185	0xbc550d73	-0.013003695
186	0xbc9a1c1d	-0.018812234
187	0x3f170434	0.5899079
188	0x3ccd466c	0.025057994
189	0x3eb694bd	0.35660353
190	0xbfea580f	-1.8308123
191	0xbca0e57e	-0.01964068
192	0xbf86264d	-1.0480438
193	0x3c54a722	0.012979301
194	0xc091e65f	-4.5593715
195	0x4036d3f7	2.8566873
196	0x3c0d8c17	0.008639357
197	0x3b909299	0.004412007
198	0x3ffcf97e	1.9763639
199	0x3cde153d	0.027109737
200	0xbf8beab5	-1.0931002
201	0x3c6a1ac8	0.014288612
202	0xbfc28b9a	-1.5198853
203	0x3c8176a7	0.015803648
204	0x4027777f	2.6166685
205	0x3f9c8a10	1.2229633
206	0x4015e160	2.3418808
207	0xbc15e2d4	-0.009148318
208	0x3b5f8a91	0.0034109692
209	0x4029be75	2.6522496
210	0x3ca7b558	0.020472214
211	0x3c461fc3	0.0120925335
212	0xbfd6d22b	-1.6782888
213	0x3cdd0166	0.026978206
214	0xbf995907	-1.1980294
215	0x3ca64bf6	0.020299893
216	0xbcf0f0e1	-0.029411735
217	0xbf6d42fe	-0.92680347
218	0x3cd3ec8f	0.025869636
219	0xbf9135bf	-1.1344527
220	0xc084bedb	-4.148298
221	0x3df6c852	0.12049927
222	0xbf492a6c	-0.78580356
223	0x3f77ff6c	0.9687412
224	0xbf2ddb5e	-0.6791285
225	0xbeaeb363	-0.34121236
226	0x400a6f7c	2.1630545
227	0xc06771e5	-3.6163266
228	0x3c5f353d	0.013623533
229	0xbfdc2f32	-1.7201903
230	0xc00717a2	-2.1108174
231	0xbcf64f9a	-0.030067254
232	0x3c526d7a	0.012843484
233	0x3c74ccc6	0.0149414
234	0xc0422881	-3.0337222
235	0x3c417a34	0.011808921
236	0xbca6acf9	-0.020346152
237	0xbcfd2551	-0.030901583
238	0x3c53bee5	0.012923931
239	0xc007fb7e	-2.1247249
240	0x3da5073c	0.080580205
241	0x3b584b6a	0.0033003935
242	0xbc0e76a5	-0.008695279
243	0x3d2bf4da	0.041981556
244	0xbab21553	-0.0013586677
245	0xbc98b426	-0.018640589
246	0x3fb77aab	1.433431
247	0x3c079c2c	0.00827698
248	0x3c94da58	0.01817052
249	0x3c9a3440	0.018823743
250	0xc00caa64	-2.1978998
251	0x3f524b09	0.82145745
252	0xbc74d0cb	-0.014942358
253	0x3c22fb43	0.009947601
254	0x3a453cb8	0.00075240014
255	0x3b903bc2	0.004401655
