results/c_4_0/496005_except/q_func2.pt (torch, 502309 bytes, 5 tensors)

1.weight f4 [400, 10]
0	0x3e804b75	0.2505757
1	0x3f8695ed	1.0514504
2	0xbd543280	-0.051805973
3	0x3e29dfd4	0.1658929
4	0x400ff390	2.2492409
5	0x3ebf25e1	0.37333587
6	0xbee2cbfc	-0.44296253
7	0xbf3e08d1	-0.742322
8	0xbbb41bf0	-0.0054964945
9	0x3e118396	0.14210352
10	0x3f82fded	1.0233742
11	0x3f6f4ffb	0.93481416
12	0x3ec48668	0.38383794
13	0xbdd39059	-0.103302665
14	0x3f550a66	0.8321899
15	0x3e2da035	0.16955645
16	0xbe2af46a	-0.16694799
17	0xbcdc90da	-0.02692454
18	0x3e626d6c	0.22112054
19	0x3e138fba	0.14410296
20	0x3fa4b336	1.2867191
21	0x3f5a6fa9	0.8532663
22	0xbf756acc	-0.95866084
23	0x3fb2b2b2	1.3960783
24	0xbfee6429	-1.8624316
25	0xbf7967f0	-0.9742422
26	0xbf358975	-0.7091287
27	0xbf87846b	-1.0587286
28	0xbf8129fb	-1.0090936
29	0xbe232e8b	-0.15935723
30	0xbe9b1517	-0.30289528
31	0xc02848c4	-2.6294413
32	0xbd0fc431	-0.035099212
33	0xbdf73a6f	-0.12071692
34	0xbf9cbd24	-1.2245221
35	0xbc0dabd0	-0.00864692
36	0x3f45143d	0.76984006
37	0x3e70cdb7	0.23515974
38	0xbfc8ded7	-1.5693005
39	0xbbbb6f58	-0.0057200603
40	0xc0052843	-2.0805824
41	0x3ebe2280	0.37135696
42	0x3e8c8a35	0.27449194
43	0xbed982a2	-0.42482477
44	0xc01a94f4	-2.4153414
45	0x3e82089a	0.25397187
46	0xbf1f65c7	-0.62264675
47	0xbf5d45ae	-0.8643445
48	0xbe92d7cd	-0.28680268
49	0xbd6a471c	-0.05719672
50	0xbf4068a9	-0.751597
51	0xbfd5fed7	-1.6718396
52	0xc00ba84e	-2.1821475
53	0x3c8af300	0.016961575
54	0xbff561ea	-1.9170506
55	0xbecd849f	-0.40140244
56	0x3f3efd55	0.74605304
57	0xbf91d7a1	-1.139393
58	0xbeb4ffa3	-0.35351285
59	0xbcde0c1a	-0.02710538
60	0x401f8110	2.4922523
61	0x3f381d31	0.7191954
62	0xc001c7bb	-2.0278156
63	0x3e2900f5	0.16504271
64	0xbfe6c04c	-1.8027434
65	0xbf88c21e	-1.068424
66	0xbf5f7e00	-0.87301636
67	0xbe1d088d	-0.15335293
68	0x3ecae14b	0.3962501
69	0xbdadfb2a	-0.08495171
70	0xbeca9fde	-0.39575094
71	0xbee07808	-0.43841577
72	0x3eb57c3b	0.35446343
73	0xbfaaed54	-1.3353677
74	0xbfa6bd85	-1.3026587
75	0x3f8e8e09	1.1137096
76	0xbf63b8ae	-0.88953674
77	0x3d364603	0.044500362
78	0xbdeccbec	-0.115623325
79	0x3cb0cb29	0.02158125
80	0x3efb699f	0.4910402
81	0xbf6a7cab	-0.9159648
82	0xbe887606	-0.26652545
83	0xbf699c9b	-0.91254586
84	0xbdd0fd21	-0.102045305
85	0xbf42bf5b	-0.76073235
86	0xbd5b8c8c	-0.053600833
87	0xbf140bab	-0.57830304
88	0xbef9083b	-0.48639092
89	0xbd4f7b9d	-0.050654996
90	0x402f90a4	2.7432032
91	0xbee20031	-0.4414077
92	0xbe483938	-0.19553077
93	0xbef1c672	-0.47221714
94	0x3e8e1908	0.27753472
95	0x3f5e1dbe	0.8676413
96	0xbf62dd1a	-0.88618624
97	0xbec59f36	-0.3859803
98	0x3da49dda	0.0803792
99	0x3d4e75d1	0.050405327
100	0x3f5251f4	0.821563
101	0xc001a50f	-2.0256994
102	0xbfa61cd3	-1.2977546
103	0xbf92daa3	-1.1472973
104	0xc0009526	-2.0091033
105	0xbf8cb2ce	-1.0992067
106	0xbf0dc2f8	-0.55375624
107	0xbf564038	-0.8369174
108	0xbf075174	-0.5285866
109	0xbe5dfe14	-0.21678954
110	0xc0a09852	-5.018594
111	0x4015f1b7	2.342878
112	0xbf2e4419	-0.6807266
113	0xbfabf6f2	-1.3434737
114	0x3ec35e82	0.3815804
115	0xbf0b58d0	-0.5443239
116	0xbf59eecb	-0.85129994
117	0xbd015759	-0.03157744
118	0xbba07482	-0.0048967013
119	0xbd271c1f	-0.040798303
120	0xbf4a903b	-0.7912633
121	0xbfe3bbdb	-1.7791704
122	0x3e5378c3	0.20651536
123	0xbe8fcc1c	-0.2808541
124	0xbff76de8	-1.9330416
125	0xbe949c5f	-0.29025552
126	0xbf2bac46	-0.67059743
127	0xbefe12bf	-0.49623677
128	0xbf113329	-0.5671869
129	0xbde4ebea	-0.111778095
130	0xc0103de8	-2.2537785
131	0x3f5aeb9e	0.85515773
132	0x3e12d967	0.14340745
133	0xbffd72d7	-1.9800671
134	0x3fa00b81	1.2503511
135	0x3f3fd205	0.7492984
136	0xbf98aa9d	-1.1927067
137	0xbf6c0db6	-0.9220842
138	0xbf5dc292	-0.86625016
139	0xbbc6343a	-0.0060487064
140	0x3f5b078f	0.8555841
141	0xbf26d5e9	-0.6517015
142	0x3f86eec5	1.0541617
143	0x3f802850	1.0012302
144	0x3ee0e0a0	0.43921375
145	0x3e37096f	0.17874692
146	0xbf93630d	-1.1514603
147	0xbe4082ab	-0.18799846
148	0xbf8266d3	-1.018763
149	0x3e26c404	0.16285712
150	0x3fbde871	1.483656
151	0xbfc78eef	-1.5590495
152	0x3ee3bd33	0.44480285
153	0xbee9a3bc	-0.45632732
154	0xbfafed91	-1.3744375
155	0x3edb5c53	0.42843875
156	0xbcfefa2b	-0.031125149
157	0x3d8111a0	0.0630219
158	0xbeb20036	-0.34765786
159	0x3db9c87e	0.09071444
160	0x3f0c8ee5	0.5490554
161	0xbfb288d4	-1.3948007
162	0xbe8f8c70	-0.28036833
163	0x400d310b	2.2061183
164	0x3f03d85c	0.51502013
165	0xbea4969f	-0.32146165
166	0xbaa72f44	-0.0012755175
167	0xbcc98d26	-0.024603438
168	0xbf021fe6	-0.50829923
169	0xbc8ce1fa	-0.017197598
170	0xc07f02bd	-3.9845421
171	0x3fce76ca	1.6130002
172	0x3e260670	0.16213393
173	0xbf1b9057	-0.6076712
174	0x3f260d80	0.6486435
175	0x3d7e7916	0.062127195
176	0x3e4df393	0.20112447
177	0xbdcf0312	-0.101080075
178	0xbbdd3bc6	-0.0067515103
179	0x3b9e8024	0.004837053
180	0x3e9a6a20	0.30159092
181	0xbeeef888	-0.4667399
182	0xbff10ed4	-1.883265
183	0x3e34c53d	0.17653365
184	0xc00e9574	-2.227872
185	0xbfa4d4a9	-1.2877399
186	0xbe76c6af	-0.2409923
187	0xbdef076e	-0.11671339
188	0xbf0e87ed	-0.55676156
189	0xbe25f9bb	-0.16208546
190	0x3fa9603c	1.3232493
191	0x3f763211	0.96170145
192	0xbf96ee95	-1.179156
193	0xbec374e9	-0.38175133
194	0x4058a6d6	3.3851829
195	0x3f15ddf0	0.58541775
196	0x3ea9b252	0.3314386
197	0xbf626b92	-0.8844539
198	0x3e9be8f9	0.30451182
199	0x3d088d58	0.03333792
200	0xbf9a6679	-1.2062522
201	0xbf6a598e	-0.915429
202	0xbe7b373c	-0.24532789
203	0xbf97ea13	-1.1868309
204	0xc00aa640	-2.166397
205	0xbf606025	-0.87646705
206	0xbfa5f008	-1.2963877
207	0xbef4cd0d	-0.4781269
208	0xbf76a58a	-0.9634634
209	0xbe6060d3	-0.21911936
210	0xbfd8a639	-1.6925727
211	0x3f649430	0.89288616
212	0x3f21be6c	0.63181186
213	0x3efc14cc	0.49234617
214	0xc04fc10b	-3.2461574
215	0xbee2e76e	-0.44317192
216	0xbf8a8425	-1.0821577
217	0xbf301ed7	-0.6879706
218	0x3ebf7559	0.37394217
219	0xbd0b9a4d	-0.0340827
220	0x406672d3	3.6007583
221	0x3f684b2b	0.907397
222	0xbf03fb1c	-0.5155504
223	0x3ee4bdc4	0.4467603
224	0xbf910a22	-1.1331217
225	0xbe9a21b6	-0.30103844
226	0xbeca42a7	-0.39503977
227	0xbe5e1803	-0.21688847
228	0x3da3cfe2	0.07998635
229	0xbaadcf91	-0.0013260712
230	0xc04d586c	-3.2085218
231	0x3ff73315	1.9312464
232	0x3efd508e	0.4947552
233	0x3ed2d241	0.41176036
234	0x3f941e50	1.1571751
235	0x3e6c6165	0.23084028
236	0xbc4fa5d8	-0.012673818
237	0xbf76cd92	-0.96407425
238	0xbd7665fb	-0.06015585
239	0x3cac36c0	0.0210222
240	0xc0beb231	-5.959252
241	0x3ef5832a	0.47951633
242	0x3f666bfa	0.9000851
243	0xbfe45cba	-1.7840798
244	0xbe7e613b	-0.24841778
245	0x3e526e6a	0.20549932
246	0xbf5351bd	-0.825466
247	0x3eb2582e	0.348329
248	0x3d95405e	0.07287668
249	0x3b7adf92	0.003828023
250	0x3f5b5ea8	0.8569131
251	0x3f3cb58d	0.73714525
252	0xc02fa16a	-2.744227
253	0x4017e150	2.373127
254	0xbfc77bb0	-1.5584621
255	0xbf2ed22f	-0.68289465

1.bias f4 [400]
0	0xbf577bb5	-0.84173137
1	0xbfb232d1	-1.3921758
2	0xbe6977c5	-0.22799595
3	0xbeaaedc1	-0.33384517
4	0xbf3bd4c8	-0.73371553
5	0x3ccd0a55	0.02502934
6	0xbf230af7	-0.63688606
7	0xbf2c95f2	-0.674163
8	0xbe9fe816	-0.31231755
9	0xbf845a57	-1.034007
10	0xbf4de11a	-0.804216
11	0x38afcd43	8.382883e-05
12	0xbf02a217	-0.5102858
13	0xbf4ad740	-0.79234695
14	0xbf515b36	-0.817798
15	0xbf1f52f9	-0.6223598
16	0xbf2708a4	-0.6524756
17	0x3dab9ed0	0.083799005
18	0xbf36c65b	-0.71396416
19	0xbf3fb88e	-0.74890983
20	0xbede7f88	-0.43456674
21	0xbf1af3e3	-0.6052839
22	0xbe94b912	-0.29047447
23	0xbd516407	-0.051120784
24	0xbeb540a8	-0.3540089
25	0xbefd1611	-0.49430898
26	0xbf1f41bb	-0.6220967
27	0xbe9623bc	-0.29324138
28	0xbed32f87	-0.41247198
29	0xbf5ad1b2	-0.8547622
30	0xbf77a2b9	-0.9673267
31	0xbf6e78b1	-0.9315291
32	0xbd5260b1	-0.051361743
33	0xbf22e973	-0.63637465
34	0xbef267f4	-0.47344935
35	0xbebc41a1	-0.3676882
36	0x3d5a83ef	0.053348478
37	0xbf4057cd	-0.75133973
38	0xbf2a9e39	-0.6664768
39	0xbeaf7372	-0.34267765
40	0xbf0701db	-0.52737206
41	0x3e71d7e1	0.23617508
42	0xbf4eb162	-0.80739415
43	0xbd3be143	-0.045869123
44	0xbf53806c	-0.8261783
45	0xbf31541a	-0.69268954
46	0xbf60c811	-0.8780528
47	0xbf44823d	-0.7676123
48	0xbe85f4b7	-0.26163265
49	0xbea1979b	-0.31560978
50	0xbca3b981	-0.019985916
51	0xbc6cb53c	-0.0144475065
52	0xbf6a43f5	-0.91509944
53	0xbf322232	-0.6958343
54	0xbb3ca53e	-0.0028785015
55	0x3ecb7a3e	0.397417
56	0xbe7a4dbd	-0.24443717
57	0xbf0c2f32	-0.54759514
58	0xbf790569	-0.9727388
59	0xbec49eb3	-0.38402328
60	0xbf5d8182	-0.8652574
61	0xbf4916d4	-0.7855046
62	0x3ec156e6	0.3776161
63	0xbef6085e	-0.4805326
64	0xbf4d5f5d	-0.8022364
65	0xbf505d33	-0.8139221
66	0xbc3f70eb	-0.011684637
67	0xbf59ce91	-0.8508082
68	0xbe8a2915	-0.26984468
69	0xbf0a7af6	-0.54093874
70	0xbf64ce79	-0.8937755
71	0xbe985bc4	-0.29757512
72	0xbf15d3ac	-0.5852611
73	0xbf170357	-0.5898947
74	0xbead1608	-0.3380587
75	0xbea833d8	-0.32852054
76	0xbf746734	-0.95469975
77	0xbf768d75	-0.96309596
78	0xbf50208d	-0.8129967
79	0xbf1b198c	-0.60585856
80	0xbf31bcbb	-0.69428605
81	0xbf2ec73a	-0.68272746
82	0xbf290bd1	-0.66033655
83	0xbf02dee9	-0.51121384
84	0x3e2e6da2	0.17034009
85	0x3e8cb20b	0.27479586
86	0xbd60ee44	-0.054914728
87	0xbf871309	-1.0552684
88	0xbf5561e5	-0.833525
89	0xbf4cb963	-0.7997038
90	0x3c9deb33	0.01927719
91	0xbec75ebd	-0.38939467
92	0xbd4ff417	-0.05076989
93	0xbef0eb31	-0.47054437
94	0x3e50f055	0.2040418
95	0xbe75b245	-0.23993786
96	0xbd8f7f39	-0.07006688
97	0xbf58df65	-0.84715873
98	0x3eb5e97f	0.35529706
99	0xbf426a0b	-0.7594306
100	0xbf4eac8d	-0.8073204
101	0x3dd7d708	0.10539061
102	0xbf35fcaf	-0.7108869
103	0xbf765162	-0.9621793
104	0x3e412192	0.18860462
105	0xbf80195e	-1.0007741
106	0xbf57592f	-0.8412046
107	0xbf718a26	-0.9435142
108	0x3ea37a6e	0.31929344
109	0xbe538431	-0.20655896
110	0xbde37f51	-0.11108268
111	0xbf599275	-0.849891
112	0xbf5e9e97	-0.8696074
113	0xbe8c2e64	-0.27379143
114	0x3e78406c	0.24243325
115	0xbefdbcf6	-0.49558228
116	0xbe9568af	-0.2918143
117	0xbeb5841e	-0.3545236
118	0xbe800610	-0.25004625
119	0xbf0832d9	-0.5320259
120	0x3d28daaf	0.041224178
121	0xbe577c77	-0.21043573
122	0xbf7cbfaa	-0.98729956
123	0xbee9f5f1	-0.4569545
124	0xbf43b6c4	-0.76450753
125	0xbf265b90	-0.64983463
126	0xbe83ed5b	-0.25767025
127	0xbf2aa208	-0.6665349
128	0xbf11732d	-0.5681637
129	0xbf95f794	-1.171618
130	0x3e0a1e78	0.13488185
131	0xbf38ac2d	-0.7213772
132	0xbf04ea57	-0.51920074
133	0xbf2cbf4f	-0.67479414
134	0x3d006239	0.031343672
135	0xbf4d9fdc	-0.8032205
136	0x3e833602	0.25627142
137	0xbf2b8596	-0.6700071
138	0xbefe8d49	-0.49717167
139	0x3d5c1add	0.053736556
140	0xbec9f977	-0.3944814
141	0xbead8d20	-0.33896732
142	0xbe37fd2c	-0.17967671
143	0xbedb2fb3	-0.4280983
144	0xbf48962d	-0.7835415
145	0xbeae0b0a	-0.33992797
146	0xbef648aa	-0.48102313
147	0xbe594591	-0.21217944
148	0xbea537a6	-0.3226902
149	0xbee1e1ae	-0.44117492
150	0xbeed390e	-0.46332592
151	0xbf357f66	-0.7089752
152	0xbf36ba19	-0.7137771
153	0xbe8e877d	-0.27837744
154	0x3eb6567b	0.35612854
155	0xbf3bfe21	-0.73434645
156	0xbf0f771e	-0.56041133
157	0xbce57edf	-0.028014598
158	0xbf7dfd04	-0.99214196
159	0xbf568590	-0.8379755
160	0xbd57f704	-0.052725807
161	0x3e22a677	0.15883814
162	0xbf7160ba	-0.9428822
163	0xbf065d9d	-0.5248659
164	0xbf22236c	-0.633353
165	0xbf46cba1	-0.77654463
166	0xbe9e0486	-0.30862826
167	0xbee78d77	-0.45225117
168	0xbf19b9b3	-0.6004898
169	0xbe1ae5eb	-0.15126769
170	0xbea55ba7	-0.32296488
171	0xbe69bf27	-0.22826825
172	0xbe452bf3	-0.19255047
173	0xbf1d0fd1	-0.6135226
174	0xbf0cfb27	-0.5507073
175	0xbf1a5c41	-0.6029702
176	0xbf24e9f2	-0.6441947
177	0xbe809442	-0.25113112
178	0xbee360b8	-0.44409728
179	0x3ee33bc2	0.4438153
180	0xbf1169b3	-0.5680191
181	0xbecd4950	-0.40094995
182	0xbf07d659	-0.53061444
183	0x3eb0468a	0.34428817
184	0xbf4498d2	-0.76795685
185	0xbf14fde1	-0.5819989
186	0x3ecf07e3	0.40435705
187	0xbe837741	-0.2567692
188	0xbecb7599	-0.39738157
189	0xbec5d443	-0.38638505
190	0xbebcf684	-0.36906826
191	0x3ead0d51	0.33799222
192	0x3c709314	0.014683504
193	0xbf644a8b	-0.89176244
194	0xbf143d98	-0.57906485
195	0xbd9eba02	-0.07750322
196	0xbf5786e3	-0.84190196
197	0xbe877d5f	-0.26462838
198	0xbf014b6a	-0.505057
199	0xbf2677a0	-0.65026283
200	0xbf9fbab4	-1.2478852
201	0xbf4e590d	-0.8060463
202	0xbf5bd5ec	-0.85873294
203	0x3da82a63	0.082112096
204	0xbf64010d	-0.89064103
205	0xbf298a54	-0.66226697
206	0xbe34820b	-0.17627732
207	0xbefa8a64	-0.4893371
208	0xbf17ec71	-0.59345156
209	0xbfa1d343	-1.2642597
210	0xbe9ee251	-0.3103204
211	0xbf895265	-1.072827
212	0x3da8f37b	0.08249565
213	0xbf8c993f	-1.0984267
214	0xbe7224e9	-0.23646893
215	0xbf86dd6f	-1.0536326
216	0xbee155d1	-0.44010785
217	0xbf4bc857	-0.7960257
218	0xbf3b707a	-0.732185
219	0x3ec3c6ed	0.38237706
220	0x3e011e9a	0.1260933
221	0xbf9a3c1d	-1.2049595
222	0xbf8eaf6a	-1.1147282
223	0xbe47f262	-0.19526055
224	0xbedd38b3	-0.4320732
225	0xbf7477b4	-0.9549515
226	0xbf2885ed	-0.65829355
227	0xbefe99b8	-0.49726653
228	0x3e9f18c5	0.31073585
229	0xbead6963	-0.33869466
230	0x3eb1b6e6	0.34709853
231	0xbf4ef7b4	-0.80846715
232	0x3e5eb56a	0.21748891
233	0xbe9f1234	-0.31068575
234	0xbee60567	-0.44925997
235	0xbe9d055b	-0.30668148
236	0x3e61a888	0.22036946
237	0x3da8dd2a	0.08245309
238	0xbde5a798	-0.112136066
239	0xbf48f8b9	-0.7850452
240	0xbea3b32b	-0.31972632
241	0xbf30cb05	-0.69059783
242	0xbe1f4f1a	-0.15557519
243	0xbf3bb3d6	-0.7332128
244	0xbf41c9ee	-0.75698745
245	0xbf4bacb4	-0.795604
246	0xbe7461cb	-0.2386543
247	0xbe6d996f	-0.23203062
248	0x3c90248d	0.017595554
249	0xbf8ac17d	-1.0840298
250	0xbf202f35	-0.6257203
251	0xbf1937ea	-0.59850943
252	0xbdd9184e	-0.10600339
253	0xbf6147ef	-0.88000387
254	0xbdf5cb73	-0.120016955
255	0xbee0120a	-0.43763763

3.weight f4 [300, 400]
0	0xbf5af644	-0.8553202
1	0x3f4ba88f	0.79554075
2	0xbf07850c	-0.5293739
3	0xbfa50154	-1.289103
4	0xbe6cd979	-0.23129834
5	0x3f149e56	0.580541
6	0x3f509445	0.8147624
7	0xbf96ae7d	-1.1772
8	0x3d200ba3	0.039073598
9	0x3c926885	0.017872104
10	0x3f9f5e11	1.2450582
11	0x3f4209ed	0.75796396
12	0x3e48adfc	0.1959762
13	0xbfd47775	-1.6598955
14	0xbfca9801	-1.5827638
15	0x3f3832e0	0.7195263
16	0x3f35aa55	0.7096303
17	0xbfe7aa23	-1.8098797
18	0xbf0811ce	-0.5315217
19	0xbfc65593	-1.5494865
20	0xbf68147b	-0.9065625
21	0xbf012847	-0.50452083
22	0xbe58ccf2	-0.2117193
23	0xbf8ce73a	-1.1008065
24	0xbf04ef3e	-0.51927555
25	0x3cda4096	0.026642125
26	0xc018b108	-2.3858051
27	0xbb478c00	-0.0030448437
28	0xbe4d6b04	-0.20060354
29	0xbe99fbe8	-0.30075002
30	0xbee421aa	-0.44556934
31	0xbf68d383	-0.9094774
32	0xbd04e305	-0.032443065
33	0xbf8bbc2e	-1.0916803
34	0xbe6847ce	-0.22683641
35	0xbfc6f807	-1.5544442
36	0xbfb293bf	-1.3951339
37	0xbe8ae398	-0.27126765
38	0x3f9283b3	1.1446441
39	0xc01f416e	-2.4883685
40	0xbf3956e5	-0.72398216
41	0xbce7f77e	-0.028316256
42	0xc01dc044	-2.46486
43	0x3d828618	0.063732326
44	0xbe3c5a92	-0.18393925
45	0x3f83ceba	1.0297463
46	0xbc86bb34	-0.016446687
47	0xbbee17b7	-0.0072660106
48	0xbf2405ad	-0.6407116
49	0xbd22c31f	-0.039736863
50	0x3f217735	0.6307252
51	0xbe9530a7	-0.2913868
52	0x3fe4f6ef	1.7887858
53	0xbd5bdde0	-0.053678393
54	0xbf01122f	-0.5041837
55	0xbd2a8eb3	-0.041639995
56	0x3e6e58e7	0.23276101
57	0x40026a99	2.0377562
58	0xbf89bf0b	-1.0761427
59	0x3ebc9d54	0.36838782
60	0x3efe4d74	0.49668467
61	0x3f565cea	0.83735526
62	0x3f1570be	0.58375156
63	0xbe6a8f28	-0.22906172
64	0x3d0e4d28	0.03474155
65	0x3f414ef5	0.75511104
66	0xbfb13feb	-1.3847631
67	0x3e30ec2e	0.17277595
68	0x3f26da7f	0.6517715
69	0xbe46edc5	-0.1942664
70	0x3e37591c	0.17905086
71	0xbf8a6bb5	-1.081412
72	0x3ed187cc	0.40923917
73	0xbf906a58	-1.1282454
74	0xbe83c6a0	-0.25737476
75	0xbbcb2c66	-0.006200361
76	0xbf783323	-0.9695303
77	0xbda4abd7	-0.08040588
78	0xbff23afd	-1.8924252
79	0x3fc60001	1.5468751
80	0xbc8a4250	-0.016877323
81	0x3ea90045	0.33008018
82	0x3e827eb2	0.25487286
83	0xbfc43b04	-1.533051
84	0xc06baa07	-3.6822526
85	0xbfe94bcd	-1.8226258
86	0x3f8a5981	1.0808564
87	0xbecdd83f	-0.40204045
88	0xbde149a2	-0.110003725
89	0x3fec3c67	1.8455933
90	0x3f072985	0.5279773
91	0x3db5532b	0.08853754
92	0x3f564408	0.8369756
93	0xbecdf94d	-0.40229264
94	0x3f8f2af1	1.118498
95	0x3e6989ba	0.22806445
96	0xbe128b94	-0.14311057
97	0x3dbd4599	0.0924179
98	0x3f609ee7	0.87742466
99	0xbe553f10	-0.20824838
100	0xbef38533	-0.4756256
101	0x3f898fba	1.0746987
102	0xbf537ab0	-0.8260908
103	0x3e6cadc7	0.23113166
104	0xc084f6fb	-4.155149
105	0xbe026246	-0.12732801
106	0xbf9f1955	-1.2429606
107	0x3e086f5a	0.13323727
108	0xbff914e6	-1.9459503
109	0x3fdda026	1.7314498
110	0x3eae8634	0.34086764
111	0xbef324c5	-0.4748899
112	0xbfd7dfcb	-1.6865171
113	0xbfc0bf71	-1.5058423
114	0x3fb8588a	1.440202
115	0xc085872e	-4.1727514
116	0xc02bf5e0	-2.686882
117	0xbd3778f0	-0.04479307
118	0x3c543afa	0.012953514
119	0xbf7fde83	-0.999489
120	0x3ed13e03	0.40867624
121	0x3dd30352	0.10303368
122	0x3fb38a78	1.4026632
123	0xbfa92c8b	-1.3216718
124	0xc0092103	-2.1426399
125	0x3f0bea3f	0.54654306
126	0xc02ff8e3	-2.7495658
127	0x3f707d66	0.9394134
128	0x3e902074	0.2814976
129	0xbf9e581e	-1.2370641
130	0xbf00645f	-0.50153154
131	0x3f1e7fd3	0.61913794
132	0xbcaf01f4	-0.021363236
133	0x3fc668b3	1.5500702
134	0xbf9e7726	-1.2380111
135	0x3e977dd8	0.295882
136	0x3c4ab1a6	0.012371456
137	0xbeb1f97c	-0.34760654
138	0x3f0a6388	0.5405812
139	0xc0327317	-2.7882745
140	0x3e87c003	0.2651368
141	0xbf719f53	-0.94383734
142	0x3f25a713	0.6470806
143	0x3eadf080	0.3397255
144	0x3f187f61	0.59569365
145	0x3ea706d9	0.32622412
146	0xbd18fadc	-0.037348613
147	0xbd11db28	-0.035609394
148	0xbf2d73ad	-0.6775463
149	0x3eb38243	0.3506032
150	0x3ee02c93	0.43784007
151	0xbfb3ff39	-1.4062263
152	0xbf8add5d	-1.0848805
153	0xbf1e6cd5	-0.61884815
154	0xc0076fb4	-2.1161928
155	0x3ebed590	0.3727231
156	0xbf92b3a5	-1.1461073
157	0x3e795b85	0.24351318
158	0x3e4e0e60	0.20122671
159	0x3bfa9e22	0.0076482454
160	0xbf83d926	-1.0300643
161	0x3ff24f89	1.8930522
162	0xbfebfbd5	-1.8436228
163	0xbfcb1d50	-1.586832
164	0x3fce1f4b	1.61033
165	0xbfbf2cf3	-1.4935592
166	0x3faf55e8	1.3698092
167	0xbfde9f35	-1.7392336
168	0xbfd9891e	-1.699497
169	0xbd1ab879	-0.037773583
170	0xbe6f4e8a	-0.23369804
171	0x3fd547bc	1.6662517
172	0x3eada89a	0.33917695
173	0x3f13983a	0.57654154
174	0x3f936660	1.1515617
175	0xbf8c0ed5	-1.0942026
176	0xbd524108	-0.05133155
177	0xbc65ef2d	-0.014034075
178	0xbf7c3ecc	-0.9853332
179	0xc044ce9f	-3.0751112
180	0xbfd305b0	-1.6486111
181	0xbfda71ad	-1.7065941
182	0x3eb39036	0.35070962
183	0x3e23e564	0.16005474
184	0xbf7babbf	-0.9830894
185	0xbf883fe1	-1.0644494
186	0x3d77ea15	0.060525972
187	0xbe0ce59e	-0.13759467
188	0xbe70557b	-0.23470108
189	0xbf795026	-0.9738792
190	0x3fc9d261	1.5767328
191	0x3f0a5a68	0.540442
192	0xbeabd89c	-0.33563697
193	0xbfa73312	-1.306246
194	0xbf75e55b	-0.96053094
195	0x3f2c5388	0.6731496
196	0x3e215216	0.1575397
197	0xc05d1553	-3.4544265
198	0x401ba9fd	2.4322503
199	0xbed2e79b	-0.41192326
200	0x3eeeb9bf	0.46626088
201	0x3d8600b0	0.065431
202	0xbed71603	-0.4200898
203	0xbfc82654	-1.5636697
204	0x3ecafe80	0.39647293
205	0xbfa8d818	-1.3190947
206	0x3ebfea24	0.37483323
207	0xc029e1ef	-2.654415
208	0xc011bb60	-2.2770615
209	0x3eaf0662	0.34184557
210	0xc045e079	-3.0918257
211	0xbda529a1	-0.08064581
212	0xbf81e9ac	-1.0149436
213	0x3f800c75	1.0003802
214	0xbffc0ca7	-1.9691361
215	0x3eb0fc13	0.34567317
216	0xc013fe57	-2.3123987
217	0xbfb58ab8	-1.4182959
218	0x3ebe488b	0.3716472
219	0x3e73e266	0.23816833
220	0xc06a338f	-3.659397
221	0x3fa01e81	1.2509309
222	0x3ef5aead	0.4798483
223	0xc0e8cca4	-7.2749805
224	0xbf2d4415	-0.6768201
225	0x3eabfbca	0.33590537
226	0xbe3e34c6	-0.18574819
227	0x3e489783	0.19589047
228	0xbe76ca52	-0.24100617
229	0x3fae45d4	1.361506
230	0x3f8ee6ec	1.1164222
231	0x3e67685d	0.22598405
232	0xbfe3318a	-1.7749493
233	0x3dc134ae	0.09433876
234	0x40133137	2.2998788
235	0xbc2e1bcd	-0.010626745
236	0xc000b072	-2.0107694
237	0x3f40b83b	0.75281113
238	0x3f784996	0.96987283
239	0xbd6087ee	-0.054817133
240	0x3ebe8f23	0.3721858
241	0xbfbcd53e	-1.4752576
242	0x402abc0b	2.6677272
243	0x3ce415f7	0.027842505
244	0x3fb93442	1.4469073
245	0xbeeb1df7	-0.459213
246	0xbf6c98a2	-0.924204
247	0xbeb566a2	-0.35429865
248	0xbefa6de9	-0.4891198
249	0xc02711d4	-2.6104631
250	0x3fa556e5	1.2917143
251	0xbe0558f1	-0.1302221
252	0xbeb1d4a3	-0.3473254
253	0xbec6e376	-0.38845414
254	0x3ee7405a	0.45166284
255	0xbe81271a	-0.25225145

3.bias f4 [300]
0	0x3f80faa3	1.0076488
1	0xbd1735d8	-0.036916584
2	0x3c08f750	0.008359745
3	0xbd1317a7	-0.03591123
4	0xbe33f2df	-0.17573117
5	0x3d8aee6a	0.06783755
6	0xbca3992f	-0.019970505
7	0xbda5892c	-0.08082804
8	0xbc9e517b	-0.019325962
9	0xbd8e80cc	-0.0695816
10	0xbe0fda16	-0.14048037
11	0xbcb1600e	-0.021652248
12	0xbd6cc642	-0.05780626
13	0xbd431ceb	-0.047635
14	0x3e1559e1	0.14585067
15	0xbb9fcf0a	-0.004876976
16	0xbd3dd1ac	-0.046342537
17	0xbd765a31	-0.060144607
18	0xbda45213	-0.08023467
19	0xbd79376c	-0.06084387
20	0xbc68ee66	-0.014216995
21	0xbdd37798	-0.10325545
22	0xbd9ff263	-0.078099035
23	0xbdfaeda2	-0.12252356
24	0xbf34f974	-0.70693135
25	0x3fc297e9	1.5202609
26	0x3fa3c907	1.2795724
27	0xbd0568e0	-0.03257072
28	0xbf4b7f98	-0.7949157
29	0xbda18b62	-0.07887913
30	0xbe4755b7	-0.19466291
31	0xbe2b49fc	-0.16727442
32	0xbd868c63	-0.065697454
33	0xbdc92fc3	-0.09823563
34	0x3ead03db	0.33792004
35	0xbdd48888	-0.10377604
36	0xbd8703dd	-0.06592534
37	0xbac91a0d	-0.0015342847
38	0xbd4e2c99	-0.0503355
39	0xbea5c6e0	-0.32378292
40	0x3ec60188	0.38673043
41	0x3f881732	1.0632079
42	0xbda3abd6	-0.079917595
43	0xbd095839	-0.0335314
44	0xbe2ea395	-0.17054589
45	0xbaebbc8f	-0.0017985272
46	0xbc9eb128	-0.019371584
47	0xbdc2ae67	-0.09505921
48	0xbd8a1fd1	-0.0674435
49	0xbd371b01	-0.044703487
50	0xbf11c7b7	-0.56945366
51	0xbc88fb19	-0.016721295
52	0xbd7fa685	-0.062414665
53	0xbe44ba51	-0.19211699
54	0xbe640bd3	-0.22270136
55	0xbf243536	-0.64143693
56	0xbd32ab85	-0.043620605
57	0xbcb35a50	-0.02189365
58	0xbdee01eb	-0.116214596
59	0x3fc5453b	1.5411752
60	0xbd055ceb	-0.032559317
61	0x3f1d8964	0.61537766
62	0x3fbebf9d	1.4902226
63	0x3ec42f73	0.3831745
64	0xbd22279b	-0.039588552
65	0xbd8aca88	-0.06776911
66	0xbd6de53e	-0.05807995
67	0xbd33824a	-0.043825425
68	0xbcfc66c7	-0.030810727
69	0xbc9bccce	-0.019018557
70	0xbd975f41	-0.07391215
71	0xbda1676d	-0.07881055
72	0x3e44796c	0.19186944
73	0xbd24e30f	-0.040255602
74	0x3f8bf2e1	1.0933496
75	0xbd4751b8	-0.048661917
76	0xbd82780a	-0.06370552
77	0xbc7bee6f	-0.015376671
78	0x3f91aa43	1.1380085
79	0xbd8e95c9	-0.06962163
80	0xbd8f6ccf	-0.070031755
81	0xbd70c28d	-0.058779288
82	0xbd028373	-0.03186364
83	0xbd48a690	-0.04898697
84	0x3f855af9	1.0418388
85	0xbf6bad53	-0.92061347
86	0xbbd0c430	-0.0063710436
87	0xbd59055a	-0.05298362
88	0xbeaabf06	-0.33348864
89	0xbd88be67	-0.06676941
90	0xbf055da4	-0.5209601
91	0x3f2913eb	0.6604602
92	0xbd829ffe	-0.06378172
93	0xbb94d273	-0.004541689
94	0x3a60b0f3	0.00085712894
95	0xbb33fe67	-0.0027464868
96	0xbdddc1ec	-0.10828003
97	0xbe4aab30	-0.19791865
98	0xbda154be	-0.078774914
99	0xbc9f431e	-0.019441184
100	0xbcb81fb4	-0.022476055
101	0xbcf26554	-0.029589333
102	0xbcf3f09a	-0.029777814
103	0xbde09fff	-0.10968017
104	0xbc3cbdc6	-0.011519855
105	0x3e6418f4	0.22275144
106	0xbdf438c5	-0.119248904
107	0xbe056f85	-0.13030823
108	0xbdcf7d18	-0.101312816
109	0xbceae50b	-0.02867367
110	0xbbb1b695	-0.005423377
111	0xbd5497e5	-0.05190267
112	0xbc1dd8ac	-0.009634178
113	0xbd17a607	-0.03702357
114	0x3e994458	0.29934955
115	0xbe37ba3e	-0.1794214
116	0xbd1bfd20	-0.038083196
117	0x3f01b616	0.50668466
118	0xbd5c8db2	-0.05384607
119	0xbdad2283	-0.08453848
120	0xbcb3829e	-0.021912869
121	0x3f78c91f	0.97181886
122	0xbd806ae2	-0.06270386
123	0xbe0ec215	-0.13941224
124	0xbf024f46	-0.5090221
125	0x3f17b072	0.5925361
126	0xbddade52	-0.106869355
127	0xbd007f4b	-0.031371396
128	0x3eb31604	0.34977734
129	0x3df8366b	0.121197544
130	0xbd9c5966	-0.07634239
131	0xbcfe98cd	-0.03107872
132	0xbd4c9a0c	-0.049951598
133	0xbd0325c3	-0.032018434
134	0xbd8ec10e	-0.06970416
135	0xbdc1752e	-0.094461784
136	0xbd64f17a	-0.055894352
137	0xbf177f25	-0.5917838
138	0xbc139352	-0.009007292
139	0xbdb497e4	-0.08818033
140	0xbd083043	-0.03324915
141	0xbca433c9	-0.020044224
142	0x3e2f7124	0.17133003
143	0xbbd33df2	-0.0064465934
144	0x3ebc0f14	0.36730254
145	0xbcca5a48	-0.024701253
146	0xbd5608cc	-0.052254483
147	0x3f0ecafd	0.55778486
148	0xbdc47cc3	-0.09594109
149	0xbd5b1a75	-0.05349203
150	0xbdc0b1b0	-0.09408891
151	0x3edb41f7	0.42823765
152	0xbe3b72fa	-0.18305579
153	0xbea588d3	-0.3233095
154	0xbd7d7da6	-0.061887406
155	0xbc5094ec	-0.012730818
156	0xbc8cf4e3	-0.017206615
157	0x3ef737bd	0.48284712
158	0xbd961c69	-0.073296376
159	0xbd24a99a	-0.040200807
160	0xbe095821	-0.13412525
161	0x3edad812	0.42742974
162	0xbc728adc	-0.0148036145
163	0xbc60de14	-0.013724823
164	0xbda7c0d1	-0.08191074
165	0x3ac077fe	0.0014684198
166	0x3dcffa03	0.10155108
167	0x3fedfe29	1.8593189
168	0x3e8f711c	0.28015983
169	0x3e1ab64c	0.15108603
170	0xbcfc32ef	-0.030786006
171	0xbd9a847c	-0.07544801
172	0xbb1a61e1	-0.0023556876
173	0xbd8e5111	-0.06949056
174	0x3e29c9f2	0.16580942
175	0x3f14b2c7	0.5808529
176	0xbc91d6a1	-0.017802538
177	0xbd361b97	-0.044459905
178	0xbda9952f	-0.08280408
179	0x3b7b839c	0.0038378006
180	0xbd36d4df	-0.044636603
181	0x3e91b30b	0.2845691
182	0x3f001bef	0.50042623
183	0xbdafca87	-0.08583551
184	0xbdaf883c	-0.085709065
185	0xbc97e5d8	-0.018542215
186	0xbe049438	-0.12947166
187	0x3e3136ad	0.17306013
188	0xbce7b5a9	-0.028284865
189	0xbca5fd91	-0.020262511
190	0xbed4381f	-0.41449067
191	0xbd919142	-0.07107784
192	0x3e5a3350	0.21308637
193	0xbd2e1217	-0.04249772
194	0x3dea3eec	0.11437783
195	0x3faf1750	1.367899
196	0xbd632602	-0.05545617
197	0xbc8cf6f6	-0.017207604
198	0xbe82c32d	-0.25539532
199	0xbd2ab81a	-0.04167948
200	0x3e3bd85c	0.18344253
201	0xbdb1f2d6	-0.086888954
202	0x3d987834	0.07444802
203	0xbd28d009	-0.041214023
204	0x3ee87365	0.4540054
205	0x3f8ede7d	1.1161648
206	0x3f563493	0.8367397
207	0xbd36d601	-0.044637684
208	0xba87274a	-0.0010311392
209	0x3e54dcb7	0.20787321
210	0x3c341713	0.010991829
211	0xbd4e90be	-0.050431006
212	0xbe2749b2	-0.16336706
213	0x3b00298d	0.0019556016
214	0x3d8cb854	0.06871095
215	0xbd9df405	-0.07712559
216	0xbd3115f9	-0.043233845
217	0xbd33f61c	-0.04393588
218	0xbc12c3fb	-0.008957858
219	0x3e516d9a	0.20451966
220	0xbe935194	-0.28773177
221	0xbd1ee8db	-0.038796287
222	0xbe30d7b5	-0.17269786
223	0x3f4370ca	0.7634398
224	0xbf6c5ac6	-0.9232601
225	0xbee33c8f	-0.4438214
226	0x3f5e9d10	0.8695841
227	0x3e7fd0bf	0.24981974
228	0xbd30a0c5	-0.04312207
229	0xbf360e9b	-0.71116036
230	0xbde06677	-0.109570436
231	0xbd41e1a4	-0.04733433
232	0xbd8ef130	-0.069795966
233	0xbd9010c6	-0.07034449
234	0x3ea57f64	0.32323754
235	0xbd0d1148	-0.03444031
236	0xbc5d6a5f	-0.01351413
237	0xbd8440dd	-0.06457684
238	0xbb11fa81	-0.0022274556
239	0x3d337e34	0.04382153
240	0xbd95d504	-0.0731602
241	0xbc8297d6	-0.015941542
242	0xbd0c5dd7	-0.03426918
243	0xbd729758	-0.059226364
244	0xbdb1e49a	-0.086861804
245	0xbd0d8396	-0.03454932
246	0x4014c184	2.3243113
247	0xbd83e6c8	-0.064405024
248	0xbdd5d0b8	-0.104402006
249	0xbddb9ccb	-0.10723265
250	0xbefd9eb4	-0.49535143
251	0x3e3f2152	0.18665054
252	0xbc935a57	-0.017987413
253	0xbd234756	-0.039862953
254	0x3d44e19a	0.048066713
255	0xbd980236	-0.07422297

5.weight f4 [1, 300]
0	0x4006fbd9	2.1091216
1	0xbc6d98bb	-0.014501746
2	0x3c3c6061	0.011497588
3	0x3c9d6cee	0.01921698
4	0xbf926865	-1.1438109
5	0x3f9493ed	1.1607643
6	0xbcce8668	-0.025210574
7	0x3c85bb12	0.016324554
8	0xbbfdf01e	-0.0077495715
9	0x3c71ee09	0.014766225
10	0x3cfc84da	0.030825067
11	0x3c0000e6	0.007812714
12	0x3c42a9dc	0.011881318
13	0x3d360ea3	0.044447552
14	0xbfb2d6e1	-1.3971826
15	0xc00d7fc3	-2.210923
16	0x3acee58c	0.0015784963
17	0xbc336c02	-0.010951044
18	0x3c80afa1	0.015708746
19	0x3bc75353	0.006082931
20	0x3c53227c	0.01288664
21	0xbccb80d7	-0.024841709
22	0xbb46b79d	-0.0030321844
23	0x3c1c69b9	0.009546691
24	0x3fe097dc	1.7546344
25	0x3fa071ea	1.2534764
26	0x4059b9a2	3.4019551
27	0x3c889bd5	0.016675869
28	0xbffcce3c	-1.9750438
29	0x38c1fc6a	9.249973e-05
30	0xc0b74ce0	-5.728134
31	0x3b198a93	0.0023428544
32	0xbc066400	-0.008202553
33	0x3b8adf85	0.0042380714
34	0x3ffab77b	1.9587244
35	0x3cab7bd3	0.020933067
36	0xbc82301f	-0.015892087
37	0x3c069756	0.008214792
38	0x3b6c99e1	0.003610246
39	0x4002472d	2.0355942
40	0xc0823645	-4.0691247
41	0x402cfa42	2.7027745
42	0xbcc49053	-0.0239946
43	0xbc049cbf	-0.008094012
44	0x3c3a3424	0.01136497
45	0x3b834c29	0.0040068817
46	0xbba7a7b5	-0.005116428
47	0xbc65eb3c	-0.014033135
48	0x3ca50d1b	0.02014785
49	0xbcb03779	-0.021510826
50	0xbf0d8692	-0.55283463
51	0x3c9081b6	0.017639976
52	0xbcac1fd3	-0.021011269
53	0xbe8fc901	-0.2808304
54	0x3fec3930	1.8454952
55	0xbfdccfb7	-1.725089
56	0xbcb1fa41	-0.021725776
57	0x3d065a47	0.03280094
58	0x3c822269	0.015885549
59	0x3fd255fb	1.6432489
60	0x3b348dd2	0.0027550352
61	0x40734201	3.8009036
62	0x3f1cb946	0.61220205
63	0x3fff0b88	1.9925394
64	0x3bdf6ee9	0.0068186414
65	0xbcb4165d	-0.02198332
66	0xbcc6a3e5	-0.024248073
67	0xbc9c08d2	-0.019047175
68	0xba5188df	-0.00079931127
69	0x39e0d879	0.00042885894
70	0x3c863c46	0.016386162
71	0x3cb048cf	0.021519093
72	0x3ef1e9db	0.4724873
73	0x3b152e09	0.0022763035
74	0x3fc569ae	1.5422876
75	0x3aa1396d	0.0012300439
76	0x3b7989e3	0.0038076572
77	0x3b9203d4	0.0044560228
78	0x4080a7b4	4.0204716
79	0x3ce22554	0.02760569
80	0x3c4147ff	0.01179695
81	0x3cbc4086	0.022979986
82	0xbc9a41b1	-0.018830152
83	0xbb78701c	-0.003790862
84	0x3f816895	1.0110041
85	0x400d6996	2.2095695
86	0x3b712c13	0.0036799952
87	0xbac7d03c	-0.0015244554
88	0xbf2b0182	-0.66799176
89	0xbc56c91f	-0.013109474
90	0xbfffc06a	-1.9980595
91	0xc03bc65d	-2.9339821
92	0xbd10c43f	-0.035343405
93	0xbd45b124	-0.048264638
94	0xbcc203df	-0.023683487
95	0xbc453674	-0.012036908
96	0xc0480b57	-3.1256921
97	0x3ecda3b2	0.40163952
98	0x3b24c541	0.0025141987
99	0xbc0492ec	-0.0080916695
100	0xbbcb6af4	-0.006207818
101	0x3bfe0ae2	0.007752762
102	0xbccb5b20	-0.024823725
103	0xc08de31b	-4.433973
104	0xc006be18	-2.1053524
105	0x4035b5d0	2.839222
106	0xc06f6cc9	-3.7410147
107	0x3f4d6c94	0.802438
108	0x3f4fb595	0.8113645
109	0xbba290de	-0.004961117
110	0x3c6c284b	0.0144139035
111	0xbadaf6e1	-0.0016705656
112	0xbc243d21	-0.01002434
113	0xbca9714e	-0.02068391
114	0x3fe5fdbf	1.7968062
115	0xbfd27cc5	-1.6444327
116	0x3d2d637c	0.042331204
117	0xc0184886	-2.3794265
118	0xbccbb2c1	-0.02486551
119	0xbc3b4aa2	-0.011431368
120	0x3d29c14f	0.04144412
121	0x4029bb7b	2.652068
122	0xbba76511	-0.0051084836
123	0xbc56a59c	-0.013101008
124	0xc06bcffa	-3.684569
125	0x40a4c95f	5.1495814
126	0x3c111ece	0.008857442
127	0x3cb23eb3	0.021758413
128	0x3fc60b47	1.5472192
129	0x3fff5177	1.9946736
130	0x3ce2d342	0.027688626
131	0xbb5341dd	-0.0032235302
132	0x3c052cfb	0.0081284
133	0xbcc0510c	-0.023476146
134	0x3b9eda58	0.004847806
135	0x3c98da0f	0.018658666
136	0xbcd48a96	-0.02594499
137	0xbee03e49	-0.4379752
138	0xbca0a809	-0.019611375
139	0x3c3eb989	0.011640915
140	0xbb8217c6	-0.003970119
141	0xbfcb4427	-1.5880173
142	0x3f3422c3	0.7036554
143	0xbc95b491	-0.018274577
144	0xbf13aaf8	-0.5768275
145	0xbb049682	-0.0020231311
146	0xbbe96002	-0.0071220407
147	0xc02bbe1b	-2.683478
148	0xc03317ce	-2.798328
149	0xbb1fa5ac	-0.0024360223
150	0x3ce0cdd5	0.027441898
151	0xc0437667	-3.0541017
152	0x4002404d	2.0351746
153	0xc00e9b7f	-2.2282407
154	0x3c8f86b0	0.017520279
155	0x3c0a625c	0.008446302
156	0x3c133f03	0.008987191
157	0x40138a4e	2.3053164
158	0x3b93d44b	0.0045113913
159	0xbca61dba	-0.020277847
160	0xbcad97fd	-0.021190638
161	0xc0767e76	-3.8514686
162	0x3cbca3b0	0.023027271
163	0xbc87741f	-0.016534863
164	0xbf2582ee	-0.6465291
165	0xbbe7c839	-0.007073429
166	0x3f28b234	0.65896916
167	0x3fb4ae01	1.4115602
168	0x3f929a95	1.1453425
169	0xc03a3865	-2.909692
170	0xbca7a673	-0.020465111
171	0x3ab8356d	0.0014054008
172	0x3bee2839	0.0072679785
173	0xbad32bb8	-0.0016111052
174	0x3f12c1f2	0.5732719
175	0x3f85764e	1.0426729
176	0x3d765532	0.060139842
177	0xbd0caf25	-0.03434672
178	0xbd1388ec	-0.03601925
179	0x3b955946	0.0045577614
180	0xbaff7d8c	-0.0019492372
181	0xc078246b	-3.8772228
182	0xc0b5a373	-5.6762023
183	0x3cc07638	0.023493871
184	0x3ee4da4e	0.44697803
185	0xbc550d73	-0.013003695
186	0xbc9a1c1d	-0.018812234
187	0x3f1c7fcc	0.611325
188	0x3ccd466c	0.025057994
189	0x3ea4294c	0.32062757
190	0xc0233d83	-2.5506294
191	0xbc84546f	-0.016153542
192	0xbfba34b1	-1.454733
193	0x3c54a722	0.012979301
194	0xc0d19af2	-6.550164
195	0x3ff207c7	1.8908623
196	0x3c0d8c17	0.008639357
197	0xbb195da3	-0.002340176
198	0x3fda5450	1.705698
199	0xbb80698a	-0.0039188312
200	0xbf45e53f	-0.77302927
201	0x3c6a1ac8	0.014288612
202	0xc01d233e	-2.455276
203	0x3c8176a7	0.015803648
204	0x40e15ff8	7.042965
205	0x3f9751ef	1.1821879
206	0x4011a6a1	2.2757952
207	0xbc15e2d4	-0.009148318
208	0xbc2707d3	-0.0101947365
209	0x40002ef2	2.0028653
210	0x3ca7b558	0.020472214
211	0x3c461fc3	0.0120925335
212	0xc0107909	-2.2573874
213	0x3b34dcf4	0.0027597519
214	0xbfe4506a	-1.783704
215	0x3ab89e2c	0.0014085225
216	0xbb44e408	-0.0030043144
217	0xc044b987	-3.0738237
218	0xbbb96a04	-0.00565839
219	0xbf779f6f	-0.9672765
220	0xc071bc01	-3.7770998
221	0xbcb4fe18	-0.022093818
222	0xbfb424f8	-1.4073782
223	0x3fdbfdc2	1.7186816
224	0xbeda8642	-0.42680556
225	0xbf2cfb8b	-0.67571324
226	0x3ff102e6	1.882901
227	0xc0afdb50	-5.4955215
228	0x3c5f353d	0.013623533
229	0xc0daf087	-6.8418612
230	0xc060474b	-3.5043514
231	0xbcf64f9a	-0.030067254
232	0x3c524b93	0.012835401
233	0x3c74ccc6	0.0149414
234	0xc093b794	-4.6161594
235	0x3c417a34	0.011808921
236	0xbca6acf9	-0.020346152
237	0xbcfd2551	-0.030901583
238	0xbc8e9b3d	-0.017408008
239	0xc03b5de0	-2.9276047
240	0x3da5073c	0.080580205
241	0x3c3b56a5	0.011434232
242	0xbc0e76a5	-0.008695279
243	0x3c2a9130	0.010410592
244	0xbab21553	-0.0013586677
245	0xbc98b426	-0.018640589
246	0x3fafaaf7	1.3724049
247	0xbc64c154	-0.013962109
248	0xbc5bfbb7	-0.013426713
249	0x3cba9ade	0.022778925
250	0xc0504650	-3.2542915
251	0x3f2c8ea1	0.67405134
252	0xbc74d0cb	-0.014942358
253	0x3c22fb43	0.009947601
254	0x3fd25372	1.6431715
255	0x3b903bc2	0.004401655
