results/c_4_0/496005_except/q_func1.pt (torch, 502309 bytes, 5 tensors)

1.weight f4 [400, 10]
00000000: d030 e23e 5dc4 2d3f bd4a cabf a4bf d9be
00000010: abe1 c93e aa72 b3be ac65 b73e c0ee 2c3e
00000020: 4f8f 6fbf ca6f ffbc 5855 833e 9efc 95bf
00000030: 82c1 4abe 4c00 be3e 1957 86be 00f2 03be
00000040: dd16 89bf 7667 953e c7c5 8fbf 20b5 20bc
00000050: 52ee 783d 67c3 a1bf 9f5a d6be 75ea fc3f
00000060: c06c 46c0 c7cc 49bf 4ca6 61be 422d ebbe
00000070: e0d6 d4bd d64e 1d3d 37a7 833f 597e b2bf
00000080: 1511 0f3f e810 50bf 7af4 0e40 8a5b 493f
00000090: 8c0f a03e e391 073f 6bb0 46bf b699 683d
000000a0: 51f8 d1be 7b1d 123e c1bb 40bf 7cc6 5ac0
000000b0: 9ab6 933f 35a2 f8be f8c8 8dbe aa58 ef3d
000000c0: 550b cbbc 1320 89bc 5367 8a3e 5e6e 1740
000000d0: a72a 97bf abb5 48c0 5a6d ddbe bc59 55be
000000e0: ab29 83bf a20b b83d 8896 8dbf f03d 57bc
000000f0: 29a5 cc3e 0857 b9bf 5006 2fbf 1a81 e6bf
00000100: ef81 2ac0 cf1c 81bf 4265 a93d b8d8 41be
00000110: b0b7 f3be 1712 2fbe d997 8cbf 011f b6bd
00000120: 3d19 1cbf 4b5f a4bf 4eea 67bf bd3d adbe
00000130: 5cd7 afbd 372e c7be f82b d4bd 8f8b 22be
00000140: 3853 3740 6dd2 d3bf 9fae 09bf 30ba 043f
00000150: ef05 bf3f a9c8 32bf 4e9d 28bf 10b8 ebbe
00000160: 5f36 1cbf b036 6b3e a486 83c0 5ad1 23be
00000170: 912c 9ebd d7e6 a3bf dade 2a3e 431a 3abb
00000180: e94b e03e b65f 843c 0d4a b03c 86cc 94ba
00000190: 38ae 91c0 755d b9bf edbe e3be 5468 b1bf
000001a0: 526b 23bf da05 37be f21e 4dbf eb79 d6be
000001b0: eb8e 8fbf 58eb a5ba fd17 d2bf 5ebb d3bd
000001c0: af28 643f 9996 3dbf f107 003f 7959 8e3f
000001d0: 13be ffbe f78e 353d 78a6 ccbe 9e9a eb3d
000001e0: 7de0 683f 52db 36c0 e9c3 9abf 6ff6 e1bd
000001f0: 6332 a6bf e4fa c5be 5550 823e 2a82 323e
00000200: 5255 dbbc 5395 0dbd 501e 43c0 72e6 023d
00000210: bafa 03bf 2cda 4c40 65d0 773f 60fe 03be
00000220: 3c1b 983e 9d31 0b3e 7c8f 41bf a449 433c
00000230: eb12 14bf 0c94 dabf 58ed 10bc 2ce8 ce3f
00000240: e6f7 75bf 47d0 293f 5c1f 9abf 7e14 1a3f
00000250: 2038 9ebf 92df 6c3d 2109 e2bf fa19 94bf
00000260: 8292 b8bf ee99 cebf 45b4 9fbf 18f2 83bf
00000270: 1a2a 01c0 1cf3 4c3f a8cf 20bf 5eb0 9cbd
00000280: 702c 12c0 f461 3140 09d9 37bd f147 333f
00000290: fe71 733f d074 b2bc d691 37bd 7146 2bbe
000002a0: ebd5 893b 0269 0c3a 42a4 1040 e5f5 30c0
000002b0: 8a23 5d3f a12e 4d3f b8bc 00c0 4ea8 babe
000002c0: e865 49bd 945a 123e ee47 103e 03b5 71bd
000002d0: 33da 2bbe 6bc3 e13f 52c6 9fbf da61 2dbe
000002e0: 4f45 383f 756b a3bf 0098 46bf 21e7 353e
000002f0: d40a 0e3f 431c 1fbe 35f1 ea3f f0f1 d9bf
00000300: 9a44 29bf 3a30 b93e ec92 24c0 2ed6 bbbd
00000310: b84b 94be edf8 e2be f20d c5be 89f4 79bd
00000320: b6e0 a6c0 0aff a3bf fb84 753d acff bebf
00000330: 79bd 09bf 31bf 51bc 4785 253f 86b9 983d
00000340: 4ac2 a9bb c8ca 52bb c896 77c0 16ad 5bc0
00000350: ad58 843f 2726 f0bf d6fd 13be 9195 b23e
00000360: 2f7a 213f d965 3a3e 63c0 5bbd e9de 0f3d
00000370: 1c2f 60bf aa56 0540 fef9 49bf a858 1e3f
00000380: a5a7 db3f f379 53bf eec7 173b 9645 d13e
00000390: 2768 46bf ca8d c2bd 581e cbbf ed4f b03e
000003a0: eb17 cfbf a711 25bf dbcc 24c0 bbd9 48bf
000003b0: ada3 dc3d 279c aabd 50cb eb3e 6d23 92bd
000003c0: 6ff9 833f 2c43 85bf 9fb0 43bf f8da 32c0
000003d0: 93d7 f53f 052b d43e 8da1 06bf 7872 81bf
000003e0: e60f 6abe e920 133e 0c3a 533f 7514 00be
000003f0: 931d 0f3f 4804 1140 03bb 1240 8184 113f
0.44177866 0.6787775 -1.5804058 -0.42529023 0.39429983 -0.3504842 0.35819757 0.16887951
-0.93578047 -0.031181235 0.2565105 -1.1717718 -0.1980038 0.37109601 -0.26238325 -0.12885284
-1.0710102 0.29180497 -1.1232232 -0.009808809 0.060774155 -1.2637757 -0.41866013 1.9759051
-3.1003876 -0.7882809 -0.22036093 -0.45932966 -0.10392547 0.038405262 1.0285405 -1.3944808
0.5588544 -0.81275797 2.2336717 0.786553 0.3126186 0.5295698 -0.7761294 0.056787215
-0.41009763 0.14269058 -0.7528649 -3.4183645 1.15401 -0.48561254 -0.2769239 0.11686833
-0.024785677 -0.016738927 0.27031955 2.3661113 -1.1809891 -3.1360881 -0.4324749 -0.20835012
-1.0247091 0.08986594 -1.1061563 -0.013137326 0.39969757 -1.4479685 -0.6836901 -1.8008149
-2.6641805 -1.0086917 0.082712665 -0.18930328 -0.4760108 -0.17096744 -1.098384 -0.08892632
-0.6097601 -1.2841581 -0.90591896 -0.33836165 -0.085859984 -0.38902447 -0.10359949 -0.1587355
2.8644543 -1.6548592 -0.53782076 0.518466 1.4923686 -0.69837433 -0.6586503 -0.46038866
-0.61020464 0.2297008 -4.1101856 -0.1599783 -0.07723344 -1.2804822 0.16686574 -0.0028397
0.43807915 0.01615892 0.021519685 -0.0011352457 -4.552517 -1.4481646 -0.44481602 -1.3859963
-0.6383563 -0.17873326 -0.80125344 -0.4188989 -1.121549 -0.0012658639 -1.6413571 -0.10338472
0.8912458 -0.7405792 0.5001212 1.1121055 -0.49949703 0.044325795 -0.39970756 0.115041
0.9096754 -2.8571362 -1.2091037 -0.110333316 -1.2984127 -0.38667977 0.25451913 0.17432466
-0.026774082 -0.034566235 -3.0487251 0.03195805 -0.51554453 3.2008162 0.9680236 -0.12890005
0.29708278 0.13593145 -0.75609565 0.011919413 -0.57841367 -1.707643 -0.00884565 1.6164603
-0.9608139 0.6633343 -1.204082 0.6018752 -1.2360878 0.0578304 -1.7659036 -1.1570427
-1.4419711 -1.6140726 -1.2476889 -1.0308256 -2.0181947 0.80058455 -0.6281686 -0.07650827
-2.2839622 2.7716036 -0.044884715 0.7003165 0.95095813 -0.021784216 -0.044816814 -0.1672609
0.004206409 0.00053562236 2.2600255 -2.7650082 0.86382353 0.80149275 -2.0115185 -0.3645653
-0.04916945 0.14292365 0.14089939 -0.059010517 -0.16782455 1.7637762 -1.2482398 -0.16931859
0.71980757 -1.2767168 -0.77575684 0.1776395 0.5548527 -0.15538125 1.835486 -1.7026958
-0.661203 0.36169606 -2.5714674 -0.09171711 -0.2896402 -0.4433054 -0.38487202 -0.061024223
-5.2149305 -1.2812207 0.059941273 -1.4921775 -0.5380474 -0.012801931 0.6465649 0.07457261
-0.0051806318 -0.0032164324 -3.868578 -3.4324393 1.0339562 -1.8761643 -0.144523 0.34879735
0.6307706 0.18202914 -0.05365027 0.035124693 -0.87571883 2.0834146 -0.7889708 0.6185403
1.7160536 -0.82607955 0.002315994 0.40873402 -0.77502674 -0.094997 -1.5868635 0.3443598
-1.6179174 -0.6448006 -2.5750034 -0.7845723 0.10773406 -0.08330565 0.46053553 -0.07135663
1.0310496 -1.0411124 -0.7644138 -2.7946148 1.9206413 0.4143907 -0.52590257 -1.0113058
-0.22857627 0.14368023 0.8251045 -0.12507804 0.559045 2.2658863 2.2926643 0.5684281

1.bias f4 [400]
00000000: 8d92 55be e548 b13e c432 30bf 0fb0 58bf
00000010: fba4 66bf f3a0 90be f2c7 49bf 8079 bebe
00000020: 9edf 20bf 9f02 883e e1f0 e7be 314d 67bf
00000030: 866f a13e 59d9 dbbd 1f6b a5be 3fe5 03be
00000040: b15d e2bd a8d5 dbbe 9bdf 29bf 79b6 0cbf
00000050: 5712 af3e 41d3 8c3e 2d3e 14bf 74ec b6be
00000060: 01a6 0abf c40c 72bf 7bf4 debe de70 a33e
00000070: 5c8f 44bf 2971 d8be 051e 50bf 8e18 47bf
00000080: 7ecc 6cbd ff23 5dbf bd64 72be 4779 ecbe
00000090: 38f6 81bf ecc0 ccbd 2cf0 51be cfa9 a3be
000000a0: efa4 08bf 01ea 15bf 3a5b 47bf 7625 48bf
000000b0: 00cd a6be 013c 5ebf 909b 84be cd18 a73e
000000c0: 29eb d1be ab59 6cbf 62fa 0fbf 6b2a 56bb
000000d0: 108a 44bf 83cf 2f3e 747d 59bf f5c1 adbd
000000e0: 2d8f 15bf 5229 1fbe 8435 3fbf eff7 16bf
000000f0: 33db 3dbf e152 a1be 43ff b6be 1407 c6bd
00000100: e0df 75bf 8fb9 7fbf 73c8 2abf 2a49 b5be
00000110: 7e82 34be 089d a03d 1bd4 2bbf 276e 28bf
00000120: 254a a3be d066 34bf c080 adbe 4e78 87be
00000130: f177 4ebf 3ed8 18bf 5f09 0fbf 8a22 5cbe
00000140: 5b95 bebe 828d 3fbf 9ee3 9abe b4ce e9be
00000150: 969f 2ebf 7c7b 92be 8a61 66be 3949 6ebf
00000160: 9da2 b43a 96d5 e1be 235d 1d3e 8671 86be
00000170: 9ab4 203e 49b1 2fbf c125 62be c939 0abf
00000180: b287 02bf ee4e 9bbe 6c79 36bf c627 b5be
00000190: 9f5d 9fbf 3674 f8be 1b77 4ebf ff1a 42be
000001a0: 16cf 4ebf d201 53bf 0f94 e8be 3daa 13be
000001b0: 44a1 673e 1fc8 42bf 7c01 2cbf de7b c13e
000001c0: b177 27bf b643 3fbd 2b73 e0be aef6 20bf
000001d0: 2099 893e 2d04 3fbf 1526 cebe e3c3 9ebe
000001e0: 97e9 c53d 540c 69bf 7da0 1ebf a89f 28bf
000001f0: 15a5 b6bc d4ba 53be 7648 1dbf abe2 92bf
00000200: 9ac1 46be 8edb 593c a168 4bbf 9c70 2bbf
00000210: 4678 89bf 9888 07bf f922 34be 0bab 77bf
00000220: 8906 58bf 759f dcbe 8cf7 67bf 1456 bdbe
00000230: 8f98 9fbe 7639 98be 4bcf 32bf d7ab 43bf
00000240: c526 7fbe 1959 7dbe 711d 48bf 2ab1 47bf
00000250: c75e a83d e4b2 9abe 18c1 68bf 6c2a 52bf
00000260: 469b b3be 4043 62bf b2c9 6f3e dbd9 7bbf
00000270: d329 95bf b154 fdbc a337 c63e 098c 3bbf
00000280: 95e9 93be 0ae6 fabe d7ec 20bd d94c 3ebf
00000290: 8fda 45be 3d29 32bf c7f7 7fbf 068b fdbe
000002a0: 40e8 663e 7265 3cbf ad82 e6be 34b0 88bf
000002b0: 1cc1 bf3e a413 1fbf 9ddc 543d 4521 03bf
000002c0: 1135 d93e eeba edbe 2bcd abbe b98d 0fbf
000002d0: 2a00 19be e1bd 9bbe 46d2 c8be 0318 5dbf
000002e0: 48d1 45bf 836d 86be 0225 99be d875 e9be
000002f0: a255 5abf 9259 09bf caed 52be 8669 4dbf
00000300: 9b33 66be 5a6a 85be 88ff 373c a334 173e
00000310: 1bc0 223d 16e9 5bbf c0ac 33bf a6a7 2ebf
00000320: bfc6 c4be f9ad 0abf a05a 313e a5af 25bf
00000330: ac90 47be 3c6f 16bf 5326 1cbf faf8 1bbf
00000340: 163f 78bf 276d 8cbf a35a 05bf 90b7 233d
00000350: e325 3bbf 19d0 f9bd edf5 afbe 7b8c aa3e
00000360: 17d8 16bf 94cd 1fbf 0429 01bf 237d 3abf
00000370: 4313 5bbf 8c1e 9fbe 4567 1abf f891 4cbf
00000380: 3ffb bbbc 9db1 c0be 2e74 69bf b367 55bf
00000390: 586b 88bf 4734 47bf 00a6 21bf aeaa 4d3e
000003a0: 7a58 6bbf 2599 6bbe 7a5a eebc 8d42 4ebf
000003b0: 7aaa 21bf c7d1 903c 9873 a93e 5d84 87be
000003c0: 2f93 43bf 131c 17bf 70da 25bf d24a abbe
000003d0: e220 d2be bd10 b1bd 9253 0ebe dbbd 5ebf
000003e0: 26e1 50be 4ea8 27bf 81ff 51bf c635 1d3e
000003f0: 1476 0dbe 1ebe 46bf 0b8a e23e fb8e 26bc
-0.20856686 0.34625927 -0.6882746 -0.84643644 -0.9009549 -0.28247795 -0.7882072 -0.37202072
-0.6284121 0.265645 -0.45300964 -0.9035216 0.31530398 -0.10734815 -0.3230829 -0.12880419
-0.110530265 -0.42936444 -0.6635682 -0.5496593 0.3419368 0.27504924 -0.5790737 -0.35727274
-0.5415955 -0.9455073 -0.435459 0.31922048 -0.7678125 -0.42273834 -0.81295806 -0.7777184
-0.057812206 -0.8638305 -0.23671241 -0.46186277 -1.0153265 -0.099977344 -0.20501775 -0.3196549
-0.5337667 -0.58560187 -0.77873576 -0.7818216 -0.32578278 -0.8681031 -0.25899935 0.3263611
-0.40999725 -0.9232432 -0.5624143 -0.0032679092 -0.76773167 0.17169003 -0.8495705 -0.0848426
-0.58421594 -0.15543106 -0.74691033 -0.58972067 -0.74162596 -0.31508544 -0.35741624 -0.09669319
-0.9604473 -0.99892515 -0.6671211 -0.35407382 -0.17627904 0.07842451 -0.6712052 -0.6579308
-0.31892505 -0.7046938 -0.3388729 -0.26458973 -0.80651766 -0.5970496 -0.55873674 -0.2149755
-0.37223324 -0.748253 -0.30251783 -0.45665514 -0.6821226 -0.28609836 -0.22498146 -0.9308048
0.0013781373 -0.44108266 0.1536756 -0.26258487 0.15693894 -0.6862989 -0.22084714 -0.53994423
-0.50988305 -0.30333656 -0.71279025 -0.35381907 -1.2450446 -0.48526162 -0.8065049 -0.1895561
-0.8078474 -0.8242465 -0.4542546 -0.1442041 0.22620112 -0.7608661 -0.67189765 0.37789816
-0.6541701 -0.046695434 -0.43837866 -0.62876403 0.26874638 -0.74615747 -0.4026343 -0.31008825
0.09663694 -0.91034436 -0.61963636 -0.65868616 -0.022295514 -0.20676738 -0.6143869 -1.1475424
-0.1940979 0.013296975 -0.79456526 -0.66968703 -1.073983 -0.529428 -0.17591466 -0.96745366
-0.8438497 -0.43090406 -0.906121 -0.36979735 -0.3117108 -0.2973134 -0.69847554 -0.7643408
-0.24917133 -0.2474102 -0.78169924 -0.78004706 0.08221202 -0.30214608 -0.9091964 -0.8209598
-0.35079402 -0.88383865 0.23416784 -0.98379296 -1.1653389 -0.030924173 0.38714322 -0.7326055
-0.28889146 -0.4900363 -0.039288368 -0.7433601 -0.19321655 -0.69594175 -0.99987453 -0.4952013
0.22549534 -0.73592293 -0.45021573 -1.0678773 0.37452018 -0.62139344 0.051968206 -0.5122264
0.424233 -0.4643168 -0.33554968 -0.56075627 -0.14941469 -0.30418304 -0.39222926 -0.86364764
-0.7727246 -0.26255426 -0.29911047 -0.4559772 -0.85286915 -0.536523 -0.20598522 -0.8023914
-0.22480623 -0.26057702 0.011230357 0.14766173 0.039733987 -0.85902536 -0.7018547 -0.6822456
-0.3843288 -0.5417171 0.17319727 -0.6472114 -0.19488782 -0.5876348 -0.6099598 -0.60926783
-0.9697126 -1.0970811 -0.52091426 0.03996998 -0.73104686 -0.121978946 -0.34367314 0.33310303
-0.58923477 -0.6242306 -0.5045321 -0.72847193 -0.85576266 -0.31077993 -0.60313827 -0.7991023
-0.022946952 -0.37635508 -0.911929 -0.8336136 -1.0657759 -0.77814144 -0.6314392 0.2008464
-0.9193188 -0.23007639 -0.029095877 -0.805703 -0.6315075 0.017678155 0.33096004 -0.26468173
-0.7639646 -0.5902721 -0.64786434 -0.3345552 -0.41040713 -0.08645771 -0.13899067 -0.87008446
-0.20398387 -0.6549119 -0.82030493 0.15352544 -0.13814574 -0.77633846 0.44245943 -0.010165925

3.weight f4 [300, 400]
00000000: 9bd1 87bd 62ac 0fbd 0189 6abc 0464 50bd
00000010: 658d 8cbc ee21 4ebc 1426 a2bb b73a 60bd
00000020: 33d9 d1bb d39d 6dbd ca58 16bd 61ad cc3c
00000030: 7e50 02bd 17ef 94bd 52f3 7bbd 313c 5abd
00000040: 43a2 97bb 42a4 7a3b ffc6 67bd a96d 4a3c
00000050: 24b6 18bd 6574 30bd de3d 1c3c 02fa d6bc
00000060: b771 6cbd 0383 84bd c610 9cbd be2c cebc
00000070: 3758 103b a87f 20bd 9089 5dbd 0162 8dbd
00000080: 187a 88bc 9b3a 0e3c 4ded 03bc a1cf 543d
00000090: e79e 363b 2343 0cbd 2b40 a53a fb00 a8bd
000000a0: fa56 ad3c 0079 32bd 73a0 fbbc 6240 80bd
000000b0: 60de 11bd 430d 86bd f701 dd3c 6730 babd
000000c0: 8ad0 1ebd d2c4 753c 44b0 b03c 218d adbc
000000d0: 0e54 183c 0fc0 d0bc 08a5 9cbc 803d 24bd
000000e0: 5a8e acbd ef66 63bd fb07 493c 5391 6d3c
000000f0: 3b0f 6fbc a1c7 edbc 25f2 63bd dc14 98bd
00000100: 614d 7d3c 259e f53c b979 72bd cb06 cdbc
00000110: 52c1 b5bd b854 89bd bee0 d03c 4e58 12bd
00000120: 22b5 16bd 12d4 b0bc df09 733d 1a89 97bb
00000130: 2d5a a23c e2d5 98ba 4519 97bb 4777 5cbd
00000140: 66f8 963c a7db 88bd 7c0c 81bc db6e 00bd
00000150: d4d3 84bc 88ee 0dbd 126a c13c 2084 21bd
00000160: 0d1f 9bbd 4b56 0dbd 3ad3 a3bd dd25 e9bc
00000170: 101f c2bd b31c bb3c 7ab8 2dbc 15be 5c3c
00000180: d129 223c 705e 0d3d 2e33 20bd 814b 2fbc
00000190: b5a1 1dbd 60cf 8abd 0175 71bc 56fe 9ebd
000001a0: 454b 41bd a171 4fbd c3ca f23c 210a ebbc
000001b0: d607 e5bd f9e4 78bd d89e f2bc d64f 62bd
000001c0: f872 d8bb 75b7 9ebd 2f17 b6bc a522 a33c
000001d0: adae bd38 bf62 5bbd 426a 4ebd 03a1 25bd
000001e0: 9678 e83b 2b6f 553d 62f9 c93c 57cf 1dbb
000001f0: b6d4 0ebd 0188 873d 1298 86bc f143 39bd
00000200: 8d57 0cbd bf43 6dbd 4b79 1a3d 6ade 4fbd
00000210: 46d8 bc3c e97b 4c3c a532 7dbd 2ec0 093d
00000220: acd0 233c 2d6b 9cbb b6e9 8dbd 1907 35bd
00000230: 9324 0c3c bcb0 09bd 0024 683c 71da 8dba
00000240: f338 213c 9c9e a0bc 574f 75bd 189d 1abd
00000250: 8fca c0bd d8de 2bbd 796d c0bd 9245 e8bd
00000260: b082 073d 5451 49bd 055e 2d3b 3f5c e73c
00000270: d23d 61bb c81c 2cbd 17bc 5e3c cc48 433d
00000280: 9b7b 96bc 660a 4cbd dd9f 43bd 74e9 df3a
00000290: 9b0a 033c 2c16 693b b572 583c 3698 41bd
000002a0: 0765 7fbd d371 93bd 5e47 0dbd 52e0 d6bc
000002b0: 5dd3 afbd 2ef6 26bc 52ae dcbd b3f9 1cbc
000002c0: a47b 9cbd 1f1d 3b3d ea9f 90bd 1fc9 ae3b
000002d0: 64e2 8bbd 6047 e5bb e8b6 1c3c 7c29 c1bd
000002e0: e258 2b3c 36bd 8fbc 6c06 9abd 6656 0dbd
000002f0: 314c 95bb 6e2c d7bc fc2f 49bd c2be c2bc
00000300: 7b4c f3bc f344 66bd 09b1 d03c b419 1bbd
00000310: aa12 853c 0470 00bd 33fa 43bd 14b5 cd3b
00000320: 7cf3 74bd 56eb a4bc 2e5e e8bc 9acb 20bc
00000330: bb99 2fbd 961d 993c 500e 893c a239 823c
00000340: 925e 0c3d 8248 76bd a5be 1abd 5bd6 cbbd
00000350: 5b12 a43c 906d 1e3b 709b 1ebd 2ecc 44bd
00000360: 65ae abbb a1c5 b8bb 9f96 f53b 0188 003d
00000370: 1294 12bc 21ce 1dbc 5913 de3c 28c2 153d
00000380: b2d8 1fbd 3e00 d6bd 4c84 bbbb 4848 8c3c
00000390: e57b 8c3c 787f 25bd e120 dd3c f777 493a
000003a0: 4739 e4bc b9c5 fdbc 7ce4 623d 8047 2cbc
000003b0: 20ae 79bc ef30 77bd c782 81bd 3374 1c3c
000003c0: 7d1e ddbc d43d 343d 395b 07bc 614f 3b3c
000003d0: f4f1 98bb 1654 943c acfd 6fbc 3efb e13b
000003e0: 884c ecbc cce7 43bd a322 233d e057 90bc
000003f0: 65dd 1a3d 7667 b33c d12e 01bd 943a 483c
-0.06631776 -0.035076506 -0.014314891 -0.050876632 -0.017157266 -0.012581332 -0.004948387 -0.054743495
-0.006404066 -0.05801184 -0.03670577 0.024985017 -0.031815045 -0.07272165 -0.061511345 -0.05328006
-0.0046274974 0.0038244878 -0.05658626 0.012355247 -0.037283078 -0.043079752 0.009536235 -0.02624226
-0.057725634 -0.06470301 -0.07620387 -0.02516782 0.0022025236 -0.039184242 -0.054086268 -0.069034584
-0.016659781 0.008680965 -0.008052182 0.051955823 0.002786571 -0.034243714 0.0012607625 -0.08203312
0.021159638 -0.043572426 -0.030716157 -0.0626228 -0.035612464 -0.06545498 0.026978476 -0.09091263
-0.038773097 0.015000539 0.021568425 -0.02118546 0.009297384 -0.025482206 -0.019121662 -0.040097713
-0.08425589 -0.055518087 0.012269969 0.01449998 -0.014591034 -0.029025855 -0.05565085 -0.074258536
0.015460343 0.029982636 -0.059198115 -0.025027653 -0.088747635 -0.06705612 0.02549779 -0.035728745
-0.036793835 -0.021585498 0.059335586 -0.004624498 0.01981839 -0.0011660422 -0.0046111667 -0.05382469
0.018428992 -0.0668252 -0.015753023 -0.03135572 -0.016214289 -0.03465131 0.023610149 -0.039432645
-0.07574282 -0.034506124 -0.07999273 -0.028460437 -0.09478581 0.022840833 -0.010603065 0.013473053
0.009897665 0.03451389 -0.03911131 -0.010699154 -0.038484294 -0.06777835 -0.014737369 -0.077633545
-0.047190923 -0.050645474 0.0296377 -0.028691353 -0.11183135 -0.06076524 -0.029616758 -0.05525192
-0.006605502 -0.077498354 -0.022227852 0.01991398 9.044758e-05 -0.05356097 -0.050394304 -0.040436756
0.007094453 0.05210797 0.024655048 -0.0024079883 -0.034870826 0.066177376 -0.016429935 -0.04523081
-0.034263182 -0.057925936 0.03771333 -0.05074922 0.023052346 0.012480714 -0.061815877 0.033630542
0.009998482 -0.0047735185 -0.069293424 -0.044196222 0.008553642 -0.033615813 0.014168739 -0.0010822547
0.009840238 -0.01960688 -0.059890117 -0.037747473 -0.09413635 -0.041960567 -0.0939588 -0.113413945
0.033083618 -0.049149826 0.0026453745 0.028242229 -0.0034369123 -0.042019635 0.013594649 0.047676846
-0.018369487 -0.049814604 -0.04775988 0.0017083124 0.007998134 0.0035566194 0.013210942 -0.0472643
-0.062352207 -0.071994446 -0.03449189 -0.026230011 -0.08585236 -0.01019053 -0.107754365 -0.009581017
-0.0764077 0.04568207 -0.07061751 0.005334034 -0.0683029 -0.006997034 0.009565093 -0.09431741
0.010458203 -0.017546277 -0.07520756 -0.034506224 -0.004556202 -0.026266303 -0.049118027 -0.023772601
-0.029699555 -0.0562181 0.025475042 -0.03786631 0.016244251 -0.031356826 -0.04784603 0.0062776897
-0.059802517 -0.020131748 -0.02836522 -0.009814167 -0.04287122 0.018690865 0.016730458 0.015896622
0.034269877 -0.060127743 -0.03777947 -0.099529944 0.020028284 0.002417419 -0.038722456 -0.048046283
-0.0052392953 -0.0056387936 0.007494762 0.031379703 -0.0089464355 -0.0096316645 0.027108835 0.036562115
-0.039025016 -0.10449265 -0.005722558 0.01712431 0.017148921 -0.040404767 0.026993217 0.00076854177
-0.027859343 -0.03097807 0.05539368 -0.010515094 -0.015239269 -0.0603494 -0.06323772 0.009549188
-0.026992077 0.044004276 -0.008261495 0.0114325 -0.004667515 0.018106502 -0.014647882 0.0068964055
-0.028845087 -0.04782848 0.039827954 -0.017620027 0.037808795 0.02189992 -0.03153879 0.012220997

3.bias f4 [300]
00000000: fc08 4dbd c32b cebd c6ff 74bd 008f a13e
00000010: 9256 a8bd 1ecb d13e 4459 17bd 19cb 9f3f
00000020: 5480 89bc e8f6 9ebe ee40 213b 2dbf cbbd
00000030: 2d8b bebe 3993 92bd 807e d7bc 5b51 7cbd
00000040: 5e3d 6ebd 0afd 8cbd 2911 e5bc 6e1d 94bd
00000050: 070e 563f 6656 573e 7865 94bd 477e 24bd
00000060: 5e20 02bd 3c82 e9be 3463 fcbc 463f 9e3f
00000070: 8c3e f8bc 70c2 f1be a7a5 ee3e 804a 03bd
00000080: 8c5a 0fbd 79b1 5ebd 0b7c 63bd 755e 103f
00000090: cafb 17bd 8ff9 ee3f 88f5 b6bc ffcd e0bd
000000a0: 9d81 b13a 3c95 77bf f6d5 81bd 4baa 9cbd
000000b0: fda4 afbd 5cd2 f1bc 7d79 99bd 1b5e ef3d
000000c0: e67d 693e cdda 0ebd de01 36bd 41b6 95bd
000000d0: e622 da3f 3121 1cbf a4c0 39be 327f 49bd
000000e0: 3d9c b2bd 2434 23bd cfb4 56bd 0677 afbd
000000f0: f2a3 f8bc af1a 26bd b85f 13bd 70ed f7bc
00000100: 9e42 8c3c 76d2 ffbe e832 2abe 699b 11bd
00000110: e35c 9fbd 3af0 253a 7265 a2bd 41e6 8dbe
00000120: d819 a0bf db8f c1be f840 743e d562 453f
00000130: 0bc1 a4bd 0fba 6ebd 6618 e7be 8e69 d43f
00000140: d5ea 253f af44 7ebd e22a c3be b1e0 22be
00000150: 6a01 cd3e 8114 89bd 14c7 9b3e 0764 89bd
00000160: 8ede 24bd 8b0d efbe 4ba7 df3e e0cc 6b3e
00000170: 70c7 45bd 4daa 6dbd 6446 e0bc eaf4 773e
00000180: 5be2 efbd c197 2b3d 3145 bbbd 904c 093f
00000190: 10d8 a13e c4d0 abbd a9ea d5bc d09b 033e
000001a0: d26a 32bd da5c 603e 9f90 edbd 23c2 a0be
000001b0: 20f9 c83e bbef 17bd 2256 b5bd 11b5 45bd
000001c0: 0035 2ebd faf3 8ebe 3e1f 2abd 3873 f93f
000001d0: 31ef 08be 77d4 87bd ae58 883f 4843 a63e
000001e0: f3f5 aebd f648 a8bd 58ff abbd 6cb0 e93e
000001f0: 4534 1fbe 44d6 a7bd 18d5 9b3f 9bf7 00bf
00000200: e473 b73f 5266 acbd ca93 80bc 9c76 53be
00000210: c468 84bd e3d2 2dbd 5d11 8bbd 543c 113d
00000220: 420c dbbc ee13 1d3f 0829 4ebd d66e 753e
00000230: 9698 8a3b 56a1 47bd d4d4 2dbe f8a3 a2bd
00000240: 7990 4f3f 325a 2abd 6f16 8fbd dc05 69be
00000250: c50d 32bf 3c88 b83f 11f4 cf3e 3e27 d5bd
00000260: 6477 87bd bfdc 7ebd 4833 f73f 6a2a e5bc
00000270: f3b1 8bbb 5fd0 e5bc f3e0 a4bc e54d 99bd
00000280: 268c 95bc 0ee2 72bb 9537 cabc 9e8c 92bc
00000290: 8eac 2a3a 0c98 02bf 8292 8abd 46c0 7dbd
000002a0: 1398 96bd 03e7 3dbd 62b8 72bd 9d1d d6bc
000002b0: d41c c13e af19 c2bd 29a6 7cbd 9c7d 833e
000002c0: 2dd9 0a3f 0652 86bd bb31 4fbf 8b4b 5ebd
000002d0: cfdb 2cbf a46f e93b 5904 b43f 6d21 cfbd
000002e0: ade4 133f 5b8f 86bb 8081 fdbb 64a4 77bd
000002f0: 5275 2abd 9600 7abd 9950 02bd 3c9c 42bd
00000300: 30fc 54bd 9982 b9bd 876e df3e 5aaf 9e3f
00000310: e2b9 b1bd 2272 77bd 9ec1 d5bc 7d92 b43e
00000320: fcd2 83bd ec56 8cbd f61b 723f 71b0 81bd
00000330: 8784 03bf 1ef6 3fbd 4564 36bd 2dca 3cbc
00000340: 57b7 063f b130 6dbd eb2f 0b3f fb44 ac3c
00000350: 00b4 72bd d9b1 b1bc 201f b4bd cb3b 02bf
00000360: 2026 dcbd 1958 b1bd b703 8dbd bb73 34bf
00000370: eb81 493f c88d c73d fe30 9abd afd0 28bd
00000380: e443 c73e 6782 8cbc 13b3 f5bc 96b2 c3bd
00000390: 26b9 6d3c 757f c53e adad 79bf c19c 153e
000003a0: 1b01 aabd c104 0bbd b643 5fbd 6b9f 7e3f
000003b0: a5cc 81bd 2b26 2cb9 dee2 36bb 27a5 d4bc
000003c0: 8dd5 abbc bd8b 07bd c68b 9bbd b1a3 5bbe
000003d0: dce1 e93f b692 1cbd 78f7 1fbd 9736 303d
000003e0: 045b 67bc 4d15 703f 756d 2e3e 6e74 62bd
000003f0: 7287 3d3f 273c a03f 1440 b7bd 2b4a 5bbd
-0.050057396 -0.10066941 -0.059814237 0.31554413 -0.08219637 0.4097528 -0.036950365 1.2483855
-0.016784824 -0.3104775 0.0024605352 -0.09948573 -0.37215558 -0.07156987 -0.026305437 -0.061601024
-0.058163993 -0.06884201 -0.027962284 -0.07232176 0.83615154 0.21029052 -0.07245916 -0.04015949
-0.03176915 -0.45607173 -0.030809022 1.236306 -0.030303262 -0.47218657 0.46610758 -0.03205347
-0.03499846 -0.05436847 -0.05553822 0.5639413 -0.03710536 1.8669909 -0.022333875 -0.10976791
0.0013542656 -0.9671209 -0.06339638 -0.07649668 -0.08576391 -0.029519252 -0.07493875 0.11687871
0.22801933 -0.034876633 -0.044435374 -0.07310153 1.70419 -0.60988146 -0.18139893 -0.04919357
-0.08721206 -0.039844647 -0.052418526 -0.08567624 -0.030351613 -0.04055279 -0.035979956 -0.030264586
0.01712161 -0.49965256 -0.16620982 -0.0355486 -0.077813886 0.0006330047 -0.079295054 -0.27714732
-1.2507887 -0.37805066 0.23852909 0.7710393 -0.080446325 -0.058282908 -0.45135802 1.6594713
0.6481145 -0.06207722 -0.38118654 -0.15906025 0.4004014 -0.06693364 0.30425322 -0.06708532
-0.040251307 -0.4669002 0.43682322 0.23027372 -0.0482859 -0.05802374 -0.027377315 0.24214521
-0.11713096 0.04189277 -0.091440566 0.5363245 0.31610155 -0.08389428 -0.026112871 0.12852407
-0.043558903 0.2191042 -0.1159985 -0.31398115 0.39252567 -0.03709386 -0.08854319 -0.04826838
-0.042531013 -0.27920514 -0.0415337 1.9488287 -0.13372494 -0.06632321 1.0652063 0.32473207
-0.08543005 -0.08217041 -0.08398312 0.45642412 -0.15547283 -0.08195165 1.2174406 -0.50377816
1.4332242 -0.084179536 -0.015695471 -0.20650715 -0.06465295 -0.042437445 -0.06790421 0.035457924
-0.026739243 0.61358535 -0.0503321 0.23968062 0.0042296154 -0.048737846 -0.16975719 -0.07941431
0.8107982 -0.041589923 -0.06986701 -0.22756141 -0.6955226 1.4416575 0.40615895 -0.104078755
-0.06614569 -0.06222224 1.9312525 -0.027974326 -0.0042631566 -0.02805346 -0.020126795 -0.0748556
-0.018255305 -0.0037061009 -0.024684707 -0.017889317 0.0006510698 -0.51013255 -0.067662254 -0.061950944
-0.073532246 -0.046362888 -0.059257872 -0.026137168 0.37717307 -0.09477555 -0.0616819 0.2568177
0.54237634 -0.065586135 -0.8093526 -0.054271262 -0.675229 0.0071239043 1.4063827 -0.10113797
0.57770807 -0.004106445 -0.007736385 -0.06045951 -0.04161579 -0.061035715 -0.031815145 -0.047512278
-0.051998317 -0.09058113 0.43639013 1.2397263 -0.086780325 -0.06041158 -0.0260933 0.35268012
-0.064367265 -0.068525165 0.94573915 -0.06332482 -0.51374096 -0.046865575 -0.04452922 -0.011522812
0.52623504 -0.057907764 0.5436999 0.021028986 -0.059253693 -0.02169125 -0.08794999 -0.50872487
-0.10749459 -0.086593814 -0.06885474 -0.7048909 0.78713864 0.097438395 -0.07528876 -0.04121464
0.38918984 -0.017152024 -0.029992616 -0.09555547 0.014509475 0.38573804 -0.97530633 0.14610578
-0.08300992 -0.03394008 -0.054507934 0.99462 -0.06337861 -0.00016417417 -0.002790622 -0.025957657
-0.020975852 -0.03309225 -0.07595019 -0.21449162 1.8272052 -0.038225852 -0.039054364 0.04302081
-0.014120821 0.937825 0.17033942 -0.055286817 0.740348 1.2518357 -0.08947769 -0.05353753

5.weight f4 [1, 300]
00000000: f0aa f2bc 9ee6 b4bc cf0f 823c 601e 823e
00000010: 0e8a a9bc 12a6 f63f 1dad f3bc 4c64 9b3f
00000020: a72d 3cbc 613b 2cc0 025f 993b 49b0 e5bc
00000030: 6589 2abf 7355 863c ebf7 b23c ddc1 b6bc
00000040: ebac a3bb 0e4e c2bc eb4b 6fbc 73ba 763b
00000050: b2d6 9a3f 8a80 e53f 648a dabb d878 2bbd
00000060: 44cf b13b a47d 0340 8710 00bb 991d 943f
00000070: 27d4 c3bc 4636 d5bf 4c9c 3e3f e8d1 cebb
00000080: d9c2 e1bc a78b ad3c fa8e 453c 1bb3 bd3f
00000090: 9031 e8bb 18b8 a83f 804b f4bc ba9f fabf
000000a0: 95d7 a53b 954f 603f 5798 383c 1cd4 36b9
000000b0: 5e50 9bbc b01a 343c 5319 043d 68b6 3740
000000c0: 957d efbf 3127 843c e7f7 0d3c 7142 8fbc
000000d0: 4d71 aa3f 8f5c 13c0 7fc5 de3e 39a3 0d3c
000000e0: b497 8f3c ace2 21bc 416a 0fbd 7464 973c
000000f0: 8a4a ef3b e244 00bd 4a5b 87bb ee70 533c
00000100: b766 923c 8be4 b2bf 37cb 9ebf c4d7 4f3c
00000110: d783 193c 42c3 aebc f7e0 64bb f248 e7bf
00000120: bc54 dabe f629 f0bf 2ee4 203f 7ed2 45c0
00000130: cba0 e239 08bd 6abc c64a 723f 0d5e 2e40
00000140: af41 573f 7091 553d 5d46 dbbf 42b4 a63f
00000150: 2428 4bc0 10e2 a9bb eb0b 8140 312c 3abc
00000160: c08d 993c a945 b9bf 3f25 3dc0 e4b7 bdc0
00000170: 6402 beb9 73c7 25c0 ca65 583d 548a b4bf
00000180: 4243 b93c 215a 3ec0 bdef 413d 1495 dfbf
00000190: b999 18c0 5daf 5cbb c0ed 93bc 33ff 3ac0
000001a0: 9baf bcbc 29b4 993f dae4 78c0 926b 53c0
000001b0: 8ce5 7d3f 6405 2c3b d130 8ebc 92bd 413c
000001c0: d50b abbc 0a5c ddbf 30f3 b23c 85ab a23f
000001d0: af0f aa3c f8ce c3bb 32ce a73f fedd 1d40
000001e0: a639 073d 9d46 8abc a001 443c d91c 54c0
000001f0: 3e3b f63c ab91 d8bc 3bf7 0b40 5a60 c43f
00000200: ecc6 0240 5948 3bbb a19a 263c 56f0 1cbf
00000210: 0aac 1ec0 32fe 3fb7 8b53 00bd 54c3 0ac0
00000220: 3a34 ffbb 0c8f 28c0 a8d8 f2bc be74 b33e
00000230: 0544 3e3c c397 b0bf 4a29 0ac0 f041 df3c
00000240: 8d66 ad3f 6601 87bc 5a42 afbb f562 9cbf
00000250: 4a5d 47c0 5813 5340 cf8a 86c0 cc87 2a3c
00000260: c3fc d43c 5217 3ebd 88c1 aa3f 04f9 9e3b
00000270: c765 243d 3675 bbba 2fb8 c8bb 4a1f 913b
00000280: 7ac7 f3bb fcd8 d73c 546a c33b 08fa bdbc
00000290: 1eb1 cebb e88b 06bf 4f0b 933c cb30 eabb
000002a0: 5927 b8bb 55c5 99bc 7e72 7d3c c9bb ae3c
000002b0: 626b 12c0 d2c5 49bc 0ba9 f63b 6f56 ffbf
000002c0: 376f ec3f a47b 913b a1d5 57bf d375 f9bc
000002d0: 20d7 b0be ff60 75bc e9cb b73f 7e85 51c0
000002e0: ce4d 8e3e 2f13 f4bc 056a d6bb 8c6f ec3c
000002f0: d646 5ebc f163 d2bc dad1 4c3c 1b71 ecbb
00000300: 417e 11bc 03e1 81bc cf59 3f3f 9d32 fc3f
00000310: 8a70 edbc 8e83 c83c 1971 95bc 5cdd 793f
00000320: 21fe 56bc 7758 80bc 67f8 8240 0e09 9c3c
00000330: 47da b33f 90f7 3dbc bb89 16bd e830 bebc
00000340: 7ba3 a4bf 0555 243c af62 303f 1854 673b
00000350: d7e6 2b3c 8050 613b bbe3 95bc 3e6d b83f
00000360: 00fa d03b 693a e2bb 4c45 08bc 271e 5ec0
00000370: ea3f eb3f 0991 86c0 e567 a039 b9ee 683c
00000380: 2dd7 37c0 70d6 993a d07e 143c 1a8b d5bf
00000390: 2819 243d 6a94 fb3f f3c3 0cc0 11bc d2bf
000003a0: 7696 e63b c4eb bebb 0b21 c3bc 1361 9d3f
000003b0: 2636 653b 6618 a23a 4a3d c83b 1731 a2bc
000003c0: aeae 18bb b974 c6bc 3557 3f3c 5031 13bf
000003d0: 7bc2 b73f 1ec7 1c3d d251 9cbb 5d69 8ebe
000003e0: 2201 5abc b76a d53f b433 ca3f 28ce 423c
000003f0: 7b81 c03f 102f 8040 173a 8cba 5d13 63bc
-0.029622525 -0.022082623 0.015876679 0.254138 -0.020695712 1.9269431 -0.029745633 1.2139983
-0.011485494 -2.6911242 0.0046805153 -0.02803816 -0.666159 0.016398167 0.021846732 -0.022309238
-0.0049949787 -0.02371886 -0.014605503 0.0037647753 1.209677 1.7929852 -0.0066693295 -0.041863292
0.0054263193 2.0545435 -0.00195411 1.1571532 -0.023904873 -1.6657188 0.7445724 -0.006311644
-0.02755873 0.021184755 0.012058014 1.4820284 -0.0070859864 1.3181181 -0.029821157 -1.9579995
0.0050611 0.8762143 0.011266789 -0.0001743589 -0.01895922 0.010992691 0.032250714 2.8705082
-1.87102 0.01613197 0.008665062 -0.017487736 1.3315827 -2.3025243 0.43510053 0.008644872
0.017528392 -0.009880703 -0.03501344 0.018480517 0.007302587 -0.03131569 -0.0041307556 0.0129053425
0.017871244 -1.3975996 -1.2405766 0.01268572 0.009369812 -0.02133334 -0.0034924129 -1.8069136
-0.42642772 -1.8762805 0.62848175 -3.0909724 0.0004322588 -0.014327295 0.94645345 2.7244904
0.840846 0.052140653 -1.7130848 1.302376 -3.174325 -0.0051844195 4.032705 -0.011363075
0.01874435 -1.4474384 -2.9553983 -5.9286976 -0.00036241405 -2.5902984 0.05283145 -1.4104714
0.022615079 -2.974251 0.047347773 -1.746737 -2.3843825 -0.003367386 -0.018057704 -2.9218261
-0.023032954 1.2008106 -3.888968 -3.3034406 0.99178386 0.002624833 -0.017357262 0.011824982
-0.020879665 -1.7293713 0.021844476 1.2708594 0.020759432 -0.0059756003 1.3109801 2.4666743
0.033013962 -0.016879374 0.011963278 -3.3142607 0.030057546 -0.026436647 2.1869648 1.5341904
2.0433912 -0.0028577058 0.010168702 -0.61304224 -2.4792504 -1.1443672e-05 -0.031329673 -2.168172
-0.0077882083 -2.633731 -0.029644325 0.35050005 0.011612897 -1.3796314 -2.15877 0.027253121
1.3546921 -0.016480159 -0.005348486 -1.2217699 -3.115069 3.2980556 -4.2044444 0.010408353
0.025999432 -0.04640896 1.3340311 0.0048514623 0.040136125 -0.0014301899 -0.006125472 0.004428779
-0.007439551 0.026348583 0.005963603 -0.023190513 -0.006307735 -0.5255723 0.017949728 -0.00714693
-0.005619925 -0.018770853 0.015469192 0.021329777 -2.2878041 -0.01231523 0.0075274757 -1.9948252
1.847144 0.004439788 -0.84310347 -0.03045169 -0.34539127 -0.014976739 1.4359103 -3.2737727
0.27793735 -0.029794304 -0.0065434 0.028861783 -0.013566693 -0.025682421 0.012501204 -0.0072156317
-0.008880199 -0.015854364 0.7474641 1.9702946 -0.028984327 0.024476793 -0.018242406 0.9760339
-0.0131221125 -0.015667183 4.0928226 0.019047286 1.4050988 -0.011594668 -0.036752444 -0.02321668
-1.286239 0.010030036 0.6890058 0.0035297927 0.010492048 0.0034380257 -0.018297067 1.4408338
0.0063774586 -0.0069039357 -0.008317303 -3.4705904 1.837888 -4.2052045 0.00030594986 0.014217072
-2.8725083 0.0011736881 0.009063438 -1.6683075 0.040063053 1.9654667 -2.1994598 -1.6463643
0.0070369793 -0.0058264453 -0.023819467 1.229525 0.0034974902 0.001236689 0.006110822 -0.019798798
-0.0023297477 -0.02422558 0.011678507 -0.5749712 1.4356226 0.03827583 -0.004770496 -0.2781476
-0.013305934 1.6673192 1.5797029 0.011889972 1.5039514 4.005745 -0.0010698464 -0.013859597
