results/c_10_0/best/q_func2.pt (torch, 502309 bytes, 5 tensors)

1.weight f4 [400, 10]
0.190749 0.99058187 -0.10614243 0.19305807 2.1852946 0.41766337 -0.44296253 -0.742322
-0.0054964945 0.09145569 0.9916106 0.9030499 0.3520729 -0.07154464 0.80043083 0.20131682
-0.16694799 -0.058689777 0.18935524 0.112337865 0.8632572 0.14978349 -1.1146554 1.1060365
-1.8637261 -0.7854341 -0.60586506 -1.0587286 -1.0090936 -0.026254633 6.0679 5.2674637
0.51852524 0.8938842 1.8741709 0.3412471 1.5029025 2.061283 -2.4389143 0.08652578
-2.0805824 0.37135696 0.27449194 -0.42482477 -2.4153414 0.25397187 -0.62264675 -0.8643445
-0.28680268 -0.05719672 -0.5414451 -0.5877161 -2.031084 0.93350255 -1.7041471 -0.58355343
0.06782684 -0.5321671 -0.63413453 -0.3581177 -7.6400523 -0.0037766467 3.5214574 0.21385342
0.56894284 0.50000983 -3.182205 -2.829741 1.7173475 0.015735948 -0.39575094 -0.43841577
0.35446343 -1.3353677 -1.3026587 1.1137096 -0.88953674 0.044500362 -0.115623325 0.02158125
0.5422484 -0.86092794 -0.20591477 -0.8589461 -0.1478791 -0.71749246 -0.053600833 -0.57830304
-0.48639092 -0.044394117 2.7432032 -0.4414077 -0.19553077 -0.47221714 0.27753472 0.8676413
-0.88618624 -0.3859803 0.0803792 0.050405327 0.95140415 -1.8867474 -1.2176051 -0.9993048
-1.9455945 -1.1614462 -0.55375624 -0.8369174 -0.5285866 -0.231021 -15.510888 -1.8240407
-0.41728166 -1.7803719 1.7539984 -0.29165533 -3.418938 -3.613671 -3.5480244 -0.03929481
-0.55347645 -1.5500264 0.16501501 -0.49925295 -1.8301493 -0.068981424 -0.67059743 -0.49623677
-0.5671869 -0.045377925 -2.025443 1.3174354 -0.025841279 -3.2652695 -0.9687846 2.0280395
-1.1927067 -0.9220842 -0.86625016 0.05081595 0.8173778 -0.68980473 1.0160179 0.96441
0.47511163 0.2003249 -1.1514603 -0.18799846 -1.018763 0.12392227 1.4610782 -1.5281153
0.42847842 -0.4281216 -1.3444558 0.40212712 -0.031125149 0.033042863 -0.34765786 0.06043957
0.5490554 -1.3948007 -0.28036833 2.2061183 0.51502013 -0.32146165 -0.0012755175 -0.024603438
-0.50829923 -0.017197598 -14.125401 -1.5548003 -0.2213567 -1.440717 -0.314805 -0.0503604
1.5851356 0.09111935 -0.033396576 -0.0031761816 0.22108468 -0.3807794 -1.8543297 -0.39692312
-2.0966911 -1.4197564 -0.49350983 -0.48304453 -0.55676156 -0.2751246 5.4396873 6.791045
-11.500136 1.9980973 5.168331 -1.0554607 -0.13511841 -1.203104 0.039045498 -0.10453309
-1.0217246 -0.74454176 -0.28567463 -1.0789094 -1.8448001 -0.6795274 -1.2963877 -0.4781269
-0.9634634 -0.11415691 -10.407742 7.247279 -2.3651466 -0.68810457 3.6306462 -0.7214859
-1.9450287 -0.26790226 1.3193477 -0.87657124 -2.85604 4.5092716 3.9906642 -2.190452
1.403264 0.037936464 -0.3398717 1.1987414 -1.5478073 0.047583643 -15.418814 -7.3043947
-0.6654664 -3.1122997 -5.1771235 -0.1429546 -5.781617 -5.6064415 2.6469913 -0.06574263
-11.40528 -15.526087 -3.0768065 -1.9110535 -1.9987305 -0.55739284 -8.542277 1.3368895
3.0312593 -0.037436564 0.22941878 2.6964052 -2.7826006 -0.6590339 0.05610391 -1.6169189
00000000: b553 433e c696 7d3f 3461 d9bd 04b1 453e
00000010: dedb 0b40 f9d7 d53e fccb e2be d108 3ebf
00000020: f01b b4bb 1f4d bb3d 31da 7d3f 472e 673f
00000030: e642 b43e ff85 92bd 09e9 4c3f ff25 4e3e
00000040: 6af4 2abe b164 70bd 57e6 413e 6511 e63d
00000050: 6dfe 5c3f d860 193e 07ad 8ebf 9b92 8d3f
00000060: 948e eebf 3612 49bf f919 1bbf 6b84 87bf
00000070: fb29 81bf f513 d7bc 3d2c c240 108f a840
00000080: 12be 043f 98d5 643f d5e4 ef3f f1b7 ae3e
00000090: 1c5f c03f 10ec 0340 2c17 1cc0 6e34 b13d
000000a0: 4328 05c0 8022 be3e 358a 8c3e a282 d9be
000000b0: f494 1ac0 9a08 823e c765 1fbf ae45 5dbf
000000c0: cdd7 92be 1c47 6abd 259c 0abf 9074 16bf
000000d0: 48fd 01c0 06fa 6e3f 7e21 dabf c263 15bf
000000e0: cce8 8a3d 1a3c 08bf a456 22bf 345b b7be
000000f0: 4f7b f4c0 9e81 77bb 8f5f 6140 64fc 5a3e
00000100: 3da6 113f a500 003f 3fa9 4bc0 7a1a 35c0
00000110: 0bd2 db3f ade8 803c de9f cabe 0878 e0be
00000120: 3b7c b53e 54ed aabf 85bd a6bf 098e 8e3f
00000130: aeb8 63bf 0346 363d eccb ecbd 29cb b03c
00000140: cbd0 0a3f c665 5cbf 52db 52be e4e3 5bbf
00000150: 9e6d 17be 96ad 37bf 8c8c 5bbd ab0b 14bf
00000160: 3b08 f9be 9bd6 35bd a490 2f40 3100 e2be
00000170: 3839 48be 72c6 f1be 0819 8e3e be1d 5e3f
00000180: 1add 62bf 369f c5be da9d a43d d175 4e3d
00000190: 398f 733f f080 f1bf 7cda 9bbf 70d2 7fbf
000001a0: 3e09 f9bf 45aa 94bf f8c2 0dbf 3840 56bf
000001b0: 7451 07bf c590 6cbe 992c 78c1 2a7a e9bf
000001c0: f1a5 d5be 3ae3 e3bf 0583 e03f d953 95be
000001d0: e1cf 5ac0 6346 67c0 d512 63c0 98f3 20bd
000001e0: a2b0 0dbf 4467 c6bf b2f9 283e 159e ffbe
000001f0: 5542 eabf 2246 8dbd 46ac 2bbf bf12 febe
00000200: 2933 11bf 34de 39bd dca0 01c0 b9a1 a83f
00000210: 17b1 d3bc 2dfa 50c0 4402 78bf 66cb 0140
00000220: 9daa 98bf b60d 6cbf 92c2 5dbf 6324 503d
00000230: ac3f 513f 0b97 30bf e00c 823f 93e3 763f
00000240: d541 f33e f821 4d3e 0d63 93bf ab82 40be
00000250: d366 82bf f6ca fd3d 9c04 bb3f 4899 c3bf
00000260: 8661 db3e c132 dbbe 2117 acbf 9be3 cd3e
00000270: 2bfa febc f457 073d 3600 b2be 7c8f 773d
00000280: e58e 0c3f d488 b2bf 708c 8fbe 0b31 0d40
00000290: 5cd8 033f 9f96 a4be 442f a7ba 268d c9bc
000002a0: e61f 02bf fae1 8cbc a401 62c1 b203 c7bf
000002b0: 55ab 62be 6a69 b8bf 1f2e a1be b546 4ebd
000002c0: b9e5 ca3f c89c ba3d d9ca 08bd 7c27 50bb
000002d0: 0664 623e 84f5 c2be ad5a edbf 8239 cbbe
000002e0: 3030 06c0 94ba b5bf 52ad fcbe 9d51 f7be
000002f0: ed87 0ebf 22dd 8cbe eb11 ae40 3e50 d940
00000300: 8f00 38c1 a7c1 ff3f f862 a540 5619 87bf
00000310: 7b5c 0abe 50ff 99bf 2cee 1f3d 7215 d6bd
00000320: dfc7 82bf 4a9a 3ebf f243 92be b419 8abf
00000330: 6922 ecbf 82f5 2dbf 08f0 a5bf 0dcd f4be
00000340: 8aa5 76bf 19cb e9bd 1c86 26c1 b6e9 e740
00000350: 905e 17c0 9f27 30bf 825c 6840 4db3 38bf
00000360: b3f6 f8bf 7c2a 89be 63e0 a83f f966 60bf
00000370: 5cc9 36c0 f44b 9040 0b67 7f40 5e30 0cc0
00000380: 289e b33f 4463 1b3d aa03 aebe 5c70 993f
00000390: 8d1e c6bf 11e7 423d 76b3 76c1 9abd e9c0
000003a0: 025c 2abf eb2f 47c0 ffaa a5c0 b162 12be
000003b0: 0203 b9c0 f867 b3c0 4e68 2940 12a4 86bd
000003c0: 077c 36c1 da6a 78c1 66ea 44c0 679d f4bf
000003d0: 67d6 ffbf 4cb1 0ebf 2bad 08c1 321f ab3f
000003e0: 2700 4240 1557 19bd c2ec 6a3e e791 2c40
000003f0: 2116 32c0 72b6 28bf 37cd 653d 33f7 cebf

1.bias f4 [400]
-0.89248174 -1.4239403 -0.6086538 -6.326437 -0.73371553 -1.2476662 -1.8081114 -0.674163
-0.37059245 -1.034007 -0.9492515 0.44266033 -0.7479708 -0.97649205 -0.8559441 -0.6523383
-0.6524756 1.0486203 -0.83037657 -1.3345371 -0.71417475 -3.1423967 -3.9130282 -1.4496764
-3.1016867 -1.0880738 -0.65327483 -0.29324138 -1.0951108 -1.278037 -2.5736675 -0.9632778
-0.17899832 -2.2891889 -0.78271043 -6.265381 -1.1617433 0.8295745 -0.72818804 -1.890687
-0.55913657 -0.63311785 -2.284863 -1.0544759 -0.89230186 -0.69268954 -0.8517033 -0.78295875
-0.85806036 -0.31560978 -1.0139054 -0.18102127 -1.5572455 -0.6958343 -1.6979393 1.3247422
-2.383593 -1.0783128 -0.9727388 -3.5347989 -3.0755005 -1.0133394 -0.5548303 -0.4805326
-1.1800232 -1.9990566 -0.9931096 -0.98834693 -2.540057 -0.54093874 -0.8937755 -0.9299174
-0.5852611 -0.8031876 -1.4395956 -0.32852054 -0.95469975 -0.96309596 -0.84673715 -0.9319151
-3.1244423 -0.7140868 -0.746182 -2.4881778 -0.644248 0.048671767 -1.6408638 -1.7245592
-0.833525 -3.0026963 1.4456224 -0.38939467 -0.9301273 -1.0042751 0.5437364 -0.322158
-1.4459682 -0.84715873 -2.5597923 -2.3177357 -2.9898453 -1.8248507 -0.8414403 -1.9785402
-0.7665015 -1.0514047 -0.8412046 -1.0426466 -0.027313877 1.2109224 0.8745013 -1.0501112
-1.1627378 -2.0049233 -1.3609096 -0.77927506 -2.6557293 -0.3545236 -0.28446746 0.16216093
-1.2468759 -3.6355662 -1.1585797 -2.2850451 -0.7962723 -2.7322056 -0.40457898 -2.0535119
-1.5853143 -2.3382092 -4.208135 -1.9215835 -2.8727734 -2.7183087 -1.2744703 -0.5504291
-0.25925985 -1.8316746 -0.6165656 -0.9668533 -1.0354736 -0.9558463 -1.5992347 -1.3234724
-0.7835415 -1.9363524 -0.5555633 -0.21217944 -0.4500225 -1.0627953 -0.85095745 -0.80338174
-0.7137771 -2.9178946 1.258105 -3.426604 -0.7306154 -2.0714247 -2.8278751 -0.86974084
0.05451558 -1.877306 -1.4393394 -1.2570536 -3.0560722 -0.83631617 -1.4039809 -1.4390067
-3.0602837 -0.15126769 -1.2058176 -1.2307146 -2.9725816 -0.6135226 -0.6123344 -0.66141105
-1.0632945 -0.25113112 -0.19647571 -2.850349 -1.0081133 -1.3590387 -3.1278524 -1.102517
-4.094376 -1.6003687 0.32712948 -3.6874323 -2.511251 -0.6048042 -1.7564626 -0.27798697
0.2066809 -1.0031013 -0.99637055 1.2403449 -1.1160623 -1.4343866 -0.5807138 -0.9436172
-3.1157207 -0.8060463 -1.5416583 -0.25376183 0.20844863 -0.69403225 -0.42451692 -2.625761
-0.67121494 -1.2642597 -2.4780474 -1.072827 -2.6731398 -1.0984267 -0.3726969 -1.2797706
-1.9626169 -1.1760298 -1.098888 1.0819798 -0.48297864 -1.2049595 -1.1147282 -0.37228173
-1.4776921 -0.9549515 -0.65829355 -1.6825662 0.63651776 -1.2764615 -1.556136 -0.80846715
1.1675469 -0.6282422 -2.017395 -0.3384464 -2.931795 -3.1394398 -2.7968545 -0.8168099
-1.3271054 -4.249142 -4.9646487 -0.7649771 -0.5439636 -4.592249 1.5162457 -1.4939811
-2.8858798 -2.097008 -0.683137 -0.29040125 -2.2410629 -0.91176915 -0.40949208 -1.3323538
00000000: af79 64bf ad43 b6bf bcd0 1bbf 2c72 cac0
00000010: c8d4 3bbf 87b3 9fbf 3270 e7bf f295 2cbf
00000020: 4bbe bdbe 575a 84bf 2502 73bf 60a4 e23e
00000030: 047b 3fbf 62fb 79bf 271f 5bbf a5ff 26bf
00000040: a408 27bf 3139 863f 8f93 54bf 1dd2 aabf
00000050: 28d4 36bf 071d 49c0 0e6f 7ac0 ff8e b9bf
00000060: 0982 46c0 0146 8bbf 053d 27bf bc23 96be
00000070: 972c 8cbf b796 a3bf f8b6 24c0 6099 76bf
00000080: 564b 37be 1282 12c0 b65f 48bf 007e c8c0
00000090: 01b4 94bf ff5e 543f 886a 3abf 0802 f2bf
000000a0: 9323 0fbf 0314 22bf 323b 12c0 11f9 86bf
000000b0: e56d 64bf 1a54 31bf 3a09 5abf fc6f 48bf
000000c0: d8a9 5bbf 9b97 a1be a7c7 81bf a45d 39be
000000d0: d253 c7bf 3222 32bf 1356 d9bf 2791 a93f
000000e0: ca8c 18c0 2706 8abf 6905 79bf 253a 62c0
000000f0: 00d5 44c0 1bb5 81bf 5c09 0ebf 5e08 f6be
00000100: 000b 97bf 16e1 ffbf 6e3c 7ebf 4e04 7dbf
00000110: 4b90 22c0 f67a 0abf 79ce 64bf 110f 6ebf
00000120: acd3 15bf b49d 4dbf ab44 b8bf d833 a8be
00000130: 3467 74bf 758d 76bf c4c3 58bf fd91 6ebf
00000140: ddf6 47c0 64ce 36bf c905 3fbf 4e3e 1fc0
00000150: 70ed 24bf 0c5c 473d d307 d2bf 5bbe dcbf
00000160: e561 55bf 2d2c 40c0 280a b93f bd5e c7be
00000170: d31c 6ebf 168c 80bf 4f32 0b3f e5f1 a4be
00000180: 7c15 b9bf 65df 58bf a3d3 23c0 c855 14c0
00000190: a059 3fc0 b594 e9bf a268 57bf ce40 fdbf
000001a0: 7139 44bf 6e94 86bf 2f59 57bf 7275 85bf
000001b0: 5ac1 dfbc 81ff 9a3f 51df 5f3f 0b6a 86bf
000001c0: 98d4 94bf aa50 00c0 4932 aebf 927e 47bf
000001d0: 78f7 29c0 1e84 b5be b8a5 91be 840d 263e
000001e0: a199 9fbf 1ead 68c0 574c 94bf 2e3e 12c0
000001f0: 80d8 4bbf 75dc 2ec0 fa24 cfbe bd6c 03c0
00000200: 94eb cabf 38a5 15c0 0ba9 86c0 73f6 f5bf
00000210: 85db 37c0 c5f8 2dc0 d821 a3bf ece8 0cbf
00000220: b5bd 84be 5074 eabf 3ed7 1dbf b383 77bf
00000230: 668a 84bf 58b2 74bf b9b3 ccbf 8b67 a9bf
00000240: 2d96 48bf 65da f7bf 6539 0ebf 9145 59be
00000250: 5969 e6be ad09 88bf 59d8 59bf 6daa 4dbf
00000260: 19ba 36bf c9be 3ac0 9609 a13f 7b4d 5bc0
00000270: 9c09 3bbf 3992 04c0 e8fb 34c0 56a7 5ebf
00000280: bb4b 5f3d 904b f0bf 463c b8bf 22e7 a0bf
00000290: b096 43c0 d118 56bf a5b5 b3bf 5f31 b8bf
000002a0: b0db 43c0 ebe5 1abe 3b58 9abf 0e88 9dbf
000002b0: c73e 3ec0 d10f 1dbf f2c1 1cbf 3c52 29bf
000002c0: 091a 88bf 4294 80be ee30 49be 1e6c 36c0
000002d0: db09 81bf fbf4 adbf bc2e 48c0 471f 8dbf
000002e0: 2105 83c0 e2d8 ccbf 847d a73e e4fe 6bc0
000002f0: 56b8 20c0 73d4 1abf c4d3 e0bf 4f54 8ebe
00000300: 28a4 533e a065 80bf 2412 7fbf 9fc3 9e3f
00000310: 21db 8ebf fb99 b7bf a9a9 14bf e690 71bf
00000320: f867 47c0 0d59 4ebf 0f55 c5bf 12ed 81be
00000330: 8f73 553e 19ac 31bf 485a d9be 780c 28c0
00000340: bed4 2bbf 43d3 a1bf 5498 1ec0 6552 89bf
00000350: b914 2bc0 3f99 8cbf 21d2 bebe 86cf a3bf
00000360: 0837 fbbf 2588 96bf 5da8 8cbf 507e 8a3f
00000370: fa48 f7be 1d3c 9abf 6aaf 8ebf b69b bebe
00000380: 0425 bdbf b477 74bf ed85 28bf 545e d7bf
00000390: d4f2 223f 1763 a3bf 772f c7bf b4f7 4ebf
000003a0: 2d72 953f 7bd4 20bf 001d 01c0 d948 adbe
000003b0: 87a2 3bc0 95ec 48c0 aaff 32c0 741a 51bf
000003c0: 97de a9bf f9f8 87c0 67de 9ec0 8ad5 43bf
000003d0: 3341 0bbf b4f3 92c0 5714 c23f c63a bfbf
000003e0: 41b2 38c0 6135 06c0 11e2 2ebf 79af 94be
000003f0: 936d 0fc0 b469 69bf f2a8 d1be 928a aabf

3.weight f4 [300, 400]
-0.8553202 0.79554075 -0.27530012 -6.420999 -0.23129834 0.6724176 0.22175753 -1.1772
0.039073598 0.017872104 1.2450582 -1.9104393 0.1959762 -1.6598955 -1.5827638 0.7195263
0.7096303 -4.532252 -0.5315217 -0.46239126 -0.9065625 0.09917555 0.9652334 -3.373758
-1.9429857 -1.3265892 -2.3858051 -0.0030448437 -9.261999 2.4856298 -2.0436375 -0.9094774
-1.4267515 0.101277746 -6.7722335 -13.197094 2.8594086 -12.717097 1.1446441 -0.49084213
-0.72398216 2.348494 -2.5241308 -2.5686955 -0.18393925 1.0297463 -0.016446687 -0.0072660106
-0.16262916 -0.039736863 -0.9965999 0.10161512 -0.70885104 -0.053678393 6.112606 -3.6131318
-0.23925374 2.0377562 -1.0761427 0.90434664 -0.018835364 0.83735526 0.9739302 -0.22906172
0.22576731 -0.17004344 -1.1222879 0.17277595 1.4551722 -0.1942664 0.17905086 -0.53880763
0.40923917 -0.99317884 5.356272 -0.006200361 -0.9695303 -0.08040588 -1.8924252 1.3359272
0.37016135 0.33008018 0.25487286 -4.3506656 -1.2114631 2.8613799 3.6361227 -0.33637825
-0.110003725 -8.997796 -1.8015893 0.08853754 1.4916718 -4.300405 4.1291785 0.16498774
-2.5122163 0.0924179 -0.33940732 1.2736663 5.9583316 2.866836 -0.8260908 0.23113166
-0.573762 -0.12732801 -1.2429606 -0.08783041 -2.8714664 -0.72713184 4.012399 -0.4748899
-1.6865171 -6.273418 1.7018311 -4.1727514 4.364089 -0.04479307 0.012953514 0.34620193
-5.6234307 0.049354527 1.1069486 0.38781178 -2.1108778 -0.3107294 -2.239578 4.395073
3.0915732 -3.6878994 -3.197679 1.2475592 2.849771 -8.665434 -1.0396377 -0.515594
5.5827384 0.5428114 0.5405812 -2.7882745 0.1981426 -0.94383734 0.29410133 0.99857616
0.59569365 -2.1069713 -0.037348613 -0.035609394 -0.6775463 0.3506032 0.8739801 -1.4062263
-1.0848805 4.4792156 -2.7853713 1.6749126 -0.8645624 -0.20121893 8.005055 0.0076482454
1.2175674 0.8386777 0.17859027 1.5918571 -0.2546672 -1.4935592 6.8524704 -8.609021
-3.724219 -0.037773583 -2.075899 -13.368642 1.1112514 0.57654154 1.3448657 -1.0942026
-16.462294 -0.014034075 0.8476816 -4.6535044 -2.0455241 -0.7497483 -2.371753 -0.109278895
7.220076 3.321202 0.7915203 -1.2488356 -7.9466176 0.5733103 1.5120121 -4.807032
-1.952076 -1.2862357 -0.96053094 -1.8130238 0.1575397 -0.4688907 2.4322503 -0.41192326
2.4492042 0.065431 0.10504409 -9.3677 0.070897095 -1.3190947 0.05654561 0.6965547
-2.2770615 0.34184557 -4.197336 -0.08064581 -3.5652127 1.0003802 -0.0801858 0.34567317
-0.5640467 -3.3358312 0.5797038 1.3392309 0.22573169 1.2509309 0.4798483 -6.621611
0.32950488 0.33590537 -0.18574819 -2.417942 7.3440447 4.1200786 4.3582354 0.22598405
-3.346959 0.09433876 -0.6090025 -0.010626745 -1.1238093 -2.537924 0.6361544 -0.054817133
0.1824487 -3.0418646 2.78123 0.027842505 -2.6079593 1.6631814 -5.2361116 -0.45037597
-2.0232174 -0.33343488 1.2917143 0.9337182 0.12050007 -0.38845414 1.3184444 -0.79216605
00000000: 44f6 5abf 8fa8 4b3f 23f4 8cbe d378 cdc0
00000010: 79d9 6cbe 8f23 2c3f 6814 633e 7dae 96bf
00000020: a30b 203d 8568 923c 115e 9f3f 4689 f4bf
00000030: fcad 483e 7577 d4bf 0198 cabf e032 383f
00000040: 55aa 353f 3508 91c0 ce11 08bf 8cbe ecbe
00000050: 7b14 68bf 8d1c cb3d 8919 773f a7eb 57c0
00000060: c1b3 f8bf adcd a9bf 08b1 18c0 008c 47bb
00000070: 2631 14c1 8f14 1f40 f5ca 02c0 83d3 68bf
00000080: cb9f b6bf b56a cf3d 23b6 d8c0 4c27 53c1
00000090: 8d00 3740 3b79 4bc1 b383 923f a94f fbbe
000000a0: e556 39bf ba4d 1640 5c8b 21c0 8265 24c0
000000b0: 925a 3cbe bace 833f 34bb 86bc b717 eebb
000000c0: 4288 26be 1fc3 22bd 2c21 7fbf 971b d03d
000000d0: 4377 35bf e0dd 5bbd 789a c340 8d3d 67c0
000000e0: effe 74be 996a 0240 0bbf 89bf 4383 673f
000000f0: 9f4c 9abc ea5c 563f 7d53 793f 288f 6abe
00000100: 8c2f 673e de1f 2ebe 21a7 8fbf 2eec 303e
00000110: 1543 ba3f c5ed 46be 1c59 373e 4cef 09bf
00000120: cc87 d13e f840 7ebf 9566 ab40 662c cbbb
00000130: 2333 78bf d7ab a4bd fd3a f2bf aaff aa3f
00000140: ca85 bd3e 4500 a93e b27e 823e a738 8bc0
00000150: 3911 9bbf d920 3740 3cb6 6840 c539 acbe
00000160: a249 e1bd f9f6 0fc1 7a9a e6bf 2b53 b53d
00000170: 1aef be3f eb9c 89c0 3b22 8440 8cf2 283e
00000180: 27c8 20c0 9945 bd3d ccc6 adbe 7f07 a33f
00000190: a7aa be40 3e7a 3740 b07a 53bf c7ad 6c3e
000001a0: 11e2 12bf 4662 02be 5519 9fbf 6ee0 b3bd
000001b0: 1bc6 37c0 5025 3abf 9365 8040 c524 f3be
000001c0: cbdf d7bf d7bf c8c0 9ad5 d93f 2e87 85c0
000001d0: 9ea6 8b40 f078 37bd fa3a 543c 6141 b13e
000001e0: 25f3 b3c0 f927 4a3d 7eb0 8d3f 448f c63e
000001f0: 9f18 07c0 ed17 9fbe 3f55 0fc0 70a4 8c40
00000200: 56dc 4540 8b06 6cc0 c6a6 4cc0 05b0 9f3f
00000210: a662 3640 9ea5 0ac1 d912 85bf f8fd 03bf
00000220: cba5 b240 b0f5 0a3f 8863 0a3f 1773 32c0
00000230: e5e5 4a3e 539f 71bf 7394 963e b0a2 7f3f
00000240: 617f 183f 9ed8 06c0 dcfa 18bd 28db 11bd
00000250: ad73 2dbf 4382 b33e 29bd 5f3f 39ff b3bf
00000260: 5ddd 8abf bc55 8f40 8643 32c0 8963 d63f
00000270: f653 5dbf 560c 4ebe b514 0041 229e fa3b
00000280: 40d9 9b3f 95b3 563f 5ee0 363e f9c1 cb3f
00000290: bd63 82be f32c bfbf 7047 db40 8dbe 09c1
000002a0: 9b59 6ec0 79b8 1abd 87db 04c0 f5e5 55c1
000002b0: 7c3d 8e3f 3a98 133f 8f24 ac3f d50e 8cbf
000002c0: c7b2 83c1 2def 65bc a901 593f 82e9 94c0
000002d0: dee9 02c0 81ef 3fbf cdca 17c0 9dcd dfbd
000002e0: dd0a e740 938e 5440 13a1 4a3f d8d9 9fbf
000002f0: b14a fec0 77c4 123f 9d89 c13f 35d3 99c0
00000300: a0dd f9bf 5fa3 a4bf 5be5 75bf 2a11 e8bf
00000310: 1652 213e 7112 f0be fda9 1b40 9be7 d2be
00000320: c3bf 1c40 b000 863d 5b21 d73d 19e2 15c1
00000330: 7f32 913d 18d8 a8bf 5f9c 673d 6951 323f
00000340: 60bb 11c0 6206 af3e 9450 86c0 a129 a5bd
00000350: 722c 64c0 750c 803f 7438 a4bd 13fc b03e
00000360: 5d65 10bf 427e 55c0 7867 143f eb6b ab3f
00000370: 3526 673e 811e a03f adae f53e 3de4 d3c0
00000380: ddb4 a83e cafb ab3e c634 3ebe 90bf 1ac0
00000390: 6a02 eb40 afd7 8340 aa76 8b40 5d68 673e
000003a0: 9434 56c0 ae34 c13d 96e7 1bbf cd1b 2ebc
000003b0: fcd8 8fbf 596d 22c0 04db 223f ee87 60bd
000003c0: d5d3 3a3e e9ad 42c0 acff 3140 f715 e43c
000003d0: cee8 26c0 21e3 d43f 3a8e a7c0 ae97 e6be
000003e0: 657c 01c0 fab7 aabe e556 a53f 2808 6f3f
000003f0: bec8 f63d 76e3 c6be c9c2 a83f 65cb 4abf

3.bias f4 [300]
3.6308882 -0.06828708 0.008359745 -0.03591123 -3.0089462 -6.25761 -0.019970505 -0.11248672
2.9123683 -0.093167484 -0.14048037 -0.021652248 -0.04713546 -0.047635 1.569755 -3.449401
-0.046342537 -0.31213963 -0.08023467 -0.06084387 -0.045947324 -0.10325545 -0.078099035 -0.18589747
-3.2580323 3.4561944 6.60715 -0.03257072 0.418204 -0.07887913 -1.1064104 -0.18879305
-0.097033486 -0.17573583 0.4556459 -0.13547112 -0.09760443 -0.01646128 -0.0503355 -0.62246007
1.5346103 3.4379528 -0.079917595 -0.0335314 -0.21503228 -0.015371964 -0.050985627 -0.09505921
-0.0674435 -0.044703487 -4.3675084 -0.016721295 -0.09416005 1.2320229 -4.849357 -1.9091948
-0.057277333 -0.053532533 -0.116214596 3.8889797 -0.05708614 2.9810212 4.6483116 4.68301
-0.039588552 -0.06776911 -0.074119784 -0.063606575 -0.030810727 -0.07346092 -0.07391215 -0.07881055
-0.8681786 -0.040255602 5.76796 -0.048661917 -0.11578036 -0.015376671 5.1448383 -0.06962163
-0.070031755 -0.058779288 -0.0636122 -0.04898697 2.5430799 -2.7007408 -0.050713923 -0.05298362
2.4765294 -0.08183287 -0.5209601 5.102205 -0.110114664 -0.05563894 -0.050032552 -0.0027464868
-1.1935925 0.05073753 -0.11019173 -0.037258703 -0.054002296 -0.029589333 -0.029777814 -3.801309
-0.111034565 0.49371392 -1.6007789 -2.3313842 -3.0927114 -0.036160037 -0.005423377 -0.05190267
-0.120788075 -0.03702357 0.28004014 -2.0015328 -0.069842786 3.0111449 -0.05384607 -0.15595649
-0.06204737 4.4918814 -0.093706675 -0.21032985 -2.8086615 2.5111678 -0.17158167 -0.031371396
-1.82748 4.019807 -0.07634239 -0.03107872 -0.080620684 -0.06376574 -0.06970416 -0.094461784
-0.055894352 -1.7593756 -0.04074916 -0.10778081 -0.053747173 0.51989806 -1.8637538 -0.03819293
-0.54160935 -0.05630704 -0.11538577 4.7849216 0.3754417 -0.05349203 -0.12583765 5.0795755
-1.2470864 -0.80299723 -0.094108894 -0.012730818 -0.041154355 -2.4609747 -0.10493895 -0.040200807
-0.13412525 2.098028 -0.03756873 -0.03177684 0.9670922 -0.030471044 -6.856791 2.5798676
0.44797474 1.894205 -0.030786006 -0.07544801 -0.020471089 -0.10062198 -0.5238502 4.504383
4.7081943 -0.044459905 -0.08280408 -0.05790695 -0.044636603 3.2705593 5.217733 -0.11758926
-0.33214408 -0.018542215 -0.1717471 0.9037129 -0.06004312 -0.020262511 0.06869701 -0.07107784
3.1430025 -0.09573587 0.81253856 3.365575 -0.05545617 -0.017207604 -4.41307 -0.07055549
1.511688 -0.086888954 -0.47307825 -0.041214023 4.953599 2.2763495 4.4242463 -0.105483934
-0.030348795 -6.8090105 -0.018817473 -0.050431006 1.1326164 -0.029093286 2.0007792 -0.12627822
-0.07495397 0.33116895 -0.008957858 0.92564625 -2.8043892 -0.038796287 1.4032677 3.4304574
0.10816158 -2.2751224 4.6188517 3.208781 -0.07488046 -2.3320675 -1.0065658 -0.04733433
-0.111238696 -0.07034449 2.7923336 -0.10215731 -0.01351413 -0.06457684 -0.0022274556 1.2035636
-0.0731602 -0.015941542 0.13418911 -0.059226364 -0.086861804 -0.03454932 2.8874865 -0.064405024
-0.104402006 -0.10723265 1.2104372 2.8472078 -0.017987413 -0.039862953 3.4732149 -0.13415071
00000000: 7960 6840 19da 8bbd 50f7 083c a717 13bd
00000010: 9392 40c0 573e c8c0 2f99 a3bc 705f e6bd
00000020: 3e64 3a40 98ce bebd 16da 0fbe 0e60 b1bc
00000030: 1d11 41bd eb1c 43bd bbed c83f fcc2 5cc0
00000040: acd1 3dbd c4d0 9fbe 1352 a4bd 6c37 79bd
00000050: 4333 3cbd 9877 d3bd 63f2 9fbd e85b 3ebe
00000060: 9a83 50c0 4a32 5d40 c66d d340 e068 05bd
00000070: d61e d63e 628b a1bd db9e 8dbf f752 41be
00000080: 7eb9 c6bd 18f4 33be 6b4a e93e f1b8 0abe
00000090: d5e4 c7bd ced9 86bc 992c 4ebd 8b59 1fbf
000000a0: 1c6e c43f 6b07 5c40 d6ab a3bd 3958 09bd
000000b0: 6c31 5cbe b1da 7bbc 4ed6 50bd 67ae c2bd
000000c0: d11f 8abd 011b 37bd a1c2 8bc0 19fb 88bc
000000d0: fcd6 c0bd edb2 9d3f ef2d 9bc0 7f60 f4bf
000000e0: a39b 6abd ee44 5bbd eb01 eebd 0be5 7840
000000f0: 28d3 69bd 0dc9 3e40 f8be 9440 38db 9540
00000100: 9b27 22bd 88ca 8abd 1dcc 97bd 2a44 82bd
00000110: c766 fcbc ae72 96bd 415f 97bd 6d67 a1bd
00000120: f440 5ebf 0fe3 24bd 2193 b840 b851 47bd
00000130: 411e edbd 6fee 7bbc 84a2 a440 c995 8ebd
00000140: cf6c 8fbd 8dc2 70bd 1d47 82bd 90a6 48bd
00000150: d2c1 2240 f0d8 2cc0 67b9 4fbd 5a05 59bd
00000160: 757f 1e40 fe97 a7bd a45d 05bf 4345 a340
00000170: cc83 e1bd a8e5 63bd efee 4cbd 67fe 33bb
00000180: a4c7 98bf 28d2 4f3d 34ac e1bd 959c 18bd
00000190: 8331 5dbd 5465 f2bc 9af0 f3bc a648 73c0
000001a0: 1766 e3bd 12c8 fc3e 53e6 ccbf 6635 15c0
000001b0: fcee 45c0 8c1c 14bd 95b6 b1bb e597 54bd
000001c0: bd5f f7bd 07a6 17bd 6c61 8f3e 1d19 00c0
000001d0: bc09 8fbd 99b6 4040 b28d 5cbd 0fb3 1fbe
000001e0: 6225 7ebd 7ebd 8f40 49e9 bfbd b560 57be
000001f0: 1cc1 33c0 f9b6 2040 1bb3 2fbe 4b7f 00bd
00000200: ddea e9bf 42a2 8040 6659 9cbd cd98 febc
00000210: 751c a5bd 9d97 82bd 0ec1 8ebd 2e75 c1bd
00000220: 7af1 64bd 3833 e1bf 97e8 26bd 2fbc dcbd
00000230: ff25 5cbd 0a18 053f 7c8f eebf 3170 1cbd
00000240: e9a6 0abf 36a2 66bd 604f ecbd 141e 9940
00000250: e539 c03e 751a 5bbd 96db 00be e28b a240
00000260: 87a0 9fbf 3a91 4dbf 2abc c0bd ec94 50bc
00000270: 7891 28bd 9c80 1dc0 3bea d6bd 9aa9 24bd
00000280: 2158 09be 1746 0640 abe1 19bd 6f28 02bd
00000290: 5b93 773f 699e f9bc d56a dbc0 8d1c 2540
000002a0: f25c e53e 4f75 f23f ef32 fcbc 7c84 9abd
000002b0: fcb2 a7bc e612 cebd 0c1b 06bf e823 9040
000002c0: 87a9 9640 971b 36bd 2f95 a9bd d72f 6dbd
000002d0: dfd4 36bd d850 5140 abf7 a640 a3d2 f0bd
000002e0: ca0e aabe d8e5 97bc 79de 2fbe bb59 673f
000002f0: c6ef 75bd 91fd a5bc 05b1 8c3d 4291 91bd
00000300: f426 4940 2b11 c4bd 8702 503f 9565 5740
00000310: 0226 63bd f6f6 8cbc df37 8dc0 667f 90bd
00000320: fe7e c13f d6f2 b1bd 5037 f2be 09d0 28bd
00000330: e283 9e40 b6af 1140 6d93 8d40 f607 d8bd
00000340: 099e f8bc 6ae3 d9c0 1a27 9abc be90 4ebd
00000350: 93f9 903f 0b55 eebc c40c 0040 144f 01be
00000360: 7881 99bd fa8e a93e fbc3 12bc 27f7 6c3f
00000370: 1d7b 33c0 dbe8 1ebd 479e b33f 9d8c 5b40
00000380: d283 dd3d 9b9b 11c0 a2cd 9340 ab5c 4d40
00000390: ed5a 99bd 9840 15c0 26d7 80bf a4e1 41bd
000003a0: 1dd1 e3bd c610 90bd 98b5 3240 da37 d1bd
000003b0: 5f6a 5dbc dd40 84bd 81fa 11bb 5f0e 9a3f
000003c0: 04d5 95bd d697 82bc df68 093e 5897 72bd
000003d0: 9ae4 b1bd 9683 0dbd 94cc 3840 c8e6 83bd
000003e0: b8d0 d5bd cb9c dbbd 9bef 9a3f a738 3640
000003f0: 575a 93bc 5647 23bd 2749 5e40 ce5e 09be

5.weight f4 [1, 300]
0.28283805 0.01450119 0.011497588 0.01921698 -6.6836085 0.14675142 -0.025210574 -0.012439356
1.1074699 -0.005193594 0.030825067 0.007812714 0.0011140526 0.044447552 -1.9747319 -5.5008903
0.0015784963 -2.0943549 0.015708746 0.006082931 -0.018398147 -0.024841709 -0.0030321844 0.008616863
1.1153281 0.26420236 1.1213042 0.016675869 -2.8813145 9.249973e-05 -0.77047765 0.02031143
0.020169754 0.028437074 0.3826531 -0.010757375 0.015240686 -0.026794177 0.003610246 0.84034985
-1.0872825 0.28919864 -0.0239946 -0.008094012 -0.021204244 0.0033128422 0.012236293 -0.014033135
0.02014785 -0.021510826 -1.5554345 0.017639976 -0.003936464 -0.18826102 1.0678405 -0.43190637
0.0037325544 0.008048729 0.015885549 0.24351771 -0.03059629 0.61996806 0.18368916 1.5750608
0.0068186414 -0.02198332 0.005687781 0.0047636316 -0.00079931127 0.017003514 0.016386162 0.021519093
0.30092162 0.0022763035 0.51359475 0.0012300439 0.0052498425 0.0044560228 2.4463534 0.02760569
0.01179695 0.022979986 0.012311846 -0.003790862 -0.42965826 1.3585852 0.012467797 -0.0015244554
-0.36109623 -0.007671829 -1.9980595 -0.94888526 -0.00810657 0.0104624 0.013503571 -0.012036908
-0.34979215 0.20431589 -0.028868148 0.017434105 0.023148907 0.007752762 -0.024823725 -0.91433424
-0.20113014 0.2425321 -2.622401 0.20587943 0.49028993 -0.014637475 0.0144139035 -0.0016705656
-0.036111277 -0.02068391 0.6670456 -0.20536532 0.0108395135 -0.35936838 -0.02486551 -0.020000147
-0.02020551 0.4565483 0.024971241 0.008768389 -2.599053 0.7614097 0.0070343823 0.021758413
5.069192 2.2246826 0.027688626 -0.0032235302 -0.0015003525 0.0033846828 0.004847806 0.018658666
-0.02594499 -0.8085609 0.008151975 0.025982322 -0.012006827 -4.5386553 0.35748988 0.009332832
-0.46348074 0.029472465 -0.0032330975 -0.69262415 -2.2762525 -0.0024360223 -0.0042144167 -1.145352
1.3081024 -2.0896318 -0.024886953 0.008446302 -0.016609695 0.39689043 -0.02714424 -0.020277847
-0.021190638 -1.2278652 -0.0028035662 -0.013907944 -0.24807394 0.01857012 0.27408063 1.6714615
0.22121392 -2.9612596 -0.020465111 0.0014054008 -0.017778352 0.029669175 0.37930647 0.29079285
1.3967425 -0.03434672 -0.03601925 0.009165032 -0.0019492372 -1.2351186 -1.4145235 -0.008072237
0.22277573 -0.013003695 0.019796092 0.33722785 -0.006673853 0.32062757 -0.34598786 -0.016153542
-0.5369198 0.005473665 -2.7537322 0.48236758 0.008639357 -0.002340176 0.29218352 0.009691074
-3.2505853 0.014288612 -0.17508586 0.015803648 1.1024448 0.3422651 1.2403194 -0.0184465
0.015950086 0.42171296 -0.015452934 0.0120925335 -2.919359 -0.0182936 -0.5240413 -0.012093288
-0.023316907 -2.725404 -0.00565839 -0.75779724 -1.8363683 -0.022093818 -0.90619236 1.0973326
-2.194375 -0.3624994 0.9531875 -0.818248 -0.018100569 -5.102824 -0.99900377 -0.030067254
-0.026992707 0.0149414 -0.29257232 0.004275623 -0.020346152 -0.030901583 -0.017408008 -1.6629066
0.080580205 0.011434232 -2.2695248 0.010410592 -0.0013586677 -0.018640589 0.276832 -0.013962109
-0.013426713 0.022778925 -0.32601023 0.20914651 -0.014942358 0.009947601 0.5878575 0.025165005
00000000: 26d0 903e 6696 6d3c 6160 3c3c ee6c 9d3c
00000010: 1fe0 d5c0 0146 163e 6886 cebc 71ce 4bbc
00000020: 93c1 8d3f 062f aabb da84 fc3c e600 003c
00000030: 6705 923a a30e 363d 04c4 fcbf 4b07 b0c0
00000040: 8ce5 ce3a e909 06c0 a1af 803c 5353 c73b
00000050: b6b7 96bc d780 cbbc 9db7 46bb be2d 0d3c
00000060: 12c3 8e3f 8845 873e e586 8f3f d59b 883c
00000070: 7567 38c0 6afc c138 063e 45bf 2864 a63c
00000080: 0a3b a53c def4 e83c 1beb c33e b33f 30bc
00000090: 12b4 793c 767f dbbc e199 6c3b 2b21 573f
000000a0: 132c 8bbf d811 943e 5390 c4bc bf9c 04bc
000000b0: 86b4 adbc 451c 593b bc7a 483c 3ceb 65bc
000000c0: 1b0d a53c 7937 b0bc 7a18 c7bf b681 903c
000000d0: 74fd 80bb 7fc7 40be ffae 883f d522 ddbe
000000e0: df9d 743b d1de 033c 6922 823c b55c 793e
000000f0: 12a5 fabc 3ab6 1e3f 0319 3c3e 989b c93f
00000100: e96e df3b 5d16 b4bc 9160 ba3b 3d18 9c3b
00000110: df88 51ba f44a 8b3c 463c 863c cf48 b03c
00000120: 6612 9a3e 092e 153b f27a 033f 6d39 a13a
00000130: df06 ac3b d403 923b 0e91 1c40 5425 e23c
00000140: ff47 413c 8640 bc3c a0b7 493c 1c70 78bb
00000150: 2bfc dbbe 1fe6 ad3f bb45 4c3c 3cd0 c7ba
00000160: 9be1 b8be f763 fbbb 6ac0 ffbf 25ea 72bf
00000170: 6bd1 04bc 7c6a 2b3c 153e 5d3c 7436 45bc
00000180: f517 b3be 2f38 513e e57c ecbc f8d1 8e3c
00000190: c7a2 bd3c e20a fe3b 205b cbbc cf11 6abf
000001a0: 0ff5 4dbe 565a 783e 6bd5 27c0 0fd2 523e
000001b0: 4807 fb3e 05d2 6fbc 4b28 6c3c e1f6 daba
000001c0: 6be9 13bd 4e71 a9bc 80c3 2a3f 494b 52be
000001d0: 3798 313c 22ff b7be c1b2 cbbc 59d7 a3bc
000001e0: 0786 a5bc b3c0 e93e 7d90 cc3c 4aa9 0f3c
000001f0: e256 26c0 bfeb 423f ad80 e63b b33e b23c
00000200: d236 a240 3361 0e40 42d3 e23c dd41 53bb
00000210: 7aa7 c4ba 8ed1 5d3b 58da 9e3b 0fda 983c
00000220: 968a d4bc d9fd 4ebf dd8f 053c e1d8 d43c
00000230: 48b8 44bc aa3c 91c0 ea08 b73e bce8 183c
00000240: 594d edbe 3d70 f13c 60e2 53bb d14f 31bf
00000250: 1fae 11c0 aca5 1fbb 1719 8abb e59a 92bf
00000260: e66f a73f 87bc 05c0 b9df cbbc 5c62 0a3c
00000270: 0e11 88bc 3935 cb3e 995d debc ba1d a6bc
00000280: fd97 adbc b02a 9dbf 09bc 37bb 25de 63bc
00000290: 1807 7ebe 5d20 983c 4c54 8c3e 73f2 d53f
000002a0: e785 623e 4785 3dc0 73a6 a7bc 6d35 b83a
000002b0: e8a3 91bc c50c f33c 7534 c23e cde2 943e
000002c0: 75c8 b23f 25af 0cbd ec88 13bd ee28 163c
000002d0: 8c7d ffba 5e18 9ebf 1b0f b5bf 6a41 04bc
000002e0: 521f 643e 730d 55bc 6a2b a23c 21a9 ac3e
000002f0: 56b0 dabb 4c29 a43e 5225 b1be 6f54 84bc
00000300: 9373 09bf 6e5c b33b 263d 30c0 e2f8 f63e
00000310: 178c 0d3c a35d 19bb 1499 953e 4fc7 1e3c
00000320: 9709 50c0 c81a 6a3c b549 33be a776 813c
00000330: e91c 8d3f 5f3d af3e c9c2 9e3f 1d1d 97bc
00000340: c1a9 823c c3ea d73e 4e2e 7dbc c31f 463c
00000350: c7d6 3ac0 76dc 95bc 9227 06bf ed22 46bc
00000360: 1903 bfbc 056d 2ec0 046a b9bb 00ff 41bf
00000370: 1e0e ebbf 18fe b4bc 39fc 67bf 6575 8c3f
00000380: a470 0cc0 8599 b9be 1904 743f b378 51bf
00000390: a547 94bc 564a a3c0 b6be 7fbf 9a4f f6bc
000003a0: cf1f ddbc c6cc 743c 0acc 95be 861a 8c3b
000003b0: f9ac a6bc 5125 fdbc 3d9b 8ebc 20da d4bf
000003c0: 3c07 a53d a556 3b3c e53f 11c0 3091 2a3c
000003d0: 5315 b2ba 26b4 98bc edbc 8d3e 54c1 64bc
000003e0: b7fb 5bbc de9a ba3c d0ea a6be 812a 563e
000003f0: cbd0 74bc 43fb 223c d47d 163f d726 ce3c
