results/c_0_0/c_0_1_from_0_2/best/q_func2.pt (torch, 502309 bytes, 5 tensors)

1.weight f4 [400, 10]
0	0x4018ee62	2.3895497
1	0xc02d04b3	-2.7034118
2	0x3fbf5dab	1.495046
3	0x4109e459	8.618249
4	0x3fa91cb1	1.3211881
5	0x3f8a54f7	1.0807179
6	0xc046b17c	-3.1045828
7	0xbf05a8b8	-0.5221057
8	0x3f7a0f40	0.9767952
9	0x3db6fd69	0.08935053
10	0x3f004b27	0.50114673
11	0x40a4376c	5.1317654
12	0x4008cf7d	2.137664
13	0x4101f728	8.122841
14	0x40959024	4.6738453
15	0x3eea6cd9	0.4578617
16	0xbe8679f3	-0.26264915
17	0xbd1fbb84	-0.03899719
18	0x3e8177e8	0.25286794
19	0x3d6a4f7f	0.05720472
20	0x40b87b0f	5.765022
21	0x402a4eb1	2.661053
22	0xc0e7d0d7	-7.244243
23	0x3f3f8ac6	0.74821126
24	0xc0ebf9d2	-7.3742456
25	0xc080b206	-4.0217314
26	0x3d6c3e21	0.05767644
27	0xbfd9ca9e	-1.7014959
28	0xbfb07cff	-1.3788146
29	0xbeb5ab11	-0.35482076
30	0xc09e6abf	-4.9505305
31	0xc04255ad	-3.0364792
32	0x3f082f45	0.5319713
33	0xbf19ba25	-0.6004966
34	0xc09f091d	-4.9698625
35	0x3f313e64	0.69235826
36	0x3f8a17c0	1.0788498
37	0x3e352706	0.17690668
38	0xc071da27	-3.77894
39	0x3d507e6a	0.050901808
40	0x3ecb9b32	0.39766842
41	0x40cb840e	6.35987
42	0xbc1f5c76	-0.009726634
43	0x3f440d68	0.76582956
44	0x403490f0	2.8213463
45	0xbe16af6f	-0.1471536
46	0xc04c18b3	-3.1890075
47	0xc00427d8	-2.0649319
48	0x3f358bd4	0.70916486
49	0xbc19e771	-0.009393559
50	0xc0a28aba	-5.0794344
51	0x40456a52	3.0846143
52	0xc04956e3	-3.1459281
53	0xc0580387	-3.3752153
54	0xc05b825a	-3.429831
55	0xbfa1db01	-1.264496
56	0x3fbceadc	1.4759173
57	0xbfdbcf64	-1.7172666
58	0xbc2f1b12	-0.010687606
59	0xbdda0373	-0.10645189
60	0xbe8f2227	-0.27955744
61	0x409a956a	4.830739
62	0xc12fce49	-10.987863
63	0x3e3ab462	0.18232873
64	0xbf25f123	-0.6482107
65	0xc036f352	-2.858601
66	0x3f531b8e	0.8246392
67	0xbc824759	-0.015903162
68	0xbea8af1f	-0.32946107
69	0xbe3d111c	-0.18463558
70	0x406041d0	3.5040169
71	0xc0a2e893	-5.0908904
72	0x408603ce	4.1879644
73	0xbd945ef8	-0.07244676
74	0xbfdbf3c1	-1.7183763
75	0x409393df	4.6118007
76	0x3d84f964	0.0649288
77	0xbe2f3fca	-0.17114177
78	0x3cc75296	0.024331372
79	0x3edc0b4e	0.42977375
80	0xbc3b6161	-0.011436791
81	0xbf86079c	-1.0471072
82	0xc03d6bcf	-2.959705
83	0xc09e583b	-4.9482703
84	0xc0a68c82	-5.204652
85	0xc003c187	-2.058687
86	0x3eecc1d1	0.4624162
87	0xbe7abbef	-0.24485753
88	0xc0aa4820	-5.3213043
89	0xbe37a471	-0.17933823
90	0x40c6b782	6.209901
91	0x40987294	4.7639866
92	0xbd1f22fe	-0.03885173
93	0x40ffa174	7.9884586
94	0x4024f4eb	2.5774486
95	0x3d4b548f	0.04964119
96	0xc0927f13	-4.578012
97	0xbcf5d43e	-0.030008432
98	0xbe096dfc	-0.13420862
99	0x3bd63fb2	0.006538355
100	0xbf97151c	-1.1803317
101	0xc09bb900	-4.866333
102	0xc0922563	-4.567064
103	0xc0186178	-2.380949
104	0xc0eb1cd4	-7.347269
105	0xbfcdea95	-1.6087214
106	0x3fb9d074	1.451674
107	0xc0906a4c	-4.5129757
108	0xc002cc46	-2.0437179
109	0xbe24afb8	-0.16082656
110	0xbf6cc823	-0.92492884
111	0xc11bab34	-9.729298
112	0x402fdab7	2.7477243
113	0xc1152841	-9.322328
114	0x3ff1b9f5	1.8884875
115	0x3f3e6cc7	0.7438473
116	0xc093cdb1	-4.618859
117	0x3c638a27	0.013887919
118	0xbdc69689	-0.09696681
119	0x3d864deb	0.065578304
120	0xc0c3f5a8	-6.1237373
121	0x3f6563f1	0.89605623
122	0xbf78113b	-0.9690129
123	0xc17d2dc7	-15.823676
124	0xc045c31d	-3.0900338
125	0xbe15b044	-0.14618021
126	0xc08105bb	-4.0319495
127	0xc02d1498	-2.704382
128	0x3d79ab00	0.060954094
129	0xbb2519d0	-0.0025192387
130	0x40e5a5c2	7.176484
131	0xc10498f6	-8.287344
132	0x401bdb9c	2.435279
133	0xbf92307f	-1.142105
134	0x4025f400	2.5930176
135	0x3f651826	0.8948997
136	0xbdd58f27	-0.10427695
137	0xbf45c2cd	-0.7725037
138	0xbfe60f5f	-1.7973441
139	0x3d17b46e	0.037037306
140	0x3f45e4f3	0.77302474
141	0x40a34c5d	5.1030717
142	0xbe969723	-0.29412183
143	0x4116aabc	9.416683
144	0x3d3b775c	0.045768127
145	0xbdfccde5	-0.12343959
146	0xc077ca21	-3.871712
147	0x3dc8ece8	0.09810811
148	0xbd71b5c2	-0.05901123
149	0xbbd9c7f8	-0.0066461526
150	0x40831108	4.095829
151	0xc025ccc7	-2.5906236
152	0xc006cbbe	-2.1061854
153	0x40a99382	5.2992563
154	0xc0b5131a	-5.6585817
155	0x3f04336c	0.51640964
156	0x3f04fa20	0.5194416
157	0x3fb54bd1	1.4163762
158	0xbf07adec	-0.5299976
159	0x3d8a0ed7	0.06741112
160	0xc114fd5c	-9.311855
161	0xc086881a	-4.204114
162	0xc0056ccf	-2.0847661
163	0x40282644	2.6273355
164	0xc0c7c8db	-6.2432685
165	0x3e2fdbd4	0.17173702
166	0xbf9e0104	-1.234406
167	0x3f6a1e5c	0.91452575
168	0xbf2ebbef	-0.68255514
169	0x3d021308	0.03175643
170	0xc08ccbe4	-4.399889
171	0x40ece2ad	7.4026704
172	0x3eb3a59e	0.35087293
173	0xc10c85fd	-8.782712
174	0x40ca0100	6.312622
175	0x3d9858a9	0.074387856
176	0xbeb03d0f	-0.34421584
177	0xbec59dd3	-0.38596973
178	0x3d06f25e	0.032945983
179	0xb96b5326	-0.00022442322
180	0x3f152cc4	0.5827143
181	0x4091475e	4.539962
182	0xc0b488b9	-5.64169
183	0xbfeacbba	-1.8343422
184	0xbfd15918	-1.6355314
185	0xbf780d43	-0.96895236
186	0x3d031fdd	0.03201281
187	0x3eb877bc	0.3602885
188	0xbed6111d	-0.4180993
189	0xbd4125fe	-0.047155373
190	0x3f0adb8a	0.5424124
191	0x400d79d1	2.21056
192	0xbfa7d08d	-1.311052
193	0x40bd48ef	5.915153
194	0x41468fd7	12.410117
195	0xbf1058eb	-0.5638568
196	0xbe4c20c6	-0.19934377
197	0xbddb2e6a	-0.10702212
198	0x3d2f0a9e	0.042734735
199	0xbd0b06f6	-0.033942185
200	0x3fd64cef	1.6742228
201	0x3dc1a64a	0.09455545
202	0xbf487eb2	-0.7831832
203	0xc19e820e	-19.813503
204	0xc0ac4ed4	-5.3846226
205	0xbe95827f	-0.29201123
206	0xc0f66e1c	-7.700941
207	0x3f82e9c9	1.0227596
208	0xc0cabe1e	-6.3357077
209	0xbcf45b04	-0.029828556
210	0xc035d657	-2.8412073
211	0xbde8712a	-0.11349709
212	0xbfd7086b	-1.6799444
213	0xc0a3caf6	-5.1185255
214	0xc1188e5c	-9.534756
215	0x3ed8bc5e	0.42331213
216	0xc0890cdf	-4.282821
217	0xbfb104e7	-1.3829621
218	0x3f19ee4a	0.60129225
219	0x3d7fe5fd	0.062475193
220	0xc0ddfb18	-6.936901
221	0x3fdba344	1.71592
222	0xc036d596	-2.8567863
223	0x4114c5db	9.298305
224	0xc03b738c	-2.9289274
225	0xbf0c0ac3	-0.5470392
226	0xbea47444	-0.32119954
227	0x3e848191	0.258801
228	0x3d2182f6	0.039431535
229	0xbd318120	-0.043336034
230	0xc079e715	-3.9047291
231	0x3ff9c532	1.9513304
232	0xbe201087	-0.15631305
233	0xbe532ab2	-0.20621756
234	0xbfd364b4	-1.6515107
235	0xc18b3e20	-17.405334
236	0x3e845b37	0.2585084
237	0xc105e07e	-8.367308
238	0x3d4d2598	0.05008468
239	0xbfdfeac0	-1.7493515
240	0xc116e285	-9.430303
241	0x40de08a4	6.938555
242	0xbef43098	-0.47693324
243	0xc075cbba	-3.8405595
244	0x40ca6f31	6.326073
245	0xbe8f5406	-0.27993792
246	0xc04b578a	-3.177218
247	0x3ed58de6	0.41709822
248	0x3cf3507d	0.029701466
249	0xbce2ca1c	-0.027684264
250	0xc1165c4d	-9.397534
251	0x400abc1e	2.1677318
252	0xbfc1ff8e	-1.5156114
253	0xc06f57d6	-3.739736
254	0x3df18c7e	0.11794375
255	0xbf1ff40e	-0.6248177

1.bias f4 [400]
0	0xbf91c5ef	-1.138853
1	0xc0173402	-2.3625493
2	0xbf8babbc	-1.0911784
3	0x3a4af6e1	0.00077424763
4	0xbfc40a60	-1.5315666
5	0xbf2a8cad	-0.66620904
6	0xbe83adaa	-0.25718433
7	0xbff36f7a	-1.9018395
8	0x3ebcc219	0.36866835
9	0xbfee8aa0	-1.8636055
10	0xbfde00e2	-1.734402
11	0x3eb19009	0.34680203
12	0x3e8116a5	0.2521259
13	0xbf08bf2e	-0.5341672
14	0xbf53de94	-0.827615
15	0xbfad7bee	-1.3553445
16	0x3e89e4fd	0.26932517
17	0xbeeec27b	-0.46632752
18	0xbe03eeba	-0.12884036
19	0xbe16210a	-0.14661041
20	0xbf5db54c	-0.8660476
21	0xbe266e6b	-0.16253059
22	0x3e090612	0.13381222
23	0xbe3119e5	-0.17295034
24	0xbf5aef6d	-0.85521585
25	0xbf339b9f	-0.70159334
26	0xbf716bad	-0.94304925
27	0xbe9623bc	-0.29324138
28	0xbeab00d0	-0.33399057
29	0xc0146113	-2.318425
30	0x3f22ee86	0.6364521
31	0xbf535497	-0.8255095
32	0xbc9afd60	-0.018919647
33	0xbf8df7f0	-1.109129
34	0xbf73641c	-0.9507463
35	0xbf2f2c3f	-0.6842689
36	0x3e8a69fb	0.27033982
37	0xbf4b5e8a	-0.7944113
38	0xbe59b096	-0.21258768
39	0xbf1ef901	-0.620987
40	0xbf1ae314	-0.60502744
41	0x3edc77bd	0.43060103
42	0xbf609a29	-0.8773523
43	0x3e5b7fa7	0.21435414
44	0xbf9c35ac	-1.2203879
45	0xbf8bbb99	-1.0916625
46	0x3e58da7b	0.21177094
47	0xbeddfb19	-0.43355635
48	0xbf37893e	-0.7169379
49	0xbe6858d1	-0.22690131
50	0xbf217f34	-0.6308472
51	0xbe8fc126	-0.28077048
52	0xbe7ef760	-0.24899054
53	0xbe58693e	-0.21133897
54	0xbf0f455c	-0.5596521
55	0x3eaaa770	0.3333087
56	0xbe055be1	-0.1302333
57	0xbe13a566	-0.14418563
58	0xbebd797a	-0.37006742
59	0x3f84853f	1.0353163
60	0xbef888b6	-0.48541802
61	0xbf88ce95	-1.0688044
62	0xbf2d0b7b	-0.6759564
63	0xbfd90f46	-1.6957786
64	0xbf88c3cd	-1.0684754
65	0xbedbb35d	-0.4291028
66	0x3dbd8cf0	0.09255397
67	0xbfcc366e	-1.5954111
68	0x3eb1054b	0.3457435
69	0xbf128378	-0.57231855
70	0xbf8d475f	-1.1037406
71	0xbf27e552	-0.6558429
72	0xbe7ce51c	-0.24696773
73	0xbf75e1ac	-0.9604747
74	0xbedd71ad	-0.4325079
75	0xbeb8276d	-0.3596758
76	0xbf81a24e	-1.0127656
77	0xbf82d65d	-1.0221668
78	0xbeb0f539	-0.3456209
79	0xbe83f8f2	-0.25775868
80	0xbfd61808	-1.6726084
81	0x3ee9f476	0.4569432
82	0xbfebb27d	-1.8413845
83	0xbf995576	-1.1979206
84	0x3f0733c7	0.5281338
85	0x3df2720a	0.118381575
86	0x3e732bcb	0.23747174
87	0xbf9a3a02	-1.2048953
88	0xbef1beb7	-0.47215816
89	0xbfcc839e	-1.5977666
90	0xbc28954d	-0.010289502
91	0xbec75ebd	-0.38939467
92	0xbe652ab7	-0.22379576
93	0xbe99ef3e	-0.3006534
94	0x3f326dba	0.6969868
95	0xbf38e42c	-0.7222316
96	0xbfdaf4f9	-1.710601
97	0x3df8097f	0.12111186
98	0x3eb3992d	0.350778
99	0xbffaa1fd	-1.9580685
100	0x3d9b7a2f	0.07591664
101	0xbc2f0a9e	-0.010683684
102	0xbec5dae2	-0.38643557
103	0xc02f218d	-2.7364228
104	0xbe303a6c	-0.17209786
105	0xbfac06ef	-1.3439616
106	0xbfbe5b44	-1.4871602
107	0xbf7f043b	-0.9961583
108	0x3f35a6b2	0.7095748
109	0xbfbe97eb	-1.4890112
110	0xbc498188	-0.012298949
111	0xbd61476e	-0.05499976
112	0x3f5630ac	0.8366802
113	0xbec48ea7	-0.38390085
114	0xbfeff478	-1.8746481
115	0xbf93a0aa	-1.1533406
116	0xbf449fa0	-0.7680607
117	0xbec58d33	-0.3858429
118	0xbe8d4dc0	-0.2759838
119	0x3dbb1b4d	0.091360666
120	0x3eb0b6e5	0.34514537
121	0xbecff11b	-0.40613636
122	0x3acfc668	0.0015851976
123	0xbf1ade31	-0.6049529
124	0xbf8025dc	-1.0011554
125	0xbf35a827	-0.70959705
126	0xbecf74ea	-0.40518886
127	0xbf02fe17	-0.5116896
128	0xbec359f8	-0.38154578
129	0xc012967f	-2.2904356
130	0x3eef3a48	0.46724153
131	0xc0165337	-2.348829
132	0xbf299ae6	-0.6625198
133	0xbff161f4	-1.8858018
134	0x3ef818e6	0.48456496
135	0xbf08ccd9	-0.5343757
136	0x3eac0b14	0.33602202
137	0x3e3f3392	0.18672016
138	0xbea03725	-0.31292072
139	0x3f5bd72d	0.8587521
140	0xbeafc323	-0.34328565
141	0xbf69f126	-0.9138359
142	0xbeca5da2	-0.3952456
143	0xbf129dc2	-0.5727197
144	0xbeba8eb8	-0.3643701
145	0xbe81d16b	-0.25355086
146	0xbfa68d22	-1.301182
147	0x3ec70e55	0.38878122
148	0x3e0299d8	0.12753999
149	0x3ed00713	0.40630397
150	0xbf0dc821	-0.553835
151	0xbf35c68e	-0.71006095
152	0xbf5dc957	-0.86635345
153	0xbe8003b5	-0.25002828
154	0xbea6189c	-0.3244065
155	0xbf875dae	-1.0575464
156	0xbf13147b	-0.57453126
157	0xbed6454a	-0.41849738
158	0xc005efa9	-2.0927527
159	0xbfdd8cca	-1.730859
160	0x3f1cbc41	0.6122475
161	0x3e43f195	0.19135125
162	0xbf0b9510	-0.54524326
163	0xbf40a949	-0.7525831
164	0xbf6d1b96	-0.9262022
165	0xc005ad69	-2.088709
166	0xbf7884a4	-0.97077394
167	0x3eac85d5	0.33695856
168	0xbf62192f	-0.8831968
169	0xbe1ae5eb	-0.15126769
170	0xbf3f4ba7	-0.7472481
171	0x3e97a7c5	0.29620185
172	0x3dd4d224	0.10391644
173	0xbfeba7e7	-1.8410615
174	0xbf5135b9	-0.817226
175	0xbffaf12a	-1.9604847
176	0xbffa8a79	-1.9573509
177	0xbe809442	-0.25113112
178	0xbf6f4ae9	-0.9347368
179	0x3e80e36d	0.25173512
180	0xbfc74b3f	-1.5569838
181	0x3e499c7f	0.19688605
182	0xbf3ec76e	-0.74523056
183	0x3f08d56b	0.5345065
184	0xbf4c8d4e	-0.79903114
185	0xbfd56ef8	-1.667449
186	0x3f52696e	0.8219212
187	0xbf616785	-0.88048583
188	0xbf64fd18	-0.8944869
189	0xbe8b9598	-0.27262568
190	0x3c99b8a5	0.018764803
191	0x3f37b27b	0.71756715
192	0xbe4325d1	-0.19057395
193	0xbed72f5c	-0.4202832
194	0xbfe3f08c	-1.7807784
195	0xbec86587	-0.3913996
196	0xbe55799e	-0.20847175
197	0xbed3c0dd	-0.4135808
198	0x3e0aadd5	0.13542874
199	0x3ec0302d	0.37536755
200	0xc011636b	-2.271693
201	0xbe8a281e	-0.26983732
202	0xc00f8dc8	-2.2430286
203	0xbeb9c80e	-0.36285442
204	0xc0124dd8	-2.2860012
205	0x3ebf877a	0.37408048
206	0x3ca0f0f8	0.019646153
207	0xbf1e3036	-0.61792314
208	0xbf29780a	-0.6619879
209	0xbfb362cb	-1.4014524
210	0x3e340013	0.17578153
211	0xc00de58c	-2.2171354
212	0x3c838002	0.01605225
213	0xbf9fac6f	-1.2474498
214	0xbf5a6c46	-0.8532146
215	0x3e1dcee5	0.15410955
216	0xbd0db6c6	-0.034598134
217	0xbfb5503f	-1.4165114
218	0xbf5e468c	-0.86826396
219	0x3f380deb	0.7189624
220	0x3ee167f2	0.44024616
221	0xbf97b27f	-1.1851348
222	0xbfb3b39d	-1.4039189
223	0xbf0cdabd	-0.5502127
224	0xbf37ec35	-0.718448
225	0xc01845d0	-2.379261
226	0xbeb9fc17	-0.36325142
227	0xbe7cb8fc	-0.24679941
228	0x3ebadb75	0.36495557
229	0xbde258e7	-0.11052113
230	0x3f31eb83	0.6949999
231	0x3e80c511	0.2515035
232	0xbcc83e1d	-0.02444368
233	0xbdf779c9	-0.120837756
234	0xbf5542a3	-0.83304805
235	0xbead48d4	-0.33844626
236	0xbf44cf1f	-0.7687854
237	0x3e8e3055	0.2777125
238	0x3eeec7fa	0.46636945
239	0xbfa1697a	-1.2610314
240	0xbf132a4f	-0.5748643
241	0xbf689e93	-0.90866965
242	0xbea41f7a	-0.32055265
243	0xbf58f6c1	-0.84751517
244	0xc023776b	-2.5541637
245	0xbf248f18	-0.64280844
246	0xbf500d29	-0.8127008
247	0xbeaddbab	-0.33956656
248	0x3f252ae0	0.6451855
249	0xbfbe7918	-1.4880705
250	0x3e9a0930	0.30085135
251	0xc04c6d5a	-3.1941743
252	0x3d7b1de0	0.061307788
253	0xbbb101f7	-0.0054018456
254	0xbf1b9023	-0.6076681
255	0x3e3c6c58	0.18400705

3.weight f4 [300, 400]
0	0xc004c8c0	-2.0747528
1	0xc01a8f7f	-2.4150083
2	0x3dfa3acf	0.12218248
3	0x401b1661	2.423241
4	0x3fea8d3d	1.8324353
5	0x3fc029b9	1.5012733
6	0xbe5abacb	-0.21360318
7	0xc097c65b	-4.7429633
8	0x3f342d2b	0.7038142
9	0x3f9cefc1	1.2260667
10	0xc024d6f6	-2.5756202
11	0xc00538ef	-2.0816
12	0xc0f29374	-7.5804996
13	0x3fafa953	1.3723549
14	0xc0ad3088	-5.412174
15	0xc01d2771	-2.4555323
16	0x4003e30d	2.060733
17	0x3f6acdbd	0.9172018
18	0xbfc42dfe	-1.5326536
19	0xc017d92c	-2.3726301
20	0xc020a73d	-2.5102074
21	0x3f7d9377	0.9905314
22	0xc00b896f	-2.1802633
23	0x3e12ed92	0.14348438
24	0x405ad86a	3.4194589
25	0xbf1c7453	-0.61114997
26	0xc09bb8d8	-4.866314
27	0xbb478c00	-0.0030448437
28	0x402ae018	2.6699276
29	0x3ea1c41a	0.31594926
30	0xc0fc96dc	-7.8934155
31	0xc0259201	-2.5870364
32	0x3f62d010	0.8859873
33	0xbfab46e5	-1.338101
34	0xbffb300e	-1.962404
35	0xbe98ad49	-0.29819706
36	0x4029d11f	2.6533887
37	0xbf5efa8f	-0.8710107
38	0x3f19bf5f	0.60057634
39	0xbf8f4695	-1.1193415
40	0xbfbdc3fc	-1.4825435
41	0x3f32abfe	0.6979369
42	0xbfcbf44f	-1.5933932
43	0xbfdb27cc	-1.712152
44	0xbf7ea88f	-0.9947595
45	0x3e908b0c	0.28231084
46	0x3f2220e6	0.6333145
47	0xc12d2a18	-10.822777
48	0x3e738b06	0.23783502
49	0xbfa04534	-1.2521119
50	0x40867c52	4.202676
51	0x3f5bdf22	0.8588735
52	0x406654c8	3.5989246
53	0x40cf65c2	6.4811716
54	0x3f298152	0.6621295
55	0xbfd2d0ca	-1.6469967
56	0x3f0aaf75	0.54173976
57	0xbf09d3cc	-0.538388
58	0xc088d237	-4.275661
59	0x3efc68eb	0.49298796
60	0x4072c32f	3.793163
61	0xc069b550	-3.6516914
62	0x405e872e	3.4770007
63	0xbf5531dc	-0.83279204
64	0x402558b1	2.5835383
65	0x3ffa1e7a	1.9540551
66	0xbe6182a4	-0.22022492
67	0x3fad8b25	1.3558089
68	0x3ec23db5	0.37937704
69	0xc0452f97	-3.0810297
70	0xbff94c09	-1.9476329
71	0xc024bd5a	-2.574057
72	0xc01d915c	-2.461997
73	0xc0619de2	-3.5252614
74	0x4069fe55	3.6561482
75	0xbbcb2c66	-0.006200361
76	0xc03ae9bc	-2.920516
77	0x3deec370	0.116583705
78	0xbdeba7ac	-0.1150659
79	0x408c758f	4.3893504
80	0xbfa78017	-1.3085965
81	0xc00cf5e6	-2.2025084
82	0xc00f499a	-2.2388673
83	0x3fdc85d8	1.7228346
84	0xbe9c5ed2	-0.30541092
85	0xc152eab2	-13.182299
86	0x3dd2573e	0.102705464
87	0xbf58c2a9	-0.8467203
88	0x3eadea4a	0.3396781
89	0xc01d6393	-2.4592025
90	0x3eba2314	0.36354887
91	0x3db5532b	0.08853754
92	0x40833620	4.100357
93	0x3ee54236	0.44777077
94	0x3f732e4e	0.9499253
95	0x400fb55f	2.245445
96	0x3f0a514b	0.54030293
97	0xbf19e011	-0.60107523
98	0xbf62fa29	-0.88662964
99	0xbf80d00c	-1.0063491
100	0x3fba2497	1.4542416
101	0x3dbe9ecd	0.093076326
102	0xc0ab0424	-5.3442554
103	0xc03918ad	-2.892131
104	0xc0290a1b	-2.6412418
105	0x3e419481	0.18904306
106	0xc0d17873	-6.5459533
107	0xc0382ba5	-2.8776639
108	0xc1188456	-9.532309
109	0x3fe7f1ec	1.8120704
110	0x3ef44c14	0.47714293
111	0xbfb89f29	-1.4423572
112	0xbf791112	-0.9729167
113	0xbffc74f5	-1.9723192
114	0xbf607143	-0.87672824
115	0xc1264f15	-10.394307
116	0xc0e0c764	-7.0243397
117	0xbd3778f0	-0.04479307
118	0x3c543afa	0.012953514
119	0xbead5bee	-0.338592
120	0xbeb82d14	-0.35971892
121	0xc005f0e1	-2.092827
122	0x3f96c25c	1.1778064
123	0x3fa0d1f7	1.2564076
124	0x3ebb35da	0.36564523
125	0x3ee4521f	0.44593903
126	0xc0e15b68	-7.042408
127	0xc06ae6db	-3.6703403
128	0xc0c68805	-6.204104
129	0xc08aadc4	-4.3337116
130	0x401fa58c	2.4944792
131	0xc05bd078	-3.434599
132	0x3f304be4	0.688658
133	0xbf296902	-0.66175854
134	0x3fcebc19	1.6151153
135	0x40ce4601	6.4460454
136	0xc0dbbf16	-6.867076
137	0xbfd06fe9	-1.6284152
138	0xc024a140	-2.572342
139	0x40125a2f	2.2867544
140	0x4041fb44	3.030961
141	0x3ee3724e	0.44423145
142	0x3f3dc77b	0.7413251
143	0x3fa8a809	1.317628
144	0xbf91fc9f	-1.1405219
145	0x3ee7d981	0.4528313
146	0xc072b20d	-3.7921174
147	0x3e752d58	0.23943079
148	0xbe73f20b	-0.23822801
149	0xc0a0ccf2	-5.0250177
150	0xc0932c73	-4.599176
151	0x407ae9a6	3.9205108
152	0xc050fea5	-3.2655423
153	0xbf1ca73f	-0.611927
154	0x3f4fdaf3	0.81193465
155	0xbd924b1f	-0.071432345
156	0xbec37ec7	-0.3818266
157	0xc042fa53	-3.0465286
158	0x3fd92a61	1.6966058
159	0xc12dc474	-10.860462
160	0xbf7eb48a	-0.9949423
161	0x402b33c7	2.6750352
162	0x3f530f79	0.82445484
163	0x3f2e6c2f	0.68133825
164	0xbe4df7e2	-0.20114091
165	0x3f3c0b64	0.7345488
166	0xbf22995c	-0.6351526
167	0xc1a60735	-20.75352
168	0xbe3ea2d9	-0.18616809
169	0xbd1ab879	-0.037773583
170	0x3edf7365	0.43642727
171	0x3f67ef09	0.90599114
172	0xbd5d50e7	-0.054032233
173	0x3ec03376	0.37539262
174	0x402dfa42	2.7183995
175	0x3e59b373	0.2125986
176	0x3f70afa9	0.94018036
177	0xbc65ef2d	-0.014034075
178	0xc00503a2	-2.0783467
179	0x3ec17a72	0.3778873
180	0xc0d03728	-6.506733
181	0x403409e0	2.8131027
182	0xc0117bbd	-2.2731774
183	0x3de829b5	0.1133608
184	0xbf30c0f7	-0.6904444
185	0xbf8ef389	-1.1168071
186	0xbf5b9a5d	-0.85782415
187	0xc0879cc2	-4.2378855
188	0xbf80ed83	-1.0072483
189	0x3eb7eb1e	0.35921568
190	0xc0b490b1	-5.6426625
191	0xbfedb6ba	-1.8571389
192	0xc065a2a8	-3.5880527
193	0x3e00b250	0.12568021
194	0xbfa74f42	-1.3071063
195	0x40945ed7	4.636577
196	0x3fabf5b1	1.3434354
197	0xc069c9b3	-3.6529357
198	0xc0102d7b	-2.252776
199	0xc06e4518	-3.7229671
200	0xc0974dde	-4.7282553
201	0x3c867e62	0.016417686
202	0xc05cddd1	-3.4510386
203	0x40286adc	2.6315222
204	0xbe952ec4	-0.29137242
205	0xc03c20d9	-2.9395049
206	0xc01129b4	-2.2681704
207	0xbf7e33b1	-0.99297625
208	0x3e08d506	0.13362512
209	0xc0831e1f	-4.097427
210	0x3f29e581	0.6636582
211	0xc0e0accd	-7.021094
212	0x3e5feafb	0.21866982
213	0xc0544fbe	-3.317367
214	0x3ffcb86a	1.9743779
215	0x3e06cd68	0.13164294
216	0x4001cb94	2.0280504
217	0xc0bc4981	-5.8839726
218	0xc1372494	-11.44643
219	0xbfa94972	-1.3225539
220	0x3f3b7079	0.73218495
221	0xbf397122	-0.7243825
222	0xc002c077	-2.0429971
223	0x3f106e9f	0.56418794
224	0xc043566a	-3.0521493
225	0xbe9e088c	-0.30865896
226	0xbe02047b	-0.12697022
227	0xc095291a	-4.6612673
228	0xc0c28641	-6.0788884
229	0x401dbc15	2.4646046
230	0xbfbcbb99	-1.474475
231	0x3db7aa61	0.08968044
232	0x3f5b03fa	0.8555294
233	0x3e84ca56	0.2593562
234	0xbfe8b6a9	-1.8180743
235	0xbc2e1bcd	-0.010626745
236	0xbfa03d89	-1.2518779
237	0xbf826c75	-1.0189348
238	0xbf1e3b3b	-0.6180913
239	0x3e471458	0.19441354
240	0xbed49e99	-0.4152725
241	0x3ed456a7	0.4147236
242	0x3fadf1ac	1.3589377
243	0xbff19601	-1.8873903
244	0xc03830b1	-2.877972
245	0xbf3441a2	-0.7041265
246	0x3fba0a99	1.4534484
247	0xbe4fe1d4	-0.2030099
248	0x3fab4a2a	1.3382008
249	0xc09e2be5	-4.942858
250	0x3f5143cb	0.8174407
251	0xc101802c	-8.093792
252	0xbf52bd6d	-0.8232029
253	0xbf4ffaa5	-0.8124183
254	0xc0e3165a	-7.0964785
255	0xbeb6a322	-0.35671335

3.bias f4 [300]
0	0x3fb6ab72	1.4271071
1	0xbdfe1153	-0.12405648
2	0x3bb432d5	0.0054992237
3	0xbd8a8c52	-0.06765045
4	0xc006906b	-2.1025646
5	0xbe0469d8	-0.12931001
6	0xbca3992f	-0.019970505
7	0xbe19d43b	-0.15022366
8	0xbd50c1a0	-0.050965905
9	0xbdcf6e00	-0.10128403
10	0xbe0fda16	-0.14048037
11	0xbcbef525	-0.023310253
12	0xbd6cc642	-0.05780626
13	0xbd95ada8	-0.07308513
14	0x3f13c54a	0.57722914
15	0xbe3e756d	-0.18599482
16	0xbd3dd1ac	-0.046342537
17	0xbd8f89dc	-0.070087165
18	0xbda456c8	-0.08024365
19	0xbdc13e98	-0.09435767
20	0xbcfbde26	-0.030745577
21	0xbdd39d28	-0.103327096
22	0xbdb1a4a7	-0.08673983
23	0xbe47cc96	-0.19511637
24	0xc094acbe	-4.6460867
25	0x407f6d92	3.9910626
26	0x406fbea9	3.746012
27	0xba5f2d79	-0.0008513551
28	0x3f94d35f	1.1627005
29	0xbdb8cd73	-0.09023561
30	0xbea86c06	-0.32894915
31	0xbe4bbc5d	-0.19896074
32	0xbd868c63	-0.065697454
33	0xbdc9331f	-0.09824204
34	0xbe855c2b	-0.2604688
35	0xbe2e6878	-0.17032039
36	0xbda194a6	-0.078896806
37	0xbac91a0d	-0.0015342847
38	0xbd9a4327	-0.075323395
39	0x3fe2f5c0	1.7731247
40	0x3f7b3e5b	0.9814202
41	0x400c9f4c	2.1972227
42	0xbdf98e1d	-0.12185309
43	0xbd5b63ac	-0.05356185
44	0xbdc09b2f	-0.09404599
45	0xbc6f4ae5	-0.014605259
46	0xbc9eb128	-0.019371584
47	0xbdc2ae67	-0.09505921
48	0xbd8a1fd1	-0.0674435
49	0xbd9c946f	-0.07645499
50	0x3f4e34ea	0.8054949
51	0xbc6abbe8	-0.014327027
52	0xbd7fa685	-0.062414665
53	0x3ff967ed	1.9484841
54	0xc0639811	-3.5561564
55	0x3f800549	1.0001613
56	0xbd32ad25	-0.043622155
57	0xbd5b8c1f	-0.053600427
58	0xbe04fc7e	-0.12986943
59	0x408766ce	4.2312994
60	0xbdb78314	-0.08960548
61	0xbdb4d631	-0.08829916
62	0x4089bae7	4.304065
63	0xbe59b8c8	-0.21261895
64	0xbd22279b	-0.039588552
65	0xbe0ee654	-0.1395505
66	0xbdb59907	-0.08867078
67	0xbdaf5d4d	-0.085627176
68	0xbcfc26f9	-0.030780302
69	0xbd460a4b	-0.04834966
70	0xbd975f41	-0.07391215
71	0xbe13b2b1	-0.14423634
72	0xc00ae7f2	-2.1704068
73	0xbd3969f4	-0.04526706
74	0x3fc055a6	1.5026138
75	0xbd7fb23e	-0.062425844
76	0xbd815a57	-0.06316059
77	0xbde70594	-0.11280361
78	0x405480ea	3.3203683
79	0xbd8e95c9	-0.06962163
80	0xbd8f6ccf	-0.070031755
81	0xbd039f0d	-0.032134105
82	0xbd6e3c61	-0.05816305
83	0xbd48a690	-0.04898697
84	0xbf80d4a1	-1.0064889
85	0xbde5a413	-0.11212935
86	0xbca9ac4f	-0.020712046
87	0xbd58fa7f	-0.052973267
88	0xbfb56f0b	-1.4174513
89	0xbec95b5a	-0.39327508
90	0xbf84f007	-1.038575
91	0x3fb57fd9	1.4179641
92	0xbd829ffe	-0.06378172
93	0xbd023c8d	-0.031796027
94	0x3a60b0f3	0.00085712894
95	0xbd0d2051	-0.034454647
96	0xbff11756	-1.8835247
97	0xbf90b2bc	-1.1304545
98	0xbda154be	-0.078774914
99	0xbbe40cab	-0.006959518
100	0xbd5d41e9	-0.054017935
101	0x3b0bf82b	0.0021357636
102	0xbd262c2c	-0.04056947
103	0x3da94660	0.08265376
104	0xbdaf97e4	-0.08573893
105	0x3e8ba5c2	0.272749
106	0xbf7d3554	-0.989095
107	0xbfe2dd78	-1.7723837
108	0xbe982e3d	-0.29722777
109	0xbceae50b	-0.02867367
110	0xbd18427f	-0.03717279
111	0xbd5497e5	-0.05190267
112	0xbca0ee87	-0.019644989
113	0xbd16f115	-0.036851007
114	0xbfd50e11	-1.6644918
115	0xbf87eb39	-1.0618659
116	0xbd8f0271	-0.069828875
117	0x3fe9b93a	1.8259652
118	0xbd5c8db2	-0.05384607
119	0xbde6d052	-0.11270203
120	0xbd5bcd57	-0.053662624
121	0x4057d348	3.3722706
122	0xbd2e44bf	-0.04254603
123	0xbe4fb939	-0.202855
124	0x3fd1dcd8	1.6395521
125	0x3f7c24e0	0.98493767
126	0xbfb66c9d	-1.4251896
127	0xbd8145f3	-0.0631217
128	0x3e239c0f	0.159775
129	0xbfee107d	-1.8598782
130	0xbda97aee	-0.082754
131	0xbd7f4049	-0.062317166
132	0xbd4c9a0c	-0.049951598
133	0xbd997bc3	-0.07494309
134	0xbe0aa98f	-0.13541244
135	0xbe03ed0b	-0.12883393
136	0xbd64f17a	-0.055894352
137	0x3f3cc44b	0.7373702
138	0xbd04829c	-0.03235112
139	0xbe1a4bfb	-0.15068047
140	0xbdbaa134	-0.09112778
141	0x3f9e9696	1.2389705
142	0xc0425a64	-3.036767
143	0xbbd33df2	-0.0064465934
144	0x3d68d8c6	0.056847356
145	0x3fdd5e5d	1.7294422
146	0xbd79af51	-0.06095821
147	0xbed596a6	-0.41716498
148	0xbca735d0	-0.020411402
149	0xbd4fcf46	-0.05073478
150	0xbe15a3e9	-0.14613308
151	0xbf09ab76	-0.53777254
152	0xbd2b2c15	-0.041790087
153	0xc0208294	-2.5079699
154	0xbd5e7385	-0.054309387
155	0x3c4b423e	0.01240593
156	0xbd47dc78	-0.04879424
157	0xbd88a764	-0.06672552
158	0xbdbd7278	-0.09250349
159	0xbd24c25a	-0.04022441
160	0xbdc42c88	-0.09578806
161	0x3f8272f0	1.0191326
162	0xbd3eaceb	-0.046551626
163	0x3b3931ca	0.0028258436
164	0xbf5a8156	-0.853536
165	0x3ac077fe	0.0014684198
166	0xbeccff5a	-0.40038568
167	0x4025a2e5	2.5880673
168	0x401eb7a7	2.4799592
169	0xbdb8f16c	-0.090304226
170	0xbcfc32ef	-0.030786006
171	0xbdf11dcf	-0.11773264
172	0xbcd6e3a5	-0.026231596
173	0xbdcc1f9d	-0.09966967
174	0xbee1c0fd	-0.4409255
175	0x3ff3ac59	1.9036971
176	0xbd490e47	-0.04908588
177	0xbd361b97	-0.044459905
178	0xbda9952f	-0.08280408
179	0xbd74332c	-0.059619114
180	0xbc6ad6ab	-0.014333407
181	0xbe1a54ef	-0.15071462
182	0x3d29721e	0.041368596
183	0xbf21a03c	-0.63135123
184	0xc009d62c	-2.153697
185	0xbc8a6c1e	-0.016897257
186	0xbe250e20	-0.1611867
187	0xc04dd500	-3.2161255
188	0xbd19ac9f	-0.03751814
189	0x3f2a54dd	0.6653574
190	0x3fe71d25	1.8055769
191	0xbd9bbe49	-0.076046534
192	0x401b0609	2.4222434
193	0xbd53d252	-0.05171425
194	0xbea6d4bb	-0.32584175
195	0x408bbcfe	4.3668203
196	0xbd9712e7	-0.07376652
197	0xbc8acc86	-0.016943227
198	0xbf85807a	-1.0429833
199	0xbd0e22e4	-0.034701243
200	0x3d73830d	0.05945115
201	0xbdcb689f	-0.09932064
202	0x40190490	2.3909035
203	0xbd92fa82	-0.07176687
204	0x4048c751	3.1371653
205	0x3ffa436e	1.9551828
206	0x4019d730	2.403759
207	0xbd6f9778	-0.05849406
208	0xbd03404f	-0.03204375
209	0x3d2501bd	0.04028486
210	0x3b93a28e	0.004505462
211	0xbda83c47	-0.08214622
212	0xbf6b2b4f	-0.9186296
213	0xbcaacb76	-0.02084897
214	0x3fc9bd51	1.57609
215	0xbdb6c093	-0.08923449
216	0xbdade991	-0.08491815
217	0x3f467ff5	0.77538997
218	0x3cbacafc	0.022801869
219	0x3f60684c	0.87659144
220	0xbe5857a6	-0.21127185
221	0xbc678792	-0.014131444
222	0x3fb098e1	1.3796655
223	0x3f9fb924	1.2478375
224	0xbf1b5085	-0.6066974
225	0x3f053584	0.52034783
226	0x3f1f6696	0.6226591
227	0xbdd87ade	-0.1057031
228	0xbd30a0c5	-0.04312207
229	0x3ecb265d	0.39677706
230	0xbd1c8dfb	-0.03822134
231	0xbd41e1a4	-0.04733433
232	0xbd812bd0	-0.06307185
233	0xbd9010c6	-0.07034449
234	0x3f2d39e3	0.67666453
235	0xbdac685c	-0.084183425
236	0xbc5d6a5f	-0.01351413
237	0xbd8440dd	-0.06457684
238	0xbcc9653b	-0.024584403
239	0xbffcb596	-1.9742916
240	0xbdd6dc3d	-0.10491226
241	0xbd958dfc	-0.07302472
242	0xbd0b9720	-0.03407967
243	0xbdde362d	-0.10850177
244	0xbdb1e49a	-0.086861804
245	0xbd0d8396	-0.03454932
246	0x400b8194	2.1797838
247	0xbcf34121	-0.029694142
248	0xbda40546	-0.08008818
249	0xbd85a49e	-0.06525539
250	0x3e0b21b4	0.13587075
251	0xc0ceab72	-6.4584284
252	0xbd45d5f8	-0.04829976
253	0xbd234756	-0.039862953
254	0xbcd909bf	-0.026493905
255	0xbd980236	-0.07422297

5.weight f4 [1, 300]
0	0x3ed158f6	0.40888184
1	0x3c40ef1d	0.011775759
2	0x3c91bfaa	0.017791588
3	0xbc496dc4	-0.012294237
4	0xc010e9a3	-2.26426
5	0x3e025432	0.1272743
6	0xbcce8668	-0.025210574
7	0xbc669997	-0.014074705
8	0x3c9fa1fd	0.019486422
9	0xbc87fbf0	-0.016599625
10	0x3cfc84da	0.030825067
11	0x3c265a9b	0.010153438
12	0x3c42a9dc	0.011881318
13	0x3d423c72	0.047420926
14	0xbe156f2f	-0.14593194
15	0xbf74b076	-0.9558176
16	0x3acee58c	0.0015784963
17	0xbb33c647	-0.0027431415
18	0x3c67011c	0.014099386
19	0x3c81e16f	0.015854565
20	0xbbf5ab5a	-0.0074972333
21	0xbc9be043	-0.019027835
22	0xbad7a7fd	-0.0016453263
23	0x3a9295a4	0.0011183512
24	0x3e46e309	0.19422545
25	0x3ec32435	0.3811356
26	0x3ff2596e	1.8933542
27	0xbc735b0d	-0.014853251
28	0xbe250206	-0.16114053
29	0xbc166c85	-0.0091811465
30	0xc0196891	-2.3970072
31	0xbcf0b04d	-0.029380942
32	0xbc066400	-0.008202553
33	0x3bbcd663	0.0057628616
34	0x3ed1a667	0.40947267
35	0x3cfdc90c	0.030979656
36	0xbbffc6c3	-0.0078056767
37	0x3c069756	0.008214792
38	0xbcb51aa4	-0.02210743
39	0x400d8944	2.211503
40	0xbe893988	-0.26801705
41	0x3fde62a7	1.7373856
42	0xbc719904	-0.014745954
43	0x3c883f7e	0.016631838
44	0xbcaf1151	-0.021370562
45	0xbb94dd54	-0.004542986
46	0xbba7a7b5	-0.005116428
47	0xbc65eb3c	-0.014033135
48	0x3ca50d1b	0.02014785
49	0x3c26bf5b	0.010177459
50	0xbe46ed90	-0.1942656
51	0x3cbc1f7b	0.02296423
52	0xbcac1fd3	-0.021011269
53	0xbf30fd92	-0.6913692
54	0x3e4ddcb1	0.20103718
55	0xbfe28102	-1.769562
56	0x3b5e11c3	0.0033885099
57	0x3b3f49b9	0.002918823
58	0x3ca7ec1c	0.020498328
59	0x3f221876	0.63318574
60	0xbcc23d10	-0.023710757
61	0x3dcb747d	0.09934328
62	0x3f734d54	0.9503987
63	0x3c85894b	0.016300818
64	0x3bdf6ee9	0.0068186414
65	0xbc36ec7c	-0.011164781
66	0xba6381c2	-0.0008678698
67	0x3cbf75b8	0.023371562
68	0xbc20d47a	-0.009816283
69	0xbcfc534f	-0.030801443
70	0x3c863c46	0.016386162
71	0xbc19be7a	-0.009383792
72	0x3e032d8c	0.12810344
73	0xbc298a6c	-0.010347944
74	0x3f32511f	0.6965503
75	0x3c459008	0.0120582655
76	0x3bb14400	0.0054097176
77	0xb8e67878	-0.00010989694
78	0x3f7247f2	0.9464103
79	0x3ce22554	0.02760569
80	0x3c4147ff	0.01179695
81	0xbbfb6ec3	-0.007673116
82	0xba9590d4	-0.001141096
83	0xbb78701c	-0.003790862
84	0x3e59e0f9	0.21277227
85	0x3c96ee88	0.018424287
86	0xb9a40fea	-0.00031292374
87	0xbab4137a	-0.0013738715
88	0xbe1a6cce	-0.15080568
89	0x3e887897	0.26654503
90	0xbfb1e7cd	-1.3898865
91	0xbf76ea46	-0.9645122
92	0xbd10c43f	-0.035343405
93	0xbcaf9886	-0.021435034
94	0xbcc203df	-0.023683487
95	0x3c9c0ab9	0.019048082
96	0xbff6f34a	-1.9292996
97	0x3edab234	0.42714083
98	0x3b24c541	0.0025141987
99	0x3bac7f57	0.0052642035
100	0x3ccb60b2	0.024826381
101	0xbcb206ac	-0.021731697
102	0xbc674bb8	-0.014117174
103	0xbee600af	-0.44922397
104	0xbedff47b	-0.4374121
105	0x3e5ff026	0.21868953
106	0xbeb8b823	-0.36077985
107	0x3e00259d	0.12514348
108	0x3e24b492	0.16084507
109	0xbba290de	-0.004961117
110	0xbc8dddbc	-0.017317645
111	0xbadaf6e1	-0.0016705656
112	0x3b071508	0.00206119
113	0xbca8279b	-0.020526698
114	0x3e9f89ee	0.3115992
115	0xbf06c9bd	-0.5265158
116	0x3c2fae71	0.010722742
117	0xbef60010	-0.48046923
118	0xbccbb2c1	-0.02486551
119	0x3c50e0cc	0.012748908
120	0x3c222668	0.009896852
121	0x3fab7232	1.3394225
122	0x3b5c593e	0.0033622528
123	0xbc56dd23	-0.013114247
124	0xbe9c683c	-0.30548275
125	0x3f738268	0.9512086
126	0x3fec577b	1.8464197
127	0xbc2381fe	-0.009979723
128	0x3e3295d7	0.17439972
129	0x3ef2d015	0.4742438
130	0x3cb6e4e4	0.02232594
131	0x3cdfdd77	0.027327282
132	0x3c052cfb	0.0081284
133	0x3c931e42	0.017958764
134	0xbd1a2b8b	-0.037639182
135	0xbb278af0	-0.002556499
136	0xbcd48a96	-0.02594499
137	0xbe14b993	-0.14523916
138	0x3c614f12	0.013751762
139	0xbc873f4c	-0.016509674
140	0xbc8b4115	-0.016998807
141	0xbff74b48	-1.9319849
142	0x3e213ccc	0.15745848
143	0xbc95b491	-0.018274577
144	0xbf9de98b	-1.2336897
145	0x4035b91c	2.8394232
146	0xbb979b17	-0.0046266424
147	0xbe3dbf45	-0.18529995
148	0xbe96d1e8	-0.2945702
149	0x3cf52d4e	0.02992883
150	0x3cae1673	0.021250939
151	0xbfb569db	-1.417293
152	0xbb2d8deb	-0.0026482295
153	0xbfb6551b	-1.4244722
154	0xbba3a03d	-0.004993467
155	0x3c5822b5	0.013191869
156	0xbcb7d9c5	-0.022442708
157	0x3f511cbb	0.81684464
158	0xbc92639e	-0.017869767
159	0xbca6cc61	-0.020361127
160	0xbc9b4cd9	-0.018957542
161	0xbf52573b	-0.82164353
162	0xbc0c2599	-0.008553886
163	0x3c249ddc	0.010047402
164	0xbe3190bc	-0.17340368
165	0xbbe7c839	-0.007073429
166	0x3e93e3b2	0.28884655
167	0x3dfac728	0.12245017
168	0x3eefdf14	0.46849883
169	0x3cce0e1e	0.025153216
170	0xbca7a673	-0.020465111
171	0x3c95fccd	0.018309021
172	0xbc967e7f	-0.018370865
173	0x3cbb24a7	0.022844626
174	0x3ebfa94c	0.3743385
175	0x3e9ade99	0.30247954
176	0x3b92646f	0.004467539
177	0xbd0caf25	-0.03434672
178	0xbd1388ec	-0.03601925
179	0x3b92f99f	0.0044853236
180	0x3c8723b5	0.016496519
181	0xbffd0f13	-1.9770225
182	0xbfb7e42a	-1.4366505
183	0x3e964be3	0.29354772
184	0x3e202c7e	0.15641972
185	0xbccbda28	-0.024884298
186	0x3c527305	0.012844806
187	0x3dd7ba6b	0.10533603
188	0x3b8b7b76	0.004256661
189	0x4118d3c5	9.551702
190	0xbff17dca	-1.8866513
191	0x3b480ddd	0.0030525841
192	0xbe4a5b05	-0.19761284
193	0xbb0909ba	-0.0020910338
194	0xbffd9025	-1.9809614
195	0x3f331262	0.69949925
196	0xbc6eccd9	-0.014575207
197	0x3c2579fb	0.010099883
198	0x3eadf148	0.33973145
199	0x3c15ec4a	0.009150574
200	0xbe43dd2b	-0.19127338
201	0xbb41dbb7	-0.0029580423
202	0xbe1ee7b7	-0.1551808
203	0x3cc0512a	0.023476202
204	0x3f8efdd9	1.1171218
205	0x3e89e09c	0.26929176
206	0x3fcd20bd	1.6025616
207	0xbc2298c7	-0.00992412
208	0x3ca762e8	0.020432904
209	0x3ea82be1	0.32845977
210	0xbbad92a1	-0.0052970205
211	0xbc8d865d	-0.017275983
212	0xbf317f42	-0.69334805
213	0x3ca2c7b7	0.019870622
214	0xbe081405	-0.13288887
215	0xbc88d632	-0.016703699
216	0x3cf1037c	0.029420607
217	0xbe53ac25	-0.20671137
218	0x3cd3ec8f	0.025869636
219	0xbe125ac1	-0.14292432
220	0xc000ca03	-2.0123298
221	0x3df6c852	0.12049927
222	0xbec29e8a	-0.3801158
223	0x3ee17dc9	0.4404128
224	0xbeaf3bd4	-0.34225333
225	0xbfeef065	-1.8667113
226	0x3ebbf6e5	0.36711803
227	0xbf4d5b5f	-0.80217546
228	0x3c5f353d	0.013623533
229	0xbf0a2596	-0.539636
230	0xbfe4d1a7	-1.7876481
231	0xbcf64f9a	-0.030067254
232	0x3c3457c0	0.011007249
233	0x3c74ccc6	0.0149414
234	0xbf48efea	-0.7849108
235	0x3bc8adac	0.006124219
236	0xbca6acf9	-0.020346152
237	0xbcfd2551	-0.030901583
238	0x3d020097	0.031738844
239	0xbfc9320f	-1.5718402
240	0x3d49fb07	0.049311664
241	0xbc35dd05	-0.011100058
242	0xb895879c	-7.130133e-05
243	0xbcabcc3c	-0.02097141
244	0xbab21553	-0.0013586677
245	0xbc98b426	-0.018640589
246	0x3e114d58	0.1418966
247	0x3b405e47	0.0029353069
248	0x3cbdab43	0.023152953
249	0xbc5026a0	-0.012704521
250	0xbe18fa75	-0.14939292
251	0x3e03c154	0.12866718
252	0x3cebc669	0.028781133
253	0x3c22fb43	0.009947601
254	0xbc6620f2	-0.014045941
255	0x3b903bc2	0.004401655
