results/c_0_0/c_0_1_from_0_2/best/target_q_func2.pt (torch, 502309 bytes, 5 tensors)

1.weight f4 [400, 10]
0	0x4016ed4d	2.3582337
1	0xc03023b0	-2.7521782
2	0x3fb9fd28	1.4530382
3	0x4109f16d	8.621442
4	0x3faa4cc7	1.330468
5	0x3f8a207f	1.0791167
6	0xc0468660	-3.1019516
7	0xbf042f0f	-0.51634306
8	0x3f71f618	0.94516134
9	0x3db09e05	0.0862389
10	0x3f001027	0.50024647
11	0x40a42836	5.1299086
12	0x4008b7da	2.1362214
13	0x4101f2b6	8.121756
14	0x4095cc85	4.681216
15	0x3eeb1ac0	0.45918846
16	0xbe876845	-0.2644674
17	0xbd28be0a	-0.04119686
18	0x3e81a107	0.25318167
19	0x3d67b910	0.056572974
20	0x40b851b6	5.7599745
21	0x402afdee	2.6717486
22	0xc0e74189	-7.22675
23	0x3f3b3bf6	0.7313837
24	0xc0ecae0d	-7.3962464
25	0xc080e0ff	-4.0274653
26	0x3d7e7df5	0.06213184
27	0xbfd992ce	-1.6997926
28	0xbfb02775	-1.3762041
29	0xbeb7ccbd	-0.3589839
30	0xc09e469a	-4.9461184
31	0xc041e46d	-3.029567
32	0x3f08b025	0.53393775
33	0xbf1e3a21	-0.6180745
34	0xc0a01b36	-5.0033216
35	0x3f3507d6	0.7071508
36	0x3f8a9735	1.0827395
37	0x3e28492c	0.16434163
38	0xc0721d35	-3.7830327
39	0x3d677c28	0.05651489
40	0x3ecabeb8	0.39598632
41	0x40cb7a09	6.358647
42	0xbc873045	-0.016502509
43	0x3f3c1e81	0.73484045
44	0x4034abef	2.822994
45	0xbe07aff8	-0.1325072
46	0xc04d9b3b	-3.2125995
47	0xc0041ca9	-2.0642493
48	0x3f3593b2	0.7092849
49	0xbc1a92d4	-0.009434421
50	0xc0a2c7c5	-5.086886
51	0x4044d61e	3.0755687
52	0xc049ded4	-3.1542253
53	0xc056fc84	-3.3591623
54	0xc05ba4f1	-3.4319422
55	0xbfa15adc	-1.2605853
56	0x3fbc3ab8	1.470542
57	0xbfde941a	-1.7388947
58	0xba3fac32	-0.0007311731
59	0xbdd57fb5	-0.10424749
60	0xbe9889fc	-0.29792774
61	0x409a1d24	4.816057
62	0xc1301d47	-11.007148
63	0x3e39fa86	0.18161973
64	0xbf274ff7	-0.6535639
65	0xc0355f4b	-2.8339412
66	0x3f520b3a	0.8204838
67	0xbd1abd5a	-0.037778236
68	0xbea05f4a	-0.313227
69	0xbe34768a	-0.17623344
70	0x40611de7	3.51745
71	0xc0a2456b	-5.070974
72	0x40864f5e	4.1971884
73	0xbdb033b0	-0.086036086
74	0xbfdc94df	-1.7232932
75	0x4093cab3	4.6184936
76	0x3d95a05e	0.07305978
77	0xbe25218e	-0.16126081
78	0x3ca5e21e	0.020249423
79	0x3eddea4c	0.43342817
80	0xbcb52765	-0.022113511
81	0xbf8716e4	-1.0553861
82	0xc03d7b8d	-2.960666
83	0xc09e4d57	-4.946941
84	0xc0a699a4	-5.206255
85	0xc003e5e3	-2.0609062
86	0x3ee9083e	0.455141
87	0xbe7ce28e	-0.24695799
88	0xc0aa47d7	-5.3212695
89	0xbe439482	-0.1909962
90	0x40c6af56	6.2089033
91	0x4098667e	4.7625113
92	0xbd1c2564	-0.038121596
93	0x41002857	8.009849
94	0x40254a17	2.582647
95	0x3d5c574a	0.053794183
96	0xc091cc4e	-4.5561895
97	0xbd0f0507	-0.034916904
98	0xbe062505	-0.1310006
99	0x3c25a63b	0.010110433
100	0xbf9780e5	-1.183621
101	0xc09b88c3	-4.8604445
102	0xc092529e	-4.572585
103	0xc018529e	-2.3800426
104	0xc0eb435f	-7.351974
105	0xbfcd6923	-1.604771
106	0x3fb8ca2c	1.4436698
107	0xc0909139	-4.5177274
108	0xc001260f	-2.017948
109	0xbe27525a	-0.16340008
110	0xbf6f1f30	-0.93406963
111	0xc11bd4e2	-9.739473
112	0x402f9451	2.7434275
113	0xc11525d4	-9.321735
114	0x3ff33d9b	1.9003175
115	0x3f3e5f85	0.743645
116	0xc093406f	-4.6016154
117	0x3c05ecc3	0.008174124
118	0xbdd15088	-0.10220438
119	0x3d832ebe	0.064054
120	0xc0c46ab1	-6.138024
121	0x3f62a947	0.88539547
122	0xbf7a3f29	-0.97752625
123	0xc17d0abc	-15.815121
124	0xc0471e80	-3.1112366
125	0xbe12d3cd	-0.14338608
126	0xc080f2d7	-4.0296435
127	0xc02ca6e1	-2.6976855
128	0x3d87f627	0.06638747
129	0xbbe43220	-0.006963983
130	0x40e5dfd0	7.183571
131	0xc1046e02	-8.276857
132	0x401c713c	2.4444113
133	0xbf925a8a	-1.143388
134	0x4026ba7c	2.605132
135	0x3f602cb3	0.87568206
136	0xbdcd7a26	-0.100330636
137	0xbf43a60f	-0.7642526
138	0xbfe4f048	-1.7885828
139	0x3d27c03d	0.040954817
140	0x3f47467d	0.7784193
141	0x40a36420	5.1059723
142	0xbe941215	-0.28920045
143	0x41167353	9.403155
144	0x3d2fa688	0.042883426
145	0xbdeaf440	-0.11472368
146	0xc0776ede	-3.8661418
147	0x3dcc6d3e	0.09981774
148	0xbd4fb1f7	-0.05070683
149	0xba2b7aff	-0.000654146
150	0x4082e065	4.089892
151	0xc0262fb2	-2.596661
152	0xc006f4fe	-2.1087031
153	0x40a9bc72	5.3042536
154	0xc0b5070b	-5.6571097
155	0x3f027399	0.5095764
156	0x3f0431ee	0.51638687
157	0x3fb49647	1.4108361
158	0xbf09e682	-0.5386735
159	0x3d8fa598	0.070140064
160	0xc1150a96	-9.315084
161	0xc086ba00	-4.210205
162	0xc005e655	-2.0921834
163	0x40282bf3	2.6276824
164	0xc0c7a854	-6.239298
165	0x3e3a1cd2	0.18175057
166	0xbf9bfd81	-1.2186738
167	0x3f692318	0.91069174
168	0xbf2f559d	-0.6849001
169	0x3d0a0452	0.033695526
170	0xc08caac9	-4.395848
171	0x40ecf988	7.4054604
172	0x3eb4fda0	0.3534975
173	0xc10c7db0	-8.780685
174	0x40c9dfdc	6.3085766
175	0x3d86e60d	0.065868475
176	0xbeac6bf5	-0.33676115
177	0xbec456ab	-0.38347372
178	0x3cf9465b	0.030429056
179	0x3bfcf649	0.007719789
180	0x3f166380	0.58745575
181	0x40917672	4.5457087
182	0xc0b45b3c	-5.636137
183	0xbfec1d37	-1.8446416
184	0xbfcf759d	-1.6207768
185	0xbf740958	-0.9532676
186	0x3d022d2a	0.031781353
187	0x3ebc1cb2	0.36740643
188	0xbecd770b	-0.40129885
189	0xbd3d9af8	-0.046290368
190	0x3f08cade	0.5343455
191	0x400cad19	2.198065
192	0xbfa9ed79	-1.3275596
193	0x40bdcdbb	5.9313636
194	0x414675de	12.403776
195	0xbf0c72cd	-0.5486267
196	0xbe4bcb47	-0.19901763
197	0xbdd91080	-0.1059885
198	0x3d3ef045	0.046615858
199	0xbd188755	-0.037238438
200	0x3fd665fb	1.6749872
201	0x3dc396aa	0.09550221
202	0xbf482b79	-0.78191334
203	0xc19e63f9	-19.798815
204	0xc0ac0f85	-5.3768945
205	0xbe9ccbe5	-0.3062431
206	0xc0f64eaf	-7.697105
207	0x3f830c67	1.023816
208	0xc0cb41f3	-6.3518004
209	0xbcb3ec0d	-0.021963144
210	0xc035d3fb	-2.8410633
211	0xbdf3d326	-0.11905508
212	0xbfd79890	-1.6843433
213	0xc0a3c09e	-5.117263
214	0xc1185c23	-9.522494
215	0x3edaf5d5	0.4276568
216	0xc0887fee	-4.2656164
217	0xbfb11e8a	-1.3837445
218	0x3f1913f0	0.5979605
219	0x3d802350	0.06256735
220	0xc0de55aa	-6.947957
221	0x3fd956e4	1.6979642
222	0xc0367ad4	-2.8512468
223	0x4114ce3a	9.300348
224	0xc03c5a5f	-2.9430158
225	0xbf0ba596	-0.5454954
226	0xbea53e33	-0.32274017
227	0x3e768409	0.24073805
228	0x3d141927	0.0361568
229	0xbd5ab242	-0.053392656
230	0xc079cecf	-3.9032476
231	0x3ffa1052	1.953623
232	0xbe1fc104	-0.15600973
233	0xbe6ea180	-0.23303795
234	0xbfd0db45	-1.6316916
235	0xc18b5356	-17.415691
236	0x3e8447e3	0.25836095
237	0xc105d156	-8.363607
238	0x3d3205cf	0.04346257
239	0xbfdec764	-1.7404599
240	0xc116d5a1	-9.4271555
241	0x40de17fa	6.940427
242	0xbef2dc04	-0.47433484
243	0xc0758c23	-3.8366783
244	0x40ca6e47	6.3259616
245	0xbe91d42a	-0.2848218
246	0xc04bb8dc	-3.183158
247	0x3ed6f41a	0.4198311
248	0x3d00b38c	0.03142123
249	0xbcc62a4c	-0.02419009
250	0xc116348d	-9.38783
251	0x400b3893	2.175328
252	0xbfc0ef47	-1.5073022
253	0xc06e7537	-3.7259042
254	0x3de8cfe7	0.11367779
255	0xbf1f6c49	-0.62274605

1.bias f4 [400]
0	0xbf95d329	-1.1705066
1	0xc0171c08	-2.361086
2	0xbf8b24ad	-1.0870568
3	0x3bca8b85	0.006181183
4	0xbfc4352c	-1.5328727
5	0xbf2bd1df	-0.6711711
6	0xbe87c5c4	-0.2651807
7	0xbff2e6eb	-1.897672
8	0x3ebda0df	0.37036797
9	0xbfee474c	-1.8615508
10	0xbfdec72e	-1.7404535
11	0x3ead64ed	0.33866063
12	0x3e77a76e	0.24184963
13	0xbf06fce2	-0.5272962
14	0xbf537968	-0.82607126
15	0xbfade5fc	-1.3585811
16	0x3e8790e9	0.26477745
17	0xbeeeb9c1	-0.46626094
18	0xbdf9fa09	-0.122058935
19	0xbe1f5c40	-0.15562534
20	0xbf5d7abf	-0.8651542
21	0xbe2afb59	-0.16697444
22	0x3e00b8fb	0.12570564
23	0xbe2d8ed8	-0.16949022
24	0xbf5a3daf	-0.8525037
25	0xbf323dbe	-0.6962546
26	0xbf73dea5	-0.95261604
27	0xbe9623bc	-0.29324138
28	0xbeaa1abe	-0.33223528
29	0xc0134feb	-2.3017528
30	0x3f1ff986	0.6249012
31	0xbf538d85	-0.82637817
32	0xbc1385ec	-0.009004097
33	0xbf8e46e2	-1.1115382
34	0xbf75d5fd	-0.96029645
35	0xbf3154c9	-0.69269997
36	0x3e8aabe3	0.27084264
37	0xbf4b13ba	-0.79326975
38	0xbe521f59	-0.2051977
39	0xbf1e0b2b	-0.6173579
40	0xbf191389	-0.59795433
41	0x3ede3740	0.43401527
42	0xbf612bd1	-0.87957484
43	0x3e5b71d8	0.21430147
44	0xbf9e457a	-1.2364953
45	0xbf8a181b	-1.0788606
46	0x3e54d690	0.20784974
47	0xbed831a8	-0.42225385
48	0xbf387b96	-0.7206358
49	0xbe68976f	-0.22714017
50	0xbf20c9a6	-0.6280769
51	0xbe9601d0	-0.29298258
52	0xbe804f32	-0.2506042
53	0xbe5953fe	-0.21223447
54	0xbf0f4f2f	-0.559802
55	0x3eada0e4	0.33911812
56	0xbdf890ec	-0.12137017
57	0xbe10cd3f	-0.14140795
58	0xbebe5ae8	-0.3717873
59	0x3f84c379	1.0372154
60	0xbef3fdf6	-0.47654694
61	0xbf884485	-1.064591
62	0xbf2e692c	-0.6812923
63	0xbfd851f8	-1.6900015
64	0xbf89a3fd	-1.075317
65	0xbedcd598	-0.4313171
66	0x3dca5d62	0.098810926
67	0xbfca80f3	-1.5820602
68	0x3eb28aa5	0.34871402
69	0xbf16bfee	-0.5888661
70	0xbf8d15c3	-1.1022266
71	0xbf2a2533	-0.6646301
72	0xbe80d3c4	-0.25161564
73	0xbf77d51a	-0.9680954
74	0xbee114a9	-0.43961075
75	0xbeb82768	-0.35967565
76	0xbf814de5	-1.0101897
77	0xbf83ebdb	-1.0306352
78	0xbeb1facc	-0.34761655
79	0xbe83cacf	-0.25740668
80	0xbfd52a80	-1.6653595
81	0x3eea492f	0.4575896
82	0xbfebc274	-1.8418717
83	0xbf9922f1	-1.1963788
84	0x3f097655	0.53696185
85	0x3e035e12	0.12828854
86	0x3e69ba94	0.2282508
87	0xbf998ba5	-1.1995741
88	0xbeece7a4	-0.46270478
89	0xbfcce12d	-1.6006218
90	0xbb2ba1e0	-0.0026189014
91	0xbec75eb9	-0.38939455
92	0xbe602888	-0.21890461
93	0xbe995ade	-0.2995214
94	0x3f32dc7f	0.698677
95	0xbf381307	-0.71904033
96	0xbfdaa758	-1.7082319
97	0x3e0820d7	0.13293777
98	0x3eb5b680	0.354908
99	0xbffa9b90	-1.9578724
100	0x3d95f4d2	0.073220864
101	0x3b5ef2f8	0.0034019332
102	0xbec40f3c	-0.38292873
103	0xc02ef7bd	-2.7338707
104	0xbe2c28e5	-0.16812475
105	0xbfabd3fb	-1.3424066
106	0xbfbe763c	-1.4879832
107	0xbf7ea70a	-0.9947363
108	0x3f354d77	0.70821327
109	0xbfbe2723	-1.4855694
110	0xbc6d942a	-0.014500657
111	0xbd422bd2	-0.04740507
112	0x3f57156f	0.8401708
113	0xbec5ab92	-0.3860746
114	0xbff14f2f	-1.885229
115	0xbf935c58	-1.1512556
116	0xbf45b380	-0.7722702
117	0xbec58d19	-0.3858421
118	0xbe8d4d15	-0.2759787
119	0x3db4bf39	0.08825535
120	0x3eb00358	0.3437755
121	0xbecf6fed	-0.4051508
122	0xbb4755b4	-0.0030416073
123	0xbf1c0f72	-0.6096107
124	0xbf810bc4	-1.0081716
125	0xbf390786	-0.72277105
126	0xbecf1664	-0.4044677
127	0xbf07191c	-0.5277269
128	0xbec3b939	-0.3822725
129	0xc012ed4d	-2.2957337
130	0x3eeacb1f	0.45858094
131	0xc016b378	-2.354704
132	0xbf291d36	-0.660602
133	0xbff1d67f	-1.8893584
134	0x3ef6bb7e	0.4818992
135	0xbf07d16a	-0.53053916
136	0x3eb1fd42	0.34763533
137	0x3e4845b6	0.19557843
138	0xbe9ccc8f	-0.30624816
139	0x3f59ca03	0.8507387
140	0xbeade7c3	-0.33965883
141	0xbf6acd25	-0.91719276
142	0xbeca6480	-0.395298
143	0xbf12c0d8	-0.57325506
144	0xbeb9b08a	-0.362675
145	0xbe886924	-0.26642716
146	0xbfa58cca	-1.293359
147	0x3ec7294e	0.388987
148	0x3df44a84	0.11928275
149	0x3ed23097	0.41052696
150	0xbf0f377c	-0.5594404
151	0xbf32d2db	-0.6985299
152	0xbf5eb8e3	-0.87000865
153	0xbe7ed826	-0.24887142
154	0xbeae64dc	-0.34061325
155	0xbf869edd	-1.0517231
156	0xbf1239b4	-0.571193
157	0xbed46cf1	-0.41489366
158	0xc005c72b	-2.0902812
159	0xbfdd8167	-1.7305115
160	0x3f1a05f6	0.60165346
161	0x3e4db24c	0.20087546
162	0xbf0b4010	-0.54394627
163	0xbf41cfb6	-0.75707567
164	0xbf6c87d7	-0.92394775
165	0xc0058d9c	-2.0867682
166	0xbf784981	-0.9698716
167	0x3eadadcc	0.3392166
168	0xbf62f3b6	-0.88653123
169	0xbe1ae58e	-0.1512663
170	0xbf3f0f30	-0.7463255
171	0x3e8ee631	0.27909997
172	0x3dd2b260	0.102879286
173	0xbfec580e	-1.8464372
174	0xbf528ca7	-0.8224587
175	0xbffa54cd	-1.9557129
176	0xbffb607b	-1.9638819
177	0xbe809442	-0.25113112
178	0xbf6f5a43	-0.93497103
179	0x3e80c793	0.25152263
180	0xbfc6edf4	-1.5541368
181	0x3e532549	0.20619692
182	0xbf3d4941	-0.739399
183	0x3f085811	0.5325938
184	0xbf4bcd0d	-0.7960976
185	0xbfd5a4e1	-1.6690942
186	0x3f52734d	0.82207185
187	0xbf63179f	-0.8870792
188	0xbf664aba	-0.89957774
189	0xbe8a3a12	-0.2699743
190	0x3ca857dd	0.020549709
191	0x3f37fe76	0.7187265
192	0xbe49dc90	-0.19713044
193	0xbed60b9d	-0.41805735
194	0xbfe64155	-1.7988688
195	0xbec8bb7e	-0.39205545
196	0xbe57f97d	-0.21091266
197	0xbed2cab5	-0.41170278
198	0x3e09902e	0.13433906
199	0x3ebf6847	0.37384245
200	0xc0108409	-2.2580588
201	0xbe8957c1	-0.26824763
202	0xc00f76c3	-2.2416236
203	0xbebc6525	-0.36795917
204	0xc0132579	-2.2991621
205	0x3ec74abe	0.3892421
206	0x3cbf2471	0.023332806
207	0xbf1f09ac	-0.62124133
208	0xbf2af502	-0.667801
209	0xbfb36b0b	-1.4017042
210	0x3e2e306d	0.1701066
211	0xc00d9908	-2.2124653
212	0x3c85eae4	0.016347356
213	0xbf9f8c43	-1.246468
214	0xbf5c2183	-0.85988635
215	0x3df49fe6	0.11944561
216	0xbd1ed7b8	-0.038779944
217	0xbfb50998	-1.4143553
218	0xbf5c5e03	-0.8608095
219	0x3f38f909	0.72255
220	0x3edfc67e	0.43706125
221	0xbf98cde8	-1.1937838
222	0xbfb3fbce	-1.406122
223	0xbf08affc	-0.5339353
224	0xbf374bde	-0.7160014
225	0xc01827b5	-2.3774235
226	0xbeb73a3e	-0.35786623
227	0xbe8026e4	-0.2502967
228	0x3ebdcee2	0.37071902
229	0xbde286a8	-0.1106084
230	0x3f325135	0.6965516
231	0x3e7c1d7d	0.24620624
232	0xbcaf83d5	-0.021425167
233	0xbdf4e6b6	-0.11958067
234	0xbf57c49f	-0.84284395
235	0xbead4897	-0.33844444
236	0xbf456667	-0.7710938
237	0x3e8c67c5	0.2742292
238	0x3eefc5d7	0.46830627
239	0xbfa155c6	-1.2604301
240	0xbf125a4d	-0.5716904
241	0xbf6b78bb	-0.91981095
242	0xbea37b2d	-0.31929913
243	0xbf57a974	-0.8424294
244	0xc022e43d	-2.5451806
245	0xbf270819	-0.6524673
246	0xbf4ec148	-0.80763674
247	0xbeae0fe3	-0.33996496
248	0x3f25ab9d	0.64714986
249	0xbfbef3dc	-1.491817
250	0x3e9a6e23	0.30162153
251	0xc04cb489	-3.198519
252	0x3d81295e	0.06306718
253	0x3ab93030	0.0014128741
254	0xbf1a87cd	-0.60363466
255	0x3e39bb4e	0.18137857

3.weight f4 [300, 400]
0	0xc004a05a	-2.072287
1	0xc01a8610	-2.4144325
2	0x3de0ca2b	0.109760605
3	0x401ac241	2.4181063
4	0x3fea5ce0	1.8309593
5	0x3fbf5015	1.4946314
6	0xbe4a2570	-0.19740844
7	0xc0988187	-4.7658114
8	0x3f324fdd	0.6965311
9	0x3f9ee35b	1.2413133
10	0xc025aad6	-2.588552
11	0xc005d172	-2.0909085
12	0xc0f1e71d	-7.559462
13	0x3fb0e315	1.38193
14	0xc0ad2282	-5.4104624
15	0xc01df3a8	-2.4679966
16	0x4002ce8a	2.0438561
17	0x3f698081	0.91211706
18	0xbfc388e3	-1.527615
19	0xc017ec3f	-2.3737943
20	0xc020a6ff	-2.5101926
21	0x3f7f658d	0.9976433
22	0xc00ce7c6	-2.2016463
23	0x3e0b76d3	0.13619547
24	0x405a304c	3.4091978
25	0xbf1d4ada	-0.6144234
26	0xc09bd8fc	-4.8702374
27	0xbb478c09	-0.0030448458
28	0x4029fd3e	2.6560817
29	0x3e9f6914	0.31134856
30	0xc0fde3b3	-7.9340453
31	0xc0252ec1	-2.5809786
32	0x3f5f591c	0.87245345
33	0xbfac413c	-1.3457408
34	0xbffa3805	-1.9548346
35	0xbe963b52	-0.29342133
36	0x4029485f	2.6450422
37	0xbf5d6d37	-0.86494774
38	0x3f1a4a66	0.60269773
39	0xbf8ec726	-1.1154525
40	0xbfbce293	-1.4756645
41	0x3f320eab	0.6955363
42	0xbfcb2c3d	-1.5872875
43	0xbfdbd610	-1.7174702
44	0xbf7eace0	-0.99482536
45	0x3e8c3258	0.2738216
46	0x3f21db9b	0.63225716
47	0xc12d2a1f	-10.822783
48	0x3e6e7cde	0.2328982
49	0xbfa027b0	-1.2512112
50	0x4087031a	4.2191286
51	0x3f5ef4c2	0.8709222
52	0x40663cee	3.5974689
53	0x40cf6204	6.480715
54	0x3f2908c8	0.66029024
55	0xbfd36feb	-1.651853
56	0x3f0d6dfd	0.55245954
57	0xbf085388	-0.5325246
58	0xc08889fc	-4.266844
59	0x3ef81050	0.48449945
60	0x40728437	3.7893198
61	0xc067f575	-3.6243565
62	0x405e540b	3.4738796
63	0xbf53c0d0	-0.82716084
64	0x40248df0	2.5711632
65	0x3ff8ebf7	1.9447011
66	0xbe622138	-0.22082984
67	0x3fad7377	1.3550862
68	0x3ec12e59	0.37730673
69	0xc0452f59	-3.0810149
70	0xbff9f96c	-1.9529243
71	0xc025c1ba	-2.5899491
72	0xc01f28a5	-2.4868557
73	0xc060f3d6	-3.5148826
74	0x406a0248	3.6563892
75	0xbbcb2cf0	-0.0062004253
76	0xc03a2630	-2.9085808
77	0x3de2eca8	0.11080295
78	0xbdebc9b1	-0.11513079
79	0x408c1bbb	4.378385
80	0xbfa7e612	-1.3117087
81	0xc00d8de8	-2.2117863
82	0xc0105761	-2.2553332
83	0x3fdb19a0	1.7117195
84	0xbea3d971	-0.32001832
85	0xc152b047	-13.168036
86	0x3dc493e2	0.09598519
87	0xbf5a360d	-0.85238725
88	0x3eac4e37	0.33653423
89	0xc01de9a8	-2.4673862
90	0x3eb709e5	0.35749736
91	0x3db55330	0.088537574
92	0x40833644	4.100374
93	0x3ee58046	0.44824427
94	0x3f70d6ab	0.9407756
95	0x400f6ed7	2.2411401
96	0x3f0b1c1c	0.54339767
97	0xbf1b2725	-0.60606605
98	0xbf641606	-0.89096105
99	0xbf7e4191	-0.99318796
100	0x3fb9c4f8	1.4513235
101	0x3dbec080	0.0931406
102	0xc0ab44a8	-5.352131
103	0xc0392a04	-2.8931894
104	0xc0296f9d	-2.6474373
105	0x3e475bee	0.19468662
106	0xc0d11899	-6.5342526
107	0xc038b3a8	-2.8859653
108	0xc118930e	-9.535902
109	0x3fe83103	1.8139957
110	0x3ef1efcd	0.47253266
111	0xbfb82e52	-1.4389136
112	0xbf79cb71	-0.9757605
113	0xbffc19ae	-1.9695337
114	0xbf5daa83	-0.86588305
115	0xc1266f91	-10.402238
116	0xc0e0c3f5	-7.0239205
117	0xbd37792f	-0.044793304
118	0x3c543afa	0.012953514
119	0xbead821c	-0.33888328
120	0xbebe35e5	-0.37150493
121	0xc005a60c	-2.0882597
122	0x3f96e57d	1.1788784
123	0x3f9ca990	1.2239246
124	0x3ec05e60	0.37572002
125	0x3eeb043d	0.4590167
126	0xc0e1af70	-7.0526657
127	0xc06b6110	-3.6777992
128	0xc0c687e1	-6.204087
129	0xc08af027	-4.3418155
130	0x401f9254	2.4933062
131	0xc05c5689	-3.4427817
132	0x3f35bc65	0.7099059
133	0xbf2a41e6	-0.66506803
134	0x3fcdd39c	1.6080203
135	0x40cdc642	6.4304514
136	0xc0db75e3	-6.8581405
137	0xbfd17079	-1.6362449
138	0xc023770b	-2.5541408
139	0x4012898f	2.289646
140	0x40422145	3.0332806
141	0x3ee5dbda	0.44894296
142	0x3f3e1071	0.7424384
143	0x3fa80d24	1.312901
144	0xbf930e54	-1.1488748
145	0x3ee7c340	0.4526615
146	0xc074467c	-3.816802
147	0x3e7417f1	0.23837258
148	0xbe73f1ac	-0.23822659
149	0xc0a10661	-5.0320287
150	0xc0930b4f	-4.5951304
151	0x407a464e	3.910541
152	0xc0512c33	-3.2683227
153	0xbf1e38ed	-0.6180561
154	0x3f4fae8d	0.8112572
155	0xbd403627	-0.046926644
156	0xbec44486	-0.3833353
157	0xc043ff9c	-3.0624762
158	0x3fd8f380	1.694931
159	0xc12dcf6a	-10.863138
160	0xbf7eb4fe	-0.9949492
161	0x402b7279	2.6788619
162	0x3f522ee1	0.8210278
163	0x3f2d19b1	0.67617327
164	0xbe48ac33	-0.19596939
165	0x3f3de253	0.7417347
166	0xbf263571	-0.64925295
167	0xc1a6000a	-20.75002
168	0xbe37a279	-0.17933072
169	0xbd1ab905	-0.037774105
170	0x3edeb092	0.43494087
171	0x3f65d438	0.89776945
172	0xbd550030	-0.052002132
173	0x3ebc3977	0.36762592
174	0x402e526c	2.7237806
175	0x3e64bc35	0.2233742
176	0x3f71f69a	0.9451691
177	0xbc65ef2d	-0.014034075
178	0xc00503fc	-2.0783682
179	0x3ebfc95d	0.37458315
180	0xc0d01596	-6.502635
181	0x40354132	2.8321042
182	0xc0117b66	-2.2731566
183	0x3dee8821	0.11647058
184	0xbf314c1e	-0.6925677
185	0xbf901c97	-1.1258725
186	0xbf5d6cf7	-0.8649439
187	0xc087e143	-4.246248
188	0xbf83a774	-1.0285478
189	0x3eb5f203	0.35536203
190	0xc0b4a4f5	-5.6451364
191	0xbfee059b	-1.8595461
192	0xc06564b8	-3.5842724
193	0x3df24840	0.11830187
194	0xbfa7c74b	-1.3107694
195	0x40945e76	4.636531
196	0x3fabeff0	1.3432598
197	0xc06a0f8c	-3.657199
198	0xc00ffedf	-2.249931
199	0xc06dcfb6	-3.7158027
200	0xc096faec	-4.71813
201	0x3c81a072	0.015823577
202	0xc05d49b9	-3.4576247
203	0x40286ae9	2.6315253
204	0xbe9abea4	-0.30223572
205	0xc03c5995	-2.9429677
206	0xc0112b34	-2.268262
207	0xbf807bbf	-1.0037764
208	0x3e032fd3	0.12811212
209	0xc0832928	-4.098774
210	0x3f2af590	0.6678095
211	0xc0e01f9c	-7.0038586
212	0x3e638a1b	0.22220652
213	0xc0544e6b	-3.3172863
214	0x3ffaeb26	1.9603012
215	0x3e119001	0.1421509
216	0x40019e0d	2.0252717
217	0xc0bcbc8f	-5.8980174
218	0xc137af9e	-11.480375
219	0xbfaa17ec	-1.328855
220	0x3f3a9ce9	0.72895676
221	0xbf397118	-0.7243819
222	0xc002e043	-2.0449378
223	0x3f0f32ab	0.5593669
224	0xc044217b	-3.0645435
225	0xbea42a9c	-0.32063758
226	0xbe020405	-0.12696846
227	0xc094f2b9	-4.654629
228	0xc0c2adcf	-6.083717
229	0x401d8d40	2.4617462
230	0xbfbe504b	-1.4868253
231	0x3db90d78	0.09035772
232	0x3f59c7c5	0.8507045
233	0x3e8747de	0.26422018
234	0xbfe82e90	-1.813921
235	0xbc2e1bcd	-0.010626745
236	0xbfa09df8	-1.2548208
237	0xbf828577	-1.019698
238	0xbf1ee84f	-0.62073225
239	0x3e47e633	0.19521408
240	0xbed4fb21	-0.41597846
241	0x3ed2b4da	0.41153604
242	0x3fae7f9b	1.3632692
243	0xbff175e9	-1.8864108
244	0xc037f516	-2.8743339
245	0xbf3440f8	-0.70411634
246	0x3fbaac41	1.4583818
247	0xbe54726a	-0.2074677
248	0x3fab1e6e	1.3368661
249	0xc09e0177	-4.937679
250	0x3f505ba4	0.8138983
251	0xc10160d4	-8.08614
252	0xbf550d42	-0.83223355
253	0xbf4c7062	-0.7985898
254	0xc0e3498b	-7.1027274
255	0xbeb6b3e1	-0.35684112

3.bias f4 [300]
0	0x3fb6361d	1.4235264
1	0xbdfe1114	-0.12405601
2	0x3bb432e7	0.005499232
3	0xbd8a8b9d	-0.0676491
4	0xc006bca2	-2.1052632
5	0xbe0ead14	-0.13933212
6	0xbca398e7	-0.01997037
7	0xbe19d41e	-0.15022323
8	0xbd50c112	-0.050965376
9	0xbdcf6e01	-0.101284035
10	0xbe0fd96d	-0.14047785
11	0xbcbef4d0	-0.023310095
12	0xbd6cc5bb	-0.057805758
13	0xbd95ad9e	-0.073085055
14	0x3f131ee5	0.57469016
15	0xbe38ce72	-0.18047503
16	0xbd3dd168	-0.046342283
17	0xbd8f89bd	-0.07008693
18	0xbda456bf	-0.08024358
19	0xbdc13df9	-0.094356485
20	0xbcfbddcc	-0.03074541
21	0xbdd39d1a	-0.10332699
22	0xbdb1a438	-0.086739
23	0xbe47cc19	-0.19511451
24	0xc0946c11	-4.6381917
25	0x407f5a87	3.9899004
26	0x40702ba2	3.7526631
27	0xba5f2d42	-0.0008513519
28	0x3f947743	1.1598896
29	0xbdb8cd08	-0.090234816
30	0xbeaa8334	-0.33303225
31	0xbe4bbbe9	-0.19895901
32	0xbd868c2d	-0.06569705
33	0xbdc932b1	-0.09824122
34	0xbe863f90	-0.2622037
35	0xbe2e6817	-0.17031895
36	0xbda1947f	-0.078896515
37	0xbac919b1	-0.001534274
38	0xbd9a430e	-0.07532321
39	0x3fe3a25e	1.7783926
40	0x3f7ab048	0.97925234
41	0x400cd498	2.2004757
42	0xbdf98d9c	-0.12185213
43	0xbd5b62f2	-0.05356116
44	0xbdc09ab1	-0.09404505
45	0xbc6f4a43	-0.014605108
46	0xbc9eb0a6	-0.019371342
47	0xbdc2adf1	-0.09505833
48	0xbd8a1fcd	-0.06744347
49	0xbd9c9406	-0.07645421
50	0x3f4e3cc9	0.805615
51	0xbc6abbdb	-0.014327015
52	0xbd7fa68c	-0.06241469
53	0x3ff88e5a	1.9418442
54	0xc063d783	-3.5600288
55	0x3f7ee3f1	0.9956656
56	0xbd32ad10	-0.043622077
57	0xbd5b8b92	-0.0535999
58	0xbe04fc2d	-0.12986822
59	0x408760d2	4.230569
60	0xbdb78290	-0.0896045
61	0xbdb4d630	-0.088299155
62	0x40899f6e	4.3007116
63	0xbe59b862	-0.21261743
64	0xbd22275f	-0.03958833
65	0xbe0ee5ad	-0.13954802
66	0xbdb598b8	-0.088670194
67	0xbdaf5c9f	-0.08562588
68	0xbcfc2674	-0.030780055
69	0xbd460a19	-0.048349474
70	0xbd975f36	-0.07391207
71	0xbe13b296	-0.14423594
72	0xc00a4b41	-2.1608431
73	0xbd396948	-0.04526642
74	0x3fc078f9	1.5036918
75	0xbd7fb244	-0.062425867
76	0xbd8159b5	-0.063159384
77	0xbde70513	-0.11280265
78	0x4054b0ab	3.323283
79	0xbd8e9535	-0.06962053
80	0xbd8f6cd5	-0.0700318
81	0xbd039ef5	-0.032134015
82	0xbd6e3bf3	-0.05816264
83	0xbd48a611	-0.0489865
84	0xbf828402	-1.0196536
85	0xbde5a3f3	-0.112129115
86	0xbca9ab97	-0.020711703
87	0xbd58fa8a	-0.052973308
88	0xbfb55b7c	-1.4168544
89	0xbeca931b	-0.39565358
90	0xbf84c28e	-1.0371873
91	0x3fb4e383	1.4131931
92	0xbd829f7d	-0.06378076
93	0xbd023c45	-0.03179576
94	0x3a60b18a	0.0008571377
95	0xbd0d1fc5	-0.034454126
96	0xbff14def	-1.8851908
97	0xbf8f6bc1	-1.1204759
98	0xbda1546f	-0.078774326
99	0xbbe40c23	-0.0069594546
100	0xbd5d41da	-0.05401788
101	0x3b0bf874	0.0021357806
102	0xbd262b7f	-0.040568825
103	0x3d9989c4	0.0749698
104	0xbdb712ac	-0.08939108
105	0x3e850331	0.25978997
106	0xbf7ec6b0	-0.99521923
107	0xbfe2decc	-1.7724242
108	0xbe9986ac	-0.2998556
109	0xbceae47b	-0.028673401
110	0xbd1841c6	-0.0371721
111	0xbd5497e2	-0.05190266
112	0xbca0ee17	-0.01964478
113	0xbd16f10e	-0.03685098
114	0xbfd42073	-1.6572403
115	0xbf878d55	-1.0590006
116	0xbd8f01cd	-0.06982765
117	0x3fe91a85	1.8211218
118	0xbd5c8d62	-0.05384577
119	0xbde6cff3	-0.11270132
120	0xbd5bcd32	-0.053662486
121	0x4057cbdf	3.3718183
122	0xbd2e4427	-0.042545464
123	0xbe4fb901	-0.20285417
124	0x3fd1d875	1.6394182
125	0x3f78fd07	0.9726109
126	0xbfb63be9	-1.4237033
127	0xbd814565	-0.06312064
128	0x3e21aea1	0.15789272
129	0xbfee6cac	-1.8626914
130	0xbda97a5f	-0.082752936
131	0xbd7f4034	-0.06231709
132	0xbd4c99c9	-0.04995135
133	0xbd997b0e	-0.07494174
134	0xbe0aa94d	-0.13541146
135	0xbe03ec4d	-0.1288311
136	0xbd64f10b	-0.05589394
137	0x3f3d4b23	0.73942775
138	0xbd04824d	-0.032350827
139	0xbe1a4ba6	-0.1506792
140	0xbdbaa100	-0.091127396
141	0x3f9e4902	1.236603
142	0xc041ed28	-3.0300999
143	0xbbd33dca	-0.006446575
144	0x3d446813	0.047950815
145	0x3fde1e1b	1.7352937
146	0xbd79af34	-0.060958102
147	0xbed3dfac	-0.41381586
148	0xbc870833	-0.016483402
149	0xbd4fcee1	-0.050734404
150	0xbe15a376	-0.14613137
151	0xbf0a9c8a	-0.5414511
152	0xbd2b2bf7	-0.041789975
153	0xc020440a	-2.5041528
154	0xbd5e7352	-0.054309197
155	0x3c4b42d0	0.012406066
156	0xbd47dc81	-0.048794273
157	0xbd8bb4d2	-0.06821598
158	0xbdbd7218	-0.09250277
159	0xbd24c1c7	-0.040223863
160	0xbdc42bf9	-0.095786996
161	0x3f824b09	1.0179149
162	0xbd3eacf0	-0.046551645
163	0x3b393297	0.0028258914
164	0xbf5a71a4	-0.8532965
165	0x3ac07850	0.0014684293
166	0xbec8bebc	-0.3920802
167	0x40256a56	2.5846152
168	0x401ea613	2.4788864
169	0xbdb8f0f8	-0.09030336
170	0xbcfc32f4	-0.030786015
171	0xbdf11d74	-0.11773196
172	0xbcd6e362	-0.026231471
173	0xbdcc1f21	-0.09966875
174	0xbee0cdcd	-0.43907014
175	0x3ff3c691	1.9044973
176	0xbd490df9	-0.04908559
177	0xbd361b30	-0.04445952
178	0xbda994ef	-0.0828036
179	0xbd743284	-0.059618488
180	0xbc6ad66b	-0.014333348
181	0xbe147607	-0.14498149
182	0x3d34f725	0.044181008
183	0xbf20ff4b	-0.62889546
184	0xc009be17	-2.1522272
185	0xbc8a6b95	-0.016897002
186	0xbe250d8f	-0.16118453
187	0xc04d3d22	-3.2068563
188	0xbd19ac46	-0.03751781
189	0x3f2b10d3	0.66822547
190	0x3fe6fde9	1.8046237
191	0xbd9bbdf6	-0.076045915
192	0x401b36b3	2.4252136
193	0xbd53d23a	-0.05171416
194	0xbea2ffb5	-0.31835714
195	0x408bb8c7	4.366306
196	0xbd9712a6	-0.07376604
197	0xbc8acc75	-0.016943196
198	0xbf83eb38	-1.0306158
199	0xbd0e225d	-0.03470074
200	0x3d83a9f9	0.06428904
201	0xbdcb6851	-0.09932006
202	0x4018ffcb	2.3906124
203	0xbd92fa36	-0.0717663
204	0x4048f7cd	3.1401246
205	0x3ffacea7	1.9594315
206	0x401a3bae	2.4098926
207	0xbd6f96d3	-0.058493447
208	0xbd033fa5	-0.032043118
209	0x3d0b1d4f	0.033963498
210	0x3b93a2f5	0.00450551
211	0xbda83b9f	-0.08214497
212	0xbf6b741c	-0.91974044
213	0xbcaacb17	-0.020848794
214	0x3fca5091	1.5805837
215	0xbdb6c008	-0.08923346
216	0xbdade987	-0.084918074
217	0x3f46b1c1	0.7761498
218	0x3cbacb2f	0.022801964
219	0x3f60e290	0.87845707
220	0xbe5aa2d2	-0.21351174
221	0xbc67878b	-0.014131437
222	0x3fb08b3a	1.3792489
223	0x3f9f82e0	1.2461815
224	0xbf1d0157	-0.6133017
225	0x3f02e37a	0.5112835
226	0x3f1ea39d	0.61968404
227	0xbdd17008	-0.102264464
228	0xbd30a010	-0.043121397
229	0x3ecd5e88	0.40111184
230	0xbd30db96	-0.043178163
231	0xbd41e141	-0.04733396
232	0xbd812b9d	-0.06307147
233	0xbd90101e	-0.07034324
234	0x3f2e3061	0.6804257
235	0xbdac685f	-0.08418345
236	0xbc5d69b2	-0.013513969
237	0xbd8440ad	-0.064576484
238	0xbcc964b1	-0.024584146
239	0xbffdd9b1	-1.9832059
240	0xbdd6db92	-0.104910985
241	0xbd958d96	-0.07302396
242	0xbd0b96cd	-0.03407936
243	0xbdde359a	-0.108500674
244	0xbdb1e448	-0.08686119
245	0xbd0d82fd	-0.03454875
246	0x400c124f	2.1886175
247	0xbcf3411c	-0.029694133
248	0xbda404b7	-0.08008712
249	0xbd85a425	-0.06525449
250	0x3e0aa3d9	0.13539065
251	0xc0ceb534	-6.4596195
252	0xbd45d5c1	-0.048299555
253	0xbd2346df	-0.03986251
254	0xbcd90962	-0.026493732
255	0xbd9801b6	-0.07422201

5.weight f4 [1, 300]
0	0x3ed01b23	0.40645704
1	0x3c40ef11	0.011775748
2	0x3c91c025	0.017791817
3	0xbc496d49	-0.012294122
4	0xc0111042	-2.2666173
5	0x3e007b64	0.1254707
6	0xbcce85f9	-0.025210368
7	0xbc669943	-0.014074626
8	0x3c9fa146	0.01948608
9	0xbc87fb5d	-0.016599352
10	0x3cfc8434	0.030824758
11	0x3c265b26	0.010153567
12	0x3c42a941	0.011881174
13	0x3d423be1	0.047420386
14	0xbe1368a9	-0.14395393
15	0xbf75c236	-0.9599947
16	0x3acee610	0.0015785117
17	0xbb33c650	-0.0027431436
18	0x3c6701f2	0.014099585
19	0x3c81e0dd	0.015854293
20	0xbbf5ab14	-0.0074972007
21	0xbc9bdf8e	-0.019027498
22	0xbad7a841	-0.0016453342
23	0x3a92956e	0.001118345
24	0x3e4ef8f7	0.2021216
25	0x3ec3b4ad	0.38223782
26	0x3ff2d207	1.8970345
27	0xbc735ae4	-0.014853213
28	0xbe1dacd0	-0.15397954
29	0xbc166c3e	-0.00918108
30	0xc018f707	-2.3900774
31	0xbcf0b014	-0.029380836
32	0xbc06638d	-0.008202446
33	0x3bbcd5d8	0.005762797
34	0x3ed1f0fb	0.41004166
35	0x3cfdc86c	0.030979358
36	0xbbffc75b	-0.0078057474
37	0x3c06971d	0.008214739
38	0xbcb51a28	-0.022107199
39	0x400dbdbc	2.2147055
40	0xbe87650b	-0.26444277
41	0x3fdece0a	1.7406628
42	0xbc7198e4	-0.014745925
43	0x3c883f55	0.016631762
44	0xbcaf10d7	-0.021370335
45	0xbb94dd06	-0.0045429496
46	0xbba7a7f6	-0.005116458
47	0xbc65eb0b	-0.014033089
48	0x3ca50cc7	0.020147694
49	0x3c26bf27	0.01017741
50	0xbe460449	-0.19337572
51	0x3cbc1fcf	0.022964386
52	0xbcac1fb7	-0.021011217
53	0xbf2f91b6	-0.6858171
54	0x3e479609	0.19490828
55	0xbfe2ad18	-1.7709074
56	0x3b5e11aa	0.003388504
57	0x3b3f49f7	0.0029188374
58	0x3ca7ebef	0.020498244
59	0x3f2204c2	0.6328851
60	0xbcc23ca9	-0.023710566
61	0x3dcb74d0	0.099343896
62	0x3f73b6d9	0.9520088
63	0x3c8588cd	0.016300583
64	0x3bdf6fa9	0.006818731
65	0xbc36ebc8	-0.011164613
66	0xba6381da	-0.0008678712
67	0x3cbf75b8	0.023371562
68	0xbc20d44f	-0.009816243
69	0xbcfc52fc	-0.030801289
70	0x3c863c7c	0.016386263
71	0xbc19be3e	-0.009383736
72	0x3e0b0cc0	0.13579082
73	0xbc2989ff	-0.010347842
74	0x3f30f522	0.69124043
75	0x3c459038	0.01205831
76	0x3bb1441f	0.005409732
77	0xb8e67873	-0.0001098969
78	0x3f714bf2	0.9425651
79	0x3ce2256a	0.027605731
80	0x3c414820	0.011796981
81	0xbbfb6e14	-0.0076730344
82	0xba95917d	-0.0011411157
83	0xbb786fac	-0.0037908358
84	0x3e536e8c	0.20647639
85	0x3c96eeb5	0.018424371
86	0xb9a40fa7	-0.0003129218
87	0xbab412e0	-0.0013738535
88	0xbe1c0f11	-0.15240122
89	0x3e883218	0.26600718
90	0xbfb1dac3	-1.3894886
91	0xbf76ac00	-0.963562
92	0xbd10c495	-0.035343725
93	0xbcaf98c6	-0.021435153
94	0xbcc203a1	-0.023683371
95	0x3c9c0a86	0.019047987
96	0xbff7ab1d	-1.9349095
97	0x3edb267f	0.42802808
98	0x3b24c5ae	0.002514224
99	0x3bac7fce	0.005264259
100	0x3ccb6081	0.02482629
101	0xbcb206a8	-0.02173169
102	0xbc674b63	-0.014117095
103	0xbee47621	-0.44621375
104	0xbee0b683	-0.43889245
105	0x3e6181d6	0.22022185
106	0xbeba5ffa	-0.3640135
107	0x3e057b12	0.13035229
108	0x3e201df6	0.15636429
109	0xbba290d7	-0.004961114
110	0xbc8ddd9d	-0.017317588
111	0xbadaf65a	-0.0016705499
112	0x3b0714e5	0.002061182
113	0xbca8274f	-0.020526556
114	0x3ea1857a	0.31547147
115	0xbf0ac463	-0.5420591
116	0x3c2faea6	0.010722792
117	0xbef583f0	-0.47952223
118	0xbccbb289	-0.024865406
119	0x3c50e052	0.012748795
120	0x3c222696	0.009896895
121	0x3faba7e7	1.3410615
122	0x3b5c59d1	0.003362287
123	0xbc56dd22	-0.013114246
124	0xbe9e196e	-0.30878776
125	0x3f72106f	0.94556326
126	0x3fea71e3	1.8316005
127	0xbc238177	-0.009979597
128	0x3e31dac6	0.17368612
129	0x3eee4183	0.46534356
130	0x3cb6e4c0	0.022325873
131	0x3cdfdd0a	0.02732708
132	0x3c052d64	0.008128498
133	0x3c931e26	0.017958712
134	0xbd1a2b9d	-0.03763925
135	0xbb278a47	-0.0025564597
136	0xbcd48a9a	-0.025944997
137	0xbe148f0d	-0.14507695
138	0x3c614e93	0.013751644
139	0xbc873f15	-0.016509572
140	0xbc8b40dd	-0.016998703
141	0xbff68776	-1.9260089
142	0x3e219643	0.15779977
143	0xbc95b3de	-0.018274244
144	0xbf9db790	-1.2321644
145	0x403626ef	2.8461263
146	0xbb979a96	-0.0046265824
147	0xbe3af0d1	-0.18255927
148	0xbe997c75	-0.29977766
149	0x3cf52d4c	0.029928826
150	0x3cae160f	0.021250753
151	0xbfb411f7	-1.4067982
152	0xbb2d8d57	-0.002648195
153	0xbfb682c4	-1.4258657
154	0xbba39fef	-0.004993431
155	0x3c5822e9	0.013191917
156	0xbcb7d948	-0.022442475
157	0x3f515667	0.81772465
158	0xbc92636e	-0.017869677
159	0xbca6cba7	-0.02036078
160	0xbc9b4cae	-0.018957462
161	0xbf5266ce	-0.8218812
162	0xbc0c24fd	-0.008553741
163	0x3c249e9e	0.010047583
164	0xbe3566f3	-0.17715053
165	0xbbe7c79b	-0.0070733554
166	0x3e98290b	0.29718813
167	0x3df8ede2	0.121547475
168	0x3ef27247	0.47352812
169	0x3cce0da9	0.025152998
170	0xbca7a72e	-0.02046546
171	0x3c95fc86	0.01830889
172	0xbc967e36	-0.018370729
173	0x3cbb2440	0.022844434
174	0x3ec4d12c	0.38440835
175	0x3e9dccb1	0.3082023
176	0x3b926436	0.0044675125
177	0xbd0cae7d	-0.034346092
178	0xbd13892d	-0.036019493
179	0x3b92f96e	0.0044853007
180	0x3c8723bd	0.016496534
181	0xbffe1288	-1.9849405
182	0xbfb7438c	-1.4317489
183	0x3e9361ff	0.28785703
184	0x3e2f443d	0.17115875
185	0xbccbd999	-0.024884032
186	0x3c5272aa	0.012844721
187	0x3dd66010	0.10467541
188	0x3b8b7c3c	0.0042567533
189	0x4118eedd	9.558316
190	0xbff2b6a8	-1.8961992
191	0x3b480db9	0.0030525757
192	0xbe4d9ca7	-0.2007929
193	0xbb0909ad	-0.0020910308
194	0xbffcf079	-1.9760886
195	0x3f32298d	0.6959465
196	0xbc6ecc7b	-0.014575119
197	0x3c25795f	0.010099738
198	0x3ead6ad3	0.33870563
199	0x3c15ece5	0.009150718
200	0xbe492495	-0.19642861
201	0xbb41db01	-0.002958
202	0xbe21ddc6	-0.15807256
203	0x3cc05079	0.023475872
204	0x3f8f9741	1.1218034
205	0x3e889a43	0.26680192
206	0x3fcdd9b6	1.6082065
207	0xbc2298a7	-0.0099240905
208	0x3ca7626f	0.020432679
209	0x3ea7460f	0.32670638
210	0xbbad9207	-0.005296949
211	0xbc8d861d	-0.017275864
212	0xbf32e1b2	-0.69875634
213	0x3ca2c787	0.019870533
214	0xbe0a92f5	-0.13532622
215	0xbc88d61d	-0.01670366
216	0x3cf102e4	0.029420324
217	0xbe56e160	-0.20984411
218	0x3cd3ecc9	0.025869744
219	0xbe1576d1	-0.14596106
220	0xc0007360	-2.007042
221	0x3df6c83c	0.120499104
222	0xbec45a4c	-0.3835014
223	0x3ee10b35	0.43953863
224	0xbeb01ee6	-0.34398574
225	0xbfee6de6	-1.8627288
226	0x3ebce5e9	0.36894158
227	0xbf4d83b6	-0.802791
228	0x3c5f3512	0.013623493
229	0xbf0ba305	-0.54545623
230	0xbfe54eec	-1.791471
231	0xbcf64f24	-0.030067034
232	0x3c345867	0.011007405
233	0x3c74cd33	0.014941501
234	0xbf48c054	-0.7841847
235	0x3bc8ad19	0.0061241505
236	0xbca6ac67	-0.02034588
237	0xbcfd2524	-0.0309015
238	0x3d02001d	0.03173839
239	0xbfca2f0e	-1.579561
240	0x3d49fb78	0.049312085
241	0xbc35dcb0	-0.011099979
242	0xb895881d	-7.130227e-05
243	0xbcabcc1f	-0.020971356
244	0xbab2157f	-0.0013586729
245	0xbc98b3d6	-0.01864044
246	0x3e16e9bc	0.147376
247	0x3b405dc1	0.0029352757
248	0x3cbdab20	0.023152888
249	0xbc502662	-0.012704464
250	0xbe19c4d3	-0.15016489
251	0x3e00eab6	0.12589535
252	0x3cebc643	0.028781062
253	0x3c22fb17	0.00994756
254	0xbc6620f3	-0.014045942
255	0x3b903bdd	0.0044016675
