results/c_0_3/4166704_except/target_policy.pt (torch, 500709 bytes, 5 tensors)

0.weight f4 [400, 9]
0	0x3c8370dc	0.016045026
1	0x3e3728b7	0.17886625
2	0xbe8a71d5	-0.27039972
3	0xbe498bc0	-0.19682217
4	0xbdf9ac13	-0.12191024
5	0x3d3b8777	0.045783486
6	0xbd5c63fa	-0.053806283
7	0x3e5c5db9	0.21520127
8	0xbd014ec4	-0.031569257
9	0x3f933ca2	1.1502879
10	0xbd8cef1f	-0.06881546
11	0xbf4b9b4b	-0.79533833
12	0xbeab4e90	-0.33458376
13	0x4062a5b8	3.5413647
14	0xc07a8be2	-3.9147878
15	0xbcc29d10	-0.023756534
16	0x3d7b18b3	0.061302852
17	0x3e1cd7fb	0.15316765
18	0xc06f58e1	-3.7397997
19	0xbff9c7dd	-1.9514118
20	0x401494ce	2.3215823
21	0xc004b3cb	-2.0734737
22	0xc03ff2c8	-2.9991932
23	0x405b1ea8	3.423746
24	0xbe968672	-0.2939945
25	0x3e236a43	0.15958504
26	0x3ee5440a	0.44778472
27	0xc03f8015	-2.9921925
28	0x3dc75fd2	0.09735073
29	0xc03bb860	-2.9331284
30	0xc01995b1	-2.3997614
31	0xc00244f8	-2.0354595
32	0xbf7124c3	-0.9419672
33	0x3f90f34c	1.1324248
34	0xc0173376	-2.362516
35	0xbeba4d05	-0.36386886
36	0xc021a39e	-2.5256114
37	0x407c5cf8	3.9431744
38	0xbec125b8	-0.3772409
39	0xbe7d99c1	-0.24765684
40	0x409172b6	4.545253
41	0xbd588e21	-0.05286992
42	0x3cb33208	0.021874443
43	0xbeaddef7	-0.3395917
44	0xbfccb071	-1.5991346
45	0xc09b2545	-4.8482995
46	0xbf77e277	-0.9682993
47	0x4083bd36	4.116847
48	0xc09a1bb2	-4.815881
49	0xc069fbfa	-3.6560044
50	0x3f0344eb	0.51277035
51	0x3e2e17b6	0.17001233
52	0xbe842f3e	-0.25817293
53	0xbf7da14c	-0.99074244
54	0x40895832	4.292016
55	0xc02f4348	-2.7384815
56	0xc081e498	-4.0591545
57	0xbfe7c54a	-1.8107083
58	0xc0be4280	-5.9456177
59	0x3b3edf9e	0.0029124985
60	0xbeb10573	-0.3457447
61	0x3e585d28	0.21129286
62	0xbf30127f	-0.6877822
63	0xc085068f	-4.1570506
64	0xc0c4f288	-6.154606
65	0xbf2ed277	-0.68289894
66	0xc105a98b	-8.353892
67	0xc044f52d	-3.0774643
68	0xbe98f6f9	-0.29875925
69	0xc00c5e7c	-2.1932669
70	0x3f133abf	0.57511514
71	0x3f416c30	0.75555706
72	0x3e8a1ec6	0.26976603
73	0x3fdafa47	1.7107629
74	0x3f73c5c0	0.9522362
75	0x3f7706e9	0.9649492
76	0xbf1942d0	-0.5986757
77	0x3f7ac9ff	0.9796447
78	0xbfc05524	-1.5025983
79	0xbff37e0c	-1.9022841
80	0xbf8b9c09	-1.0906993
81	0x3fdbf00a	1.7182629
82	0x3ffff229	1.9995776
83	0xbfaf4b8c	-1.369493
84	0x404b91a7	3.180765
85	0xc04f4d1c	-3.2390814
86	0x3e870939	0.26374224
87	0x3e85db5c	0.2614392
88	0xbef486ba	-0.47759038
89	0xbf6d5bb5	-0.9271806
90	0xc0ba6740	-5.8251038
91	0xc0042d8d	-2.0652802
92	0xbc7fc820	-0.015611678
93	0x4037d09c	2.8721075
94	0xc0723989	-3.7847617
95	0x4005a2c9	2.0880606
96	0x3ed5b30a	0.41738158
97	0xbef6baf9	-0.48189524
98	0x3d9f768d	0.07786284
99	0xbe8cf01d	-0.27526942
100	0x3e6f3cfa	0.23363104
101	0x3e242a36	0.16031727
102	0xbe3e650f	-0.18593238
103	0x3e06075c	0.13088745
104	0xbe33f84f	-0.17575191
105	0xbd9fa07e	-0.07794283
106	0xbe8085a6	-0.25101966
107	0xbe83a517	-0.2571189
108	0xc003062f	-2.0472524
109	0xbfe1ee44	-1.7650838
110	0xbfd3151c	-1.6490817
111	0x3fab22d1	1.337
112	0xc0cbc6b0	-6.368004
113	0x3f39b849	0.7254682
114	0x3f49a07d	0.7876051
115	0xbda0d004	-0.07852176
116	0xc03e4911	-2.9732096
117	0xbfd62234	-1.6729188
118	0xbfdba74d	-1.7160431
119	0x3fea5064	1.8305783
120	0x40faffa9	7.8437085
121	0x3f56ea28	0.83951044
122	0xbf343829	-0.70398194
123	0x3f67d4e3	0.90559214
124	0xc05673d0	-3.3508186
125	0xbdfd7090	-0.12374985
126	0x40ddfa8f	6.936836
127	0x3f080bed	0.531432
128	0xbf749576	-0.9554056
129	0x402dec36	2.7175422
130	0xbfdb369d	-1.7126042
131	0xbec1e796	-0.37872
132	0xbfbdab22	-1.481785
133	0x3e3de44c	0.1854412
134	0x3db3540d	0.08756266
135	0xc030c64b	-2.7621028
136	0xbfaae21a	-1.3350251
137	0xbf6525b2	-0.89510643
138	0xbfb78cd1	-1.4339849
139	0x3fd11272	1.6333754
140	0x40884fe3	4.259752
141	0x3ec910c4	0.39270604
142	0xc01148ce	-2.2700686
143	0x3b312a87	0.0027033405
144	0xbe995044	-0.2994405
145	0xbe21d180	-0.15802574
146	0x3e686a68	0.22696841
147	0xbb0d9cab	-0.0021608274
148	0xbe29a893	-0.16568212
149	0xbe82c8ac	-0.25543725
150	0xbe9fb800	-0.31195068
151	0xbe900b48	-0.28133607
152	0xbd8a784b	-0.06761225
153	0x3f310237	0.69144005
154	0x40167d8c	2.3514128
155	0xc0c26911	-6.0753255
156	0xbf2aa8d5	-0.6666387
157	0x4023a3f5	2.5568821
158	0xbfc0c522	-1.506016
159	0x3e81de2f	0.25364825
160	0xbd139adc	-0.036036357
161	0xbe9b198f	-0.30292937
162	0xbf408a53	-0.75211066
163	0xc08e96b1	-4.455895
164	0x407674f1	3.8508875
165	0x3fccafc2	1.5991137
166	0xc111ebaf	-9.12004
167	0x3ece8072	0.4033237
168	0xc009d2b2	-2.1534848
169	0xbc48e8e7	-0.0122625595
170	0xbecb7f32	-0.3974548
171	0xc080946c	-4.018118
172	0x40264296	2.597814
173	0xbeeb79e6	-0.4599144
174	0xc0fcb9d2	-7.897683
175	0xbf9260ef	-1.1435832
176	0x3ff31ecb	1.8993772
177	0xc007f13c	-2.1240988
178	0x3f0b5fb1	0.5444289
179	0xbe78d768	-0.24300921
180	0x403eb441	2.9797518
181	0xbec4c0c8	-0.3842833
182	0x4051265d	3.2679665
183	0xbf9da37e	-1.2315519
184	0x4064a634	3.5726442
185	0x402a4fae	2.6611133
186	0xbf43dcc7	-0.76508754
187	0x3d0f0f02	0.034926422
188	0xbe8eb82a	-0.2787488
189	0x40d2e025	6.5898614
190	0x3e939c55	0.2883021
191	0x3eee9f40	0.46605873
192	0x3f81c825	1.0139204
193	0x4065c945	3.5904095
194	0x3efcbd95	0.4936339
195	0xbfbd7d2d	-1.4803826
196	0xbfe20862	-1.7658808
197	0xbd102d49	-0.035199437
198	0xc12d3f7a	-10.827997
199	0x3eb63e49	0.35594395
200	0xbf695871	-0.91150576
201	0xbfd66cbe	-1.6751935
202	0xc0ae33b4	-5.4438114
203	0xbd5eeb4c	-0.054423615
204	0xbf68c7ea	-0.90930045
205	0x3f2cf4e4	0.67561173
206	0xbef1ceb8	-0.47228026
207	0x3e8ff496	0.28116292
208	0x3df6db80	0.12053585
209	0x3d2ce307	0.042208698
210	0xbb229e00	-0.0024813414
211	0xbd86f35b	-0.06589385
212	0x3d2b4dab	0.041822117
213	0xbd9be220	-0.07611489
214	0xbb197eab	-0.0023421447
215	0x3d2e3500	0.042531013
216	0xbf25e21d	-0.64798146
217	0xc050b8e3	-3.2612846
218	0x402dfe8a	2.7186608
219	0xc0eead0c	-7.458624
220	0x4089df27	4.3084903
221	0x3f81165d	1.008495
222	0x3d6540da	0.05597005
223	0xbf2fa618	-0.68612814
224	0xbf0da7fc	-0.5533445
225	0x40b9c364	5.8051014
226	0xbf152128	-0.5825372
227	0xbfd1ca17	-1.6389798
228	0xc0e8a0b8	-7.269619
229	0xc0138404	-2.3049326
230	0xbf51e71d	-0.81993276
231	0x3f3239d4	0.6961949
232	0x3d81b1a5	0.06332711
233	0x3e749676	0.23885521
234	0x40ae05eb	5.4382224
235	0xc063e885	-3.5610669
236	0x3fa1b6fe	1.263397
237	0x3df78826	0.12086515
238	0x3fa65ad1	1.2996465
239	0x40569ffc	3.3535147
240	0xbe8e34ad	-0.27774563
241	0x3ec9e830	0.39434958
242	0x3d6edbaf	0.058314975
243	0xbc29cc67	-0.010363675
244	0x3e42b2a1	0.19013454
245	0xbe92ae6d	-0.286487
246	0x3e785b5b	0.242536
247	0xbe79a123	-0.24377875
248	0xbba7545e	-0.005106493
249	0xbd68212b	-0.056672256
250	0xbe33c563	-0.17555766
251	0x3cd993a9	0.026559668
252	0x3e8d20a2	0.2756396
253	0xbdc78e8b	-0.09743985
254	0xbe4aa5c9	-0.19789805
255	0xbdfc7a0c	-0.12327966

0.bias f4 [400]
0	0xbebd3e88	-0.3696177
1	0xbfa351ea	-1.2759373
2	0xbf3abccd	-0.7294434
3	0x3e006434	0.12538224
4	0xbf240f80	-0.6408615
5	0xbab8941c	-0.0014082226
6	0x3f1a2579	0.6021343
7	0xbce1109a	-0.027473737
8	0xbca1e433	-0.019762134
9	0xbf3ba4e3	-0.7329847
10	0xbf55142d	-0.8323391
11	0xbe9cfe46	-0.30662745
12	0x3d87e856	0.066361114
13	0xbf5dde00	-0.8666687
14	0xbf9420ea	-1.1572545
15	0xbed75d60	-0.42063427
16	0xbe62f13e	-0.22162339
17	0xbe0be64d	-0.13662072
18	0x3e58b990	0.21164536
19	0xbf0a8e00	-0.54122925
20	0xbf5516bc	-0.83237815
21	0xbf189715	-0.5960553
22	0x3da40a55	0.08009783
23	0xbe8d3923	-0.27582654
24	0x3ddaf36e	0.10690962
25	0xbf872a8f	-1.0559863
26	0xbf0616e5	-0.52378684
27	0xbe462959	-0.1935171
28	0xbea67f44	-0.3251897
29	0xbfabc39f	-1.3419074
30	0x3de44f1e	0.11147903
31	0xbedc7dd0	-0.43064737
32	0xbef5447f	-0.4790382
33	0xbe86acfd	-0.26303855
34	0xbf9f15ec	-1.2428565
35	0xbe3a2d88	-0.18181431
36	0xbf76a363	-0.9634306
37	0xbef39325	-0.475732
38	0xbf145a8e	-0.57950675
39	0xbf7ed746	-0.9954723
40	0x3eb27be7	0.34860155
41	0xbeab594f	-0.33466575
42	0xbfd30b12	-1.6487753
43	0xbed87362	-0.4227553
44	0xbd3c6c0c	-0.04600148
45	0xbf5dbeda	-0.8661934
46	0x3ee8cea5	0.45470157
47	0xbe822ba0	-0.25423908
48	0xbdaa0519	-0.083017536
49	0xbf440014	-0.7656262
50	0xbf76a814	-0.96350217
51	0x3f3fac18	0.7487197
52	0xbde66996	-0.11250608
53	0xbf3b3ecf	-0.73142713
54	0xbf732140	-0.9497261
55	0xbfcc20d2	-1.5947516
56	0x3e568bee	0.20951816
57	0xbf4aaf5a	-0.79173815
58	0xbdc400d4	-0.095704705
59	0x3e8f7836	0.280214
60	0x3e354603	0.17702489
61	0x3ecd377a	0.40081388
62	0xbee3a4f7	-0.44461796
63	0xbe08010d	-0.13281651
64	0xbe2d564a	-0.16927448
65	0xbe40b697	-0.18819652
66	0xbebf75fe	-0.37394708
67	0x3f1db0aa	0.6159769
68	0xbe59847d	-0.21241947
69	0xbf87c8cd	-1.0608155
70	0xbf5852fe	-0.84501636
71	0xbd0f81bf	-0.035035845
72	0xbf57b086	-0.8425373
73	0x3ec67174	0.38758433
74	0xbed02e32	-0.40660244
75	0xbf929648	-1.1452112
76	0xbd57dced	-0.052700926
77	0xbeea2ed3	-0.4573885
78	0x3d5e246e	0.05423396
79	0x3e9f69d3	0.31135425
80	0xbf0104b8	-0.50397825
81	0xbf6b904a	-0.9201704
82	0x3f312019	0.691896
83	0xbf62b776	-0.8856119
84	0x3e650cd8	0.22368181
85	0xbe94a725	-0.2903377
86	0xbcd756d0	-0.026286513
87	0x3f2a4fca	0.66528
88	0xbe90dd16	-0.28293675
89	0xbf88e8e2	-1.069607
90	0xbe8f9d46	-0.28049678
91	0xbe909144	-0.2823583
92	0xbeff56d0	-0.4987092
93	0xbf0f095a	-0.55873644
94	0xbf52a9f1	-0.8229056
95	0x3d447748	0.047965318
96	0xbeb5b86f	-0.35492274
97	0xbf372c0d	-0.7155159
98	0xbf7964d8	-0.974195
99	0xbf9db899	-1.232196
100	0xbf32aea0	-0.69797707
101	0xbf1d27d1	-0.6138888
102	0x3d5d3c8a	0.054012813
103	0xbf9633b8	-1.1734533
104	0xbf5a66a6	-0.8531288
105	0x3ea29d71	0.31760743
106	0x3efbe325	0.49196735
107	0x3f084704	0.5323336
108	0xbf35f6ac	-0.71079516
109	0x3e7ae595	0.24501641
110	0xbcb20601	-0.021731379
111	0xb98dbb6a	-0.0002703325
112	0xbf77bb60	-0.96770287
113	0xbea56da7	-0.3231022
114	0x3ecc90b7	0.3995416
115	0xbe74da59	-0.23911418
116	0xbedb7cab	-0.42868552
117	0x3e5f7879	0.218233
118	0xbf6390d0	-0.8889284
119	0xbd7acd7a	-0.061231114
120	0x3e6599fa	0.22422019
121	0x3e9c3a1a	0.30513078
122	0x3e6bacff	0.23015212
123	0xbf331a1f	-0.6996173
124	0xbe92d782	-0.28680044
125	0xbd3fb1b8	-0.046800345
126	0xbf3e8c20	-0.74432564
127	0x3df3024b	0.11865672
128	0xbeb9018e	-0.36134
129	0xbf12b3f9	-0.57305866
130	0x3f0fcdc8	0.5617337
131	0x3e893cbd	0.26804152
132	0xbebe106e	-0.3712191
133	0xbe50f88a	-0.2040731
134	0xbf227a8a	-0.6346823
135	0xbf52baf5	-0.82316524
136	0xbedd8f26	-0.43273276
137	0x3ed8cf00	0.42345428
138	0x3ebf8105	0.37403122
139	0xbf2d581f	-0.6771259
140	0x3dca7f34	0.09887543
141	0xbc700e85	-0.014651899
142	0x3e765cfd	0.2405891
143	0x3e7679b7	0.24069868
144	0xbf072ae3	-0.52799815
145	0xbfbe2e42	-1.4857867
146	0x3e82a5df	0.25517175
147	0xbe5a8a06	-0.21341714
148	0x3c60781e	0.013700513
149	0xbf912d6a	-1.1341984
150	0xbc62b215	-0.013836403
151	0xbe5e1ff4	-0.21691877
152	0x3b36f01c	0.0027914112
153	0xbeb0e293	-0.34547862
154	0xbeba9351	-0.36440518
155	0xbdeedbe7	-0.11663037
156	0xbf7342a4	-0.9502356
157	0xbf909b22	-1.1297343
158	0x3cf22e3c	0.029563062
159	0xbf4e04ba	-0.8047596
160	0xbe1d1e4e	-0.15343592
161	0xbecbece4	-0.3982917
162	0xbe882fe6	-0.26599044
163	0xbd9726a7	-0.07380419
164	0xbec8c902	-0.39215857
165	0xbf6dbb32	-0.9286376
166	0xbf9176ea	-1.1364415
167	0xbefe711d	-0.49695674
168	0x3d5b4239	0.05352995
169	0xbe942ece	-0.2894196
170	0xbd99aee0	-0.07504058
171	0x3dda1fd6	0.106506035
172	0xbe91c89b	-0.28473362
173	0x3f005d58	0.5014243
174	0xbf5829bd	-0.8443869
175	0x3ecbc283	0.39796838
176	0xbf132a93	-0.5748684
177	0xbefd7741	-0.49505046
178	0xbf3ae78a	-0.7300955
179	0xbe1990ee	-0.14996693
180	0xbe5dc7d7	-0.21658264
181	0xbd94e9fb	-0.07271191
182	0xbe4d000d	-0.2001955
183	0xbd2017d5	-0.039085228
184	0xbfbe47fb	-1.4865717
185	0xbf38fd8e	-0.72261894
186	0xbf807264	-1.0034909
187	0xbec2dfe6	-0.38061446
188	0x3d2cc5f2	0.042180963
189	0x3ec6c0a7	0.38818857
190	0x3f8f5ad6	1.1199596
191	0xbe9e3e96	-0.30907124
192	0xbe3261e5	-0.17420156
193	0xbf001997	-0.50039047
194	0x3e715b51	0.2356999
195	0x3f8fb22c	1.1226249
196	0xbe99875d	-0.29986086
197	0xbd8a4a72	-0.067524806
198	0xbeb083f3	-0.3447567
199	0xbf9b5480	-1.2135162
200	0xbf6139ac	-0.87978625
201	0xbea95fd0	-0.33080912
202	0xbe80dd7d	-0.25168982
203	0xbe9b4b1e	-0.30330747
204	0xbede2edb	-0.43395123
205	0xbeb06954	-0.3445536
206	0xbee746b3	-0.45171127
207	0x3ebc2598	0.36747432
208	0xbf86ce9d	-1.0531803
209	0x3e0a63fe	0.13514706
210	0xbe9c99af	-0.30586
211	0xc000a59c	-2.010108
212	0xbf0fea6a	-0.5621706
213	0xbf7332f3	-0.9499962
214	0xbed6f9a7	-0.41987345
215	0xbf42d9aa	-0.7611338
216	0xbf33cda8	-0.7023568
217	0xbf204367	-0.6260285
218	0xbe9fc587	-0.3120539
219	0xbf1a92be	-0.6038016
220	0xbe289cf4	-0.16466123
221	0x3edd119e	0.43177503
222	0xbef52174	-0.47877085
223	0xbf84d2a5	-1.0376784
224	0x3d8c3475	0.06845943
225	0xbefb1635	-0.4904038
226	0xbefd18a4	-0.49432862
227	0xbf4f0169	-0.80861527
228	0xbf6f409c	-0.9345796
229	0xbf03b8db	-0.5145394
230	0xbe80716c	-0.25086534
231	0xbe8180f2	-0.2529369
232	0xbf135526	-0.575518
233	0xbe401319	-0.18757285
234	0xbf31f804	-0.69519067
235	0xbf279847	-0.6546673
236	0xbfc208a3	-1.5158886
237	0xbd60da82	-0.054895885
238	0xbe9cc8b7	-0.30621883
239	0x3b5a3adf	0.003329925
240	0xbe97e1da	-0.296645
241	0x3ea380f3	0.31934318
242	0xbf38fd52	-0.72261536
243	0x3e005fb6	0.12536511
244	0xbe13238d	-0.1436903
245	0x3e0c7770	0.13717437
246	0xbfce2dcb	-1.6107725
247	0x3dc4ccc7	0.09609371
248	0x3e063921	0.1310773
249	0x3e2aed5a	0.16692105
250	0xbfc212fa	-1.5162041
251	0x3c2127af	0.009836121
252	0xbf29246e	-0.6607121
253	0x3e993730	0.29924917
254	0xbdbfd552	-0.093668595
255	0xbe560b12	-0.2090266

2.weight f4 [300, 400]
0	0x3c7f65b3	0.015588212
1	0xbf1a67d5	-0.60314685
2	0x3d2605a9	0.04053274
3	0x3ec9b4e4	0.3939582
4	0x3fd3a8a4	1.653584
5	0x3f558c87	0.8341755
6	0x3fea6ed2	1.831507
7	0x3fb4ff50	1.4140415
8	0xbd83e363	-0.06439855
9	0x3dd4df75	0.103941835
10	0x3e1cfa7e	0.1532993
11	0xbdf83b53	-0.1212069
12	0x3d44a3cf	0.048007783
13	0xc03d8d40	-2.9617462
14	0xbeac83ee	-0.33694404
15	0xbff3d1ed	-1.9048439
16	0x3d04bf03	0.032408725
17	0x3efb70c6	0.49109477
18	0x3f8e972d	1.1139885
19	0x3d2ee5f8	0.042699784
20	0x3fa91acd	1.3211304
21	0x400139aa	2.0191445
22	0x3ec9f7a4	0.39446747
23	0xbbdffc9a	-0.0068355324
24	0xbf09b58c	-0.53792644
25	0x3fa6a7fa	1.3020012
26	0x3fd4ab28	1.6614733
27	0x3cca6b31	0.024709316
28	0xbb8535e7	-0.0040652636
29	0x3daf53c2	0.085608974
30	0x3f8fd4d7	1.1236829
31	0xbffa562e	-1.955755
32	0x3fdb7618	1.7145414
33	0x3cc4bd49	0.02401604
34	0xbfd0c2c0	-1.6309433
35	0xbcf8bfa7	-0.030364824
36	0x3f8f3468	1.1187868
37	0x401666a9	2.3500159
38	0xbf254c0e	-0.64569175
39	0x3fffa404	1.9971929
40	0x3fcded08	1.6087961
41	0x3f2d8d54	0.67793775
42	0xc0394446	-2.894792
43	0x40a3c7cc	5.1181393
44	0x3feb9869	1.8405887
45	0xbf90c87e	-1.1311185
46	0xc055eadd	-3.34246
47	0xbe41f85d	-0.189424
48	0xc056811a	-3.3516297
49	0x40233eff	2.55072
50	0xbf3d398c	-0.73915935
51	0x404b5ecc	3.177661
52	0x3f2ccafd	0.67497236
53	0x3f3d28ac	0.73890185
54	0x3fc91c43	1.571175
55	0xc031da51	-2.77895
56	0xbfdfdfe3	-1.74902
57	0xbf87c744	-1.0607686
58	0x3f2f3d51	0.68452936
59	0x401d79c3	2.4605567
60	0xbf0ab298	-0.5417876
61	0xbf7e7269	-0.99393326
62	0xbf875f54	-1.0575967
63	0x40a4e96d	5.1534944
64	0x40cfee49	6.4978375
65	0x400449be	2.0670009
66	0xbfb40ffa	-1.4067376
67	0x3f2c64ff	0.6734161
68	0x3f5d481a	0.86438143
69	0x3ffa39cd	1.9548889
70	0x3edb0fba	0.42785436
71	0x3f21c793	0.6319515
72	0x3dd379af	0.10325944
73	0x3fbfb870	1.4978161
74	0xbdc971f8	-0.09836191
75	0x3ef314d5	0.4747683
76	0x3f2b188f	0.6683435
77	0xc002a2ca	-2.0411859
78	0xbfb8a0d3	-1.442408
79	0x403ae31f	2.9201124
80	0xbfbdecee	-1.483793
81	0xc03cb465	-2.9485104
82	0x40155b19	2.3336852
83	0xbf879e61	-1.0595208
84	0xbf3ef9f6	-0.7460016
85	0x3f2031d5	0.6257604
86	0xbf593170	-0.8484106
87	0x3f684ba3	0.9074041
88	0xbfaab705	-1.3337103
89	0x3fa98ec7	1.3246697
90	0x3eccc0ef	0.39990947
91	0xbd36d89a	-0.04464016
92	0x3fa28d0e	1.2699296
93	0x3f64494b	0.89174336
94	0xc0892476	-4.285701
95	0x3f8429bc	1.0325236
96	0x3e3dc5f0	0.18532538
97	0x3ffea37d	1.9893643
98	0xbebcf0d2	-0.3690248
99	0x3e5bb99f	0.21457528
100	0x3f1dd455	0.6165212
101	0x3f27a043	0.65478915
102	0xbf83e4ea	-1.0304234
103	0xbdae079b	-0.084975444
104	0x3ed79896	0.421086
105	0xbff9f68e	-1.9528368
106	0x3ea087b6	0.3135354
107	0x3e2457af	0.16049074
108	0x3e838e0d	0.25694314
109	0x3f327a07	0.6971745
110	0xbe7811d6	-0.24225554
111	0xbe6b4eda	-0.22979298
112	0x3e70f97c	0.2353267
113	0x3d16bf58	0.036803573
114	0xbeebf280	-0.4608345
115	0x3fce352f	1.610998
116	0xbff0b197	-1.8804196
117	0xbfa4a767	-1.2863587
118	0xbe39f68c	-0.18160456
119	0xbf83448e	-1.0255296
120	0x3f7f8688	0.99814653
121	0xbf927f47	-1.1445092
122	0xbf8906ac	-1.0705161
123	0xbfe31c30	-1.7742977
124	0xbba55ce7	-0.005046475
125	0x3fa20d18	1.2660246
126	0xbe696bea	-0.22795072
127	0x3f60c07f	0.87793726
128	0x3f78a35e	0.9712428
129	0x3f071512	0.52766526
130	0xbf35cd93	-0.71016806
131	0xbf1a1ddb	-0.60201806
132	0xbf5ca6f5	-0.86192256
133	0xbd028b2c	-0.031871006
134	0xbffdf5bb	-1.9840616
135	0x3fa38d6d	1.2777535
136	0x3f4eb10c	0.807389
137	0x401626b4	2.3461123
138	0xbfd19d85	-1.6376196
139	0xc029b26e	-2.6515155
140	0x3f98075e	1.1877248
141	0x3f034593	0.51278037
142	0x3e8f27cf	0.2796006
143	0xbe95168f	-0.29118773
144	0x3feea955	1.8645426
145	0xc02b4cfd	-2.676574
146	0xbfd4182b	-1.6569875
147	0x3cc8f670	0.024531573
148	0xbf31fa45	-0.69522506
149	0x3c4411be	0.011967121
150	0xbf7c1439	-0.9846836
151	0x3ea96206	0.33082598
152	0x407d2468	3.955347
153	0x3fc19e49	1.512643
154	0xc0772f92	-3.8622785
155	0xc0255e7a	-2.5838914
156	0x402a326f	2.6593282
157	0x3e391e8e	0.18078062
158	0xc006d115	-2.1065114
159	0xbfd97a0a	-1.6990368
160	0xbd564ef2	-0.052321382
161	0x3f99c877	1.2014302
162	0xbf8d7c46	-1.105355
163	0xbf00f6c2	-0.5037652
164	0x4048d11c	3.137763
165	0xbfd4d9a6	-1.6628921
166	0x3ffba2cc	1.9659057
167	0xbfd58d23	-1.6683697
168	0xbfee0200	-1.859436
169	0xbc4a6553	-0.012353259
170	0xbf681680	-0.9065933
171	0x3f126b38	0.5719485
172	0x3d145ccd	0.036221314
173	0xbf829b2e	-1.0203607
174	0xbe5c2d2a	-0.21501604
175	0xc03639c9	-2.847277
176	0xbfa56fd3	-1.2924751
177	0xbfd349fd	-1.6506954
178	0xbf7254db	-0.9466073
179	0x3bf994b3	0.0076166033
180	0x3fcc3848	1.5954676
181	0x401ebd25	2.4802945
182	0xc002e317	-2.0451105
183	0xbf0c4935	-0.54799205
184	0xc0451f77	-3.0800455
185	0xbf1bdaa6	-0.60880506
186	0xbd20178f	-0.039084967
187	0x3faca518	1.3487883
188	0xbe30b73f	-0.17257403
189	0xbfb61e86	-1.4228065
190	0xbfb5a5ac	-1.4191184
191	0x3d0fe77c	0.03513287
192	0xbfd3fde7	-1.656186
193	0xbfab3c5e	-1.3377798
194	0xc02077c0	-2.507309
195	0xc05633a3	-3.3469017
196	0x4027a453	2.6194046
197	0x3e4652a4	0.19367462
198	0x3f9a8d0e	1.2074296
199	0xbfe1ff66	-1.7656066
200	0x402b21b3	2.6739318
201	0x4013c66f	2.3089864
202	0xbcdab99d	-0.026699835
203	0x3a9c8a67	0.0011943103
204	0x40538c98	3.3054562
205	0x40a2242e	5.0669165
206	0xbd7f7c5b	-0.062374454
207	0x3f391922	0.72303975
208	0x4083f283	4.1233535
209	0x3f6d5149	0.92702156
210	0xbf01b881	-0.50672156
211	0x3ed17b9f	0.40914628
212	0x3eae6a73	0.3406559
213	0x3f95f285	1.1714636
214	0xbfb1b51f	-1.3883399
215	0xc01115e9	-2.2669623
216	0xbff39e2c	-1.9032645
217	0xc0a1722f	-5.0451884
218	0x4019345b	2.3938205
219	0xbd8f210c	-0.06988725
220	0x3e9a163f	0.30095097
221	0xbf0ca0a2	-0.54932606
222	0x3f1732be	0.590618
223	0xbe112466	-0.14174041
224	0xbbc6dfba	-0.0060691508
225	0x3fd3d43d	1.6549145
226	0x3b32cde0	0.0027283356
227	0xbf33eeef	-0.7028646
228	0xbfcf2398	-1.6182737
229	0x3ee256dd	0.44206896
230	0x3ef504a8	0.47855115
231	0xbd78dade	-0.060755603
232	0x3fe9bea9	1.826131
233	0xbee30361	-0.44338515
234	0xbf2f2312	-0.6841289
235	0xc0320c00	-2.7819824
236	0x3d02f117	0.031968202
237	0xc00a4d74	-2.1609774
238	0xc0441a6e	-3.0641131
239	0xc009929e	-2.1495738
240	0xbc82e29d	-0.015977198
241	0xc0370378	-2.8595867
242	0xc09f2d27	-4.9742618
243	0x3fddac6f	1.7318248
244	0x3f1136f3	0.5672447
245	0xc0114207	-2.269655
246	0x3ef12f37	0.47106335
247	0xbfc31aa1	-1.5242501
248	0x3ec68f0a	0.38781005
249	0x3f522051	0.8208056
250	0x401330bf	2.2998502
251	0xbe86ad73	-0.26304206
252	0x3eefef1a	0.46862108
253	0x3e9a48c1	0.30133632
254	0x402c8ab6	2.6959662
255	0xc0cc4697	-6.383617

2.bias f4 [300]
0	0xc0271438	-2.610609
1	0xbda954df	-0.08268141
2	0xbd26942f	-0.040668663
3	0xbf1a8561	-0.6035977
4	0xbfa94d2d	-1.3226677
5	0xbd99733e	-0.07492684
6	0xbf6712c5	-0.90263015
7	0xbd799e04	-0.06094171
8	0xbf011f4b	-0.50438374
9	0x3b74686b	0.0037293683
10	0xbd9a91f6	-0.07547371
11	0x3f1d211e	0.6137866
12	0xbdce70e1	-0.10080124
13	0xbd3eefaf	-0.0466153
14	0xbde8f84b	-0.11375483
15	0xbd946646	-0.072460696
16	0xbd256f37	-0.040389266
17	0x3ea9ec58	0.33188128
18	0xbd93c876	-0.07215969
19	0xbe1cfcb6	-0.15330777
20	0xbd88c67d	-0.06678484
21	0xbd4154a1	-0.04719985
22	0xbd64f043	-0.055893194
23	0xbd2c284f	-0.04203063
24	0xbd34d3d8	-0.044147342
25	0xbd437f51	-0.04772884
26	0xbe92cd90	-0.28672457
27	0xbd168e9e	-0.036757104
28	0xbddcd092	-0.10781969
29	0x400d5a07	2.2086198
30	0xbd43b471	-0.047779504
31	0xbd7313cc	-0.05934505
32	0xbc9435d6	-0.018092077
33	0xbde470eb	-0.1115435
34	0xc0bda86a	-5.9268084
35	0xbd651feb	-0.055938642
36	0xbd980efe	-0.074247345
37	0x3eb71ff9	0.3576658
38	0x3ea1295f	0.31476876
39	0xbd7eaa34	-0.062174037
40	0x3e0bbd36	0.13646397
41	0xbda97997	-0.082751445
42	0x3f2f786c	0.68543124
43	0xbd491d99	-0.049100492
44	0xc0923b14	-4.5697117
45	0xbd85440d	-0.0650712
46	0xbd62dc3b	-0.05538581
47	0xbd44d261	-0.048052195
48	0xbd8ae706	-0.067823455
49	0xbd5749ba	-0.052560546
50	0xbd62cfbb	-0.05537389
51	0xbc7313cc	-0.014836263
52	0x3c1dbe97	0.00962796
53	0xbd12be0e	-0.03582578
54	0xbd409dd1	-0.047025505
55	0xbd293347	-0.041308668
56	0xbd0f6375	-0.03500696
57	0xbdbf1a50	-0.093311906
58	0xbd3606e0	-0.04444015
59	0xbd04329d	-0.03227483
60	0x3f9920af	1.1963099
61	0xbd070865	-0.03296699
62	0x3f773a7e	0.96573627
63	0xbdb0bdc0	-0.08629942
64	0xbfd8a90f	-1.6926593
65	0xbd1357f6	-0.035972558
66	0xbdd64272	-0.10461892
67	0xbd5699f2	-0.052392907
68	0x3f91705c	1.1362414
69	0xbccef999	-0.025265502
70	0xbda1785f	-0.07884287
71	0xc0025e9a	-2.037024
72	0xbdf1d124	-0.118074685
73	0xbd69f0bb	-0.057114344
74	0xbdb1cb48	-0.08681351
75	0xbdb9e968	-0.09077722
76	0xbcb7c9a8	-0.022435024
77	0xbd8746e5	-0.06605319
78	0xbd981e9e	-0.07427715
79	0xbdb51000	-0.088409424
80	0xbce82623	-0.028338498
81	0x3d9a6414	0.0753862
82	0xbd077ccd	-0.033078004
83	0xbcfc25ac	-0.030779682
84	0xbd0a29f5	-0.03373142
85	0x3b1f50cd	0.0024309636
86	0xbd850c95	-0.064965405
87	0xbdeeddab	-0.116633736
88	0xbdb1ece0	-0.086877584
89	0xbee90cb4	-0.45517504
90	0xbd5b62f2	-0.05356116
91	0x3e1a005f	0.15039204
92	0xbd9966be	-0.074903
93	0xbd74e4a4	-0.05978836
94	0xc03c1113	-2.9385421
95	0xbd9651ae	-0.07339798
96	0xbf23567f	-0.6380386
97	0xbdcaf321	-0.099096544
98	0x3f567207	0.8376774
99	0xc0ae1588	-5.4401283
100	0xbc1f796e	-0.009733541
101	0x3f7ae3db	0.9800393
102	0xbcfa42dc	-0.03054946
103	0xbd323bc8	-0.043514043
104	0xbff0d109	-1.8813792
105	0x3fdbf977	1.7185506
106	0xbcfa71bc	-0.03057181
107	0x3e2e97f5	0.17050155
108	0xbd70acf4	-0.05875869
109	0xbd7e8194	-0.062135294
110	0xbf987331	-1.1910154
111	0xbdab65c7	-0.08369022
112	0xbdc730a1	-0.09726072
113	0xbc93766e	-0.018000808
114	0xbb0ec4dd	-0.002178482
115	0xbdf5383c	-0.119736165
116	0xbd0bbd15	-0.03411587
117	0x3ec563c6	0.38552684
118	0xbca824f7	-0.020525439
119	0xbdb63e58	-0.0889861
120	0xbd9937de	-0.07481359
121	0xbfa0ee97	-1.2572812
122	0xbdf2827c	-0.11841294
123	0xc01ff137	-2.4990976
124	0xbdb1af28	-0.086759865
125	0xbf9c97a6	-1.223378
126	0xbc5d7952	-0.013517695
127	0xbd7930a4	-0.060837403
128	0xbd9aea3e	-0.075642094
129	0xbcbc7a70	-0.023007601
130	0xc036ef66	-2.8583617
131	0xbda13b6f	-0.07872664
132	0xbd5ef9b2	-0.054437347
133	0x3ee7e827	0.45294306
134	0xbd3c6940	-0.04599881
135	0xbf870743	-1.0549091
136	0xbd6d1952	-0.057885475
137	0xbd0e18fd	-0.0346918
138	0xbc5c4199	-0.013443374
139	0xbd0599fe	-0.03261756
140	0xbd2fe2fe	-0.042941086
141	0xbd459f11	-0.0482474
142	0xbd85d23d	-0.065342404
143	0xbffa5d2e	-1.9559686
144	0xbd4e4cf1	-0.050366346
145	0xbd6033c3	-0.054736864
146	0x3ed6b15b	0.41932186
147	0xbd4e0ce1	-0.05030525
148	0xbd5dedba	-0.05418179
149	0xbee8506e	-0.45373863
150	0xc08a20dd	-4.3165116
151	0x3a7db41b	0.0009678022
152	0xbd7f9494	-0.062397555
153	0xbd0b16ad	-0.033957172
154	0xbd0066ef	-0.031348165
155	0x3ce11eab	0.027480444
156	0x3f3080ec	0.6894672
157	0xbe55aa1a	-0.2086567
158	0xbd9746fe	-0.073865876
159	0xbc4c9b59	-0.01248821
160	0xbd5396da	-0.051657535
161	0xbde58c83	-0.11208441
162	0xbdc4ce79	-0.09609694
163	0xbd87f2c5	-0.066381015
164	0xbd487f01	-0.048949245
165	0xc00fd47e	-2.2473445
166	0xbc5faa44	-0.013651434
167	0xbde9d30b	-0.114172064
168	0x3f2a11a7	0.66433185
169	0xbd2dd217	-0.042436685
170	0xbdacbbf7	-0.08434289
171	0xbcf519c4	-0.029919513
172	0xbd132aa6	-0.035929345
173	0xbd95b7c6	-0.073104426
174	0x3eb76683	0.35820398
175	0xbdebc5e7	-0.11512356
176	0xbd8c475d	-0.06849549
177	0xbc378678	-0.011201493
178	0xbd3ea2c8	-0.04654196
179	0xbd84c25d	-0.06482384
180	0xbd19dd7e	-0.037564747
181	0x3fba87b4	1.4572663
182	0xbde3d3e3	-0.111243986
183	0xbd856a55	-0.06514422
184	0xbdcdb179	-0.10043616
185	0xbd11f15e	-0.035630576
186	0x3fa4b83b	1.2868723
187	0xbeb493c8	-0.35268998
188	0x3f6b8297	0.9199614
189	0x3f10246c	0.56305575
190	0xbd91fea6	-0.071286485
191	0xbd0b41a5	-0.03399815
192	0xbb594332	-0.0033151624
193	0xbf069996	-0.52578104
194	0xbc1a40ee	-0.0094148945
195	0xbdbded88	-0.09273821
196	0xbd09a13d	-0.033601034
197	0xbdcdacc9	-0.10042722
198	0x3f43e1af	0.7651624
199	0xbd848bad	-0.064719535
200	0xbcd6b612	-0.026209865
201	0xbd9b4e3e	-0.07583283
202	0xbd9aa4b6	-0.07550947
203	0x3f890967	1.0705994
204	0x3f6a510f	0.91529936
205	0x3f44ef4c	0.7692764
206	0xbdca9499	-0.09891624
207	0xbd42df29	-0.047576103
208	0xbcbaa420	-0.022783339
209	0xbd96b73e	-0.073591694
210	0xbd924fe6	-0.07144146
211	0xbda743f7	-0.0816726
212	0xc02e2dcf	-2.721546
213	0xbd6c058b	-0.057622474
214	0xbd12988e	-0.03579002
215	0xbc0e8c9d	-0.008700517
216	0xbd9a4246	-0.07532172
217	0xbf9015fe	-1.1256711
218	0xbd11c1b6	-0.035585128
219	0xc089374c	-4.288
220	0xbd1d0166	-0.03833141
221	0xbd4de8f1	-0.05027098
222	0xbf5ca1e6	-0.8618454
223	0xc027bdf0	-2.6209679
224	0xbf12ec00	-0.5739136
225	0xbf997faf	-1.1992091
226	0xbd8ab505	-0.06772808
227	0x3f72c125	0.94825965
228	0x3f997713	1.1989464
229	0xbda680a7	-0.08130007
230	0xbd3ffe70	-0.04687351
231	0xbd9b6b26	-0.07588796
232	0xbd194725	-0.037421364
233	0xbae22e03	-0.0017256144
234	0xbda1834f	-0.07886373
235	0xbcef640b	-0.029222509
236	0xbd8702ed	-0.06592355
237	0xc02ce93e	-2.701736
238	0xbdcb22c9	-0.09918744
239	0xbcec7ea3	-0.028868979
240	0xbd802743	-0.062574886
241	0xbe5b9cc2	-0.21446517
242	0xbdd7450a	-0.10511215
243	0xbdacc16f	-0.08435332
244	0x3f3fd004	0.7492678
245	0xbd49e599	-0.049291227
246	0xbd9331ae	-0.0718721
247	0xbd47a761	-0.04874361
248	0xbcff8044	-0.031189092
249	0x40272c81	2.6120913
250	0xbcb206a7	-0.021731688
251	0xbd3314f8	-0.04372117
252	0xbc0475cd	-0.0080847265
253	0xbc5b654a	-0.013390848
254	0x3f14f260	0.58182335
255	0xbd072485	-0.032993812

4.weight f4 [1, 300]
0	0xbe6d2dd6	-0.23162016
1	0x3b98473d	0.004647164
2	0xbcef6023	-0.029220646
3	0xbe75f8e8	-0.24020731
4	0x3de316e4	0.110883504
5	0x3c98059e	0.018557366
6	0x3e5733e5	0.2101589
7	0xbc39ed4f	-0.011348083
8	0xbe36af85	-0.17840393
9	0xbc7a7a54	-0.015287954
10	0x3b13b5b5	0.0022538726
11	0xbe9dcb82	-0.30819327
12	0xbbade72f	-0.0053071002
13	0xbe1d8467	-0.15382539
14	0x3bfb0883	0.007660927
15	0x3b4f3818	0.0031619128
16	0xb785b93d	-1.5941094e-05
17	0x3e8b6725	0.2722713
18	0x3ccfe718	0.025378749
19	0x3cb242d0	0.021760374
20	0xbc161e1d	-0.009162453
21	0xbb27aca6	-0.0025585084
22	0xbcb857d8	-0.022502825
23	0xbd33b908	-0.04387763
24	0xbd1b5546	-0.03792312
25	0xbb1a6e05	-0.0023564112
26	0x3f6736df	0.903181
27	0xbc30e660	-0.010797113
28	0xbcd623fa	-0.026140202
29	0x3e966351	0.29372647
30	0x3ca4e35f	0.02012795
31	0x3c4886d0	0.012239173
32	0x3c877a75	0.016537884
33	0x3c0db68d	0.0086494805
34	0xbecb8edc	-0.3975743
35	0xbcc356b1	-0.023845049
36	0x3c3d1778	0.01154124
37	0x3e0a63d0	0.13514638
38	0x3e9f8a09	0.3116
39	0xbbc789b1	-0.006089412
40	0x3dfb96c8	0.122846186
41	0x3b53b551	0.0032304118
42	0xc12d9cc7	-10.850776
43	0x3bbb2827	0.0057115736
44	0xbe835ebb	-0.2565821
45	0x3ca48b16	0.020085853
46	0x3c294dd7	0.0103335
47	0xbc7373e4	-0.014859173
48	0x3b4bbf08	0.0031089205
49	0x3d016955	0.031594593
50	0xbc167666	-0.009183502
51	0xbb65ae1a	-0.00350464
52	0x3e8df149	0.27723148
53	0xbcc5e309	-0.02415611
54	0x3d0e6975	0.03476854
55	0x3c6d41f3	0.014481056
56	0x3c87209d	0.016495043
57	0x3ce03deb	0.027373275
58	0x3bdc3a92	0.0067208493
59	0x3afd533c	0.0019327174
60	0x4159285d	13.572354
61	0x3bf1b1e3	0.007375942
62	0x3e925144	0.28577626
63	0x3cd1b8ba	0.02560078
64	0x3e7a2604	0.24428564
65	0x3bb0be88	0.005393807
66	0x3b7fd4a3	0.0039036653
67	0xbc0649c4	-0.008196298
68	0xc08c29aa	-4.380086
69	0xbcdc2961	-0.0268752
70	0xbadaeb69	-0.0016702238
71	0x3f2e01fa	0.67971766
72	0xbcc74429	-0.024324493
73	0x3d017444	0.03160502
74	0x3bc3cd71	0.0059754183
75	0x3d15af2e	0.036544017
76	0x3c8a11bd	0.016854161
77	0xbd06acfd	-0.03287982
78	0x3c312737	0.010812572
79	0xbc9735ce	-0.018458273
80	0x3c5940da	0.013260091
81	0x3ec077a0	0.37591267
82	0x3b9a2626	0.0047042547
83	0x3d046ba5	0.03232922
84	0x3cc75879	0.02433418
85	0x3c07eedd	0.008296696
86	0x3c5a5311	0.013325469
87	0x3cb68c77	0.022283776
88	0x3d0ee73c	0.03488849
89	0x3f13ac67	0.5768494
90	0x3c7993dc	0.015233006
91	0xbe2d1efb	-0.1690635
92	0x3c909d86	0.017653238
93	0xbbf689bb	-0.007523743
94	0xbe95a0f8	-0.29224372
95	0xbcda8449	-0.026674407
96	0xbe035240	-0.12824345
97	0x3cb86070	0.022506922
98	0x41fa766b	31.307821
99	0x3ea44aeb	0.32088408
100	0xbd0d140d	-0.03444295
101	0x3e8071d2	0.25086838
102	0xbc098e7c	-0.008395787
103	0x3c90a236	0.017655473
104	0xbe8eacd5	-0.27866235
105	0xbee364c4	-0.44412816
106	0xbb60ea92	-0.0034319502
107	0xbe43b732	-0.19112852
108	0xbcd91db2	-0.026503418
109	0xbca2c07e	-0.019867178
110	0x3e36728b	0.17817132
111	0x3c383c80	0.011244893
112	0xbcb87c90	-0.022520334
113	0xbba84d97	-0.0051362026
114	0xb7cc0a09	-2.4323368e-05
115	0x3b88721c	0.0041639935
116	0xbca83d2f	-0.020536987
117	0xbeff1fec	-0.49829042
118	0x3c166536	0.009179404
119	0xbc4f8a21	-0.01266721
120	0x3ca24447	0.019807948
121	0x3df4bad4	0.11949697
122	0xbce8462b	-0.028353771
123	0x3f5868dc	0.84535
124	0xbd332a0f	-0.043741282
125	0xbe506027	-0.20349179
126	0x3b30e727	0.0026993246
127	0xbcc0c4e1	-0.02353138
128	0xbc0e7e8d	-0.008697164
129	0xbb59d6d9	-0.0033239631
130	0xbe3cef7d	-0.18450733
131	0x3b01016d	0.0019684688
132	0xbc7ed20c	-0.015553009
133	0xbeaae569	-0.3337815
134	0x3aa3e63e	0.0012504531
135	0xbe72aa64	-0.23697811
136	0xbc9582a6	-0.018250775
137	0x3c2934d6	0.0103275385
138	0xbcac491e	-0.021030959
139	0x3c88992d	0.016674602
140	0xba4d6f10	-0.0007836679
141	0xbc8dcba5	-0.01730902
142	0xbac3f869	-0.0014951351
143	0xbe0cfbcb	-0.13767926
144	0xbcbd3528	-0.023096636
145	0x3ce35aca	0.027753253
146	0x3e89e09e	0.26929182
147	0x3c058675	0.008149733
148	0x3cb4d568	0.022074416
149	0x3ec662cf	0.3874726
150	0x3eb02d0f	0.34409377
151	0x3b2680a6	0.002540627
152	0xbc5cf7a2	-0.013486775
153	0x3c39f200	0.011349201
154	0x3c1c4f45	0.009540384
155	0xc0934d00	-4.6031494
156	0x418b2bc8	17.396378
157	0xba134b76	-0.00056188495
158	0xbc3da288	-0.011574395
159	0xbca46a47	-0.020070208
160	0x3b12ee7d	0.0022419982
161	0x3c592a31	0.013254688
162	0xbcd8373a	-0.026393522
163	0xbc4a77b1	-0.012357638
164	0xbc93d74d	-0.018047
165	0xbea59dbe	-0.3234691
166	0x3e49101c	0.19635051
167	0x3e30631f	0.17225312
168	0xbe8071c9	-0.2508681
169	0xbc7e6e0c	-0.015529167
170	0xbab37da8	-0.0013694065
171	0x3bf5d093	0.0075016706
172	0xbbf4d8eb	-0.0074721477
173	0xbcb17238	-0.021660909
174	0x3ed06708	0.40703607
175	0xbf2da07e	-0.67823017
176	0x3ca91ef7	0.020644648
177	0x3b82ca75	0.00399142
178	0x3ab22db8	0.0013593948
179	0xbb9978b5	-0.004683579
180	0xb81f250e	-3.7943064e-05
181	0xbefb92bc	-0.49135387
182	0x3c4ad890	0.012380734
183	0x3b088414	0.0020830678
184	0x3c6bd1fb	0.014393325
185	0x3ca03cbf	0.019560216
186	0xbe5ded90	-0.21672654
187	0xbad4c6c2	-0.0016233551
188	0xbe39ab92	-0.18131855
189	0xbe8e01ab	-0.27735648
190	0x3c9ca086	0.019119512
191	0xbbdd6a7a	-0.0067570778
192	0xbd022b15	-0.031779367
193	0xbe37ea08	-0.1796037
194	0x3e7bfbb1	0.24607731
195	0x3ca3c24f	0.019990114
196	0xbd03e79d	-0.032203306
197	0x3c90b686	0.017665159
198	0x3dca8d16	0.09890191
199	0xbbffaa74	-0.007802302
200	0x3d122d85	0.035687942
201	0xbbedcdca	-0.007257198
202	0x3ca03fdf	0.019561706
203	0xc014c646	-2.3246017
204	0xbe810a27	-0.25203058
205	0xbea3d429	-0.31997803
206	0x3b5edcca	0.0034006112
207	0x3c00af64	0.007854316
208	0x3c18cb46	0.009325808
209	0x3beaa853	0.007161179
210	0xbb93013d	-0.0044862316
211	0x3c7d1ee4	0.015449259
212	0xbf45db00	-0.7728729
213	0xbd26334f	-0.040576275
214	0x3cb30c60	0.021856487
215	0x3c820bd5	0.015874783
216	0xbcfae3cc	-0.0306262
217	0xbe29d969	-0.16586842
218	0x3bc17958	0.005904358
219	0xbe321812	-0.17391995
220	0xbc9a1bfe	-0.018812176
221	0x3c064e74	0.008197416
222	0x3eb3c6bd	0.35112563
223	0xbecee8f6	-0.4041211
224	0xbe14358f	-0.14473556
225	0xbe039705	-0.12850578
226	0x3b856b1c	0.0040716063
227	0xbe94a260	-0.29030132
228	0x3e13f6a4	0.14449555
229	0x3ca3d37f	0.01999831
230	0x3cbc23b7	0.022966249
231	0xbcb3c3f8	-0.021944031
232	0x3d85546b	0.06510242
233	0xbc6a5faa	-0.014305035
234	0x3ca0736f	0.019586293
235	0xbce1220b	-0.027482053
236	0xbb77d114	-0.003781383
237	0x3e22da13	0.15903501
238	0xbd516a9a	-0.051127054
239	0xbbf6c38c	-0.007530635
240	0xbcd2711a	-0.025688697
241	0xbc6df66b	-0.014524083
242	0x3cfd29d4	0.030903734
243	0x3bcf19a0	0.0063201934
244	0x3ec7f8e6	0.39057082
245	0x3ce4fd8a	0.027952928
246	0xbcd2aa21	-0.02571589
247	0xbb0a8d2d	-0.0021141276
248	0xbda05817	-0.07829302
249	0x3ed64f37	0.4185731
250	0x3d0ef9fd	0.034906376
251	0x3c3c2d18	0.011485361
252	0x3d4fc199	0.05072174
253	0xbc3b8a97	-0.011446617
254	0xc17cd07f	-15.800902
255	0x3d1537a5	0.03643002
