results/c_3_0/best/target_q_func2.pt (torch, 502309 bytes, 5 tensors)

1.weight f4 [400, 10]
0	0x3e804bfa	0.25057966
1	0x3f869654	1.0514627
2	0xbd543252	-0.0518058
3	0x3e29dfee	0.16589329
4	0x400ff3fc	2.2492666
5	0x3ebf2607	0.373337
6	0xbee2cc9a	-0.44296724
7	0xbf3e08df	-0.74232286
8	0xbbb41b78	-0.0054964386
9	0x3e118336	0.14210209
10	0x3f891c0a	1.0711682
11	0x3f7b8426	0.9824852
12	0x3eda7564	0.42667687
13	0xbdf01793	-0.117232464
14	0x3f64d618	0.8938918
15	0x3e042cb6	0.12907681
16	0xbe1e8b9f	-0.15482949
17	0x3c7b5632	0.015340375
18	0x3e6fc714	0.23415786
19	0x3da0580c	0.078292936
20	0x3d38445b	0.044987064
21	0xbf2114a6	-0.6292213
22	0xbfb773a7	-1.4332169
23	0xbd12b34f	-0.035815533
24	0xbff3cbe0	-1.9046593
25	0xbfae138b	-1.3599714
26	0xbef5833b	-0.47951683
27	0xbf8783d5	-1.0587107
28	0xbf812945	-1.009072
29	0x3cb0bb4b	0.021573683
30	0xbf31e7fd	-0.6949461
31	0xbfc16b42	-1.5110857
32	0x3f1ccdfe	0.6125182
33	0x3ff2a6b6	1.8957126
34	0xbd478fda	-0.048721172
35	0x3e762cb2	0.24040487
36	0x3e8eda24	0.27900803
37	0x3ec23213	0.3792883
38	0xbf45d831	-0.77283007
39	0x3d61df46	0.05514457
40	0xbffca8a9	-1.9738971
41	0x3e8c956e	0.27457756
42	0x3ef18a87	0.47176
43	0x3d600807	0.054695155
44	0xc00a8854	-2.1645708
45	0x3e7c4279	0.24634732
46	0xbf1f651e	-0.6226367
47	0xbf5d44fa	-0.86433375
48	0xbd8d4b21	-0.06899095
49	0xbdafc8ce	-0.08583222
50	0xbfc047a8	-1.5021868
51	0xbfd24ffd	-1.643066
52	0xbef2cbc6	-0.47421092
53	0xbcfebe3f	-0.031096576
54	0xbf7273d1	-0.9470797
55	0xbcaa1d36	-0.020765882
56	0x3ef54285	0.47902313
57	0x3deb6370	0.114935756
58	0xbd23b061	-0.03996313
59	0x3c16476a	0.0091723
60	0x3fb36239	1.401435
61	0xbd6c3b13	-0.057673525
62	0xbfd40c27	-1.6566209
63	0x3ef2b705	0.47405258
64	0xc0233e0b	-2.5506618
65	0xbf8df0d8	-1.1089125
66	0xbe57fa91	-0.21091677
67	0xbeb82bdc	-0.35970962
68	0x3edc0786	0.4297449
69	0xbda80f87	-0.082060866
70	0xbeca9f89	-0.3957484
71	0xbee077bb	-0.43841347
72	0x3eb57c97	0.35446617
73	0xbfaaed76	-1.3353717
74	0xbfa6bccf	-1.302637
75	0x3f8e8e2c	1.1137137
76	0xbf63b88b	-0.88953465
77	0x3d364627	0.044500496
78	0xbdecccc2	-0.11562492
79	0x3cb0cbcf	0.021581559
80	0x3e860fe1	0.2618399
81	0xbf2c29cb	-0.6725127
82	0xbf1a208a	-0.602059
83	0xbedc3fe7	-0.43017504
84	0xbf0903d4	-0.53521466
85	0x3de07fe3	0.109618925
86	0x3e1eb91d	0.15500303
87	0xbec86622	-0.3914042
88	0xbe50e7cf	-0.20400928
89	0xbb9aae04	-0.0047204513
90	0x40367357	2.8507898
91	0xbe908200	-0.28224182
92	0xbddc076b	-0.10743602
93	0xbf4430a5	-0.76636726
94	0x3ee6af75	0.45055738
95	0x3f114813	0.567506
96	0xbf62dd03	-0.8861849
97	0xbec59f11	-0.3859792
98	0x3e64a53f	0.22328661
99	0x3d013f6e	0.031554632
100	0x3f068f05	0.5256198
101	0xc011125e	-2.266746
102	0xbfbed608	-1.4909067
103	0xbff264aa	-1.893697
104	0xbfbc4b7c	-1.4710536
105	0xbe2e4111	-0.17017008
106	0xbf05a105	-0.5219882
107	0xbf5640e1	-0.8369275
108	0xbeee0932	-0.4649139
109	0xbdfc6f0b	-0.12325867
110	0xc030391c	-2.7534857
111	0x3f6b4a19	0.9190994
112	0xbf6bf916	-0.9217695
113	0xbee1a397	-0.44070122
114	0x3e791c5e	0.24327227
115	0xbd18cecb	-0.03730659
116	0xbf4cc77a	-0.7999188
117	0x3e19fb1d	0.15037198
118	0x3d94de7a	0.072689965
119	0xbc837f8c	-0.01605203
120	0xbf5eac66	-0.8698181
121	0xbfefad76	-1.8724811
122	0x3ed66dce	0.4188065
123	0xbea2d5ce	-0.31803745
124	0xc0073ccf	-2.1130865
125	0xbeb08494	-0.3447615
126	0xbf2bac17	-0.67059463
127	0xbeedcf5a	-0.4644726
128	0xbe78bba2	-0.24290326
129	0xbd8b147b	-0.06791016
130	0xbfb05cff	-1.377838
131	0x3f900732	1.1252196
132	0x3f2f0cd0	0.68378925
133	0xc01113d9	-2.2668364
134	0x401e63de	2.4748454
135	0xbdbb9519	-0.091592975
136	0xbf98aa76	-1.192702
137	0xbf6c0d5b	-0.9220788
138	0xbf5dc1fa	-0.8662411
139	0x3a9f7a43	0.0012167174
140	0x3fa705c9	1.304864
141	0xbeecc48f	-0.46243712
142	0x3fa61a72	1.297682
143	0x3f5611dc	0.83621
144	0x3f46a132	0.77589715
145	0x3f121e4d	0.57077485
146	0xbf9362e6	-1.1514556
147	0x3e3b156f	0.18269895
148	0xbf7cab44	-0.9869883
149	0x3dd669c6	0.104693934
150	0x3fcf179c	1.617908
151	0xbf8dff12	-1.1093466
152	0x3f50f03f	0.81616586
153	0xbe9ac6d7	-0.30229828
154	0xbf8f7a91	-1.1209279
155	0x3e98a7f4	0.29815638
156	0x3e5a9fed	0.2135007
157	0xbd13091e	-0.035897367
158	0xbe84ad6c	-0.2591356
159	0x3beee911	0.0072909673
160	0x3ee9515b	0.45569882
161	0xbfbd8027	-1.4804734
162	0xbe98bc6e	-0.2983126
163	0x400f8764	2.2426386
164	0x3f40aa50	0.75259876
165	0xbe25187f	-0.16122626
166	0x3ca42a36	0.020039659
167	0xbd9b2345	-0.075750865
168	0xbf022024	-0.5083029
169	0xbcd9b159	-0.026573824
170	0xc029c6ab	-2.6527507
171	0x3fc34bf6	1.5257556
172	0x3e3ed889	0.18637289
173	0x3e12a07d	0.14319034
174	0x3f41bd93	0.7567989
175	0x3db13630	0.086529136
176	0x3dd35473	0.10318842
177	0xbdae4249	-0.08508737
178	0xbaa00f29	-0.0012211549
179	0x3c0d71cf	0.008633091
180	0x3e1648ce	0.1467621
181	0xbeb90b36	-0.36141366
182	0xbfe0374c	-1.7516875
183	0x3ed78a37	0.42097637
184	0xc0193ecb	-2.3944576
185	0xbfb5b557	-1.4195966
186	0x3d20a454	0.039219216
187	0x3e6bee57	0.23040138
188	0xbef8ff86	-0.4863245
189	0xbe0097cd	-0.12557907
190	0x3e290482	0.16505626
191	0x3f819958	1.0124922
192	0xbf8a986a	-1.0827763
193	0x3e3c1fce	0.18371508
194	0x404a5908	3.161684
195	0x3df75bd5	0.120780624
196	0xbd94050d	-0.07227526
197	0xbe686cd7	-0.22697769
198	0x3dedbdf7	0.116084985
199	0x3b6fd0fe	0.0036593075
200	0xbfc023dc	-1.5010943
201	0xbfa5e285	-1.2959753
202	0xbf00f003	-0.5036623
203	0xbfb5b600	-1.4196167
204	0xc014036b	-2.3127086
205	0xbf791119	-0.97291714
206	0xbfa5f01e	-1.2963903
207	0xbef6bb0d	-0.48189583
208	0xbf76a514	-0.9634564
209	0xbc7f3cc1	-0.01557845
210	0x3dd23b73	0.10265245
211	0xbf8869d8	-1.0657301
212	0x3ebe86cf	0.37212226
213	0x40026f82	2.038056
214	0xc05a8e4f	-3.4149358
215	0xbee5c9b8	-0.44880462
216	0xbeebc031	-0.46045068
217	0xbe1d90cd	-0.15387268
218	0x3dcb979f	0.09941029
219	0xbdbc4f7e	-0.091948494
220	0x4029ef1d	2.6552193
221	0x3d7729d4	0.060342625
222	0xbf2221cc	-0.6333282
223	0x3f43965c	0.76401305
224	0xbf30084a	-0.6876265
225	0xbecbaae4	-0.39778817
226	0xbeb611aa	-0.35560352
227	0xbe38460e	-0.17995474
228	0x3e428fc6	0.19000158
229	0xbcbbaadf	-0.022908626
230	0xbff717da	-1.9304154
231	0x3fcfce5c	1.6234851
232	0x3edfeb73	0.4373432
233	0x3fdaa048	1.7080164
234	0xbcc74455	-0.024324575
235	0x3b1b6e19	0.0023716746
236	0xbb8b506f	-0.004251532
237	0xbf4a4d6f	-0.79024404
238	0xbc8b7191	-0.017021926
239	0x3bf2f22a	0.007414122
240	0xc0826b7f	-4.075622
241	0x3f0b038d	0.54302293
242	0x3f797ea1	0.97458845
243	0xbfb3ea6d	-1.4055916
244	0x3e2b2907	0.1671487
245	0x3de77838	0.11302227
246	0xbf87015d	-1.0547291
247	0x3e6be34d	0.23035927
248	0x3c8ca91e	0.017170485
249	0x3c8b075f	0.016971288
250	0x3ef073dc	0.46963394
251	0xbf2665cb	-0.64999074
252	0xbfafcbe7	-1.3734101
253	0x3fca5f98	1.5810423
254	0xbff38552	-1.9025061
255	0x3e44b421	0.19209339

1.bias f4 [400]
0	0xbf577bba	-0.84173167
1	0xbfac76ae	-1.3473718
2	0xbe5e3c56	-0.21702704
3	0xbeebcee1	-0.46056274
4	0xbf252d91	-0.64522654
5	0x3e168799	0.14700164
6	0xbeaa03a7	-0.33205912
7	0xbf2c95af	-0.674159
8	0x3e543c31	0.20726086
9	0xbf6424f8	-0.8911891
10	0xbea7585c	-0.326846
11	0x3e4d8596	0.2007049
12	0xbdfbbdb0	-0.122920394
13	0xbdf15d60	-0.11785388
14	0xbecc58e5	-0.3991157
15	0xbedb0f29	-0.42785004
16	0xbf109746	-0.56480825
17	0xbc92120d	-0.017830873
18	0xbed5158c	-0.41618
19	0xbe36d6b0	-0.17855334
20	0xbd818727	-0.063246064
21	0xbe81a7b8	-0.25323272
22	0xbd8fddf6	-0.070247576
23	0xbdc69e67	-0.096981816
24	0xbe935a74	-0.28779948
25	0xbea8a993	-0.32941875
26	0xbf171fee	-0.59033096
27	0xbe9623bc	-0.29324138
28	0xbdebdfc8	-0.11517292
29	0xbf0e7491	-0.55646616
30	0xbf174b71	-0.5909949
31	0xbf4a1ab9	-0.78947026
32	0x3cffbbac	0.031217419
33	0xbee6b7c8	-0.4506209
34	0xbe31282e	-0.17300484
35	0xbeab268d	-0.3342785
36	0x3da045fa	0.07825847
37	0xbf19aff0	-0.60034084
38	0xbf199666	-0.59995115
39	0xbe134f56	-0.14385733
40	0xbf07015d	-0.52736455
41	0x3e947750	0.28997278
42	0xbf14b972	-0.5809547
43	0x3e4783aa	0.1948382
44	0xbf538032	-0.82617486
45	0xbd452493	-0.048130583
46	0xbf395071	-0.7238837
47	0xbe759da2	-0.23985913
48	0xbe34072f	-0.17580865
49	0xbea1979f	-0.3156099
50	0xbd730c65	-0.059337992
51	0xbd61d026	-0.055130146
52	0xbef9ba04	-0.4877473
53	0xbecfc2bb	-0.40578255
54	0xbd449d46	-0.04800155
55	0x3e9052e8	0.28188252
56	0xbc513192	-0.012768166
57	0xbec4aebb	-0.3841456
58	0xbf0386bd	-0.5137747
59	0xbe11553d	-0.14192672
60	0xbed195ce	-0.40934604
61	0xbf408ef9	-0.7521816
62	0x3efec3ee	0.49758857
63	0xbed9f49f	-0.42569444
64	0xbd995211	-0.07486356
65	0xbe890758	-0.26763415
66	0x3d62b201	0.05534554
67	0xbe98834b	-0.2978767
68	0xbd91a3fa	-0.07111354
69	0xbec20d35	-0.379007
70	0xbf02ed47	-0.51143306
71	0xbe2d79b1	-0.16940953
72	0xbf15d31e	-0.58525264
73	0xbeff9fb5	-0.49926534
74	0xbe4286c2	-0.18996719
75	0xbea833cf	-0.32852027
76	0xbf65b9d3	-0.8973667
77	0xbf768cdc	-0.96308684
78	0xbf1d11ab	-0.61355084
79	0xbeb4486d	-0.35211506
80	0xbf166e6e	-0.5876225
81	0x3e12da93	0.14341192
82	0xbf21e8df	-0.6324596
83	0xbf09f25e	-0.5388545
84	0x3e2b8a74	0.16752034
85	0x3dd15f7c	0.1022329
86	0x3ca76628	0.020434454
87	0xbef2553b	-0.4733065
88	0xbe56039a	-0.20899811
89	0xbf0f65eb	-0.5601489
90	0x3b2cb6a2	0.0026353975
91	0xbec75eb9	-0.38939455
92	0x3e05ca40	0.13065434
93	0xbe916dab	-0.28403983
94	0x3e450c9a	0.19243088
95	0xbd87bd19	-0.066278644
96	0xbe3d8c59	-0.1851057
97	0xbe8c61e5	-0.27418438
98	0x3e937ead	0.28807583
99	0xbefb6068	-0.4909699
100	0xbe88a146	-0.26685542
101	0x3b0769c5	0.0020662409
102	0xbf2ddaaf	-0.6791181
103	0xbf58c50a	-0.8467566
104	0x3e328acb	0.17435758
105	0xbed257f5	-0.4108273
106	0xbf365df8	-0.71237135
107	0xbf2bd974	-0.6712868
108	0x3e7574f1	0.23970391
109	0xbcb05535	-0.021525005
110	0xbdaa8325	-0.08325795
111	0xbee7c714	-0.45269072
112	0xbe0e11ee	-0.13874027
113	0xbdfba066	-0.12286453
114	0xbce4f8f0	-0.027950734
115	0xbd640a8c	-0.05567412
116	0xbe632a29	-0.22184052
117	0xbeb583a0	-0.35451984
118	0xbe800610	-0.25004625
119	0xbf00a15e	-0.50246227
120	0x3dac142a	0.084022835
121	0xbde28399	-0.110602565
122	0xbed9f385	-0.42568603
123	0xbeb0ea5d	-0.34553805
124	0xbf3f63c0	-0.7476158
125	0xbed8dd02	-0.42356116
126	0xbe2a76b7	-0.16646849
127	0xbe980e4e	-0.29698414
128	0xbecb4a63	-0.3970519
129	0xbf560fec	-0.83618045
130	0xbdd1b881	-0.102402695
131	0xbf38ac38	-0.72137785
132	0xbeb2b375	-0.3490254
133	0xbf160b7e	-0.58611286
134	0xbcd2555d	-0.02567547
135	0xbf2abaa0	-0.6669102
136	0x3e8b732a	0.272363
137	0xbf0f9388	-0.5608449
138	0xbe95fbe2	-0.29293734
139	0x3de3cd00	0.11123085
140	0xbd608691	-0.054815833
141	0xbe6a04e3	-0.22853427
142	0xbea794f7	-0.3273084
143	0xbe731cba	-0.23741427
144	0xbf4895a9	-0.78353363
145	0xbe82f109	-0.2557452
146	0xbeb43f27	-0.3520443
147	0xbe594591	-0.21217944
148	0xbdc4fc8a	-0.096184805
149	0x3e9c5b99	0.30538633
150	0xbe040ff3	-0.12896709
151	0xbda94ede	-0.08266996
152	0xbf004a16	-0.50113046
153	0xbeb2d34e	-0.34926838
154	0x3e662850	0.22476315
155	0xbeed2713	-0.46318874
156	0xbdb831f8	-0.08993906
157	0xbda87c15	-0.08226792
158	0xbf6a7398	-0.9158263
159	0xbed3a974	-0.4134022
160	0xbd10b566	-0.035329245
161	0x3e0b76ea	0.13619581
162	0xbe9860e2	-0.29761416
163	0xbebce8be	-0.36896318
164	0xbecc9c9a	-0.39963228
165	0xbf46cb11	-0.77653605
166	0xbc184141	-0.0092929015
167	0xbead601e	-0.33862394
168	0xbefb8c18	-0.4913032
169	0xbe1ae58e	-0.1512663
170	0xbe63f9af	-0.22263215
171	0x3d85531a	0.06509991
172	0x3cc6f2eb	0.024285754
173	0xbf1d0f76	-0.61351717
174	0xbf0cfb0d	-0.55070573
175	0xbed1b552	-0.4095865
176	0xbe48295d	-0.19547029
177	0xbe809442	-0.25113112
178	0xbe926eb2	-0.2860008
179	0x3eafb2ed	0.34316197
180	0xbe8e28a6	-0.27765387
181	0xbe91fa5c	-0.28511322
182	0xbebde665	-0.3708984
183	0x3e54f445	0.20796306
184	0xbf1c65e9	-0.61093
185	0xbe6ee095	-0.23327859
186	0x3ea1563f	0.31511113
187	0xbd86411a	-0.06555386
188	0xbddf0524	-0.10889652
189	0xbe9f0ac0	-0.3106289
190	0xbe6bd241	-0.23029424
191	0x3e963cb1	0.2934318
192	0xbbf6acef	-0.0075279395
193	0xbf59eb2a	-0.85124457
194	0xbebb1e97	-0.36546776
195	0xbf04c40e	-0.51861656
196	0xbf008331	-0.5020018
197	0xbdb4fceb	-0.08837303
198	0xbedff47a	-0.43741208
199	0x3e2fdb89	0.1717359
200	0xbf71d465	-0.94464713
201	0xbf13ed0b	-0.57783574
202	0xbe8f9fd6	-0.28051633
203	0x3d1d6a80	0.038431644
204	0xbf53bdea	-0.8271166
205	0xbf0e29b5	-0.5553239
206	0x3e4fbd85	0.2028714
207	0xbee6d791	-0.4508634
208	0xbe842d7f	-0.2581596
209	0xbf964b6e	-1.1741769
210	0xbd62189b	-0.055199247
211	0xbf71e468	-0.94489145
212	0xbdf4979a	-0.11942978
213	0xbf807988	-1.0037088
214	0xbca29a2a	-0.019848902
215	0xbf034a65	-0.5128539
216	0x3d36dfeb	0.04464714
217	0xbee1075f	-0.43950936
218	0xbf0825f5	-0.5318292
219	0x3e9789fc	0.2959746
220	0x3dce0d93	0.10061183
221	0xbf825acf	-1.0183963
222	0xbf4316ca	-0.7620665
223	0xbe276f7f	-0.16351126
224	0xbe75b8d8	-0.23996294
225	0xbf747744	-0.95494485
226	0xbf2063cf	-0.62652296
227	0xbf2bfae1	-0.67179686
228	0xbe4c6889	-0.19961752
229	0xbdd6765b	-0.10471793
230	0x3eaa4725	0.33257404
231	0xbf23fe97	-0.6406035
232	0x3e15dfa6	0.14636096
233	0x3c99cc09	0.01877405
234	0xbe48a354	-0.19593555
235	0xbe9d055b	-0.30668148
236	0x3dca7d8b	0.09887227
237	0x3e1269e3	0.14298205
238	0x3d510f0c	0.05103974
239	0xbf2016d2	-0.6253482
240	0xbe863728	-0.26213956
241	0xbe55bc65	-0.20872648
242	0xbeca0112	-0.39453942
243	0xbf3bb338	-0.7332034
244	0xbe835048	-0.25647187
245	0xbee0fa1c	-0.43940818
246	0xbe5630b5	-0.20917018
247	0x3e73a48a	0.23793235
248	0x3da48f47	0.080351405
249	0xbf216440	-0.63043594
250	0xbe4db46a	-0.20088354
251	0xbf1115d6	-0.56673944
252	0xbd3d4a3b	-0.04621337
253	0xbf0e1c92	-0.55512345
254	0xbe321147	-0.17389403
255	0xbe86da38	-0.26338363

3.weight f4 [300, 400]
0	0xbf5af659	-0.85532147
1	0x3f4ba928	0.79554987
2	0x3e57563a	0.21028987
3	0xbe9f638e	-0.31130642
4	0xbe6cd943	-0.23129754
5	0xbfd36c61	-1.651745
6	0x3ca419dd	0.020031864
7	0xbf96adde	-1.177181
8	0x3d4f6260	0.050630927
9	0x3c92681e	0.017871913
10	0x3fcb9029	1.5903369
11	0xc00cb319	-2.1984313
12	0x3e48aea8	0.19597876
13	0xbfb9bc50	-1.4510593
14	0xbfca9880	-1.5827789
15	0x3f41438b	0.7549369
16	0x3f35aaaf	0.7096357
17	0xbf974625	-1.1818281
18	0xbf081204	-0.5315249
19	0xbf7e480d	-0.9932869
20	0xbf68158b	-0.9065787
21	0x3f2fd6f7	0.68687385
22	0xbf184074	-0.5947335
23	0xbf0674e8	-0.52522135
24	0xbffcab9b	-1.973987
25	0xbdd51419	-0.10404224
26	0xc018b0b6	-2.3857856
27	0xbb478c09	-0.0030448458
28	0x3d88500c	0.06655893
29	0xbfa3e63f	-1.280464
30	0xbed3e04a	-0.41382056
31	0xbf68d392	-0.9094783
32	0xbdc3be24	-0.09557751
33	0xbfac1e27	-1.3446702
34	0xbeb4498f	-0.3521237
35	0xbfd171d4	-1.6362863
36	0xbf8266d6	-1.0187633
37	0xbe8598ee	-0.2609324
38	0x3f928376	1.1446369
39	0xc0150eb9	-2.3290236
40	0xbf39574f	-0.7239885
41	0x3e83f8eb	0.25775847
42	0x3e22213c	0.1583299
43	0x3b1b2c72	0.0023677615
44	0xbe3c5b2f	-0.18394159
45	0x3f6ff677	0.9373545
46	0xbc86bb0d	-0.016446615
47	0xbb8b40c2	-0.004249663
48	0xbe867279	-0.2625921
49	0xbd22c39e	-0.039737336
50	0xbdc3d5d8	-0.09562272
51	0x3da73569	0.08164484
52	0x3fe4f74a	1.7887967
53	0xbd5bdd9a	-0.053678133
54	0x3e1a960b	0.150963
55	0x3ec60bcd	0.38680878
56	0x3bd30aac	0.006440481
57	0x40026b24	2.0377893
58	0xbf89beed	-1.0761391
59	0x3f021cd4	0.5082524
60	0xbe00dc5a	-0.12584057
61	0x3f565d01	0.8373566
62	0x3ea1d87c	0.31610477
63	0xbe6a8e8b	-0.22905938
64	0x3e8023c5	0.2502729
65	0xbece3874	-0.40277445
66	0xbf82b74e	-1.021219
67	0x3dfebbbf	0.124381535
68	0x3f4adf8c	0.79247355
69	0xbe46ed71	-0.19426514
70	0x3e32f351	0.1747563
71	0xbe93acbf	-0.28842732
72	0x3ed18849	0.4092429
73	0xbebb45cd	-0.3657669
74	0x3e0a992e	0.13534996
75	0xbbcb2cf0	-0.0062004253
76	0xbf7832bc	-0.96952415
77	0xbda4abe6	-0.080405995
78	0xbfdb9cd6	-1.7157238
79	0x3f8bb60c	1.0914931
80	0xbd5fe25b	-0.05465923
81	0x3e82873d	0.25493804
82	0x3e827ead	0.2548727
83	0x3e00e5c8	0.12587655
84	0xc01c1791	-2.4389384
85	0xbf948f86	-1.16063
86	0x3f327a9c	0.6971834
87	0xbfe44cfb	-1.7835993
88	0x3c9c0097	0.01904325
89	0x3f4b7cd2	0.79487336
90	0xbffadf35	-1.9599367
91	0x3db55330	0.088537574
92	0x3f089872	0.53357613
93	0xbf3ac28d	-0.7295311
94	0x3f586a7b	0.84537476
95	0x3e9ca180	0.30591965
96	0xbe4a9ad9	-0.19785632
97	0x3dbd4657	0.09241932
98	0x3f74eec3	0.9567682
99	0xbb9d55ca	-0.0048014866
100	0x3eecb1c7	0.46229383
101	0x3e2ae449	0.16688646
102	0xbf537aba	-0.8260914
103	0x3e6cad83	0.23113064
104	0xc01d39e9	-2.4566596
105	0xbe0f3b9c	-0.13987583
106	0xbf9f1956	-1.2429607
107	0x3ebd721b	0.37001118
108	0xbf9d2368	-1.227643
109	0x3e12ad46	0.14323911
110	0xbf7b0f2e	-0.9807004
111	0xbef32434	-0.47488558
112	0xbfd7e081	-1.6865388
113	0xbf96f4f4	-1.1793504
114	0x3ecd302d	0.40075818
115	0xc058e287	-3.3888261
116	0xc043a777	-3.0570962
117	0xbd37792f	-0.044793304
118	0x3c543afa	0.012953514
119	0xbf45fc2f	-0.77337927
120	0x3f0330d2	0.5124637
121	0x3e0dcbab	0.13847224
122	0x3f043202	0.51638806
123	0xc0057280	-2.0851135
124	0xc00b2a34	-2.1744509
125	0xbcfc1517	-0.030771775
126	0x3ee28e29	0.44249085
127	0x3fa21b0e	1.2664506
128	0xbe78f15c	-0.24310821
129	0xbf95142a	-1.1646779
130	0x3e186176	0.14880928
131	0x3f1e7f6e	0.6191319
132	0x3ea31a2c	0.31855905
133	0x3ef32a48	0.47493196
134	0xbec35fd2	-0.38159043
135	0x3f2b9ecf	0.670392
136	0xbe8c858a	-0.27445632
137	0xbefbe1b4	-0.49195635
138	0x3f0a63c4	0.5405848
139	0xbfcf18d9	-1.6179458
140	0x3f0f66d7	0.56016296
141	0xbf2de7f6	-0.6793207
142	0xbeefb5a9	-0.46818283
143	0xbd4d2787	-0.050086524
144	0x3f187eb6	0.59568346
145	0xbedb693c	-0.42853725
146	0xbd18faed	-0.037348676
147	0xbd11db28	-0.035609394
148	0xbf2d738f	-0.67754453
149	0xbdcca482	-0.09992315
150	0x3fcbfd85	1.5936743
151	0xbfaffe56	-1.3749492
152	0xbf8adcdd	-1.0848652
153	0xbf0b34fe	-0.54377735
154	0x3e012cb2	0.12614706
155	0x3e866757	0.26250717
156	0x3e69ccde	0.22832057
157	0x3e7ccbe6	0.24687156
158	0x3ea9eccf	0.33188483
159	0x3bfa9d7c	0.007648168
160	0xbf349ba8	-0.7055001
161	0x4014366d	2.315822
162	0xbe32429c	-0.17408222
163	0xbf9dea16	-1.2337062
164	0xbf73bccc	-0.95209956
165	0xbfbf2d0f	-1.4935626
166	0x3e801af7	0.25020573
167	0xbfb4001f	-1.4062537
168	0xbfa74a3c	-1.306953
169	0xbd1ab905	-0.037774105
170	0xc082a70d	-4.082892
171	0xbe4df690	-0.20113587
172	0xbf420b74	-0.75798726
173	0x3f1398cd	0.5765503
174	0x3f936606	1.151551
175	0xbf80410b	-1.001985
176	0xbda4121a	-0.08011265
177	0xbc65ef2d	-0.014034075
178	0xbf81219e	-1.0088384
179	0xbfccd675	-1.6002947
180	0xbfb8340e	-1.4390886
181	0xc004f182	-2.0772405
182	0x3db63818	0.08897418
183	0xbf871528	-1.0553331
184	0xbdeb3564	-0.11484793
185	0x3ec6197f	0.38691327
186	0x3f412839	0.75452
187	0xbf218f85	-0.6310962
188	0x3f42a5d6	0.76034296
189	0xbfd5a0ee	-1.6689737
190	0x3f08592b	0.5326106
191	0x3eecb787	0.4623377
192	0xbedbcab4	-0.42928088
193	0xbfa73a96	-1.3064754
194	0xbf75e4e4	-0.96052384
195	0x3ee5055a	0.44730645
196	0x3e215217	0.15753971
197	0xbfe71d84	-1.8055882
198	0x401baa6d	2.432277
199	0xbf122804	-0.5709231
200	0x3f09a4d4	0.5376713
201	0xbe89d0ab	-0.26917014
202	0xbee6a9ab	-0.4505132
203	0xbf9d343f	-1.2281569
204	0x3ecafe11	0.39646962
205	0xbfa8d7df	-1.3190879
206	0xbf9b8ec5	-1.2152945
207	0xc080756e	-4.0143347
208	0xc011baae	-2.277019
209	0x3eaf05e7	0.3418419
210	0xc04afe1a	-3.1717591
211	0xbe249ee1	-0.16076232
212	0x3c30021f	0.010742693
213	0x3f800beb	1.0003637
214	0xbfa6b4eb	-1.3023962
215	0x3eb0fb78	0.34566855
216	0xc04b087b	-3.1723926
217	0xbe216bdb	-0.157638
218	0xbe289570	-0.16463256
219	0x3e8c237e	0.27370828
220	0xc0062615	-2.0960743
221	0x3fa01e47	1.250924
222	0x3ef5ae34	0.4798447
223	0xc09176b8	-4.545742
224	0xbfc6feca	-1.5546505
225	0x3eabfc8e	0.3359112
226	0xbe3e34a0	-0.18574762
227	0x3eecd9a0	0.46259785
228	0xbfa1b9ff	-1.2634887
229	0xbdb16a90	-0.08662903
230	0x3f4ea52f	0.807208
231	0x3e67684b	0.22598378
232	0xbf275ef3	-0.65379256
233	0xbe98554d	-0.2975258
234	0x3ef755a3	0.48307523
235	0xbc2e1bcd	-0.010626745
236	0x3ee18fd2	0.4405504
237	0x3fa4fe01	1.2890016
238	0x3f03a292	0.5141994
239	0xbd60875b	-0.054816585
240	0x3e83b291	0.25722173
241	0xbff0b9c3	-1.880669
242	0x3fb86840	1.4406815
243	0x3ce41583	0.027842289
244	0x3ea8b39b	0.32949528
245	0xbebedcce	-0.37277836
246	0xbfcda268	-1.6065187
247	0xbf12f6f7	-0.5740809
248	0xba6f5c56	-0.00091308856
249	0xc0610c40	-3.5163727
250	0x3fa556fe	1.2917173
251	0xbe05585d	-0.13021989
252	0xbe0b604d	-0.13610955
253	0xbec6e349	-0.3884528
254	0xbef22263	-0.4729186
255	0xbfb827f6	-1.4387195

3.bias f4 [300]
0	0x3eebb9b0	0.46040106
1	0xbd1735ce	-0.036916547
2	0x3c08f7b4	0.008359838
3	0xbd13171e	-0.03591072
4	0xbe490b14	-0.19633132
5	0x3e20785b	0.15670912
6	0xbca398e7	-0.01997037
7	0xbda588ff	-0.080827706
8	0xbc9e5156	-0.019325893
9	0xbd8e801d	-0.069580294
10	0xbe0fd96d	-0.14047785
11	0xbcb15f78	-0.021651968
12	0xbd6cc5bb	-0.057805758
13	0xbd431ce1	-0.047634963
14	0xbe0cab64	-0.13737255
15	0xbe69478a	-0.22781196
16	0xbd3dd168	-0.046342283
17	0xbd765a14	-0.0601445
18	0xbda4520f	-0.08023464
19	0xbd7936e4	-0.060843363
20	0xbc68ee23	-0.0142169325
21	0xbdd3779a	-0.103255466
22	0xbd62d5fb	-0.05537985
23	0xbdb9eaf8	-0.0907802
24	0xbe90572c	-0.28191507
25	0x3f69fa03	0.9139711
26	0x3f627afa	0.884689
27	0xba5f2d42	-0.0008513519
28	0xbf6a56e3	-0.9153883
29	0xbda18b1f	-0.07887863
30	0xbe88507d	-0.26623908
31	0xbe0ac955	-0.13553365
32	0xbd868c2d	-0.06569705
33	0xbd882a3d	-0.06648681
34	0x3eb398df	0.3507757
35	0xbdd48842	-0.103775516
36	0xbd8703b5	-0.06592504
37	0xbac919b1	-0.001534274
38	0xbd4e2c21	-0.050335053
39	0xbe7a2dc4	-0.2443152
40	0x3cdd0740	0.026980996
41	0x3f2adb41	0.66740805
42	0xbda3aba7	-0.079917245
43	0xbd0957cd	-0.033531
44	0xbe0e1e75	-0.13878806
45	0xbaebbc1b	-0.0017985137
46	0xbc9eb0a6	-0.019371342
47	0xbdc2adf1	-0.09505833
48	0xbd8a1fcd	-0.06744347
49	0xbd371aa8	-0.044703156
50	0xbea9f1a0	-0.33192158
51	0xbc88fad5	-0.016721169
52	0xbd7fa68c	-0.06241469
53	0xbe5b99bd	-0.21445365
54	0xbea2ba9b	-0.31782994
55	0xbe972926	-0.2952358
56	0xbd32ab80	-0.043620586
57	0xbcb359b8	-0.021893367
58	0xbdee015b	-0.11621352
59	0x3f6cf561	0.9256192
60	0xbd055c45	-0.0325587
61	0x3d8ad50c	0.06778917
62	0x3f9092e3	1.1294826
63	0xbace4d21	-0.0015739539
64	0xbd22275f	-0.03958833
65	0xbcd6deb2	-0.026229236
66	0xbd0783d5	-0.03308471
67	0xbd338190	-0.043824732
68	0x3a767183	0.000940107
69	0xbc9bccce	-0.019018557
70	0xbd975f36	-0.07391207
71	0xbda1672f	-0.07881009
72	0x3e8f59bf	0.27998158
73	0xbc0bbd15	-0.008528967
74	0x3f3edf55	0.7455953
75	0xbd475171	-0.048661653
76	0xbd8277a5	-0.06370477
77	0xbc7bee34	-0.015376616
78	0x3f24302c	0.64136004
79	0xbd8e9535	-0.06962053
80	0xbd8f6cd5	-0.0700318
81	0xbcddfc92	-0.027097974
82	0xbd02835d	-0.03186356
83	0xbd48a611	-0.0489865
84	0x3e8e10e0	0.2774725
85	0xbe3c0ece	-0.18365023
86	0xbbd0c432	-0.0063710446
87	0xbd5904b2	-0.052982993
88	0xbe840329	-0.2578366
89	0xbd88bde5	-0.066768445
90	0xbed3a741	-0.41338542
91	0x3e1b925d	0.15192552
92	0xbd829f7d	-0.06378076
93	0xbb94d216	-0.0045416458
94	0x3a60b18a	0.0008571377
95	0xbb33fdc8	-0.0027464498
96	0xbe76a788	-0.24087346
97	0xbdf9a999	-0.12190551
98	0xbda1546f	-0.078774326
99	0x3c397117	0.011318467
100	0xbcb81f98	-0.022476003
101	0x3b0bf874	0.0021357806
102	0xbca09697	-0.019603057
103	0x3c1dd02b	0.009632151
104	0xbd62243f	-0.05521035
105	0x3e67c55d	0.22633882
106	0xbe3f9598	-0.18709409
107	0xbea4c3f9	-0.32180765
108	0xbdf7675c	-0.12080261
109	0xbceae47b	-0.028673401
110	0xbbb1b630	-0.00542333
111	0xbd5497e2	-0.05190266
112	0xbc1dd83e	-0.009634076
113	0xbd17a586	-0.03702309
114	0x3e4a368e	0.19747373
115	0xbd7f1199	-0.06227264
116	0xbd1bfc76	-0.038082562
117	0x3e0516ae	0.12996933
118	0xbd5c8d62	-0.05384577
119	0xbd5a1ad2	-0.053248234
120	0xbcb38258	-0.021912739
121	0x3f173172	0.5905982
122	0xbd2e4427	-0.042545464
123	0xbe0ec1bd	-0.13941093
124	0xbe34e7fc	-0.1766662
125	0x3d839404	0.06424716
126	0xbd99da5e	-0.07512353
127	0xbd007ec3	-0.03137089
128	0x3e848f17	0.2589042
129	0x3f127818	0.572145
130	0xbd479e01	-0.04873467
131	0xbcfe983c	-0.03107845
132	0xbd4c99c9	-0.04995135
133	0xbd032515	-0.032017786
134	0xbd8ec0f5	-0.069703974
135	0xbdc174a9	-0.09446079
136	0xbd64f10b	-0.05589394
137	0xbec8ccb9	-0.3921869
138	0xbc139356	-0.009007296
139	0xbd50df8a	-0.050994433
140	0xbd082fb5	-0.033248622
141	0xbdc0a621	-0.094066866
142	0x3e6ecefc	0.23321146
143	0xbbd33dca	-0.006446575
144	0xbd1bbf93	-0.038024496
145	0xbcca5a01	-0.02470112
146	0xbca81eb7	-0.020522458
147	0xbd287269	-0.041124735
148	0xbe01e82c	-0.12686223
149	0xbcb21c88	-0.02174212
150	0xbd80ed1d	-0.06295226
151	0x3e17638a	0.14784065
152	0xbc24a34f	-0.010048701
153	0xbe947f09	-0.2900317
154	0xbd7d7d6c	-0.06188719
155	0xbc50948a	-0.012730727
156	0xbc8cf4cd	-0.017206574
157	0x3edd2d0a	0.43198425
158	0xbd961bc6	-0.07329516
159	0xbd24a98f	-0.040200766
160	0xbe039df5	-0.12853225
161	0x3da80717	0.08204477
162	0xbc728a4c	-0.01480348
163	0x3b393297	0.0028258914
164	0xbeae1096	-0.3399703
165	0x3ac07850	0.0014684293
166	0x3e25aa40	0.16178226
167	0x3fab6208	1.3389292
168	0x3e8f2113	0.2795492
169	0xbd12a9be	-0.03580641
170	0xbcfc32f4	-0.030786015
171	0xbd9a83e6	-0.07544689
172	0xbb1a6186	-0.0023556664
173	0xbd8e5075	-0.0694894
174	0x3e9b4446	0.30325526
175	0x3ef06b84	0.46957028
176	0xbc91d606	-0.01780225
177	0xbd361b30	-0.04445952
178	0xbda994ef	-0.0828036
179	0x3b7b83f3	0.0038378208
180	0xbd36d458	-0.0446361
181	0xbe0165af	-0.12636445
182	0x3d8537be	0.065047726
183	0xbdafc9ff	-0.085834496
184	0xbf0d7cc5	-0.5526851
185	0xbc97e596	-0.018542092
186	0xbe04937d	-0.12946887
187	0xbd93162d	-0.07181964
188	0xbce7b5a3	-0.028284853
189	0x3b3a384f	0.002841491
190	0xbe3c65b7	-0.18398176
191	0xbd0ead6d	-0.03483336
192	0xbd9952f2	-0.07486524
193	0xbd2e115f	-0.042497035
194	0xbd24478e	-0.040107302
195	0x3f860e72	1.0473158
196	0xbd6325ab	-0.055455845
197	0xbc8cf65d	-0.017207319
198	0x3d01b439	0.031666014
199	0xbc22ab67	-0.009928561
200	0x3d5de65d	0.05417477
201	0xbdb1f258	-0.086888015
202	0xbdfc5579	-0.1232099
203	0xbd28d00f	-0.041214045
204	0x3edd78d7	0.43256256
205	0x3e918349	0.28420475
206	0x3eb7b53c	0.35880458
207	0xbd36d5e8	-0.04463759
208	0x3c279536	0.010228446
209	0x3ea56dfd	0.32310477
210	0x3c34178f	0.010991945
211	0xbd4e9021	-0.05043042
212	0xbeb0bfb5	-0.3452126
213	0x3b0029fe	0.001955628
214	0x3c37b53d	0.011212644
215	0xbd44c1f9	-0.04803655
216	0xbd2d5837	-0.042320456
217	0xbe53aa2d	-0.20670386
218	0xbc12c386	-0.008957749
219	0xbe37fb67	-0.17966996
220	0xbe6c6ca7	-0.23088323
221	0xbc67878b	-0.014131437
222	0xbe83c7f6	-0.25738496
223	0x3f0fa113	0.56105155
224	0xbf4a05a1	-0.7891484
225	0xbe724978	-0.23660839
226	0x3edae801	0.4275513
227	0xbe5c85e4	-0.2153545
228	0xbd30a010	-0.043121397
229	0xbe9ae9c0	-0.30256462
230	0xbcb92e9b	-0.022605231
231	0xbd41e141	-0.04733396
232	0xbd1bc756	-0.0380319
233	0xbd90101e	-0.07034324
234	0xbda15ce8	-0.078790486
235	0xbd0d10ed	-0.03443997
236	0xbc5d69b2	-0.013513969
237	0xbd8440ad	-0.064576484
238	0xbb108ae1	-0.0022055435
239	0xbe5f12a2	-0.21784452
240	0xbd95d4ae	-0.07315956
241	0xbc8297ad	-0.015941465
242	0xbd0c5d3d	-0.034268606
243	0xbce1077b	-0.027469387
244	0xbdb1e448	-0.08686119
245	0xbd0d82fd	-0.03454875
246	0x3fdb4bd6	1.7132518
247	0xbd05dad5	-0.032679398
248	0xbdd5d062	-0.104401365
249	0xbd0969c5	-0.033548135
250	0xbe85a7bd	-0.26104537
251	0x3e0823ef	0.13294958
252	0xbc935a4e	-0.017987397
253	0xbd2346df	-0.03986251
254	0x3d0663e2	0.0328101
255	0xbd9801b6	-0.07422201

5.weight f4 [1, 300]
0	0x3ff608a2	1.9221385
1	0xbc6d98ab	-0.014501731
2	0x3c3c60a7	0.011497653
3	0x3c9d6d35	0.019217113
4	0xc0057103	-2.0850227
5	0x3f9740ff	1.181671
6	0xbcce85f9	-0.025210368
7	0x3c85bacd	0.016324425
8	0xbbfdf043	-0.0077495887
9	0x3c71eed3	0.014766413
10	0x3cfc8434	0.030824758
11	0x3c00015e	0.007812826
12	0x3c42a941	0.011881174
13	0x3d360de8	0.044446856
14	0xbfff4329	-1.9942371
15	0xc01d492c	-2.457591
16	0x3acee610	0.0015785117
17	0xbc336bb0	-0.010950968
18	0x3c80b02c	0.015709005
19	0x3bc753c8	0.0060829856
20	0x3c532339	0.012886816
21	0xbccb8089	-0.024841564
22	0xbc1f37cd	-0.009717894
23	0xbcb5690f	-0.022144822
24	0x3fe4d3c9	1.7877132
25	0x3f941312	1.156832
26	0x4036e1fe	2.8575435
27	0xbc735ae4	-0.014853213
28	0xbf9c6f36	-1.2221439
29	0x38c1fc98	9.2500064e-05
30	0xc095453d	-4.664702
31	0xbcf0932c	-0.029367052
32	0xbc06638d	-0.008202446
33	0xbcd4d342	-0.025979642
34	0x3fda448d	1.705217
35	0x3cab7ba7	0.020932985
36	0xbc82308c	-0.01589229
37	0x3c06971d	0.008214739
38	0x3b6c99fa	0.003610252
39	0x401a417d	2.410247
40	0xc02d5df4	-2.7088594
41	0x3ff055ac	1.8776145
42	0xbcc48ff9	-0.023994433
43	0xbc049c15	-0.0080938535
44	0xbca6c49e	-0.020357426
45	0x3b834c25	0.00400688
46	0xbba7a7f6	-0.005116458
47	0xbc65eb0b	-0.014033089
48	0x3ca50cc7	0.020147694
49	0xbcb03827	-0.02151115
50	0xbe6efc45	-0.2333842
51	0x3c90822d	0.017640198
52	0xbcac1fb7	-0.021011217
53	0xbf1a6e75	-0.60324794
54	0x3f6caf25	0.9245475
55	0xbf946cb9	-1.159568
56	0xbcb1faef	-0.0217261
57	0x3d065af4	0.032801583
58	0x3c8221b5	0.015885213
59	0x3faf0039	1.3671943
60	0x3b348e4f	0.0027550643
61	0x3e919f55	0.28441873
62	0x3f6103ca	0.87896407
63	0x3edca948	0.430979
64	0x3bdf6fa9	0.006818731
65	0x3cfdb804	0.030971535
66	0x3bd24941	0.006417424
67	0xbc9c082e	-0.01904687
68	0x3cb14cb7	0.021643026
69	0x39e0d89a	0.0004288599
70	0x3c863c7c	0.016386263
71	0x3cb04890	0.021518975
72	0x3ea7f65d	0.32805148
73	0xbcd315f1	-0.025767298
74	0x4003dc2e	2.0603137
75	0x3aa139de	0.0012300571
76	0x3b798a7b	0.0038076926
77	0x3b920356	0.004455964
78	0x40214372	2.5197415
79	0x3ce2256a	0.027605731
80	0x3c414820	0.011796981
81	0xbc0cdfb5	-0.008598258
82	0xbc9a4245	-0.018830428
83	0xbb786fac	-0.0037908358
84	0x3f3285d1	0.6973544
85	0x3ff088eb	1.8791784
86	0x3b712b84	0.003679962
87	0xbac7d001	-0.0015244485
88	0xbeb46580	-0.35233688
89	0xbc56c8d2	-0.013109403
90	0xc007431a	-2.1134706
91	0xc023144c	-2.5481138
92	0xbd10c495	-0.035343725
93	0xbd45b1d0	-0.04826528
94	0xbcc203a1	-0.023683371
95	0xbc453728	-0.012037076
96	0xc03ef648	-2.9837818
97	0x3f61e76c	0.88243747
98	0x3b24c5ae	0.002514224
99	0x3c9cce9d	0.01914149
100	0xbbcb6aa9	-0.0062077832
101	0xbcb206a8	-0.02173169
102	0x3c60edb2	0.013728546
103	0xc0453b31	-3.0817378
104	0xbfc7585f	-1.5573844
105	0x3f7b3122	0.98121846
106	0xc073c86b	-3.8091075
107	0x3f484455	0.78229266
108	0x3eb1fbfa	0.34762555
109	0xbba290d7	-0.004961114
110	0x3c6c28b2	0.014413999
111	0xbadaf65a	-0.0016705499
112	0xbc243cf7	-0.010024301
113	0xbca970ff	-0.020683764
114	0x3fbba04c	1.4658294
115	0xbff4f5cd	-1.9137512
116	0x3d2d6327	0.042330887
117	0xc018ba2e	-2.3863635
118	0xbccbb289	-0.024865406
119	0x3ca104bf	0.019655583
120	0x3d29c176	0.041444264
121	0x4015accc	2.3386717
122	0x3b5c59d1	0.003362287
123	0xbc56a4e2	-0.013100835
124	0xbf9becb7	-1.2181615
125	0x3ebdfd27	0.37107202
126	0xbcafcd1e	-0.021460112
127	0x3cb23ee7	0.02175851
128	0x3f656400	0.8960571
129	0x405ea1de	3.4786296
130	0xbcf386a4	-0.029727288
131	0xbb5341b2	-0.0032235202
132	0x3c052d64	0.008128498
133	0xbcc05079	-0.023475872
134	0x3b9edad5	0.004847864
135	0x3c98d956	0.018658321
136	0xbcd48a9a	-0.025944997
137	0xbf3992b1	-0.7248946
138	0xbca0a88e	-0.019611623
139	0xb84cb6b0	-4.880753e-05
140	0xbb82178d	-0.0039700926
141	0xbfbc1d39	-1.4696418
142	0x3f06cfa5	0.5266059
143	0xbc95b3de	-0.018274244
144	0xbfc3d798	-1.5300169
145	0xbb0495d5	-0.0020230908
146	0x3cc4b579	0.024012314
147	0xbff78e55	-1.9340311
148	0xbfd85d8d	-1.690355
149	0x3cefcb2b	0.029271683
150	0xbb4318f8	-0.0029769521
151	0xc02739b7	-2.6128976
152	0x3ce9f88b	0.028560897
153	0xbfbae436	-1.4600894
154	0x3c8f8764	0.017520614
155	0x3c0a62fc	0.008446451
156	0x3c133ef6	0.008987179
157	0x3fd8662d	1.6906182
158	0x3b93d42e	0.004511378
159	0xbca61d6f	-0.020277707
160	0xbcae7e8e	-0.02130058
161	0xc01cb7bc	-2.4487143
162	0x3cbca310	0.023026973
163	0x3c249e9e	0.010047583
164	0xbed72325	-0.42019
165	0xbbe7c79b	-0.0070733554
166	0x3fb57655	1.4176737
167	0x3faec11e	1.3652685
168	0x401bd00b	2.434573
169	0xbb6024eb	-0.0034201692
170	0xbca7a72e	-0.02046546
171	0x3ab8363f	0.0014054253
172	0x3bee27a3	0.0072679087
173	0xbad32b0a	-0.0016110849
174	0x3f0f2963	0.55922526
175	0x3f91fd0a	1.1405346
176	0x3d76549c	0.060139284
177	0xbd0cae7d	-0.034346092
178	0xbd13892d	-0.036019493
179	0x3b95593e	0.0045577576
180	0xbaff7d24	-0.0019492251
181	0xc0109f08	-2.2597065
182	0xc0aa4378	-5.320736
183	0x3cc076c0	0.023494124
184	0x3f7ab1af	0.97927374
185	0xbc550d12	-0.0130036045
186	0xbc9a1bfe	-0.018812176
187	0x3ec7acab	0.38998923
188	0x3ccd4738	0.025058374
189	0x3ea654e6	0.32486647
190	0xc0137f17	-2.304632
191	0xbca0e646	-0.019641053
192	0xbfa5049b	-1.289203
193	0x3c54a781	0.012979389
194	0xc08b457c	-4.352232
195	0x4033c15a	2.8086762
196	0x3c0d8b95	0.008639236
197	0xbb195e25	-0.0023402062
198	0x3ff3151e	1.899082
199	0x3cde14ca	0.027109522
200	0xbf8c9dde	-1.0985677
201	0x3c6a1aea	0.014288643
202	0xbfda1750	-1.7038364
203	0x3c817764	0.015804
204	0x406429a5	3.5650418
205	0x3f6a1ad1	0.9144717
206	0x401c36eb	2.440852
207	0xbc15e2be	-0.009148298
208	0x3b5f8a3a	0.003410949
209	0x402456d2	2.567799
210	0x3ca7b606	0.020472538
211	0x3c461ff8	0.012092583
212	0xbfe79741	-1.8093034
213	0x3b34dc70	0.0027597211
214	0xbfd0dcba	-1.631736
215	0x3ca64b87	0.020299686
216	0xbcf0f0ec	-0.029411756
217	0xbf9e54d7	-1.2369641
218	0xbbb96948	-0.0056583025
219	0xbfa83cef	-1.3143595
220	0xc0756014	-3.8339891
221	0x3df6c83c	0.120499104
222	0xbf433983	-0.7625963
223	0x3f7aaf60	0.9792385
224	0xbf25be1e	-0.6474322
225	0xbf0bee9d	-0.5466097
226	0x40118f5d	2.2743752
227	0xc08fb195	-4.4904275
228	0x3c5f3512	0.013623493
229	0xbfc46708	-1.5343943
230	0xc02b8150	-2.6797676
231	0xbcf64f24	-0.030067034
232	0x3d36a31f	0.04458916
233	0x3c74cd33	0.014941501
234	0xc056bc28	-3.3552341
235	0x3c417a21	0.011808903
236	0xbca6ac67	-0.02034588
237	0xbcfd2524	-0.0309015
238	0xbc8e6941	-0.017384173
239	0xc026dd1e	-2.607246
240	0x3da50687	0.080578856
241	0x3c3b5640	0.011434138
242	0xbc0e76bc	-0.008695301
243	0x3d2bf4bf	0.041981455
244	0xbab2157f	-0.0013586729
245	0xbc98b3d6	-0.01864044
246	0x3fa18522	1.2618754
247	0x3c8a823d	0.016907806
248	0xbc5bfb4a	-0.013426611
249	0x3c9a34fd	0.018824095
250	0xc0178fba	-2.3681474
251	0x3f239ef5	0.63914424
252	0xbc74d054	-0.014942247
253	0x3c22fb17	0.00994756
254	0x3f8d106e	1.1020639
255	0x3b903bdd	0.0044016675
