results/c_9_0/1298074_except/target_policy.pt (torch, 500709 bytes, 5 tensors)

0.weight f4 [400, 9]
0.016045026 0.17886625 -0.27039972 -0.19682217 -0.12191024 0.045783486 -0.053806283 0.21520127
-0.031569257 0.36939713 0.10869289 -0.5108898 -0.63555896 -1.7001764 -1.3173473 0.0017047526
-0.12629193 -0.009665182 2.2184153 -4.335646 2.4182103 -8.371838 -2.1400235 -2.0519037
-0.020368977 0.043370243 0.460044 -0.51472414 -1.5983108 -5.783369 0.31087342 -3.023615
-3.7811723 1.4678208 -0.9149671 -1.9030948 -12.742956 5.5662374 0.32755536 8.6121645
2.2491229 0.3963717 -1.7731327 0.12516437 1.1803168 -2.1790762 -0.7527061 0.3036889
-1.7815487 -2.2284765 -0.99945754 -0.016840005 -0.6984777 -0.17830001 0.29353827 -1.0430226
-0.21661092 -0.55218387 -2.939203 -0.49139607 -0.20388833 -0.60009414 -0.18797089 -6.3895516
-8.21256 -0.088964395 0.5814734 0.52005947 -1.7542846 -0.113005295 -0.015720172 -0.4181359
-0.16020702 0.74642366 0.55866885 0.62637985 0.72664684 -0.3586683 -1.2809886 -0.10342534
-0.8067913 1.8397944 1.3281476 -1.2587203 -0.011454441 -1.0717759 2.3922226 -0.005357578
-0.017528439 -0.24386519 0.19568074 -0.034200806 0.21305253 -0.21997264 -1.3224256 -0.074512586
-0.053874083 -0.14855132 -0.70250696 -0.27191964 0.23975544 0.16868278 -0.1876371 0.13243718
-0.17873512 -0.07794283 -0.25101966 -0.2571189 -0.15943514 -1.1410367 -0.50770694 0.7196374
-1.0544667 0.42952043 0.014827135 -0.38859582 -0.8141705 -0.08261733 -0.58364326 -0.15747415
1.1527668 1.0477672 -1.0898957 0.31327936 -0.95989203 -1.0633837 9.283835 4.710715
1.1278067 2.1112843 -0.62152237 0.4467515 -1.4608977 0.07087459 0.13057742 -3.003338
-2.1841786 -2.3087285 1.7931837 -1.1792074 4.219107 0.51834035 -0.21598807 0.058435332
-0.2994405 -0.15802574 0.22696841 -0.0021608274 -0.16568212 -0.25543725 -0.31195068 -0.28133607
-0.06761225 -0.3884468 1.7743008 -3.0198367 3.0290873 3.0216963 1.105846 0.0021999958
0.0139246825 -0.1851635 -1.6115322 -2.9485967 -0.035945732 0.22066107 -2.5946403 -0.90422124
0.56651294 -0.6514853 -0.7533856 -8.678467 0.605624 -2.5835783 0.06897042 -2.3156428
0.5591947 -0.21809807 -1.0253798 -1.5059129 -0.7611699 -1.673545 0.59464633 -1.2603891
2.910545 2.6067042 -0.92684716 -0.809557 0.014653909 0.59667283 0.22883883 -0.45444116
-0.8815237 -0.1980262 -0.1189613 -0.32143325 -0.47602403 -0.16519295 -5.09439 -0.23060611
-0.57411844 0.13162059 -1.0278354 -0.11873928 -0.77216107 0.28751224 -0.23870341 0.28116292
0.12053585 0.042208698 -0.0024813414 -0.06589385 0.041822117 -0.07611489 -0.0023421447 0.042531013
-2.8782327 -5.803267 5.410941 -8.685404 -6.738254 0.12442963 0.38272607 0.20762023
-0.30771342 1.5861626 -5.0101376 -8.040608 -3.4657638 -3.5055714 -1.7536973 0.09965533
-1.1304033 -0.697989 0.5069201 -1.1319053 0.5945032 -0.3034505 0.030919379 0.8307763
-0.09927834 -0.10455932 -0.38862562 -0.008259629 0.18582511 -0.29903975 0.2506244 -0.2595755
-0.016208569 -0.056672256 -0.17555766 0.026559668 0.2756396 -0.09743985 -0.19789805 -0.12327966
00000000: dc70 833c b728 373e d571 8abe c08b 49be
00000010: 13ac f9bd 7787 3b3d fa63 5cbd b95d 5c3e
00000020: c44e 01bd 9f21 bd3e 619a de3d adc9 02bf
00000030: feb3 22bf 619f d9bf d69e a8bf 0172 df3a
00000040: ac52 01be b65a 1ebc 84fa 0d40 9dbd 8ac0
00000050: f5c3 1a40 0cf3 05c1 25f6 08c0 6452 03c0
00000060: d7dc a6bc ffa4 313d e38a eb3e f6c4 03bf
00000070: 7395 ccbf 5c11 b9c0 cd2a 9f3e e882 41c0
00000080: bafe 71c0 8de1 bb3f 493b 6abf 9c98 f3bf
00000090: 26e3 4bc1 9e1e b240 56b5 a73e 6dcb 0941
000000a0: a1f1 0f40 3bf1 ca3e 03f6 e2bf 172b 003e
000000b0: 9f14 973f fc75 0bc0 59b1 40bf 1d7d 9b3e
000000c0: ca09 e4bf 5c9f 0ec0 73dc 7fbf 0df4 89bc
000000d0: 6fcf 32bf 4794 36be a64a 963e c481 85bf
000000e0: 41cf 5dbe ec5b 0dbf e71b 3cc0 4498 fbbe
000000f0: 1ac8 50be c59f 19bf 717b 40be 3577 ccc0
00000100: a566 03c1 f732 b6bd 71db 143f 9e22 053f
00000110: 668c e0bf 526f e7bd 97c7 80bc e915 d6be
00000120: 4f0d 24be 9f15 3f3f ec04 0f3f 6e5a 203f
00000130: 8705 3a3f 5fa3 b7be 6ff7 a3bf aad0 d3bd
00000140: e089 4ebf 627e eb3f be00 aa3f bf1d a1bf
00000150: 68ab 3bbc f42f 89bf 2d1a 1940 9f8e afbb
00000160: cd97 8fbc ccb7 79be 8860 483e 2516 0cbd
00000170: 712a 5a3e 8240 61be 3e45 a9bf 0e9a 98bd
00000180: 12ab 5cbd d61d 18be 7fd7 33bf 0d39 8bbe
00000190: 7382 753e 2ebb 2c3e f123 40be 9d9d 073e
000001a0: 5706 37be 7ea0 9fbd a685 80be 17a5 83be
000001b0: f742 23be 7e0d 92bf 15f9 01bf 283a 383f
000001c0: c4f8 86bf 1aea db3e 83ed 723c 08f6 c6be
000001d0: 7a6d 50bf 4633 a9bd a569 15bf e740 21be
000001e0: dd8d 933f 3c1d 863f b481 8bbf 2766 a03e
000001f0: 7cbb 75bf f51c 88bf 978a 1441 2dbe 9640
00000200: f85b 903f 481f 0740 171c 1fbf 9dbc e43e
00000210: b2fe babf b226 913d 16b6 053e b136 40c0
00000220: 95c9 0bc0 35c2 13c0 0b87 e53f 45f0 96bf
00000230: ed02 8740 f4b1 043f fa2b 5dbe e359 6f3d
00000240: 4450 99be 80d1 21be 686a 683e ab9c 0dbb
00000250: 93a8 29be acc8 82be 00b8 9fbe 480b 90be
00000260: 4b78 8abd 80e2 c6be 4a1c e33f 0145 41c0
00000270: 91dc 4140 7963 4140 5d8c 8d3f ce2d 103b
00000280: 5a24 643c 809b 3dbe b046 cebf cfb5 3cc0
00000290: d53b 13bd faf4 613e 960e 26c0 0b7b 67bf
000002a0: fe06 113f bec7 26bf e1dd 40bf 00db 0ac1
000002b0: 2d0a 1b3f 5959 25c0 5d40 8d3d 7e33 14c0
000002c0: 6227 0f3f 1a55 5fbe a53f 83bf c1c1 c0bf
000002d0: 08dc 42bf b936 d6bf be3a 183f 6e54 a1bf
000002e0: 5f46 3a40 3ed4 2640 db45 6dbf 213f 4fbf
000002f0: f316 703c 8dbf 183f ba54 6a3e 83ac e8be
00000300: 8aab 61bf 61c7 4abe fba1 f3bd e692 a4be
00000310: 6cb9 f3be 5728 29be 3e05 a3c0 0224 6cbe
00000320: 6df9 12bf 8cc7 063e 1c90 83bf 942d f3bd
00000330: 59ac 45bf ce34 933e ab6e 74be 96f4 8f3e
00000340: 80db f63d 07e3 2c3d 009e 22bb 5bf3 86bd
00000350: ab4d 2b3d 20e2 9bbd ab7e 19bb 0035 2e3d
00000360: f734 38c0 5db4 b9c0 6e26 ad40 6af7 0ac1
00000370: c79f d7c0 f6d4 fe3d acf4 c33e 669a 543e
00000380: 9d8c 9dbe 6007 cb3f 0c53 a0c0 55a6 00c1
00000390: 13cf 5dc0 485b 60c0 2779 e0bf 1818 cc3d
000003a0: 0eb1 90bf 68af 32bf 84c5 013f 46e2 90bf
000003b0: 5d31 183f dd5d 9bbe a34a fd3c c1ad 543f
000003c0: 7152 cbbd 3223 d6bd f0f9 c6be 6553 07bc
000003d0: f048 3e3e bd1b 99be d751 803e 14e7 84be
000003e0: d5c7 84bc 2b21 68bd 63c5 33be a993 d93c
000003f0: a220 8d3e 8b8e c7bd c9a5 4abe 0c7a fcbd

0.bias f4 [400]
-0.3696177 -0.50012225 -1.7392294 0.42806974 -1.1917132 -0.7271714 -0.45897707 0.8782472
-0.7203169 -1.0443579 -0.5576795 -0.29722184 -0.30472603 -0.5142635 -0.9193588 -0.59235746
-0.22162339 -0.7533736 -0.8411833 0.72776616 -1.0239016 -0.32322142 -0.954623 -0.27582654
-0.0037216905 -0.4896078 -0.4503344 -0.1667695 -0.3251897 -0.55367404 -0.08767181 -0.38114527
-0.59140384 -0.26303855 -0.85769373 -0.18181431 -0.73283386 -0.6686515 -1.5310422 -0.6578631
-0.5254414 -0.43961152 -0.7752724 -0.24751002 -0.34232074 -0.55009776 -0.4215811 -0.34390426
-0.6066268 -0.53187066 -1.5561477 -0.5819863 -0.37305093 0.32258868 -0.41872004 -0.6949998
-1.8859525 -0.3647122 -1.4695063 -0.43855056 -0.8900289 -0.5108063 -0.585503 -0.62857336
-0.49898374 -1.0849367 -0.50079584 -0.6492681 -0.06354168 -0.25394845 -0.42669517 -0.45473918
-0.7141061 0.40317208 -0.3587458 -0.6160444 -1.2170683 -0.9374814 1.4192982 -0.6566352
-0.5600279 -0.5833572 0.18014795 -1.0177981 -0.93390435 0.5957594 -0.5484765 -0.24390773
-0.62720245 0.8457063 -0.48529255 -0.2823583 -0.70417595 -0.376204 -0.5165165 -0.5899137
-0.59660137 -0.30117363 -0.73629093 -0.89125127 -0.64262813 -0.5821532 -0.4791652 -0.44629914
0.04652928 -0.849373 -0.5772537 1.308014 -0.47212014 -0.9667585 -0.5027836 -0.31918618
-1.0373244 -0.32289428 1.8084686 -0.89270884 -0.5515521 -0.83995545 -0.8602687 -0.40756804
0.32338434 1.0337589 -0.6297416 -0.28712916 -0.28680044 -0.5929655 -0.456426 -0.5491798
-0.6205028 -0.7967658 0.23041539 -0.6149238 -0.57874376 -0.2722892 -0.3540728 0.5844335
-0.51141435 -1.3637198 -0.25829998 -0.87309605 -0.59960544 0.6630209 -0.90144366 -0.8652755
-0.58695734 -1.5631572 0.28846592 -0.21341714 -0.70577335 -0.6550378 -0.73193157 -0.67841476
-0.6630129 -0.7318802 -0.7546254 -0.5536621 -0.67653126 -0.9120771 -0.76478195 -0.3307256
-0.12455371 0.44971165 -0.47975528 -1.1549604 -0.63831276 -0.6596989 -0.3414908 -0.49616444
-0.12897117 -0.26543695 -0.46015328 -0.3890548 -0.28473362 0.028552335 0.3700942 -0.8642384
-1.0399948 -1.2649906 -0.5629009 -0.14996693 -0.7163472 -0.97001666 -0.5267513 -0.3487084
-0.7718273 -0.74650717 -1.1698854 -0.5889719 -1.297201 -0.71607304 -0.3349099 -0.29829472
-0.5933946 -0.67772335 -0.79310614 0.5855885 -1.1256349 -0.71846914 -1.3423337 -1.1730359
-0.5032247 0.1112129 -0.222786 -0.30330747 -0.7644244 -0.21155347 -0.45171127 -0.42006117
-0.58165246 -0.9452412 -0.5714021 -0.6413407 -0.4377039 -0.55601054 -0.87265456 -0.3689382
-1.0420691 -0.4583333 -0.06806337 -0.57403505 1.2237997 0.6342999 -0.48638928 -0.5157774
-1.4013424 -0.7660695 -0.46328053 -0.4615341 -1.3711045 -0.9960482 -0.43683988 -0.08662661
-0.62276775 0.26530415 -0.6630129 -0.60066634 -0.6872005 -0.7067032 -1.466073 -0.53994113
-0.296645 -1.3624324 -0.5939787 0.4322347 -0.6255335 -0.5341765 -0.57095945 -0.9221503
-1.4367474 -0.003595798 -0.89204997 -0.66877073 -0.7479973 0.10655811 0.8596002 -0.5268996
00000000: 883e bdbe 0308 00bf 129f debf f52b db3e
00000010: 0f8a 98bf e827 3abf 0bff eabe cfd4 603f
00000020: b066 38bf 85ad 85bf 15c4 0ebf 762d 98be
00000030: 0d05 9cbe c6a6 03bf 195b 6bbf bda4 17bf
00000040: 3ef1 62be 18dd 40bf ca57 57bf e24e 3a3f
00000050: 350f 83bf 477d a5be 2c62 74bf 2339 8dbe
00000060: 9be7 73bb e0ad fabe 3b92 e6be a0c5 2abe
00000070: 447f a6be 95bd 0dbf 478d b3bd 7925 c3be
00000080: 3e66 17bf fdac 86be d191 5bbf 882d 3abe
00000090: 009b 3bbf bf2c 2bbf 31f9 c3bf b769 28bf
000000a0: 5483 06bf c314 e1be 4178 46bf 4473 7dbe
000000b0: aa44 afbe 35d3 0cbf 7ad9 d7be 3814 b0be
000000c0: e54b 1bbf ad28 08bf d92f c7bf 0efd 14bf
000000d0: 8800 bfbe 582a a53e 7962 d6be 82eb 31bf
000000e0: e466 f1bf 8fbb babe c818 bcbf b389 e0be
000000f0: efd8 63bf 34c4 02bf 86e3 15bf 2fea 20bf
00000100: cc7a ffbe 35df 8abf 2834 00bf 6f36 26bf
00000110: 2422 82bd 8805 82be ca77 dabe 93d3 e8be
00000120: a8cf 36bf 926c ce3e 88ad b7be 16b5 1dbf
00000130: e5c8 9bbf c8fe 6fbf 90ab b53f 3f19 28bf
00000140: fd5d 0fbf e656 15bf b478 383e 3547 82bf
00000150: 5b14 6fbf b083 183f f568 0cbf f3c2 79be
00000160: 5790 20bf 3580 583f 4478 f8be 4491 90be
00000170: e044 34bf d09d c0be 6d3a 04bf 9604 17bf
00000180: deba 18bf 6e33 9abe 907d 3cbf 0b29 64bf
00000190: 4783 24bf fe07 15bf 2455 f5be 5281 e4be
000001a0: 7c95 3e3d 8270 59bf e6c6 13bf 016d a73f
000001b0: bbb9 f1be 7c7d 77bf 6db6 00bf 5f6c a3be
000001c0: 0cc7 84bf 6652 a5be e67b e73f 9188 64bf
000001d0: 8532 0dbf 5207 57bf 923a 5cbf c2ac d0be
000001e0: a292 a53e 3652 843f bf36 21bf 9802 93be
000001f0: 82d7 92be 96cc 17bf abb0 e9be 0c97 0cbf
00000200: 46d9 1ebf d8f8 4bbf 03f2 6b3e a56b 1dbf
00000210: 8d28 14bf 7d69 8bbe 0849 b5be 6f9d 153f
00000220: 0dec 02bf 5f8e aebf e53f 84be 3983 5fbf
00000230: be7f 19bf bdbb 293f 03c5 66bf b282 5dbf
00000240: d642 16bf 8915 c8bf ceb1 933e 068a 5abe
00000250: 90ad 34bf 8fb0 27bf de5f 3bbf 97ac 2dbf
00000260: 37bb 29bf 805c 3bbf 212f 41bf cdbc 0dbf
00000270: 2731 2dbf e37d 69bf c0c8 43bf de54 a9be
00000280: 0416 ffbd 9b40 e63e 7ca2 f5be bed5 93bf
00000290: 7768 23bf 07e2 28bf e2d7 aebe 4409 febe
000002a0: 0511 04be 5ae7 87be 3699 ebbe 3132 c7be
000002b0: 9bc8 91be 96e6 e93c fd7c bd3e ba3e 5dbf
000002c0: 8d1e 85bf 36eb a1bf 461a 10bf ee90 19be
000002d0: 8862 37bf 0353 78bf 2cd9 06bf e889 b2be
000002e0: 7996 45bf 181b 3fbf cebe 95bf ddc6 16bf
000002f0: af0a a6bf 9050 37bf 4f79 abbe 16ba 98be
00000300: b5e8 17bf 477f 2dbf 0109 4bbf 21e9 153f
00000310: ce14 90bf 98ed 37bf 97d1 abbf 0a26 96bf
00000320: 55d3 00bf 97c3 e33d 0322 64be 1e4b 9bbe
00000330: 51b1 43bf 79a1 58be b346 e7be 4212 d7be
00000340: 2de7 14bf 54fb 71bf 6847 12bf e72e 24bf
00000350: ba1a e0be b556 0ebf 4a66 5fbf 78e5 bcbe
00000360: 8562 85bf aaaa eabe cf64 8bbd f6f3 12bf
00000370: 78a5 9c3f 7a61 223f 0408 f9be fd09 04bf
00000380: 305f b3bf 211d 44bf 1b33 edbe 334e ecbe
00000390: 5a80 afbf 04fd 7ebf 7aa9 dfbe 4b69 b1bd
000003a0: b56d 1fbf f2d5 873e 37bb 29bf 45c5 19bf
000003b0: 5fec 2fbf 80ea 34bf 48a8 bbbf 9539 0abf
000003c0: dae1 97be 2f64 aebf fd0e 18bf de4d dd3e
000003d0: f722 20bf cbbf 08bf 662a 12bf 0b12 6cbf
000003e0: 57e7 b7bf 7ba7 6bbb 635d 64bf 8f34 2bbf
000003f0: c07c 3fbf 233b da3d c20e 5c3f e4e2 06bf

2.weight f4 [300, 400]
0.015588212 -0.32807323 -2.0072122 0.095995605 0.110045925 0.0862264 0.08577638 0.78306866
1.1853826 -2.3617053 0.07854037 -0.121260546 -0.1460628 -1.1680971 -1.7859358 -4.0852113
0.032408725 -1.0775218 -0.16269551 -0.20098557 -0.5695408 -0.44744354 0.2723607 -0.0068355324
-0.45394644 0.5466407 -0.33272237 0.024709316 -0.0040652636 0.2039986 -1.4584435 -0.03861602
-0.11431511 0.02401604 1.2641085 -0.030364824 0.52666116 -0.3740344 -0.8213588 -0.41938764
1.1096368 0.34706327 -0.49695715 -3.1118186 -1.3255489 -0.13026756 1.5426292 0.12991591
-0.590021 0.7809468 -1.5481367 -0.38125852 0.55586743 -1.7784494 0.029048163 -0.33046934
-1.3844861 -0.27565682 -0.7777519 -1.691355 -3.2133849 -0.15985534 0.55986094 0.77999306
0.7778473 0.8966991 -0.31276673 -2.0679255 -0.4615043 -1.7771858 0.49949035 -1.61611
0.3569815 -4.7443914 -0.18682645 0.17801987 0.9840677 -5.2190356 2.0838995 -0.28729764
-0.031081058 -1.376523 -1.2632741 -0.19471516 -0.6902046 -0.13381107 0.916464 -1.5512363
-0.5743569 -0.72725487 -0.7486171 -0.04464016 0.09304815 -0.038487874 0.10132724 -0.7198996
-0.07061146 0.18099712 -0.67624515 0.9582946 0.6165212 -0.6736464 0.687415 -0.92113703
-3.330258 -1.7840044 0.47811016 0.019271875 -0.5794114 -0.2026217 -0.008211944 -0.37783122
-0.21169354 0.036803573 0.23758881 0.2450841 0.4438315 1.3457907 0.09594644 -0.6323761
-2.5387075 0.26322925 0.53725886 -2.4207854 -0.005046475 0.685305 0.58644474 -0.24580234
0.8746453 -0.97815484 -1.9403119 0.09114527 -0.7542319 0.12316343 -0.9088346 1.2016903
0.03487285 -0.67064226 -1.1604916 -2.1621487 2.4133465 -1.125468 -1.0829816 -1.6315833
-0.99907607 0.58148557 -4.7936006 0.024531573 -0.10191585 -0.23506455 2.3660443 0.72847074
-0.038411874 1.7435924 0.31650993 0.08673155 0.16782449 -0.6547875 2.3915553 -0.39735773
-0.052114256 -2.067878 0.10041678 -1.5599146 0.28584924 -0.7087297 -0.9257862 0.11871543
0.49295172 -0.012353259 -6.968934 -0.6247228 0.036221314 0.385854 -1.1552464 2.3655198
-2.0225306 -1.134194 0.07903062 0.0076166033 1.1809479 -0.48888075 -0.77698904 -3.0020504
-0.80817413 -0.3396425 -0.36763284 0.66136783 -1.2406718 -0.64517915 -1.2159716 0.03513287
1.5293256 -1.7188207 -0.6577796 -3.0634196 -1.3247144 1.2679946 -0.79605055 -5.3693347
1.1232028 -0.14678106 -0.026699835 0.0011943103 -0.4943465 -2.077081 -0.062374454 -1.0463605
-0.6688422 -1.3758553 -2.5256898 -0.6512827 -0.87288105 -0.71402264 -2.7614381 0.18990505
1.1678112 0.070098855 3.0493526 -0.085825555 1.6402618 -1.4304533 0.55998015 -0.06607107
-4.717021 0.5382364 -0.028526252 0.013195643 -2.9105453 0.22959583 -0.11748608 -2.4315617
0.5936807 -1.378192 0.90767825 0.6044811 0.071167275 0.6119078 -0.06472996 0.701911
-0.015977198 -0.27922118 1.0040472 -3.561238 0.30423728 -2.224519 0.18864441 -0.85719305
-1.1611593 -0.91989726 1.297034 -2.132966 -0.57635957 1.0819325 0.8747526 0.36852098
00000000: b365 7f3c 37f9 a7be 2a76 00c0 5899 c43d
00000010: c25f e13d 7897 b03d 87ab af3d 3077 483f
00000020: 9eba 973f 2e26 17c0 c6d9 a03d 7357 f8bd
00000030: 7d91 15be 3584 95bf 8b99 e4bf 0dba 82c0
00000040: 03bf 043d 3cec 89bf a799 26be 29cf 4dbe
00000050: 6dcd 11bf 5217 e5be dd72 8b3e 9afc dfbb
00000060: ab6b e8be a5f0 0b3f 965a aabe 316b ca3c
00000070: e735 85bb 02e5 503e 47ae babf d52b 1ebd
00000080: 0a1e eabd 49bd c43c 4fce a13f a7bf f8bc
00000090: 44d3 063f 7081 bfbe 9244 52bf fab9 d6be
000000a0: 9408 8e3f 47b2 b13e 2b71 febe 0928 47c0
000000b0: 96ab a9bf dc64 05be e074 c53f ad08 053e
000000c0: 9e0b 17bf 21ec 473f 5829 c6bf 5134 c3be
000000d0: 544d 0e3f 3ba4 e3bf 6af6 ed3c 4733 a9be
000000e0: d736 b1bf e422 8dbe c01a 47bf 527e d8bf
000000f0: 19a8 4dc0 1eb1 23be 0c53 0f3f a0ad 473f
00000100: 0021 473f 128e 653f f622 a0be e458 04c0
00000110: 4b4a ecbe d37a e3bf 33bd ff3e b1dc cebf
00000120: 47c6 b63e 0ed2 97c0 6f4f 3fbe d74a 363e
00000130: dceb 7b3f 5702 a7c0 9c5e 0540 ad18 93be
00000140: b49d febc e831 b0bf f7b2 a1bf 6963 47be
00000150: 40b1 30bf c505 09be 629d 6a3f e98e c6bf
00000160: 0e09 13bf 602d 3abf 5fa5 3fbf 9ad8 36bd
00000170: 0790 be3d 76a5 1dbd a884 cf3d 574b 38bf
00000180: be9c 90bd 4f57 393e 671e 2dbf cb52 753f
00000190: 55d4 1d3f 1774 2cbf 6efa 2f3f a3cf 6bbf
000001a0: f222 55c0 425a e4bf dbca f43e 0de0 9d3c
000001b0: 4e54 14bf 107c 4fbe 648b 06bc 1873 c1be
000001c0: 31c6 58be 58bf 163d 7b4a 733e 54f7 7a3e
000001d0: e23d e33e df42 ac3f 917f c43d 66e3 21bf
000001e0: 2f7a 22c0 fcc5 863e cc89 093f 26ee 1ac0
000001f0: e75c a5bb 2670 2f3f 3e21 163f 9cb3 7bbe
00000200: c1e8 5f3f 5b68 7abf 245c f8bf 5faa ba3d
00000210: 5815 41bf 1c3d fc3d 62a9 68bf fdd0 993f
00000220: d5d6 0e3d 36af 2bbf fd8a 94bf a560 0ac0
00000230: 4574 1a40 560f 90bf 249f 8abf b9d7 d0bf
00000240: 73c3 7fbf 3ddc 143f 2d65 99c0 70f6 c83c
00000250: 42b9 d0bd c3b4 70be 456d 1740 0f7d 3a3f
00000260: c555 1dbd 092e df3f 970d a23e 50a0 b13d
00000270: 2fda 2b3e 27a0 27bf 3e0f 1940 7972 cbbe
00000280: c275 55bd 1d58 04c0 50a7 cd3d 48ab c7bf
00000290: d55a 923e 4f6f 35bf 5300 6dbf 1321 f33d
000002a0: 2b64 fc3e 5365 4abc 8201 dfc0 d5ed 1fbf
000002b0: cd5c 143d a88e c53e 1ddf 93bf ad64 1740
000002c0: 2471 01c0 452d 91bf ceda a13d b394 f93b
000002d0: 4d29 973f 944e fabe c1e8 46bf 9821 40c0
000002e0: 80e4 4ebf 9fe5 adbe 5f3a bcbe 674f 293f
000002f0: 55ce 9ebf 762a 25bf f5a4 9bbf 7ce7 0f3d
00000300: f1c0 c33f 5102 dcbf 3e64 28bf 110f 44c0
00000310: 3e90 a9bf a64d a23f f8c9 4bbf 97d1 abc0
00000320: 1cc5 8f3f c64d 16be 9db9 dabc 678a 9c3a
00000330: fc1a fdbe e5ee 04c0 5b7c 7fbd 24ef 85bf
00000340: 3e39 2bbf 071c b0bf e7a4 21c0 77ba 26bf
00000350: 2275 5fbf 30ca 36bf 67bb 30c0 7876 423e
00000360: d67a 953f fd8f 8f3d 9828 4340 4fc5 afbd
00000370: 19f4 d13f 1819 b7bf dc5a 0f3f 4550 87bd
00000380: d6f1 96c0 dcc9 093f e3af e9bc 8a32 583c
00000390: 6046 3ac0 2b1b 6b3e 8b9c f0bd b59e 1bc0
000003a0: 75fb 173f 9868 b0bf 9a5d 683f 46bf 1a3f
000003b0: 26c0 913d fda5 1c3f 2491 84bd 70b0 333f
000003c0: 9de2 82bc 14f6 8ebe 9e84 803f 53eb 63c0
000003d0: fdc4 9b3e 855e 0ec0 002c 413e 0171 5bbf
000003e0: dea0 94bf 637e 6bbf 3605 a63f 8482 08c0
000003f0: 4d8c 13bf c47c 8a3f c9ef 5f3f c8ae bc3e

2.bias f4 [300]
-1.7426627 -0.11336591 -0.07235043 -1.2298828 -1.7997394 -0.07492684 0.70079535 -0.08733356
-4.1003747 0.0037293683 -0.07547371 -0.25353235 -0.10294105 0.91901237 -0.11375483 -0.072460696
-0.2375918 -0.06940297 -0.07215969 -0.12395021 -0.06678484 -0.033320148 -0.055893194 -0.04203063
-0.044147342 -0.04772884 -3.7680423 -0.036757104 -0.07646315 -1.5562047 -0.047779504 -0.037628822
-0.018092077 -0.06824664 -3.6330621 -0.055938642 -0.074247345 -0.111355744 -1.0204233 -0.063029744
-2.4516509 -0.082751445 0.5080049 -0.049100492 -1.4514048 -0.0650712 -0.031265087 -0.048052195
-0.067823455 -0.07569127 -0.055560153 -0.014836263 -0.9995768 -0.03582578 -0.047025505 -0.02166389
-0.03500696 -0.093311906 -0.024170639 -0.03227483 -0.685317 -0.03296699 -2.1549952 -0.08629942
-0.8567282 -0.045185953 -0.022740498 -0.052392907 -0.10379042 -0.025265502 -0.07884287 -0.385258
-0.050639037 -0.057114344 -0.08681351 -0.09077722 -0.039431866 -0.06605319 -0.07427715 -0.088409424
-0.028338498 -0.39748883 -0.033078004 -0.030779682 -0.03373142 0.0024309636 -0.064965405 -0.07830345
-0.08656764 -0.4903649 -0.08529358 -1.3267888 -0.074903 -0.05978836 0.18165903 -0.06415925
-0.9604285 -0.06839118 -1.7629045 -0.18302964 -0.031148486 0.8965236 -0.034764815 -0.057243984
-0.77215105 -1.0975968 -0.06892762 -0.07764034 -0.04484099 -0.043430597 -0.8125492 -0.057993513
-0.09631152 -0.018000808 -0.002178482 -0.039685186 -0.065105475 -0.18950273 -0.0519645 -0.07786237
-0.08696103 -0.4149193 -0.023575338 -0.6779843 -0.086759865 0.11877392 -0.013517695 -0.060837403
-0.075642094 -0.023007601 -0.58433634 -0.049395535 -0.054437347 0.0933336 -0.04089665 -0.9257266
-0.057885475 -0.0346918 -0.013443374 -0.03261756 -0.042941086 -0.01297641 -0.06467483 -0.7688651
-0.03278594 -0.054736864 -0.28885928 -0.050143573 -0.05141092 -0.034811214 -0.865352 0.0009678022
-0.062397555 -0.033957172 -0.027951812 0.077893175 -0.09510762 -0.09508068 -0.07376902 -0.01248821
-0.04006591 -0.07678054 -0.039041452 -0.064715065 -0.08967304 -0.9322407 0.4109504 -0.114172064
0.8235641 -0.04067984 -0.08434289 -0.029919513 -0.035929345 -0.066650726 -0.5617742 1.764557
-0.06849549 -0.011201493 -0.04654196 -0.06482384 -0.04570973 -2.1665833 -0.15055701 -0.06514422
-0.10043616 -0.035630576 0.7678953 -0.053278036 -0.30976537 -0.0070108636 -0.071286485 -0.03399815
-0.0033151624 -0.6545848 -1.5675087 -0.09170109 -0.05092887 -0.11486199 1.2044958 -0.054576673
-0.026202414 -0.07583283 -0.096465 -0.7686325 -0.7919617 0.6202276 -0.09891624 -0.047576103
-0.060671255 -0.04411903 -0.07144146 -0.0816726 -0.92123073 -0.057622474 -0.03579002 -0.008700517
-0.09926493 -0.6404347 -0.0082093375 -2.3051803 -0.021079762 -0.05027098 -2.1725435 -0.5699673
0.5157557 -1.4078015 -0.06772808 -0.029025814 -0.65960884 -0.06800673 -0.04687351 -0.07588796
-2.9556916 -0.0017256144 -0.07886373 -0.029222509 -0.06592355 -1.9867558 -0.09918744 -0.028868979
-0.062574886 -0.11068966 -0.10511215 -0.08435332 -0.86320126 -0.049291227 -0.0718721 -0.017764997
-0.031189092 0.69635576 -0.05807994 -0.052709557 -0.0080847265 -0.034840066 0.23838207 -0.08116596
00000000: 920f dfbf 632c e8bd 762c 94bd cd6c 9dbf
00000010: dc5d e6bf 3e73 99bd 5367 333f f0db b2bd
00000020: 4536 83c0 6b68 743b f691 9abd fece 81be
00000030: c2d2 d2bd 6544 6b3f 4bf8 e8bd 4666 94bd
00000040: 444b 73be 2523 8ebd 76c8 93bd 9cd9 fdbd
00000050: 7dc6 88bd b57a 08bd 43f0 64bd 4f28 2cbd
00000060: d8d3 34bd 517f 43bd 9b27 71c0 9e8e 16bd
00000070: b698 9cbd b731 c7bf 71b4 43bd ae20 1abd
00000080: d635 94bc e5c4 8bbd 1784 68c0 eb1f 65bd
00000090: fe0e 98bd 7b0e e4bd 3b9d 82bf bd15 81bd
000000a0: d9e7 1cc0 9779 a9bd 9c0c 023f 991d 49bd
000000b0: a2c7 b9bf 0d44 85bd d20f 00bd 61d2 44bd
000000c0: 06e7 8abd 0604 9bbd 0b93 63bd cc13 73bc
000000d0: 44e4 7fbf 0ebe 12bd d19d 40bd 7878 b1bc
000000e0: 7563 0fbd 501a bfbd 8101 c6bc 9d32 04bd
000000f0: ef70 2fbf 6508 07bd 71eb 09c0 c0bd b0bd
00000100: 8a52 5bbf e814 39bd 484a babc f299 56bd
00000110: 1290 d4bd 99f9 cebc 5f78 a1bd 8940 c5be
00000120: e16a 4fbd bbf0 69bd 48cb b1bd 68e9 b9bd
00000130: 4f83 21bd e546 87bd 9e1e 98bd 0010 b5bd
00000140: 2326 e8bc a883 cbbe cd7c 07bd ac25 fcbc
00000150: f529 0abd cd50 1f3b 950c 85bd 8f5d a0bd
00000160: 604a b1bd 1c11 fbbe 67ae aebd 37d4 a9bf
00000170: be66 99bd a4e4 74bd d304 3a3e ed65 83bd
00000180: a4de 75bf ad10 8cbd dba6 e1bf 1f6c 3bbe
00000190: 1c2b ffbc 9282 653f 8d65 0ebd ab78 6abd
000001a0: b1ab 45bf 0d7e 8cbf ed29 8dbd e601 9fbd
000001b0: 30ab 37bd 48e4 31bd 3903 50bf 9b8a 6dbd
000001c0: f93e c5bd 6e76 93bc ddc4 0ebb ef8c 22bd
000001d0: 0556 85bd 010d 42be bad8 54bd 4e76 9fbd
000001e0: a018 b2bd 4d70 d4be 1121 c1bc 6190 2dbf
000001f0: 28af b1bd be3f f33d 5279 5dbc a430 79bd
00000200: 3eea 9abd 707a bcbc 1197 15bf f952 4abd
00000210: b2f9 5ebd b025 bf3d 3f83 27bd 6bfc 6cbf
00000220: 5219 6dbd fd18 0ebd 9941 5cbc fe99 05bd
00000230: fee2 2fbd 029b 54bc 3d74 84bd 58d4 44bf
00000240: 8d4a 06bd c333 60bd 5de5 93be 5963 4dbd
00000250: 4294 52bd 3496 0ebd b587 5dbf 1bb4 7d3a
00000260: 9494 7fbd ad16 0bbd 33fb e4bc 7586 9f3d
00000270: c9c7 c2bd a9b9 c2bd 3614 97bd 599b 4cbc
00000280: 271c 24bd 1e3f 9dbd eee9 1fbd 5589 84bd
00000290: 80a6 b7bd 54a7 6ebf 1768 d23e 0bd3 e9bd
000002a0: 19d5 523f e79f 26bd f7bb acbd c419 f5bc
000002b0: a62a 13bd 2d80 88bd 6fd0 0fbf 01dd e13f
000002c0: 5d47 8cbd 7886 37bc c8a2 3ebd 5dc2 84bd
000002d0: 203a 3bbd 4da9 0ac0 9e2b 1abe 556a 85bd
000002e0: 79b1 cdbd 5ef1 11bd c994 443f 123a 5abd
000002f0: 9199 9ebe 63bb e5bb a6fe 91bd a541 0bbd
00000300: 3243 59bb df92 27bf 20a4 c8bf c8cd bbbd
00000310: ca9a 50bd c33c ebbd eb2c 9a3f ca8b 5fbd
00000320: 72a6 d6bc 3e4e 9bbd 718f c5bd 19c5 44bf
00000330: 01be 4abf 3cc7 1e3f 9994 cabd 29df 42bd
00000340: 6c82 78bd 28b6 34bd e64f 92bd f743 a7bd
00000350: c7d5 6bbf 8b05 6cbd 8e98 12bd 9d8c 0ebc
00000360: 694b cbbd 87f3 23bf 7580 06bc 1388 13c0
00000370: 77af acbc f1e8 4dbd f40a 0bc0 61e9 11bf
00000380: 9108 043f d732 b4bf 05b5 8abd 8bc7 edbc
00000390: 20dc 28bf 1d47 8bbd 70fe 3fbd 266b 9bbd
000003a0: 0d2a 3dc0 032e e2ba 4f83 a1bd 0b64 efbc
000003b0: ed02 87bd 044e febf c922 cbbd a37e ecbc
000003c0: 4327 80bd 43b1 e2bd 0a45 d7bd 6fc1 acbd
000003d0: c2fa 5cbf 99e5 49bd ae31 93bd e687 91bc
000003e0: 4480 ffbc 5f44 323f 3be5 6dbd fae5 57bd
000003f0: cd75 04bc 75b4 0ebd 6e1a 743e 573a a6bd

4.weight f4 [1, 300]
-4.1980305 -0.024876209 9.804435e-05 -2.396172 2.6228502 0.018557366 0.99017584 0.010039202
-1.7728226 -0.015287954 0.0022538726 -1.8492092 -0.0064120227 -1.1143417 0.007660927 0.0031619128
-0.36045644 -0.01581257 0.025378749 -0.008707036 -0.009162453 -0.02566709 -0.022502825 -0.04387763
-0.03792312 -0.0023564112 5.794197 -0.010797113 0.005155015 -0.22502488 0.02012795 -0.023892732
0.016537884 0.0061928816 -4.030866 -0.023845049 0.01154124 3.1225948 4.586897 0.018573755
3.6325483 0.0032304118 -1.5087738 0.0057115736 -0.55141586 0.020085853 0.001558046 -0.014859173
0.0031089205 0.026444184 -0.008733299 -0.00350464 2.1355886 -0.02415611 0.03476854 -0.0003382654
0.016495043 0.027373275 -0.002836462 0.0019327174 2.1460314 0.007375942 1.399637 0.02560078
1.4022721 0.0065504173 -0.04581627 -0.008196298 -2.4763367 -0.0268752 -0.0016702238 4.014949
-0.016647033 0.03160502 0.0059754183 0.036544017 0.023604767 -0.03287982 0.010812572 -0.018458273
0.013260091 -1.3622655 0.0047042547 0.03232922 0.02433418 0.008296696 0.013325469 0.071162805
-0.0026830728 0.52455115 -0.016499141 -1.843323 0.017653238 -0.007523743 -1.222378 -0.032556463
-0.92915934 -0.008758818 4.653124 3.9443293 -0.009301406 1.2847754 -0.02866036 -0.0040268097
-2.5226111 -3.15831 0.00048503032 0.013426425 0.025115373 -0.029800301 2.54195 -0.02010746
-0.020934476 -0.0051362026 -2.4323368e-05 0.0021796927 0.010353616 -4.6933694 -0.019352715 0.010149657
-0.0009536228 -1.4096103 0.002199204 2.060755 -0.043741282 -1.048335 0.0026993246 -0.02353138
-0.008697164 -0.0033239631 -3.2843895 -0.029161414 -0.015553009 -6.4156113 0.0038878794 -2.0264406
-0.018250775 0.0103275385 -0.021030959 0.016674602 -0.0007836679 -0.015420946 -0.0038570063 -1.7446673
-0.003907019 0.027753253 3.1595023 0.0092339795 0.0025486366 0.17874865 1.3552123 0.002540627
-0.013486775 0.011349201 -0.00804617 -4.4756527 1.1732676 -0.01108899 0.022030085 -0.020070208
0.016075576 0.0019376999 -0.021479856 -0.0024676116 0.029535808 -2.2648041 0.3358212 0.17225312
-3.7775865 -0.010712176 -0.0013694065 0.0075016706 -0.0074721477 0.009922042 0.75896484 -3.9492207
0.020644648 0.00399142 0.0013593948 -0.004683579 -0.003123496 -2.267053 -0.004308535 0.0020830678
0.014393325 0.019560216 -1.2303237 -0.018473545 -0.13807279 -2.236213e-05 0.019119512 -0.0067570778
-0.031779367 -2.3790143 3.1869233 0.011001259 -0.019220838 0.012627721 0.13721499 0.04054796
0.035687942 -0.007257198 -0.027996516 -2.4551651 -1.6097202 -2.1816387 0.0034006112 0.007854316
4.831713e-05 -0.01950098 -0.0044862316 0.015449259 -2.7958431 -0.040576275 0.021856487 0.015874783
-0.01833422 -1.7871039 0.013307588 -1.0075173 0.031988725 0.008197416 7.1410728 -0.79638374
-5.2248874 -0.3418962 0.0040716063 0.018906426 2.711377 0.005012709 0.022966249 -0.021944031
7.052906 -0.014305035 0.019586293 -0.027482053 -0.003781383 0.9538838 -0.051127054 -0.007530635
-0.025688697 -0.004718504 0.030903734 0.0063201934 2.9353406 0.027952928 -0.02571589 0.024333805
-0.07829302 2.0697374 0.030330038 -0.00023835331 0.05072174 0.014002356 -1.6275157 0.059140906
00000000: 4456 86c0 31c9 cbbc 299d cd38 e25a 19c0
00000010: c7dc 2740 9e05 983c 2a7c 7d3f 777b 243c
00000020: daeb e2bf 547a 7abc b5b5 133b e3b2 ecbf
00000030: f21b d2bb c0a2 8ebf 8308 fb3b 1838 4f3b
00000040: bf8d b8be 5d89 81bc 18e7 cf3c f5a7 0ebc
00000050: 1d1e 16bc ca43 d2bc d857 b8bc 08b9 33bd
00000060: 4655 1bbd 056e 1abb 106a b940 60e6 30bc
00000070: 66eb a83b ec6c 66be 5fe3 a43c b1ba c3bc
00000080: 757a 873c a8ed ca3b dbfc 80c0 b156 c3bc
00000090: 7817 3d3c 98d8 4740 dcc7 9240 fd27 983c
000000a0: ac7b 6840 51b5 533b 801f c1bf 2728 bb3b
000000b0: 9729 0dbf 168b a43c 5937 cc3a e473 73bc
000000c0: 08bf 4b3b 79a1 d83c 1c16 0fbc 1aae 65bb
000000d0: 7cad 0840 09e3 c5bc 7569 0e3d 3759 b1b9
000000e0: 9d20 873c eb3d e03c f0e3 39bb 3c53 fd3a
000000f0: 9458 0940 e3b1 f13b 4e27 b33f bab8 d13c
00000100: a77d b33f e2a4 d63b d7a9 3bbd c449 06bc
00000110: 4d7c 1ec0 6129 dcbc 69eb daba 767a 8040
00000120: 5c5f 88bc 4474 013d 71cd c33b 2eaf 153d
00000130: c95e c13c fdac 06bd 3727 313c ce35 97bc
00000140: da40 593c b75e aebf 2626 9a3b a56b 043d
00000150: 7958 c73c ddee 073c 1153 5a3c cebd 913d
00000160: 7ed6 2fbb fc48 063f 3529 87bc 02f2 ebbf
00000170: 869d 903c bb89 f6bb e276 9cbf ed59 05bd
00000180: 63dd 6dbf 2581 0fbc 64e6 9440 e46f 7c40
00000190: ed64 18bc 8573 a43f 22c9 eabc 54f3 83bb
000001a0: 7672 21c0 c021 4ac0 ab4b fe39 82fa 5b3c
000001b0: c1be cd3c c31f f4bc 4faf 2240 66b8 a4bc
000001c0: c77e abbc 974d a8bb 090a ccb7 2dd9 0e3b
000001d0: 37a2 293c 1530 96c0 9689 9ebc bf4a 263c
000001e0: 8bfc 79ba 1c6e b4bf 8520 103b 69e3 0340
000001f0: 0f2a 33bd d72f 86bf 27e7 303b e1c4 c0bc
00000200: 8d7e 0ebc d9d6 59bb 7033 52c0 ebe3 eebc
00000210: 0cd2 7ebc b04c cdc0 cbcb 7e3b 34b1 01c0
00000220: a682 95bc d634 293c 1e49 acbc 2d99 883c
00000230: 106f 4dba 23a8 7cbc d4c5 7cbb 4251 dfbf
00000240: 7306 80bb ca5a e33c 4935 4a40 1e4a 173c
00000250: 0707 273b e309 373e 9977 ad3f a680 263b
00000260: a2f7 5cbc 00f2 393c 15d4 03bc 8c38 8fc0
00000270: a22d 963f 98ae 35bc 7078 b43c 476a a4bc
00000280: edb0 833c 6bfa fd3a 86f6 afbc a7b7 21bb
00000290: 14f5 f13c 8df2 10c0 c2f0 ab3e 1f63 303e
000002a0: fac3 71c0 1f82 2fbc a87d b3ba 93d0 f53b
000002b0: ebd8 f4bb 0f90 223c 854b 423f 08c0 7cc0
000002c0: f71e a93c 75ca 823b b82d b23a b578 99bb
000002d0: 91b3 4cbb 6517 11c0 9c2e 8dbb 1484 083b
000002e0: fbd1 6b3c bf3c a03c 3f7b 9dbf d555 97bc
000002f0: f462 0dbe 4f96 bbb7 86a0 9c3c 7a6a ddbb
00000300: 152b 02bd c541 18c0 8df6 4b40 a03e 343c
00000310: 0575 9dbc 80e4 4e3c 1682 0c3e 9e15 263d
00000320: 852d 123d cacd edbb f358 e5bc 6d21 1dc0
00000330: 500b cebf f89f 0bc0 cadc 5e3b 64af 003c
00000340: 20a8 4a38 85c0 9fbc 3d01 93bb e41e 7d3c
00000350: 18ef 32c0 4f33 26bd 600c b33c d50b 823c
00000360: a531 96bc d2bf e4bf 1208 5a3c 54f6 80bf
00000370: 9c06 033d 744e 063c ab83 e440 cedf 4bbf
00000380: 4732 a7c0 050d afbe 1c6b 853b a6e1 9a3c
00000390: 3387 2d40 a741 a43b b723 bc3c f8c3 b3bc
000003a0: 68b1 e140 aa5f 6abc 6f73 a03c 0b22 e1bc
000003b0: 14d1 77bb bb31 743f 9a6a 51bd 8cc3 f6bb
000003c0: 1a71 d2bc ae9d 9abb d429 fd3c a019 cf3b
000003d0: 9fdc 3b40 8afd e43c 21aa d2bc b057 c73c
000003e0: 1758 a0bd 9476 0440 b376 f83c 7bee 79b9
000003f0: 99c1 4f3d 236a 653c 6f52 d0bf bc3d 723d
