results/c_0_2/116742_except/policy.pt (torch, 500709 bytes, 5 tensors)

0.weight f4 [400, 9]
00000000: 9870 833c 7728 373e 7b72 8abe 0e8b 49be
00000010: b2ab f9bd da86 3b3d 0764 5cbd 735d 5c3e
00000020: a64e 01bd 919d d43e 7f98 8bbf fde9 febf
00000030: 2353 3bbf b60b 5e40 190c 4dc0 e4a5 febe
00000040: 7fb7 883e 1b74 8c3d dcf8 61c0 9ecc f3bf
00000050: 8f29 1c40 5ddf 99bf 3ba1 14c0 44ff 3540
00000060: e9f4 483d f58e 80bd d0da 133f c5e5 58c0
00000070: 6b26 66be 6ae4 63c0 e8f2 82bf bd11 7dbf
00000080: c0ea 1bbf 5671 913f 898b babf 1086 9ebc
00000090: f51f 0ec0 6f59 7140 9efe ab3d 96e7 04bf
000000a0: c355 9140 6e60 95be d8b2 bebc e1df 54bc
000000b0: 034c 45bf b2b2 9ac0 2cd6 6cbf 825b 6b40
000000c0: 2503 96c0 ee3f 62c0 85da 0c3e cdb4 02be
000000d0: f28c f2be 1266 fdbe e8a4 8e40 da0e 12c0
000000e0: 61ab 5cc0 eae3 cebf 68fd acc0 edf4 41bf
000000f0: fdbb 74bc bf42 7c3e 52d7 5fbf fc6b 6dc0
00000100: b9fb aac0 77da 6bbf 21f3 efc0 fd97 61c0
00000110: 5da3 d83e 30e7 1fc0 07b7 143f 05bb 413f
00000120: cec1 a93e 45f3 c03f f599 983f 1e51 893f
00000130: 1fc6 8dbe f7a1 3a3d 98ef d9bf 86fd f6bf
00000140: f51e 63bf b401 dc3f ba87 c73f 64ad 88bf
00000150: 9bbf 1040 d68e 28c0 2713 033f b3ab 9b3e
00000160: caae 43bf 4e99 88bf 8b58 b7c0 2443 36c0
00000170: d995 25bf 4427 2740 3579 5cc0 db29 8e3f
00000180: 218f 303c a76e 2dbe 03b2 44be 4339 8bbe
00000190: 3982 753e bfba 2c3e 0424 40be a99d 073e
000001a0: 1706 37be 27a1 9fbd a685 80be 17a5 83be
000001b0: 8b00 fdbf fed5 02c0 f337 87bf 54c2 693f
000001c0: b6a6 c0c0 ff33 403f ad34 2c3f beae 34be
000001d0: 5e16 34c0 4539 c0bf 7dc4 c5bf 46a9 973f
000001e0: 9607 de40 4d03 983f 3bf4 80bf 6a5f 033f
000001f0: 20d2 6ac0 0459 b03d 7898 c040 18de a33e
00000200: cd6c 38bf 079d 2d40 e9b2 cbbf 8c49 4abf
00000210: 04d8 abbf b2db 4f3e eed0 6abb cebc 24c0
00000220: b78b 89bf 1b75 8abf 9416 2ebf 045f 883f
00000230: 7dd2 7440 259b ee3e 5aa4 f5bf ee21 993e
00000240: 4450 99be 80d1 21be 686a 683e ab9c 0dbb
00000250: 93a8 29be acc8 82be 00b8 9fbe 480b 90be
00000260: 4b78 8abd 1dad 823f 7477 4a40 dc39 9bc0
00000270: 16e7 57bf 41c9 2740 cbdc 23bf 01cd 00bc
00000280: b07f d33c 6bc3 a33d cd29 9ebf 4f51 7ec0
00000290: 0a75 7140 3ee1 dd3f 8fcb 01c1 bdb6 4f3f
000002a0: ec13 10c0 3d6f 263d 24eb a4be 95a0 51c0
000002b0: daa4 2740 a0d2 813c 624f f4c0 f311 f0bf
000002c0: 889a f23f 7ff3 1cc0 a44b 163f b3ef 03be
000002d0: 8d0a 3b40 77ea 10bf c7e3 3640 9ec6 c0bf
000002e0: 6c4f 4840 f59a 2e40 5c66 78bf 199f a7bd
000002f0: cfe1 03be 3f04 b540 f19a ccbe a2a3 fd3e
00000300: 824f aa3e 6a6d 5240 721c d13e 74d7 96bf
00000310: 413e 80bf 6dc0 a43c 6bd3 21c1 6ef3 ad3d
00000320: b928 2ebf 19ec d2be 48e1 8bc0 4ba3 a7be
00000330: 1c34 92bf 6500 073f d5bd 9abf 96f4 8f3e
00000340: 80db f63d 00e3 2c3d 009e 22bb 5bf3 86bd
00000350: ab4d 2b3d 20e2 9bbd ab7e 19bb 0035 2e3d
00000360: 1d48 37bf 7520 4ec0 1716 1c40 d333 c7c0
00000370: a568 4f40 0af2 5e3f e14d 5f3e 376a d3be
00000380: ae8d d4bd 91c2 b240 325f e1be 9443 ccbf
00000390: 32dd d6c0 c3a2 f5bf 3079 62bf 86b8 313f
000003a0: 0ea3 6cbd 356d a23d b6df 9940 a32d 50c0
000003b0: 7aa4 a53f 979d cdbe 99c0 323f fc9c 3640
000003c0: 75dc b1be a508 163f c749 fe3d efcc 29bc
000003d0: fdb2 423e e4ad 92be c25a 783e cda0 79be
000003e0: e453 a7bb 2b21 68bd 63c5 33be 3a93 d93c
000003f0: a220 8d3e 8b8e c7bd c8a5 4abe 067a fcbd
0.0160449 0.1788653 -0.27040467 -0.19681951 -0.121909514 0.0457829 -0.05380633 0.21520023
-0.031569146 0.41526464 -1.0905913 -1.9915158 -0.7317373 3.4694648 -3.2038634 -0.4973594
0.26702496 0.06858083 -3.5308142 -1.9046819 2.4400365 -1.202129 -2.3223407 2.8437052
0.04906169 -0.06277267 0.57755756 -3.389024 -0.22475593 -3.5608163 -1.0230379 -0.9885519
-0.60905075 1.1362712 -1.4573833 -0.019351035 -2.2207005 3.7710836 0.08398174 -0.5191587
4.541719 -0.29175133 -0.023278639 -0.01299283 -0.7706911 -4.8343134 -0.925143 3.6774602
-4.687884 -3.535152 0.13755234 -0.12764283 -0.47373158 -0.49491936 4.45763 -2.2821565
-3.4479601 -1.6163304 -5.4059334 -0.7576435 -0.014937398 0.24634837 -0.8743793 -3.7097158
-5.343228 -0.92130226 -7.498429 -3.5249016 0.42312136 -2.4984856 0.5809178 0.75675994
0.33155674 1.507424 1.1921984 1.072788 -0.27690217 0.045564618 -1.7026243 -1.9296119
-0.8871911 1.718802 1.5588295 -1.0677915 2.2616947 -2.633718 0.512011 0.30404434
-0.7643858 -1.0671785 -5.7295585 -2.847848 -0.64681774 2.6117716 -3.444898 1.1106523
0.010776312 -0.16936742 -0.19208531 -0.27192125 0.23975457 0.16868113 -0.18763739 0.13243736
-0.17873417 -0.07794409 -0.25101966 -0.2571189 -1.9765791 -2.044311 -1.0563949 0.91312146
-6.0203505 0.7507934 0.67267877 -0.17644784 -2.8138652 -1.5017477 -1.5450588 1.1848533
6.938426 1.1876007 -1.0074533 0.51317465 -3.669075 0.086107284 6.018612 0.32005382
-0.72041017 2.7127092 -1.5913974 -0.79018474 -1.3425298 0.20298651 -0.0035830098 -2.5740237
-1.0745763 -1.0816988 -0.680032 1.0653996 3.8253472 0.4660274 -1.9190781 0.299087
-0.2994405 -0.15802574 0.22696841 -0.0021608274 -0.16568212 -0.25543725 -0.31195068 -0.28133607
-0.06761225 1.020908 3.1635408 -4.850813 -0.84336984 2.6216586 -0.6400878 -0.007861377
0.025817722 0.079962574 -1.2356507 -3.9737127 3.7727685 1.7334363 -8.112197 0.8113821
-2.251216 0.04063343 -0.32210648 -3.2754261 2.6194367 0.015847504 -7.6346903 -1.8755478
1.8953409 -2.4523618 0.5870917 -0.12884407 2.922519 -0.56607765 2.8576524 -1.5060613
3.1298475 2.7282078 -0.9703119 -0.08184642 -0.12879108 5.6567683 -0.3996196 0.49538904
0.33263785 3.287928 0.40842015 -1.1784501 -1.0018998 0.020111287 -10.114116 0.08493696
-0.6803089 -0.41195753 -4.37125 -0.3274177 -1.1422153 0.52734977 -1.2089182 0.28116292
0.12053585 0.04220867 -0.0024813414 -0.06589385 0.041822117 -0.07611489 -0.0023421447 0.042531013
-0.7159441 -3.220731 2.4388483 -6.225076 3.240762 0.8708807 0.21807052 -0.41291973
-0.10378586 5.586251 -0.4401794 -1.5958123 -6.7145014 -1.9190296 -0.8846617 0.69422185
-0.05777269 0.07930986 4.8085585 -3.2527854 1.2940819 -0.40159294 0.6982513 2.8533316
-0.34738508 0.5860694 0.12416416 -0.010363801 0.19013591 -0.28648293 0.24253371 -0.24377747
-0.005106436 -0.056672256 -0.17555766 0.02655946 0.2756396 -0.09743985 -0.19789803 -0.123279616

0.bias f4 [400]
00000000: ad3e bdbe af91 7abf 0a94 0cbf afea 4b3d
00000010: b66d 05bf 7ab3 033c a75b 113f fca8 33be
00000020: 2afb dbbd f4ae 11bf b0f6 f9be a32d 98be
00000030: debf 1f3e 4f98 4fbf 7d61 72bf 9519 afbe
00000040: 3ef1 62be 80f1 aabe ef85 503e 0d4e e5be
00000050: 8b06 53bf 620b b2be f0b7 aa3d 2339 8dbe
00000060: 558d 12be 4e3d 67bf f0e3 26bf c729 46be
00000070: 447f a6be 67ef 58bf a43a bdbd 01f5 443e
00000080: 00fc c3be 54ad 86be d21b a6bf 882d 3abe
00000090: dfa1 83bf ae09 d9be bd5a 14bf 3cad 63bf
000000a0: 75b6 643e 5090 28bd 6ad3 c5bf 3660 48be
000000b0: 81b9 eabc 4dbf 5dbf b336 003f cf6a 00bf
000000c0: 2494 32bd df24 79bf 90cf 92bf beb0 353f
000000d0: 74ab 20be 1486 62bf 6737 27bf 1ef3 95bf
000000e0: d6cf 123e 3767 44bf 8bee 0fbe 77e3 ee3d
000000f0: a545 663d e869 823e 9c32 dabe 257a 19bc
00000100: 5e15 e83d b612 4cbe 6ccc c7bd 3f73 1a3f
00000110: 3898 87be f064 72bf 0da2 1abf ddfc 86be
00000120: 7ccf 40bf 9307 a83e 2e2e d0be 7e7f 5ebf
00000130: 3fce 6abe 174a a4be 9fff 6f3d 5c0a 90bc
00000140: 784c abbe f096 71bf cf22 203f 237a 61bf
00000150: a03b a13e e2ae b7be 0c6a e23c af63 303f
00000160: fac9 41be 01e3 61bf c4b6 46be 4491 90be
00000170: f08a a3be 1b89 11bf 221b 31bf f77a e5bd
00000180: 04ff d7be d9a0 4bbf ddf9 34bf eaef 19bf
00000190: 16af 32bf 007a dabe b2f8 d13c cb22 6ebf
000001a0: 06f8 0ebf 3a4a 813e f9f8 f03e 9170 013f
000001b0: c71b 40bf a934 af3e 06c4 96bc b18e 03bd
000001c0: 7e9b 17bf 6652 a5be 4889 953e 327a 52be
000001d0: 5de6 c0be 52cd 3d3e af39 80bf fc90 3e3e
000001e0: 9f45 163e 93f6 f23e 8fc6 413e fcdc 13bf
000001f0: 82d7 92be 6b61 a4bd ae8c 3ebf cfb9 d53d
00000200: e604 e9be 423a 17bf cdda 0a3f 9b37 963e
00000210: 5c29 a2be 89f8 50be 3f29 5bbf df6c 2cbf
00000220: be63 dcbe 5496 863e d9aa b33e f7d4 26bf
00000230: 7f2d 4d3d 0b39 12be c8d8 1d3e 359d 033e
00000240: 90e5 4a3d 3015 9bbf acc4 9f3e 068a 5abe
00000250: dcb2 e8bd 6b34 7fbf c369 b13b d600 e23c
00000260: 85a6 11be 09e1 31bf c5cd 84be 455f 31bd
00000270: 4883 1fbf 3f04 86bf 3b41 09be 74c6 17bf
00000280: a51e 1dbe c01a e0be 5c38 c9be 6ee9 493d
00000290: d708 7dbe 4284 36bf 6840 85bf 685a c4be
000002a0: ee17 aa3d 342f 94be 717c 99be fb08 d73c
000002b0: 9bc8 91be 42d8 d63e b3ef 10bf 0b41 043f
000002c0: 04ef 2abf 26dc 2ebf 1483 32bf 5591 19be
000002d0: f970 d13b e70b 47bd 3233 c6be 96e7 4e3e
000002e0: 57a1 e9bf aeb7 39bf 8f07 77bf 1d0a 10bf
000002f0: b4a6 0fbd a28d b33e 6ae5 813f aa3e 9ebe
00000300: 2786 9fbd 1b1a 00bf a6d4 453e b90c 863f
00000310: 1932 29be 5caf 65be e652 6fbd e2a9 58bf
00000320: 873c 6bbf ff0d 0fbe 7edd 80be 434b 9bbe
00000330: ba3b debe cc4b 11bf c846 e7be e978 a93e
00000340: 4523 7ebf a451 183e 93b5 dfbe c29c e2bf
00000350: 1114 04bf 155d 5cbf 1b4e fcbd 8477 2fbf
00000360: ac06 19bf e430 bebe cffe 68be 1193 1abf
00000370: a0c3 9fbe 19e5 ee3e d3e3 32bf 6487 5bbf
00000380: 5ca6 893e c002 fcbe bc18 fdbe bf01 4fbf
00000390: 6ecb 41bf 0889 2ebf 5945 06be 410c 81bc
000003a0: 2a69 29bf 79c9 4bbe 1a0e d1be 4221 39bf
000003b0: 79bf 9dbf 57fc 923d 0ab3 3cbe e24e bebd
000003c0: dae1 97be 6498 7e3e 9cc3 7abf 56ca 6d3d
000003d0: ec3f 783d 8240 763e b1f7 b1bf 0d5e 87bd
000003e0: fe65 b63e bc0b af3e 44f2 b0bf 18ce 853c
000003f0: 6024 29bf e896 0a3d 9374 b4bd 81a8 c7bd
-0.3696188 -0.97878546 -0.5491339 0.04978436 -0.5212053 0.008038396 0.56780475 -0.17544931
-0.10741265 -0.5690758 -0.4882102 -0.29722318 0.15600535 -0.8109178 -0.94680005 -0.34199205
-0.22162339 -0.33387375 0.20363592 -0.4478611 -0.8243186 -0.3477431 0.083358645 -0.27582654
-0.14311726 -0.9032792 -0.65191555 -0.19351874 -0.3251897 -0.847403 -0.092397004 0.19234087
-0.38278198 -0.26304114 -1.297724 -0.18181431 -1.0283774 -0.42390198 -0.57950956 -0.8893621
0.22335227 -0.041153252 -1.5455143 -0.19567952 -0.028652908 -0.86620027 0.50083464 -0.50162977
-0.04359831 -0.97321886 -1.1469593 0.7097281 -0.15690404 -0.88485837 -0.6531891 -1.1714818
0.14337096 -0.76719993 -0.1405584 0.11664479 0.056218762 0.25471425 -0.42616737 -0.0093675
0.113322005 -0.19929013 -0.09755787 0.603321 -0.2648332 -0.9468527 -0.6040352 -0.26364794
-0.75316596 0.3281828 -0.40660232 -0.8691329 -0.22930239 -0.32087776 0.05859339 -0.017583065
-0.3345678 -0.9437094 0.62553114 -0.8807699 0.31490803 -0.35875612 0.027638458 0.68902105
-0.18924704 -0.88237005 -0.19405657 -0.2823583 -0.31941938 -0.5684983 -0.69182026 -0.11205094
-0.4218675 -0.7954231 -0.7069376 -0.60131705 -0.6979841 -0.42671204 0.025631282 -0.9302184
-0.55847204 0.25251943 0.4706495 0.5056239 -0.75042385 0.34219864 -0.018404018 -0.032118503
-0.5922164 -0.32289428 0.292063 -0.20554426 -0.37675753 0.18535355 -1.0017604 0.18609995
0.14674996 0.47453746 0.189234 -0.5775907 -0.28680044 -0.080263935 -0.7443341 0.10435831
-0.4551155 -0.5907327 0.54240113 0.293393 -0.3167218 -0.20407309 -0.8560981 -0.67353624
-0.43044847 0.26286566 0.35091284 -0.6516871 0.050092217 -0.14279573 0.15414727 0.12852938
0.049535334 -1.2115841 0.31204736 -0.21341714 -0.1136224 -0.9968936 0.005414219 0.02758829
-0.14223678 -0.69484 -0.2593824 -0.043303747 -0.62309694 -1.0470046 -0.1340379 -0.5928719
-0.15343721 -0.4377041 -0.3930081 0.04929488 -0.24710403 -0.7129556 -1.041028 -0.38350224
0.083053455 -0.28942263 -0.29977754 0.0262494 -0.28473362 0.41961867 -0.5661575 0.5166175
-0.6677096 -0.6830467 -0.6973126 -0.14996846 0.006391641 -0.048595335 -0.38710934 0.2020553
-1.8252362 -0.725459 -0.9649591 -0.5626543 -0.03507109 0.35068995 1.0148137 -0.30907184
-0.077892594 -0.50039834 0.193194 1.0472633 -0.16523017 -0.22430176 -0.058428667 -0.8463422
-0.9188923 -0.13970183 -0.25168985 -0.30330858 -0.43404943 -0.5675628 -0.4517119 0.3310006
-0.9927257 0.14874893 -0.43693218 -1.7704089 -0.5159312 -0.8607953 -0.12319585 -0.6854174
-0.59775805 -0.37146676 -0.22753452 -0.60380656 -0.31203938 0.46659163 -0.6987888 -0.85753465
0.26884735 -0.49220848 -0.49432933 -0.8086204 -0.75701034 -0.68177843 -0.13112392 -0.015752913
-0.6617609 -0.19901074 -0.4083107 -0.7231637 -1.2324058 0.07177036 -0.18427673 -0.092923895
-0.296645 0.2486282 -0.97954726 0.05805429 0.060607836 0.24048045 -1.3903714 -0.06609736
0.3562469 0.3418864 -1.3823934 0.016333625 -0.6607113 0.03383532 -0.08811297 -0.097489364

2.weight f4 [300, 400]
00000000: 4865 7f3c 5142 f8be d4e9 233f 89ec 573e
00000010: b968 9b3f 3c51 223f c87b 3ebf f89f 853f
00000020: 6048 6c3f 3034 72bf 22b0 88be dc56 f8bd
00000030: d56d d23e 00e7 16c0 458e 8f3e 8fd5 55bf
00000040: 03bf 043d acfa a2be a7c3 653f d5b7 d3bd
00000050: 941c 5c3f 8e4b d73f a5c5 1b3f 9afc dfbb
00000060: 317b e73d b455 4b3f 216c b03f 3f6b ca3c
00000070: e735 85bb 4c4e bbbf d5f1 72bd d58e 6cbf
00000080: c495 ed3f 63bd c43c 5187 acbf a7bf f8bc
00000090: ed47 da3e b06b 1540 ff4b 25bf 3f62 073f
000000a0: 635b 3540 b355 f5be e37b 2bc0 f3fa 5340
000000b0: 5c2b f9be 95c8 90bf c019 1bc0 6b2c abbf
000000c0: 608b 1bc0 d144 7b3f 86e1 bebf c329 1640
000000d0: c3b3 833f 815f 7e3f 1d0d 8c3f 39c7 5fbf
000000e0: 46c6 9ebf e6eb 31c0 1c5a 0f3e 0895 e1bc
000000f0: f38e 18bd 154e 1fc0 c0f8 93be 864c 5c40
00000100: 3b9b 7e40 20a6 0940 f73d f3bf 6d89 73bf
00000110: 5326 493f 66d8 fb3f 7238 963e 8336 df3e
00000120: b757 aa3f e276 973f 5471 c9bd 0959 62bf
00000130: 4aca b03f 817a 04c0 c4f8 92bf 42aa dd3f
00000140: 78a8 7fbf 727b 0dc0 bab8 72bc e8ff 40bf
00000150: 1b70 97be f863 1f3f 35c4 a93e ade6 003f
00000160: 5979 1bc0 4155 943f afbe 023e 9ad8 36bd
00000170: 0ba0 0e40 297d 04bf eb09 47c0 25bc a13f
00000180: f06d 08bf 2da1 a33f ea73 3ebf d26d b1bf
00000190: add3 1d3f 71bb 5f3f ad2d 753d 193b c33e
000001a0: 0cdb 8f3f 9f7d fcbf 9285 8a3f ad0c 2d3e
000001b0: babc 983e 10f3 f9bf 22e0 123f dd9f 0fbe
000001c0: 051a 8c3e 58bf 163d 759a ffbe fa80 0e40
000001d0: f7a5 b4bf 20ba b0bf 27da f8be 4cee eebf
000001e0: a254 1640 9497 8dbf eb48 18bf 8ec7 f9bf
000001f0: e75c a5bb 7d15 293f 646b 69be a71d e4bf
00000200: e876 963f 1930 7d3f 61bf 95bf 2ff4 f7be
00000210: 7b71 c23f e68a 02bd b9db 9cbf 9916 8d3f
00000220: df07 2c40 7095 7240 2c7c dcbf 93d7 c2be
00000230: 2bb8 0940 1876 bfbe a1c8 d93e c621 10bd
00000240: 8c5e 7ebf bf7e 19c0 b917 27bf 70f6 c83c
00000250: c741 21bf 8fec a3be d74c 0fc0 1855 8c3e
00000260: cb5a 3240 5dce 463f bd3b 4fc0 6c3e c5bf
00000270: 777a 1840 219b 2dc0 5121 2cc0 233e bcbf
00000280: 794f 56bd 1ef0 8d3f f474 2abf 5112 fbbe
00000290: 0475 1140 c769 b1bf ccd7 063f 5fa3 8bbf
000002a0: 1a34 bcbf 5365 4abc 0aa4 bebf ddc3 ce3d
000002b0: cd5c 143d 79f2 92bf 13f2 b33e c3df 05c0
000002c0: 9b54 15c0 2a62 2cbf d303 65bf b394 f93b
000002d0: 03bc 0640 36f7 0040 97ac 5bbf 230b b1bf
000002e0: 0871 80c0 3fb6 6bbf a5c6 4d3e 14f6 843f
000002f0: 5a82 a33e 98fa f9bf bd8f 19be f8e6 0f3d
00000300: da51 24be 9b3b abbf f2ca 26c0 bfda 36c0
00000310: b6ce 0e40 7c31 1b3d a552 ac3f ba50 bfbf
00000320: 35f0 923f 0bc9 9c3f 9db9 dabc 678a 9c3a
00000330: 1d3a 93bf 78a5 c140 a17b 7fbd 5ba8 40bf
00000340: d1df 7a40 b74f 3a3f 0cd5 1dbf 8326 9dbe
00000350: 9bdc 093f 5271 063f ee90 8dbe f67f febf
00000360: b676 09c0 806e 59c0 c5b5 0b40 d420 8fbd
00000370: ab74 d6bc 2d1b 0fc0 e508 173f 6c72 78bc
00000380: 2649 1f3e 71d8 683f 30ce 323b 6fee 33bf
00000390: a36f 9ebf b46c b23f 914e 7ebf a097 66bd
000003a0: 0f98 0a40 ede5 12bf 0d20 34bf 8ecb ddbf
000003b0: 1e9d 0fbf 2dc5 b2bf b572 8dc0 d096 00c0
000003c0: 9de2 82bc 36bb 24c0 2423 49c0 98e3 eb3f
000003d0: 6e3f c03f ae95 e7bf f802 063f df4c efbf
000003e0: 727a 073f 33bc 173f 2630 2a40 6f8e 633d
000003f0: 8cee ef3e 86ca 253f 1ddd 1a40 c4a9 b0c0
0.015588112 -0.48488095 0.6402867 0.21086325 1.2141334 0.63405204 -0.74407625 1.0439444
0.92297935 -0.9461088 -0.2669688 -0.12125942 0.4109942 -2.3578491 0.2803823 -0.8352899
0.032408725 -0.31831872 0.89751667 -0.103377976 0.85981107 1.6819932 0.60848457 -0.0068355324
0.11302794 0.7942765 1.3782998 0.024709342 -0.0040652636 -1.4633269 -0.05931266 -0.92405444
1.856133 0.024016088 -1.3478795 -0.030364824 0.42633 2.3346977 -0.64569086 0.52884287
2.8337028 -0.47916946 -2.6794364 3.3121917 -0.48665893 -1.1311213 -2.4234467 -1.337293
-2.4303818 0.9815188 -1.4912574 2.346299 1.0289234 0.9936448 1.0941502 -0.87413365
-1.2404258 -2.780023 0.13999218 -0.027536884 -0.037245702 -2.4891407 -0.2890072 3.4421706
3.9782245 2.1507645 -1.9003285 -0.9513157 0.78574103 1.9675415 0.2933994 0.43596277
1.3308018 1.1833155 -0.09836069 -0.88417107 1.3811734 -2.069977 -1.1482167 1.7317584
-0.9986644 -2.2106595 -0.01481455 -0.7539048 -0.29577717 0.62261915 0.33157507 0.50351983
-2.4292815 1.1588517 0.12768053 -0.04464016 2.2285182 -0.5175348 -3.1099803 1.2635542
-0.5329275 1.2783562 -0.7439562 -1.386164 0.61651117 0.8739539 0.059858013 0.38131025
1.1238723 -1.9725837 1.0822012 0.16899367 0.29831487 -1.9527302 0.5737325 -0.14025827
0.273636 0.036803573 -0.4992253 2.226622 -1.4113148 -1.3806801 -0.48603937 -1.8666472
2.3489156 -1.1061883 -0.59486264 -1.9514024 -0.005046475 0.66048414 -0.22794873 -1.7821549
1.1755037 0.98901516 -1.1699029 -0.48428485 1.5190881 -0.031870745 -1.2254554 1.1022521
2.6879804 3.790371 -1.7225394 -0.38055095 2.1518657 -0.37394786 0.4253588 -0.03518846
-0.9936302 -2.398361 -0.6527057 0.024531573 -0.62990993 -0.32016417 -2.239065 0.2740867
2.7867916 0.77658635 -3.2380211 -1.5409675 2.3824747 -2.7125933 -2.6895335 -1.4706463
-0.052321885 1.1088903 -0.66584706 -0.49037412 2.272767 -1.3860406 0.5267303 -1.0909232
-1.47034 -0.012353259 -1.4893811 0.10095952 0.036221314 -1.1480247 0.35145625 -2.0917823
-2.333289 -0.67337286 -0.8945896 0.0076166033 2.1052253 2.0150886 -0.85810226 -1.3831524
-4.0137978 -0.9207496 0.20095308 1.0387597 0.31935388 -1.95296 -0.14996238 0.03513238
-0.16046849 -1.3377565 -2.6061368 -2.8571012 2.2313666 0.03788899 1.3462721 -1.4946511
1.1479555 1.2248853 -0.026699835 0.0011943103 -1.150211 6.051449 -0.06237376 -0.7525689
3.9199107 0.72777885 -0.6165321 -0.30693445 0.5385224 0.52516663 -0.27649635 -1.98828
-2.1478705 -3.3973694 2.1829693 -0.06988683 -0.026178678 -2.2360337 0.58997947 -0.015163999
0.15555248 0.90955263 0.0027283542 -0.70285696 -1.2377819 1.3939424 -0.9933863 -0.056296945
2.165531 -0.5738209 -0.70361406 -1.7327745 -0.56099117 -1.3966423 -4.4202523 -2.0092049
-0.015977198 -2.5739264 -3.1427698 1.8428831 1.5019357 -1.8092554 0.5234828 -1.8695334
0.5292121 0.59271544 2.6591887 0.055555757 0.46861684 0.6476215 2.4197457 -5.5207233

2.bias f4 [300]
00000000: d25c 0fc0 e254 a9bd e694 26bd 80e6 1ebf
00000010: 93b6 8dbf 6a73 99bd b60b 83bf 389e 79bd
00000020: 0db4 b5be 4968 743b 3c92 9abd 32f0 2a3f
00000030: 3071 cebd 6c93 35bd e9f8 e8bd af66 94bd
00000040: b16f 25bd 64bc c2be dfc8 93bd 67fd 1cbe
00000050: bac6 88bd d454 41bd adf0 64bd fd28 2cbd
00000060: f2d3 34bd 517f 43bd 1868 0bbe 398f 16bd
00000070: dad0 dcbd 2428 f53f 00b5 43bd 3b14 73bd
00000080: 1d36 94bc 8071 e4bd 1e9e a1c0 1d20 65bd
00000090: 200f 98bd a70c 253f 4f6d 193e a5aa 7ebd
000000a0: 623c 40be 337a a9bd a33b 823f 021e 49bd
000000b0: f706 74c0 7244 85bd c4dc 62bd f9d2 44bd
000000c0: c4e7 8abd ef49 57bd 3ed0 62bd 4814 73bc
000000d0: dcd3 7abd 92be 12bd eb9d 40bd 0f83 77bd
000000e0: ff63 0fbd 851a bfbd 9607 36bd d832 04bd
000000f0: 45e3 4f3f 7b08 07bd 2de9 363f d4bd b0bd
00000100: d4a3 f3bf 6558 13bd e642 d6bd 159a 56bd
00000110: 5675 9d3f faf9 cebc 1979 a1bd 53be c4bf
00000120: 28d1 f1bd 4ff1 69bd b1cb b1bd 6ce9 b9bd
00000130: 33ca b7bc 2647 87bd 2b1f 98bd f80f b5bd
00000140: c426 e8bc d0ed a2be 067d 07bd 0a26 fcbc
00000150: 102a 0abd 6c50 1f3b dc0c 85bd d2dd eebd
00000160: 53ed b1bd 6aef ffbe e962 5bbd 29d8 8e3e
00000170: 0a67 99bd 4ee5 74bd 8944 18c0 4752 96bd
00000180: 5a4a 02bf 98f3 cabd 03aa e53e 4256 98c0
00000190: f879 1fbc f702 543f f742 fabc cd3b 32bd
000001a0: 0bc9 c3bf 48ac cd3f 5c72 fabc c9d1 33bd
000001b0: f6ac 70bd fc81 7ebd 1418 9ebe f565 abbd
000001c0: 4c31 c7bd 8576 93bc 2dc5 0ebb 7138 f5bd
000001d0: 4dbd 0bbd f788 0e3e 1825 a8bc 543e b6bd
000001e0: 0b38 99bd b4b8 2abf 87b2 b1bd 5b26 22c0
000001f0: c8af b1bd 9c55 94bf 8179 5dbc fc30 79bd
00000200: afea 9abd 8e7a bcbc c94e 03c0 8b3b a1bd
00000210: 05fa 5ebd 70a1 2f3e 5d69 3cbd 38a4 87bf
00000220: 2c19 6dbd 8d19 0ebd 3741 5cbc bc9a 05bd
00000230: dce2 2fbd ae9f 45bd 80d2 85bd 16fa 06c0
00000240: 6c4d 4ebd cb33 60bd 2ad9 913f d90c 4ebd
00000250: e6ed 5dbd 4c6f 05bd 3a3a 74c0 e9b3 7d3a
00000260: bb94 7fbd b516 0bbd 2467 00bd df84 a0be
00000270: 4616 863d b3aa 55be 2f47 97bd 559b 4cbc
00000280: 9097 53bd 028d e5bd f29b 89bd 0cf3 87bd
00000290: 397f 48bd a140 fcbf 7a52 af3e 5fd3 e9bd
000002a0: 4eb0 263f 5bd2 2dbd f2bb acbd 651a f5bc
000002b0: 1e2b 13bd d6b7 95bd 9c9a 033f 81c9 31bf
000002c0: d747 8cbd f386 37bc 77a3 3ebd 99c2 84bd
000002d0: cddd 19bd 6667 a73f 63d4 e3bd 716a 85bd
000002e0: 93b1 cdbd eff1 11bd a01e 5a3f 7e94 b4be
000002f0: 7711 243e 0dfc 563f 29ff 91bd 1442 0bbd
00000300: 2d43 59bb 6091 35bf 83a5 673e fced bdbd
00000310: 75a1 09bd 29ad cdbd f33b 2b3f 4a8c 84bd
00000320: 88b6 d6bc cc4e 9bbd 68a5 9abd 37f5 563f
00000330: b28d 2f3e 3bdd 323f 9994 cabd 84df 42bd
00000340: 9da4 babc f1b7 96bd e34f 92bd ed43 a7bd
00000350: 5cf3 08c0 8c05 6cbd 4a99 12bd 3a8d 0ebc
00000360: f542 9abd 2df3 98bf e0c1 11bd 89d2 79c0
00000370: ce01 1dbd 56e9 4dbd 02b0 73bf aa4b 07c0
00000380: 7999 9fbe 819c 8ebf 4ab5 8abd d60c dc3d
00000390: 79d4 943f 1b81 a6bd 2cff 3fbd 976b 9bbd
000003a0: 7812 503e fb2d e2ba 5783 a1bd a664 efbc
000003b0: 2003 87bd c4f9 03c0 db22 cbbd c97e ecbc
000003c0: 8127 80bd 109d 5bbe a645 d7bd e9c1 acbd
000003d0: 4987 f33e b9e5 49bd f831 93bd aaa7 47bd
000003e0: 5580 ffbc 49ab 1640 f505 b2bc 5715 33bd
000003f0: 0076 04bc 4e9a 37bd 98fd 183f 48fa 02bd
-2.2400403 -0.08268143 -0.040669344 -0.62070465 -1.1071342 -0.074927166 -1.0237949 -0.060941905
-0.3548893 0.0037293604 -0.07547423 0.6677276 -0.100801826 -0.044330046 -0.11375601 -0.07246148
-0.04038972 -0.38034356 -0.072160475 -0.1533104 -0.06678529 -0.04720004 -0.05589359 -0.042031277
-0.04414744 -0.04772884 -0.13613927 -0.03675768 -0.10782023 1.9152875 -0.047780037 -0.059345465
-0.01809221 -0.11154461 -5.0505514 -0.05593883 -0.0742476 0.6447243 0.14983104 -0.062174458
-0.18773034 -0.08275261 1.017445 -0.049100883 -3.812925 -0.065071955 -0.05538632 -0.04805276
-0.06782487 -0.052560743 -0.055374376 -0.014836378 -0.0612372 -0.035826273 -0.047025602 -0.06042772
-0.035007473 -0.0933123 -0.04444083 -0.03227505 0.8120616 -0.032967072 0.7144955 -0.08629957
-1.9034371 -0.03597297 -0.104619786 -0.052393038 1.2301433 -0.025265682 -0.07884426 -1.5370582
-0.118074715 -0.057114895 -0.08681429 -0.09077725 -0.022435283 -0.06605367 -0.0742782 -0.088409364
-0.028338797 -0.31822062 -0.033078216 -0.030779857 -0.03373152 0.002430941 -0.06496593 -0.116634026
-0.08687844 -0.49987346 -0.053561125 0.27899292 -0.07490356 -0.059788994 -2.379183 -0.07339912
-0.508947 -0.09909743 0.4485627 -4.7605295 -0.009733669 0.82817024 -0.03054951 -0.04351406
-1.5295728 1.6068201 -0.030572109 -0.04390124 -0.0587587 -0.06213568 -0.30877745 -0.08369056
-0.097261995 -0.01800085 -0.0021785006 -0.11973656 -0.03411608 0.13919435 -0.0205255 -0.08898607
-0.074813925 -0.66688085 -0.086766295 -2.533591 -0.08676106 -1.1588626 -0.013517738 -0.06083773
-0.075642936 -0.023007657 -2.0516837 -0.07872685 -0.054437656 0.17151427 -0.04599892 -1.059699
-0.057885334 -0.034692336 -0.013443283 -0.03261827 -0.04294096 -0.048247986 -0.0653429 -2.109014
-0.050366804 -0.054736894 1.1394398 -0.05030522 -0.054181956 -0.032576844 -3.8160539 0.0009677993
-0.0623977 -0.033957202 -0.031348363 -0.31351373 0.06547217 -0.20865898 -0.07386624 -0.012488206
-0.051658213 -0.11208536 -0.06719197 -0.066381544 -0.048949454 -1.9707223 0.34242612 -0.11417269
0.6511277 -0.04243694 -0.08434285 -0.029919812 -0.03592979 -0.073104545 0.5140779 -0.69448096
-0.0684964 -0.011201608 -0.04654261 -0.06482429 -0.03756504 1.307843 -0.11124494 -0.06514443
-0.10043635 -0.035631116 0.8520298 -0.3526954 0.16022287 0.8397835 -0.07128746 -0.033998564
-0.0033151612 -0.7092495 0.22621731 -0.092739075 -0.033601243 -0.10042793 0.6688835 -0.064720705
-0.026210085 -0.07583389 -0.0755108 0.8396792 0.17143896 0.6986882 -0.09891624 -0.047576442
-0.022783572 -0.07359303 -0.071441434 -0.08167253 -2.1398535 -0.057622477 -0.03579072 -0.008700663
-0.07532302 -1.1949211 -0.035585284 -3.903475 -0.0383318 -0.050271355 -0.9519044 -2.1139932
-0.31171778 -1.1141511 -0.067728594 0.10744636 1.1627342 -0.08130094 -0.04687421 -0.075888805
0.20319545 -0.0017256135 -0.07886379 -0.029222798 -0.06592393 -2.0621195 -0.099187575 -0.02886905
-0.06257535 -0.21446633 -0.10511331 -0.08435423 0.47564152 -0.049291346 -0.07187265 -0.04874388
-0.031189123 2.3542044 -0.021731356 -0.043721523 -0.008084774 -0.04482489 0.59761953 -0.031976968

4.weight f4 [1, 300]
00000000: 1359 b9be c046 983b aa60 efbc 8e16 c2be
00000010: 3128 6e3e 4306 983c 6e0e 4c3e 0ced 39bc
00000020: 4541 93be d27a 7abc edb4 133b 19d4 fdbe
00000030: 34e7 adbb 75ac 79be 2b08 fb3b b737 4f3b
00000040: 67b9 85b7 ba07 0b3f 8be6 cf3c ea42 b23c
00000050: 601d 16bc 82ac 27bb 5c58 b8bc ffb8 33bd
00000060: f255 1bbd 6a6d 1abb 7e9d 833f 72e6 30bc
00000070: b524 d6bc f3a0 cc3e 94e3 a43c 4286 483c
00000080: 737a 873c 9cb6 0d3c 4c66 ecbe 5f57 c3bc
00000090: dd17 3d3c 15df 983e 4282 103f 368a c7bb
000000a0: 5d66 8c3e 93b4 533b 1c45 41c1 0f28 bb3b
000000b0: 926a 83be 098b a43c 934e 293c 7874 73bc
000000c0: 46be 4b3b aa69 013d e776 16bc b6ad 65bb
000000d0: 825c 9a3e 11e3 c5bc fd69 0e3d 849f 29bd
000000e0: 9d20 873c 343e e03c b93a dc3b c953 fd3a
000000f0: d6ce 2c41 1fb1 f13b e88c 723e 31b9 d13c
00000100: ca9e 373e b5be b03b d0d3 7f3b 7d49 06bc
00000110: cb01 8cc0 b828 dcbc 9dea daba 8b78 3b3f
00000120: a644 c7bc d673 013d 07ce c33b 9baf 153d
00000130: ee11 8a3c 2cad 06bd d926 313c 1b36 97bc
00000140: 8941 593c 2fa5 393f 6c26 9a3b e56b 043d
00000150: db58 c73c 2bef 073c a752 5a3c a88b b63c
00000160: 1de7 0e3d d65c 293f 4f94 793c 3e6b 94be
00000170: cf9d 903c ab89 f6bb d5dd fabe fd83 dabc
00000180: 4649 75be 2461 b83c 072e f141 0440 f63e
00000190: 2e14 0dbd 6791 7c3e 0f8e 09bc 2fa2 903c
000001a0: e43f 21bf b2d5 2cbf 21ea 60bb 9339 3bbe
000001b0: 3a1e d9bc 61c0 a2bc 90f0 863e 3c3d 383c
000001c0: 3a7d b8bc 324e a8bb b60a ccb7 6a71 883b
000001d0: 513d a8bc b81b 4abf a265 163c 4e8a 4fbc
000001e0: e744 a23c ef29 233e fef7 5d3b d819 833f
000001f0: 8f29 33bd 5b0d 2dbe bde6 303b 27c5 c0bc
00000200: e47e 0ebc 47d6 59bb baba 54be 7501 013b
00000210: 34d2 7ebc 992e 91be 2ce6 a33a 2b60 88be
00000220: e582 95bc 1834 293c 0849 acbc c899 883c
00000230: 9b6e 4dba f9cb 8dbc 5df8 c3ba 3acb 85be
00000240: 5f35 bdbc 1e5a e33c 7f15 4a3f ea86 053c
00000250: bed5 b43c 575a 923e 15f2 2a3f 0380 263b
00000260: bef7 5cbc b6f2 393c 7e4e 1c3c 9c0c 47c0
00000270: 62dc 5441 a24b 13ba fda2 3dbc 6b6a a4bc
00000280: d3ed 123b 7129 593c 2875 ce3c 2c78 4abc
00000290: 9ed6 93bc 55f8 e1be 0a3c b33e d162 303e
000002a0: 9f06 2fbe c06e 7ebc b27d b3ba 18d0 f53b
000002b0: 98d8 f4bb 7f72 b1bc 5ab7 403f f1dd 8cbf
000002c0: 351f a93c 21cb 823b 2e2e b23a 4478 99bb
000002d0: 6925 1fb8 d87c 31bf cdd7 4a3c bc83 083b
000002e0: 18d2 6b3c 383d a03c 2c32 b8be dac6 d4ba
000002f0: cca3 7fbe 40e0 ebbe 0aa1 9c3c 736a ddbb
00000300: 252b 02bd 9bd3 25bf cf88 c63e c7c2 a33c
00000310: cee7 03bd b9b6 903c 42a6 e83d 06ab ffbb
00000320: 112d 123d facc edbb 0240 a03c e32b 7cc0
00000330: 5fae 85be 3ca0 98be f3dc 5e3b d1ae 003c
00000340: 60cb 183c 9aa8 ea3b 7100 93bb 7d1f 7d3c
00000350: befa 8bbf 8733 26bd c40c b33c 0a0c 823c
00000360: 40e4 fabc f31e 66be be78 c13b f20b 64be
00000370: fc1b 9abc d84d 063c cb56 c63e 4295 16bf
00000380: f822 ebbe e82e f3bd 646a 853b ca03 cabe
00000390: 8c67 653e 80d3 a33c 3423 bc3c 04c4 b3bc
000003a0: 4e91 553d f95e 6abc 7073 a03c 4222 e1bc
000003b0: ccd1 77bb c0d3 753e d96a 51bd f1c3 f6bb
000003c0: 6471 d2bc a4f6 6dbc ec29 fd3c d918 cf3b
000003d0: b44d 513f 05fd e43c 53a9 d2bc 5d8d 0abb
000003e0: 3258 a0bd c161 323f 31fa 0e3d 8b2d 3c3c
000003f0: e3c1 4f3d bc6a 9e3c f9f9 48c1 ecce 153d
-0.3620077 0.004647106 -0.029220898 -0.37907833 0.2325752 0.018557673 0.1992738 -0.01134802
-0.28760734 -0.015288072 0.002253826 -0.4957588 -0.0053071026 -0.24382193 0.007660886 0.0031618902
-1.594117e-05 0.54308665 0.025378486 0.021760423 -0.009162277 -0.0025585 -0.02250307 -0.043877598
-0.03792376 -0.002356375 1.0282438 -0.01079713 -0.02614055 0.39966545 0.020128049 0.012239041
0.01653788 0.0086494945 -0.46171796 -0.023845373 0.011541334 0.29857698 0.5644876 -0.006089474
0.27421847 0.0032303676 -12.079372 0.0057115625 -0.25667244 0.020085828 0.010333675 -0.014859311
0.0031088754 0.03159491 -0.009183622 -0.0035046167 0.30148703 -0.024156125 0.034769047 -0.04141189
0.016495043 0.02737341 0.0067208675 0.0019327338 10.800497 0.007375851 0.23686564 0.025601001
0.17931667 0.005393828 0.0039036162 -0.008196232 -4.375219 -0.026874885 -0.0016702 0.7323081
-0.024324726 0.03160461 0.005975488 0.036544424 0.016854253 -0.032879993 0.010812485 -0.018458417
0.013260254 0.72517675 0.0047042873 0.03232946 0.024334362 0.008296768 0.01332537 0.02228339
0.034888376 0.6615728 0.015233113 -0.2898807 0.017653374 -0.0075237355 -0.4899737 -0.026674265
-0.23953733 0.022507258 30.147474 0.48095715 -0.034443073 0.24664842 -0.008395686 0.01765546
-0.62988114 -0.67513573 -0.003431924 -0.18283682 -0.026503671 -0.019867124 0.2635541 0.011245068
-0.02252065 -0.0051362747 -2.4323683e-05 0.0041639106 -0.02053705 -0.78948545 0.009179505 -0.012667252
0.019808246 0.15933965 0.0033869739 1.0242262 -0.043740805 -0.16899626 0.0026993 -0.02353151
-0.008697245 -0.0033239292 -0.20774356 0.0019684706 -0.015553046 -0.28355864 0.001250451 -0.2663587
-0.018250892 0.0103273615 -0.021030918 0.016674891 -0.0007836611 -0.017309176 -0.0014951337 -0.26131612
-0.023096738 0.027752932 0.7893905 0.008149842 0.022074576 0.2858455 0.6677564 0.002540589
-0.013486801 0.011349371 0.009540198 -3.1101446 13.303804 -0.0005618875 -0.011574504 -0.020070275
0.0022419586 0.013254509 0.025202349 -0.012357753 -0.018046673 -0.44134775 0.35006744 0.17225195
-0.1709237 -0.015529335 -0.0013694076 0.0075016133 -0.007472109 -0.021661041 0.7527977 -1.1005231
0.020644763 0.0039915 0.0013594085 -0.0046835262 -3.7943395e-05 -0.6933112 0.0123805525 0.0020830473
0.014393352 0.019560441 -0.35975778 -0.0016233579 -0.24964827 -0.46069527 0.019119758 -0.0067570745
-0.031779427 -0.6477601 0.38776252 0.019990338 -0.032203488 0.017665254 0.11359836 -0.00780237
0.03568751 -0.007257101 0.019561771 -3.9401786 -0.26109597 -0.2980975 0.0034006208 0.0078541795
0.009325832 0.007161212 -0.0044861366 0.015449402 -1.0935895 -0.040576484 0.021856673 0.015874881
-0.030626416 -0.22472744 0.005904286 -0.22270182 -0.018812172 0.00819727 0.38738093 -0.588215
-0.45925117 -0.11874181 0.0040715206 -0.39456016 0.22402781 0.019998312 0.022966005 -0.021944053
0.052140526 -0.01430487 0.019586295 -0.027482156 -0.0037814258 0.24006557 -0.05112729 -0.0075306823
-0.025688834 -0.014524136 0.030903779 0.0063201007 0.8175919 0.02795268 -0.025715506 -0.0021141388
-0.07829322 0.6968041 0.03490657 0.011485468 0.050722014 0.019338004 -12.5610285 0.03657429
