results/c_0_2/116742_except/q_func2.pt (torch, 502309 bytes, 5 tensors)

1.weight f4 [400, 10]
2.4221656 -2.3755126 1.898091 8.71645 0.22550239 1.022781 -2.6294956 -0.6529147
1.02682 0.07943746 0.53098387 4.7150884 2.259412 7.8424997 4.0350757 0.75428003
-0.33053002 -0.31170085 0.3618553 0.0618568 3.9926672 2.2958982 -8.842674 -0.076346666
-5.9280505 -3.3714879 1.0014071 -1.3921843 -3.857472 -0.23853587 -4.856016 -3.157995
0.37747356 1.3385469 -5.261654 0.19972019 1.1277213 0.10595928 -2.3563194 0.002811726
-0.46098432 6.5402017 -0.28845027 -0.13166775 0.7501305 0.46245673 -2.9467852 -2.5236049
0.53817594 0.038417496 -4.832023 2.9722688 -4.087313 -4.9822946 -3.9748394 -0.94933826
1.3271306 -1.2201436 -0.019440617 -0.053321123 1.1732117 6.16637 -9.925246 0.5950234
-1.3393294 -3.3702435 0.72370243 -0.018693335 0.16676033 -0.22747993 2.7152076 -4.509709
4.369646 -0.22708172 -1.2283959 4.666115 -0.066380076 -0.029876094 -0.32668158 0.5357656
-0.3038497 -1.2735586 -3.3385797 -3.947049 -3.8851862 -1.5114415 0.6188502 0.07160432
-4.166748 -0.12916721 7.2444944 4.6861978 -0.20827894 7.120405 1.6101478 -0.09957453
-6.0427465 0.26959136 -0.18336348 -0.019130243 -1.7907356 -4.660756 -5.639315 -0.9866531
-6.318598 -2.0763083 1.9127911 -4.852709 -2.5587175 -0.19694631 -1.1808699 -9.228423
2.8576994 -8.899506 2.7651846 1.0015699 -3.1658742 -0.22643173 -0.5825392 0.061812136
-6.8186007 0.32234266 -0.69308895 -14.671412 -4.2843676 0.029480895 -4.677393 -2.6712475
0.22571594 -0.0044918973 7.8894224 -6.654401 2.1807926 -3.6354733 2.5084083 0.61625916
-0.36247528 -1.1803156 -0.7350261 0.027025908 0.2818979 4.925006 -0.76850784 9.566918
-0.14514896 0.19053334 -6.031777 0.07823075 0.0013594328 0.0023542694 5.4752226 -3.1190495
-2.3507426 3.9958522 -5.249307 0.7956084 0.6426954 1.0996428 -1.6434333 0.07182168
-9.066305 -4.62331 -2.0522559 2.7242193 -5.8994126 -0.44439566 -2.0208025 0.63183725
0.051413365 -0.024957728 -4.493365 7.325563 0.45556194 -7.8614497 6.715398 -0.12046147
-0.30949372 -0.44186082 0.03492642 0.0014283865 0.8240358 4.590679 -5.6171055 -0.70299506
-2.234056 -1.2257208 0.21868157 0.12567982 -0.66793436 -0.07251161 0.094211094 2.386604
-1.7485349 5.859331 10.636427 -0.4047747 0.020096464 -0.536425 0.059823215 -0.010572891
2.0780716 -0.6492248 -1.0797036 -19.339771 -5.9780765 -1.6083003 -7.713602 1.0081085
-5.056622 -0.05716146 -3.190769 -0.6096977 -1.7241584 -3.8518486 -9.687082 0.0999239
-4.198905 -0.6080582 0.71958774 0.00726758 -5.363777 1.5020815 -2.3493958 8.500181
-3.9243252 -0.5747106 -0.54568815 0.07514099 -0.021433719 -0.05063947 -3.9591749 1.9244059
-0.17663921 -1.351983 -0.20738846 -17.229177 0.24177091 -7.6084704 0.015426828 -1.7493088
-9.731267 6.9961596 -0.6537626 -4.9358354 4.0154214 -0.30264157 -2.6827908 0.3776623
0.03120366 0.0006950144 -8.920305 2.7676308 -1.0306488 -1.2945522 0.22462882 -0.036644194
00000000: c304 1b40 6608 18c0 a5f4 f23f 9476 0b41
00000010: 19ea 663e 7dea 823f a849 28c0 6b25 27bf
00000020: d66e 833f 1bb0 a23d 8fee 073f 01e2 9640
00000030: 359a 1040 c2f5 fa40 571f 8140 7f18 413f
00000040: 3b3b a9be 4197 9fbe 1945 b93e 8e5d 7d3d
00000050: dc87 7f40 ffef 1240 987b 0dc1 a45b 9cbd
00000060: 97b2 bdc0 75c6 57c0 1c2e 803f 1833 b2bf
00000070: d2e0 76c0 bf42 74be 7c64 9bc0 971c 4ac0
00000080: 3744 c13e 8155 ab3f 785f a8c0 7383 4c3e
00000090: 2c59 903f 2e01 d93d f0cd 16c0 ef44 383b
000000a0: 2306 ecbe 5549 d140 c1af 93be e9d3 06be
000000b0: 8d08 403f 21c7 ec3e 2198 3cc0 be82 21c0
000000c0: e6c5 093f aa5b 1d3d ef9f 9ac0 a739 3e40
000000d0: 45cb 82c0 f56e 9fc0 c563 7ec0 d507 73bf
000000e0: 6adf a93f aa2d 9cbf ee41 9fbc 4067 5abd
000000f0: cd2b 963f e752 c540 cfcd 1ec1 7453 183f
00000100: 256f abbf 12b2 57c0 9044 393f c422 99bc
00000110: 38c3 2a3e 80f0 68be f6c5 2d40 894f 90c0
00000120: 24d4 8b40 1c88 68be 143c 9dbf d050 9540
00000130: 47f2 87bd b6be f4bc cf42 a7be ef27 093f
00000140: 3092 9bbe f803 a3bf 4aab 55c0 739c 7cc0
00000150: e4a6 78c0 ea76 c1bf f76c 1e3f 49a5 923d
00000160: 0056 85c0 6944 04be e6d2 e740 55f5 9540
00000170: 1347 55be 5cda e340 5319 ce3f bbed cbbd
00000180: 2e5e c1c0 e107 8a3e a3c3 3bbe 07b7 9cbc
00000190: d336 e5bf ea24 95c0 4575 b4c0 4c95 7cbf
000001a0: f431 cac0 3ce2 04c0 57d6 f43f 6449 9bc0
000001b0: 07c2 23c0 4bac 49be bf26 97bf 9fa7 13c1
000001c0: 8ce4 3640 6064 0ec1 c9f8 3040 7133 803f
000001d0: af9d 4ac0 b8dd 67be 4a21 15bf b92e 7d3d
000001e0: fa31 dac0 190a a53e 476e 31bf 1bbe 6ac1
000001f0: 8a19 89c0 eb81 f13c 34ad 95c0 b8f5 2ac0
00000200: 1422 673e c430 93bb 2676 fc40 daf0 d4c0
00000210: 1b92 0b40 98ab 68c0 c389 2040 29c3 1d3f
00000220: 5c96 b9be 9514 97bf ac2a 3cbf 7065 dd3c
00000230: ec54 903e a699 9d40 eebc 44bf 1912 1941
00000240: eea1 14be 2c1b 433e 5104 c1c0 7237 a03d
00000250: ff2e b23a 164a 1a3b 0635 af40 829e 47c0
00000260: 9172 16c0 0bbc 7f40 53fa a7c0 feac 4b3f
00000270: b087 243f 18c1 8c3f 065c d2bf 3f17 933d
00000280: 960f 11c1 28f2 93c0 2958 03c0 9c59 2e40
00000290: fdc7 bcc0 d487 e3be d454 01c0 16c0 213f
000002a0: d296 523d 2674 ccbc a5c9 8fc0 036b ea40
000002b0: 6a3f e93e ff90 fbc0 8ae4 d640 81b4 f6bd
000002c0: f675 9ebe 953b e2be 010f 0f3d b338 bb3a
000002d0: 03f4 523f d8e6 9240 54bf b3c0 7cf7 33bf
000002e0: c6fa 0ec0 6be4 9cbf 10ee 5f3e 36b2 003e
000002f0: bffd 2abf f880 94bd bff1 c03d 1fbe 1840
00000300: fecf dfbf a47f bb40 ce2e 2a41 a13e cfbe
00000310: 57a1 a43c 2653 09bf 3009 753d eb39 2dbc
00000320: 20ff 0440 9933 26bf ba33 8abf dab7 9ac1
00000330: 674c bfc0 c9dc cdbf d4d5 f6c0 b309 813f
00000340: d9cf a1c0 2322 6abd 8f35 4cc0 2615 1cbf
00000350: 39b1 dcbf b084 76c0 4afe 1ac1 e7a4 cc3d
00000360: 6e5d 86c0 b4a9 1bbf e736 383f e124 ee3b
00000370: 10a4 abc0 3544 c03f 805c 16c0 be00 0841
00000380: 2528 7bc0 3c20 13bf 38b2 0bbf 85e3 993d
00000390: c495 afbc 556b 4fbd 1f63 7dc0 ef52 f63f
000003a0: e9e0 34be c70d adbf a45d 54be 5bd5 89c1
000003b0: cb92 773e 9778 f3c0 cec0 7c3c 5ae9 dfbf
000003c0: 45b3 1bc1 8ae0 df40 fc5c 27bf 5df2 9dc0
000003d0: 557e 8040 d6f3 9abe d8b2 2bc0 f45c c13e
000003e0: d19e ff3c a031 363a 92b9 0ec1 dd20 3140
000003f0: 4dec 83bf e3b3 a5bf 1905 663e 3918 16bd

1.bias f4 [400]
-1.3830085 -2.5705347 -0.705207 -0.024445537 -1.5051624 -0.4267597 -0.654405 -1.7809737
0.5033073 -2.0815775 -1.2927583 0.19523135 0.20078726 -0.23557177 -0.7405449 -1.1228354
0.43249494 -0.4515007 -0.09982973 -0.22615242 -1.1096618 0.016625715 0.18611944 -0.1134706
-0.81626797 -1.0497363 -1.0530571 -0.29324138 -0.51176697 -1.7374772 0.6223201 -0.39046732
-0.68336517 -1.16879 -0.58479804 -0.6094424 0.25592238 -0.7995461 -0.20549428 -0.7041401
-0.50091976 0.39989015 -1.0646398 0.008596568 -1.7838279 -0.6063166 -0.17092068 -0.55889577
-0.71600103 -0.46907133 -0.67838126 -0.39576474 -0.5114285 -0.24444942 -0.59114754 0.41984177
-0.12127173 -0.16062084 -0.41224238 0.997857 -0.31790027 -0.9574006 -0.6111507 -1.7212282
-0.9734017 -0.35730657 0.13541585 -1.4106095 0.12517685 -0.53873044 -1.0573448 -0.65974885
-0.32877535 -0.8825804 -0.9574246 -0.3596758 -0.9978178 -0.94799006 -0.30326995 -0.062179457
-1.5514601 0.4243912 -1.4397708 -0.96786684 0.5267084 0.109588176 0.15464455 -1.3086325
-0.5960626 -1.6681201 0.008177746 -0.38939467 -0.24583638 -0.35253486 0.63152134 -0.53239536
-2.0741282 0.09048403 0.28611588 -2.2752929 -0.12202083 0.018711638 -0.35441855 -2.6702268
-0.09303088 -1.3979039 -1.4816676 -1.0258317 0.51593393 -1.5060395 -0.13594764 -0.46438712
1.0068094 -0.390008 -1.9512802 -1.2805908 -0.8420218 -0.3858429 -0.2759838 0.05865909
-0.01828167 -0.57785785 0.03901751 -0.82236755 -0.97953475 -1.0076092 -0.37529635 -0.6083698
-0.5265133 -2.4248369 0.23956293 -2.3435433 -0.6158647 -2.077031 0.3244639 -0.6858169
0.4819638 0.16697383 -0.36844823 0.7261944 0.33814284 -0.8358147 -0.3830511 -0.6103672
-0.3552352 -0.5609043 -1.1994299 -0.21217944 0.50609404 0.43950665 -0.7540667 -0.6205059
-0.74146587 -0.30080104 -1.0057962 -1.0880274 -0.77251047 -0.36151293 -2.1013913 -1.59453
0.80203784 0.089314386 -0.5461526 -0.7888291 -0.94376945 -1.9825698 -0.79138786 0.33385536
-0.8752524 -0.15126769 -0.9256105 -0.43516156 0.15624109 -1.8178127 -0.61944073 -1.8638502
-1.5320832 -0.25113112 -0.81904674 0.16833693 -1.0584127 0.27176085 -0.778668 0.3796126
-0.8928586 -1.7922003 0.9174684 -0.7109123 -1.190206 -0.4373067 -0.015633347 0.49816328
-0.21782404 -0.34598526 -1.8190124 -0.4104301 -0.3733158 -0.4720324 0.113447115 0.4138554
-2.3793633 -0.44923487 -1.9820471 -0.32841933 -2.2410388 0.35506418 0.24673139 -0.59039515
-0.6620351 -1.365789 0.08920635 -2.211696 -0.044366736 -1.264726 -0.685013 -0.15486924
-0.0524951 -1.4530431 -0.9216394 0.7004088 0.4662963 -1.196143 -1.2287767 -0.512009
-0.59800136 -2.502264 -0.283998 -0.20613582 0.37927014 -0.24580137 0.48682714 0.14964993
-0.10601136 -0.2736103 -1.617262 -0.33844626 -1.3085123 0.19387162 0.4852611 -1.1037537
-0.5268572 -0.91262877 -0.15423721 -0.92187953 -2.7954893 -0.95496476 -0.6268131 -0.2043646
0.65785277 -1.5559415 0.29263857 -2.848454 0.18476151 0.084265865 -0.8284262 -0.025953937
00000000: 6c06 b1bf a483 24c0 7288 34bf 0242 c8bc
00000010: 29a9 c0bf 3f80 dabe 1687 27bf f2f6 e3bf
00000020: bfd8 003f 9138 05c0 1b79 a5bf baea 473e
00000030: 2d9b 4d3e ba39 71be 5a94 3dbf 12b9 8fbf
00000040: fa6f dd3e 1a2b e7be 8873 ccbd 8094 67be
00000050: 6609 8ebf a732 883c 1896 3e3e 4663 e8bd
00000060: f0f6 50bf c25d 86bf 93ca 86bf bc23 96be
00000070: 2903 03bf a765 debf 5f50 1f3f 55eb c7be
00000080: 05f1 2ebf e99a 95bf 53b5 15bf 6b04 1cbf
00000090: 4208 833e 0eaf 4cbf 186d 52be 8742 34bf
000000a0: 473c 00bf 67be cc3e 1e46 88bf 9fd8 0c3c
000000b0: 7954 e4bf 9137 1bbf d505 2fbe cb13 0fbf
000000c0: d84b 37bf 1e2a f0be 65aa 2dbf ada1 cabe
000000d0: faec 02bf f350 7abe 7255 17bf 80f5 d63e
000000e0: 505d f8bd ca79 24be 6f11 d3be 8e73 7f3f
000000f0: d3c3 a2be 3518 75bf 5f74 1cbf 3551 dcbf
00000100: db30 79bf e3f0 b6be 74aa 0a3e da8e b4bf
00000110: 5c2e 003e 3dea 09bf 1357 87bf 4de5 28bf
00000120: 3e55 a8be caf0 61bf c719 75bf 6d27 b8be
00000130: fd70 7fbf 7aaf 72bf 3346 9bbe e3af 7ebd
00000140: 3f96 c6bf ce49 d93e 694a b8bf 1fc6 77bf
00000150: 5dd6 063f c46f e03d 245b 1e3e 4581 a7bf
00000160: 8f97 18bf f684 d5bf f4fb 053c bd5e c7be
00000170: 88bc 7bbe 737f b4be 62ab 213f 104b 08bf
00000180: 84be 04c0 b14f b93d c87d 923e 669e 11c0
00000190: 0fe6 f9bd 2649 993c 5976 b5be ffe4 2ac0
000001a0: f986 bebd 84ee b2bf 49a7 bdbf 744e 83bf
000001b0: 3f14 043f e7c5 c0bf dc35 0bbe 26c4 edbe
000001c0: 21df 803f 21af c7be 8dc3 f9bf 66ea a3bf
000001d0: be8e 57bf 338d c5be c04d 8dbe 8444 703d
000001e0: 71c3 95bc 7eee 13bf d3d0 1f3d ae86 52bf
000001f0: cac2 7abf 57f9 80bf d826 c0be 20be 1bbf
00000200: 93c9 06bf 8730 1bc0 fc4f 753e 9dfc 15c0
00000210: 4fa9 1dbf 13ee 04c0 2220 a63e b291 2fbf
00000220: f6c3 f63e 30fb 2a3e 3fa5 bcbe e0e7 393f
00000230: 0f21 ad3e f4f7 55bf 461f c4be 0641 1cbf
00000240: 63e1 b5be 6d97 0fbf eb86 99bf 9145 59be
00000250: 618f 013f 0407 e13e 840a 41bf 7ad9 1ebf
00000260: b5d0 3dbf 9802 9abe eebd 80bf 7b44 8bbf
00000270: 3fc3 45bf 3918 b9be 327d 06c0 8f19 ccbf
00000280: 5a52 4d3f 76ea b63d a8d0 0bbf b4f0 49bf
00000290: e09a 71bf d9c4 fdbf 6598 4abf 17ef aa3e
000002a0: 8b10 60bf ebe5 1abe cff4 6cbf 7fcd debe
000002b0: aafd 1f3e 16ae e8bf ab93 1ebf a592 eebf
000002c0: 4d1b c4bf 4294 80be 0cad 51bf 8460 2c3e
000002d0: 117a 87bf 3d24 8b3e c956 47bf 955c c23e
000002e0: 6292 64bf d266 e5bf 36df 6a3f 59fe 35bf
000002f0: ac58 98bf aae6 dfbe 8111 80bc 420f ff3e
00000300: 440d 5fbe fb24 b1be 66d5 e8bf e523 d2be
00000310: 4023 bfbe 3bae f1be f656 e83d dbe4 d33e
00000320: 7d47 18c0 1d02 e6be b8b3 fdbf 9426 a8be
00000330: 2e6d 0fc0 f9ca b53e 27a7 7c3e 2324 17bf
00000340: 227b 29bf 2dd2 aebf d2b1 b63d 6d8c 0dc0
00000350: e5b9 35bd 8be2 a1bf 035d 2fbf 0b96 1ebe
00000360: 1a05 57bd 51fd b9bf 8ff0 6bbf fe4d 333f
00000370: 63be ee3e 371b 99bf 8e48 9dbf 0613 03bf
00000380: 9e16 19bf 1825 20c0 3068 91be 4515 53be
00000390: b22f c23e 5bb3 7bbe 6841 f93e d53d 193e
000003a0: 7c1c d9bd a616 8cbe 7102 cfbf d448 adbe
000003b0: 557d a7bf 4886 463e 2574 f83e cd47 8dbf
000003c0: 1de0 06bf 0aa2 69bf 5cf0 1dbe 4c00 6cbf
000003d0: 4ce9 32c0 9278 74bf d376 20bf f444 51be
000003e0: 0a69 283f 1729 c7bf b9d4 953e 124d 36c0
000003f0: 1f32 3d3e 9593 ac3d bd13 54bf 5a9d d4bc

3.weight f4 [300, 400]
-1.641896 -3.411754 0.13104536 2.3991284 2.880909 1.1785415 -1.1517003 -6.437892
-0.07410655 2.2622242 -2.4595804 -3.0786223 -4.390974 2.9562495 -4.1825614 -3.4777997
3.244767 0.9021063 -0.58733606 -1.6871293 -1.7723873 0.9371216 -3.7817025 -0.032492384
2.5851898 -1.7912558 -3.4688141 -0.0030448437 5.02063 0.329248 -8.357996 -1.9793124
-2.9114501 -1.3636708 -1.7177602 -0.94426656 2.9274027 -0.8598938 0.5173156 -0.9622899
-2.0625424 0.9520233 -1.3562216 -0.046310272 1.1314151 0.40502712 0.5688031 -9.431356
0.46541148 0.10502548 2.954405 -0.44086906 3.223183 7.1889353 0.9774585 -1.1703489
0.5360789 0.26578608 -2.066797 0.13738002 4.858811 -1.8758965 1.9432418 -2.638029
3.4316432 0.99023306 0.013596166 -0.9125634 0.70630604 -2.986213 -1.6500522 -0.7491667
-1.5763564 -5.9998145 3.5153136 -0.006200361 -2.3001602 0.15498899 -0.7502702 5.0131135
-1.4196404 -2.8978317 -3.6851025 -0.8949366 -0.3713295 -10.934031 0.9268609 -0.9951446
-0.32207716 -2.3793702 0.40197662 0.08853754 2.703829 -0.79253966 0.8920727 1.1318742
-0.7198462 -0.035108063 -0.47163373 -0.13138187 1.0240773 -0.28064775 -6.207017 -2.320654
-3.3911898 0.24004638 -6.527587 -2.0953205 -8.738665 1.7077116 0.7510968 -1.0342185
-1.5562174 -1.437201 1.4431194 -11.403751 -5.536262 -0.04479307 0.012953514 -0.8058299
0.17430475 -1.0963993 1.4269353 0.40703005 2.492586 1.5311165 -6.9395533 -1.1514367
-7.9505553 -2.8457947 2.001669 -3.9178925 -0.014007641 -0.27834195 0.9683688 5.9616156
-6.9618464 -1.0857359 -0.23020463 2.0123508 2.240216 0.50915676 0.16916695 1.5648923
-0.62800455 -0.78638166 -3.7655208 -0.035609394 0.30942354 -8.484143 -2.306792 3.8552854
-1.9271903 -0.44641188 2.9080927 -0.8105416 -0.20634885 -3.6144326 1.2827235 -14.083665
-0.72600585 2.3633723 -0.4829844 0.4576045 -0.20965235 0.65980273 0.6915505 -16.300907
0.6491394 -0.037773583 -0.016033677 1.3302022 0.10420346 1.0115222 1.2146653 0.8083048
-1.2381685 -0.014034075 -2.5951114 -0.13723634 -5.7765856 2.3370595 -2.0801845 1.1361809
-0.4597018 -1.7395903 -1.0634397 -2.7356935 -2.9733188 0.15228179 -4.7432256 -2.018554
0.5306191 -1.0234427 -0.674205 4.965713 1.36738 -5.2914357 -3.9425979 -0.8421751
-2.01201 0.724622 -4.1359158 2.9068367 0.5920025 -3.8626313 -2.1016746 0.094381094
-0.5507343 -4.6869802 2.101214 -5.168876 0.49023563 -2.9425442 2.79482 0.3248256
2.390281 -6.313247 -12.060292 -1.2795473 -0.27955425 -3.0034206 -1.7665868 0.64333135
-0.01885076 0.9696122 -0.12697022 -3.4597657 -3.2376964 2.3019307 -1.6624627 -0.04709406
0.7368901 0.5591161 -2.714021 -0.010626745 -0.9592516 -1.7193006 -0.33327943 -0.22138144
0.75512797 0.9116292 1.8265132 0.7944927 -1.887842 0.3055053 1.2168255 0.3937616
1.5114516 -5.1316395 1.6090845 -6.624979 -2.0611591 -1.8489527 -7.402038 -0.16785647
00000000: a629 d2bf 2d5a 5ac0 c130 063e 528b 1940
00000010: d060 3840 73da 963f ea6a 93bf 3603 cec0
00000020: 2dc5 97bd 48c8 1040 c469 1dc0 2608 45c0
00000030: dc82 8cc0 3133 3d40 8bd7 85c0 4594 5ec0
00000040: 43aa 4f40 70f0 663f a85b 16bf daf3 d7bf
00000050: 96dd e2bf 34e7 6f3f 6a07 72c0 bc16 05bd
00000060: c073 2540 df47 e5bf 0d01 5ec0 008c 47bb
00000070: 00a9 a040 3293 a83e 5aba 05c1 1c5a fdbf
00000080: 3355 3ac0 c48c aebf 91df dbbf 74bb 71bf
00000090: 915a 3b40 0022 5cbf cc6e 043f a258 76bf
000000a0: b200 04c0 cdb7 733f ab98 adbf d7af 3dbd
000000b0: 36d2 903f b75f cf3e 149d 113f d6e6 16c1
000000c0: 6a4a ee3e 9917 d73d f914 3d40 97b9 e1be
000000d0: a148 4e40 c20b e640 b83a 7a3f fecd 95bf
000000e0: 773c 093f 1d15 883e 6746 04c0 59ad 0c3e
000000f0: 617b 9b40 601d f0bf 26bc f83f 78d5 28c0
00000100: 0ba0 5b40 ea7f 7d3f 74c2 5e3c c19d 69bf
00000110: 79d0 343f 1d1e 3fc0 e934 d3bf 64c9 3fbf
00000120: 0cc6 c9bf 7bfe bfc0 e6fa 6040 662c cbbb
00000130: d335 13c0 6fb5 1e3e b511 40bf 6d6b a040
00000140: c7b6 b5bf 1376 39c0 b8d8 6bc0 911a 65bf
00000150: e61e bebe caf1 2ec1 c246 6d3f ccc1 7ebf
00000160: 4ce7 a4be 9a47 18c0 e1cf cd3e 2b53 b53d
00000170: 890b 2d40 e1e3 4abf e05e 643f 41e1 903f
00000180: d747 38bf 79cd 0fbd fa79 f1be f888 06be
00000190: f714 833f 10b1 8fbe e29f c6c0 9885 14c0
000001a0: 4109 59c0 b8ce 753e fee1 d0c0 bb19 06c0
000001b0: 92d1 0bc1 4b96 da3f e147 403f 4661 84bf
000001c0: 2232 c7bf 34f6 b7bf 23b8 b83f c475 36c1
000001d0: 0f29 b1c0 f078 37bd fa3a 543c de4a 4ebf
000001e0: f27c 323e d056 8cbf d1a5 b63f 3e66 d03e
000001f0: 8786 1f40 a0fb c33f d210 dec0 4762 93bf
00000200: f36a fec0 8021 36c0 581b 0040 c0be 7ac0
00000210: 4e80 65bc d682 8ebe 05e7 773f 8ec5 be40
00000220: 72c7 dec0 65f9 8abf c3ba 6bbe 5bca 0040
00000230: b35f 0f40 1958 023f 1a3a 2d3e 644e c83f
00000240: e8c4 20bf 4f50 49bf 4bfe 70c0 28db 11bd
00000250: c36c 9e3e 0dbf 07c1 7ba2 13c0 ffbc 7640
00000260: 2cae f6bf 1990 e4be 311e 3a40 a87f 4fbf
00000270: 1d4d 53be dd52 67c0 4930 a43f b156 61c1
00000280: 85db 39bf 7e41 1740 bb49 f7be 234b ea3e
00000290: 1baf 56be d5e8 283f 7409 313f 4268 82c1
000002a0: 002e 263f 79b8 1abd 0f59 83bc 1144 aa3f
000002b0: a068 d53d 8f79 813f 277a 9b3f 10ed 4e3f
000002c0: 4e7c 9ebf 2def 65bc 4e16 26c0 af87 0cbe
000002d0: cad9 b8c0 6292 1540 be21 05c0 606e 913f
000002e0: 095e ebbe e5aa debf cb1e 88bf 9a15 2fc0
000002f0: db4a 3ec0 c2ef 1b3e 81c8 97c0 fd2f 01c0
00000300: a7d6 073f 2c00 83bf b398 2cbf 1fe7 9e40
00000310: 4f06 af3f 7153 a9c0 8653 7cc0 ca98 57bf
00000320: c6c4 00c0 d480 393f 6c59 84c0 9d09 3a40
00000330: 7a8d 173f 5a35 77c0 d681 06c0 e04a c13d
00000340: ecfc 0cbf befb 95c0 4a7a 0640 6f67 a5c0
00000350: 2a00 fb3e a552 3cc0 55de 3240 8b4f a63e
00000360: 5dfa 1840 1f06 cac0 f5f6 40c1 35c8 a3bf
00000370: bc21 8fbe 0b38 40c0 841f e2bf 5db1 243f
00000380: e96c 9abc 8138 783f 7b04 02be cd6c 5dc0
00000390: 6b36 4fc0 d552 1340 94cb d4bf b3e5 40bd
000003a0: d4a4 3c3f 3c22 0f3f 85b2 2dc0 cd1b 2ebc
000003b0: 8391 75bf 0b12 dcbf 9aa3 aabe d1b1 62be
000003c0: 1150 413f 8860 693f 2fcb e93f e063 4b3f
000003d0: cfa4 f1bf 316b 9c3e f0c0 9b3f 1f9b c93e
000003e0: 3f77 c13f 6436 a4c0 7bf6 cd3f d4ff d3c0
000003f0: 08ea 03c0 7baa ecbf 7fdd ecc0 91e2 2bbe

3.bias f4 [300]
1.4659408 -0.12405648 0.0054992237 -0.06765045 -2.6004257 0.66936135 -0.019970505 -0.15022366
-0.050965905 -0.10128403 -0.14048037 -0.023310253 -0.05780626 -0.07308513 0.13393684 0.050675903
-0.046342537 -0.070087165 -0.08024365 -0.09435767 -0.030745577 -0.103327096 -0.08673983 -0.19511637
-3.4454505 4.080968 3.723381 -0.0008513551 0.4009218 -0.09023561 -0.3880175 -0.19896074
-0.065697454 -0.09824204 -0.60925317 -0.17032039 -0.078896806 -0.0015342847 -0.08206349 1.7972207
0.34384152 1.9919622 -0.12185309 -0.05356185 -0.09404599 -0.014605259 -0.019371584 -0.09505921
-0.0674435 -0.07645499 0.04269298 -0.014327027 -0.062414665 1.9540199 -2.5095546 0.9545203
-0.043622155 -0.02189365 -0.12986943 4.543517 -0.08960548 -0.08829916 4.0269732 -0.21261895
-0.039588552 -0.1395505 -0.08867078 -0.085627176 -0.030780302 -0.04834966 -0.07391215 -0.14423634
-2.8063757 -0.04526706 2.1357985 -0.062425844 -0.06316059 -0.11280361 3.3335786 -0.06962163
-0.070031755 -0.032134105 -0.05816305 -0.04898697 -0.6732766 -0.11212935 -0.020712046 -0.052973267
-1.5576106 -1.4997699 -1.1088356 1.3683023 -0.06378172 -0.031796027 0.00085712894 -0.0027464868
-1.9750975 -1.69021 -0.078774914 -0.006959518 -0.054017935 0.0021357636 -0.04056947 0.15184495
-0.45635548 0.90160084 -0.74006873 -1.802509 0.81989086 -0.060335625 -0.03717279 -0.05190267
-0.019644989 -0.036851007 -1.2833576 -0.54682064 -0.069828875 1.8996712 -0.05384607 -0.11270203
-0.053662624 3.4788299 -0.04254603 -0.202855 1.4285183 0.9434891 -0.43258443 -0.0631217
-0.47812366 -2.6223726 -0.082754 -0.062317166 -0.049951598 -0.07494309 -0.13541244 -0.12883393
-0.055894352 0.54324764 -0.03235112 -0.15068047 -0.09112778 1.4517807 -2.944025 -0.010193563
-0.22095084 1.8256252 -0.06095821 -0.0787172 0.010929814 -0.05073478 -0.14613308 -0.44866335
-0.041790087 -3.0989394 -0.054309387 0.0034078076 -0.017206615 -0.07061281 -0.09250349 -0.04022441
-0.09578806 1.1245421 -0.046551626 0.0028258436 -1.1712586 0.0014684198 0.44086593 3.0562277
1.9802543 -0.090304226 -0.030786006 -0.11773264 -0.026231596 -0.09966967 -0.18437533 1.5403274
-0.04908588 -0.044459905 -0.08280408 -0.059619114 -0.014333407 -0.26517043 0.074452765 -0.6943095
-2.6945279 -0.016897257 -0.1611867 -2.0766504 -0.060039133 0.46353745 1.7428699 -0.076046534
1.2077385 -0.05171425 -0.4311105 4.3717732 -0.07376652 -0.016943227 -0.26702872 -0.034701243
-0.7887698 -0.09932064 1.2594138 -0.07176687 3.1283047 2.0452785 2.1428778 -0.05849406
-0.03204375 -0.11352125 0.004505462 -0.08214622 -1.1030297 -0.02084897 0.41678923 -0.08923449
-0.08491815 0.41667655 0.022801869 0.75339085 -0.5424754 -0.014131444 1.2463337 0.9307961
-0.59750795 0.31746382 0.54027104 -0.20606254 -0.04312207 0.22317354 -0.033292834 -0.04733433
-0.06307185 -0.07034449 0.6388293 -0.084183425 -0.01351413 -0.06457684 -0.024584403 -1.5017318
-0.10491226 -0.07302472 -0.03407967 -0.10850177 -0.086861804 -0.03454932 2.6650226 -0.029694142
-0.08008818 -0.06525539 -0.49201444 -5.465343 -0.04829976 -0.039862953 -0.026493905 -0.07422297
00000000: f3a3 bb3f 5311 febd d532 b43b 528c 8abd
00000010: 606d 26c0 445b 2b3f 2f99 a3bc 3bd4 19be
00000020: a0c1 50bd 006e cfbd 16da 0fbe 25f5 bebc
00000030: 42c6 6cbd a8ad 95bd bd26 093e 8991 4f3d
00000040: acd1 3dbd dc89 8fbd c856 a4bd 983e c1bd
00000050: 26de fbbc 289d d3bd a7a4 b1bd 96cc 47be
00000060: 4382 5cc0 4a97 8240 e04b 6e40 792d 5fba
00000070: 9f45 cd3e 73cd b8bd 3baa c6be 5dbc 4bbe
00000080: 638c 86bd 1f33 c9bd 04f8 1bbf 7868 2ebe
00000090: a694 a1bd 0d1a c9ba e710 a8bd 540b e63f
000000a0: ff0b b03e 9ef8 fe3f 1d8e f9bd ac63 5bbd
000000b0: 2f9b c0bd e54a 6fbc 28b1 9ebc 67ae c2bd
000000c0: d11f 8abd 6f94 9cbd d6de 2e3d e8bb 6abc
000000d0: 85a6 7fbd 531d fa3f 8b9c 20c0 715b 743f
000000e0: 25ad 32bd 505a b3bc 7efc 04be 7e64 9140
000000f0: 1483 b7bd 31d6 b4bd f7dc 8040 c8b8 59be
00000100: 9b27 22bd 54e6 0ebe 0799 b5bd 4d5d afbd
00000110: f926 fcbc 4b0a 46bd 415f 97bd b1b2 13be
00000120: a99b 33c0 f469 39bd ecb0 0840 3eb2 7fbd
00000130: 575a 81bd 9405 e7bd 5a59 5540 c995 8ebd
00000140: cf6c 8fbd 0d9f 03bd 613c 6ebd 90a6 48bd
00000150: db5b 2cbf 13a4 e5bd 4fac a9bc 7ffa 58bd
00000160: c95f c7bf 76f8 bfbf 53ee 8dbf 8824 af3f
00000170: fe9f 82bd 8d3c 02bd f3b0 603a 67fe 33bb
00000180: ffcf fcbf cd58 d8bf be54 a1bd ab0c e4bb
00000190: e941 5dbd 2bf8 0b3b 2c2c 26bd 3e7d 1b3e
000001a0: 6da7 e9be 50cf 663f 2575 3dbf 9db8 e6bf
000001b0: 5ee4 513f 7d22 77bd 7f42 18bd e597 54bd
000001c0: 87ee a0bc 15f1 16bd 1045 a4bf 70fc 0bbf
000001d0: 7102 8fbd 6d28 f33f b28d 5cbd 52d0 e6bd
000001e0: 57cd 5bbd 26a5 5e40 bf44 2ebd 39b9 4fbe
000001f0: b0d9 b63f 8088 713f b57b ddbe f345 81bd
00000200: a0cc f4be f4d4 27c0 ee7a a9bd 4940 7fbd
00000210: 0c9a 4cbd c37b 99bd 8fa9 0abe 0bed 03be
00000220: 7af1 64bd 4712 0b3f 9c82 04bd fb4b 1abe
00000230: 34a1 babd f3d3 b93f e86a 3cc0 e702 27bc
00000240: f040 62be 16ae e93f 51af 79bd 7c36 a1bd
00000250: f612 333c 46cf 4fbd e9a3 15be 34b7 e5be
00000260: 152c 2bbd 0655 46c0 8573 5ebd 8655 5f3b
00000270: e3f4 8cbc 739d 90bd 7872 bdbd 5ac2 24bd
00000280: 882c c4bd fff0 8f3f ebac 3ebd ca31 393b
00000290: cdeb 95bf fe77 c03a 2eb9 e13e 3c99 4340
000002a0: f978 fd3f 6cf1 b8bd ef32 fcbc cf1d f1bd
000002b0: a5e3 d6bc 9d1f ccbd e3cc 3cbe 7329 c53f
000002c0: 470e 49bd 971b 36bd 2f95 a9bd 2c33 74bd
000002d0: abd6 6abc 6bc4 87be b17a 983d 44be 31bf
000002e0: 2573 2cc0 1e6c 8abc 200e 25be d7e7 04c0
000002f0: 98eb 75bd c854 ed3e 5c16 df3f 49be 9bbd
00000300: 2d97 9a3f 52d2 53bd 84ba dcbe 91e5 8b40
00000310: e712 97bd 86cc 8abc fdb7 88be e422 0ebd
00000320: d1ec 49bf 9f68 cbbd 7934 a13f 82fa 92bd
00000330: 2536 4840 d8e5 0240 e924 0940 7897 6fbd
00000340: 4f40 03bd d47d e8bd 8ea2 933b 473c a8bd
00000350: 1430 8dbf 76cb aabc 6665 d53e 93c0 b6bd
00000360: 91e9 adbd a156 d53e fcca ba3c 39de 403f
00000370: abdf 0abf 9287 67bc dd87 9f3f a748 6e3f
00000380: 48f6 18bf 9e8a a23e 344f 0a3f 0f02 53be
00000390: c5a0 30bd 9b87 643e 115e 08bd a4e1 41bd
000003a0: d02b 81bd c610 90bd 518a 233f 5c68 acbd
000003b0: 5f6a 5dbc dd40 84bd 3b65 c9bc bf38 c0bf
000003c0: 3ddc d6bd fc8d 95bd 2097 0bbd 2d36 debd
000003d0: 9ae4 b1bd 9683 0dbd bb8f 2a40 2141 f3bc
000003e0: 4605 a4bd 9ea4 85bd 51e9 fbbe 17e4 aec0
000003f0: f8d5 45bd 5647 23bd bf09 d9bc 3602 98bd

5.weight f4 [1, 300]
0.30232555 0.011775759 0.017791588 -0.012294237 -1.9875482 0.18865602 -0.025210574 -0.014074705
0.019486422 -0.016599625 0.030825067 0.010153438 0.011881318 0.047420926 -0.21511804 -0.69626665
0.0015784963 -0.0027431415 0.014099386 0.015854565 -0.0074972333 -0.019027835 -0.0016453263 0.0011183512
0.25096634 0.31961566 2.0346022 -0.014853251 -0.15928446 -0.0091811465 -2.209163 -0.029380942
-0.008202553 0.0057628616 0.6125071 0.030979656 -0.0078056767 0.008214792 -0.02801656 2.1845775
-0.35523245 1.7111946 -0.014745954 0.016631838 -0.021370562 -0.004542986 -0.005116428 -0.014033135
0.02014785 0.010177459 -0.28332436 0.02296423 -0.021011269 -0.47308782 0.18425976 -1.2654269
0.0033885099 0.03280094 0.020498328 0.5523663 -0.023710757 0.09934328 0.87377924 0.016300818
0.0068186414 -0.011164781 -0.0008678698 0.023371562 -0.009816283 -0.030801443 0.016386162 -0.009383792
0.2033022 -0.010347944 0.43794376 0.0120582655 0.0054097176 -0.00010989694 0.9189441 0.02760569
0.01179695 -0.007673116 -0.001141096 -0.003790862 0.21129419 0.018424287 -0.00031292374 -0.0013738715
-0.21746878 0.43488225 -1.2627459 -0.8680098 -0.035343405 -0.021435034 -0.023683487 -0.012036908
-1.2260747 0.25419173 0.0025141987 0.0052642035 0.024826381 -0.021731697 -0.014117174 -0.3299969
-0.70718545 0.19831488 -0.3957748 0.26337397 0.31125373 0.0258976 -0.017317645 -0.0016705656
0.00206119 -0.020526698 0.26364753 -0.6582808 0.010722742 -0.45575002 -0.02486551 0.012748908
0.009896852 1.7981936 0.0033622528 -0.013114247 -0.17509967 1.3259069 1.7454531 -0.009979723
0.21243213 0.41332123 0.02232594 0.027327282 0.0081284 0.017958764 -0.037639182 -0.002556499
-0.02594499 -0.16015664 0.013751762 -0.016509674 -0.016998807 -1.6352752 0.10319393 0.004995012
-1.1651936 2.760466 -0.0046266424 -0.24395047 -0.39648572 0.02992883 0.021250939 -1.2847344
-0.0026482295 -0.78969294 -0.004993467 0.004575364 0.008987191 0.6616362 -0.017869767 -0.020361127
-0.018957542 -0.7962564 -0.008553886 0.010047402 -0.17045112 -0.007073429 0.23402128 0.16322252
0.47208533 0.025153216 -0.020465111 0.018309021 -0.018370865 0.022844626 0.28256345 0.30994582
0.004467539 -0.03434672 -0.03601925 0.0044853236 0.016496519 -4.692353 -1.8928907 0.37710878
0.19654001 -0.024884298 0.012844806 0.1453223 0.00046796596 9.422221 -1.4886812 0.0030525841
-0.18981436 -0.0020910338 -3.0287235 0.6719694 -0.014575207 0.010099883 0.26183614 0.009150574
-0.17154486 -0.0029580423 -0.18968637 0.023476202 1.6211448 0.22908299 1.2796932 -0.00992412
0.020432904 0.23408478 -0.0052970205 -0.017275983 -0.6649412 0.019870622 -0.16159558 -0.016703699
0.029420607 -0.24691746 0.025869636 -0.1771844 -1.6283343 0.12049927 -0.31835827 0.2750898
-0.30768138 -1.8079011 0.26986495 -0.63216805 0.013623533 -0.38176754 -1.7348784 -0.030067254
0.011007249 0.0149414 -0.6042698 0.006124219 -0.020346152 -0.030901583 0.031738844 -1.0863365
0.049311664 -0.011100058 -7.130133e-05 -0.02097141 -0.0013586677 -0.018640589 0.14851059 0.0029353069
0.023152953 -0.012704521 -0.26618898 0.15220828 0.028781133 0.009947601 -0.014045941 0.004401655
00000000: 6aca 9a3e 1def 403c aabf 913c c46d 49bc
00000010: fb67 febf 0b2f 413e 6886 cebc 9799 66bc
00000020: fda1 9f3c f0fb 87bc da84 fc3c 9b5a 263c
00000030: dca9 423c 723c 423d e747 5cbe 883e 32bf
00000040: 8ce5 ce3a 47c6 33bb 1c01 673c 6fe1 813c
00000050: 5aab f5bb 43e0 9bbc fda7 d7ba a495 923a
00000060: a97e 803e aaa4 a33e ec36 0240 0d5b 73bc
00000070: 771b 23be 856c 16bc ed62 0dc0 4db0 f0bc
00000080: 0064 06bc 63d6 bc3b 44cd 1c3f 0cc9 fd3c
00000090: c3c6 ffbb 5697 063c fc82 e5bc 1ed0 0b40
000000a0: 07e1 b5be 6d08 db3f 0499 71bc 7e3f 883c
000000b0: 5111 afbc 54dd 94bb b5a7 a7bb 3ceb 65bc
000000c0: 1b0d a53c 5bbf 263c e40f 91be 7b1f bc3c
000000d0: d31f acbc 9138 f2be 97ae 3c3e 82f9 a1bf
000000e0: c311 5e3b 475a 063d 1cec a73c e167 0d3f
000000f0: 103d c2bc 7d74 cb3d ffaf 5f3f 4b89 853c
00000100: e96e df3b 7cec 36bc c281 63ba b875 bf3c
00000110: 7ad4 20bc 4f53 fcbc 463c 863c 7abe 19bc
00000120: 742e 503e 6c8a 29bc 2a3a e03e 0890 453c
00000130: 0044 b13b 7878 e6b8 ec3f 6b3f 5425 e23c
00000140: ff47 413c c36e fbbb d490 95ba 1c70 78bb
00000150: 815d 583e 88ee 963c ea0f a4b9 7a13 b4ba
00000160: 23b0 5ebe e3a8 de3e a8a1 a1bf e435 5ebf
00000170: 3fc4 10bd 8698 afbc df03 c2bc 7436 45bc
00000180: 04f0 9cbf 6b25 823e 41c5 243b 577f ac3b
00000190: b260 cb3c ac06 b2bc b84b 67bc 5bf5 a8be
000001a0: 1b0a 35bf 0e13 4b3e ffa2 cabe f4d8 863e
000001b0: a65c 9f3e 3427 d43c bcdd 8dbc e1f6 daba
000001c0: 0815 073b 9b27 a8bc cffc 863e 1785 28bf
000001d0: 71ae 2f3c 1158 e9be c1b2 cbbc cce0 503c
000001e0: 6826 223c 352b e63f 3e59 5c3b 23dd 56bc
000001f0: 544d 33be 51b7 a93f 026b df3f fe81 23bc
00000200: cf87 593e d79e d33e e4e4 b63c 77dd df3c
00000210: fb2c 053c 421e 933c 8b2b 1abd f08a 27bb
00000220: 968a d4bc 1a00 24be 124f 613c 4c3f 87bc
00000230: 1541 8bbc b350 d1bf 5757 d33d 33ad a33b
00000240: 1025 95bf 7aab 3040 179b 97bb 27ce 79be
00000250: 2d00 cbbe 4e2d f53c 7316 ae3c 2d72 a4bf
00000260: eb8d 2dbb 5129 4abf 3da0 a3bb efec 953b
00000270: 033f 133c fd60 293f 9e63 92bc 61cc a6bc
00000280: d94c 9bbc 76d7 4bbf 9925 0cbc dc9d 243c
00000290: bd8a 2ebe 39c8 e7bb 46a3 6f3e ce23 273e
000002a0: 2bb5 f13e 1e0e ce3c 73a6 a7bc cdfc 953c
000002b0: 7f7e 96bc a724 bb3c 28ac 903e 38b1 9e3e
000002c0: 6f64 923b 25af 0cbd ec88 13bd 9ff9 923b
000002d0: b523 873c c127 96c0 3e4a f2bf 6714 c13e
000002e0: c941 493e 28da cbbc 0573 523c 5ecf 143e
000002f0: 5459 f539 6bc1 1641 1b8d bebf dd0d 483b
00000300: b25e 42be ba09 09bb 9bd6 41c0 3006 2c3f
00000310: d9cc 6ebc fb79 253c 630f 863e 4aec 153c
00000320: 75a9 2fbe b7db 41bb 253d 42be 2a51 c03c
00000330: ac81 cf3f bb94 6a3e fdcc a33f c798 22bc
00000340: e862 a73c ecb3 6f3e a192 adbb 5d86 8dbc
00000350: 9639 2abf b7c7 a23c 5079 25be 32d6 88bc
00000360: 7c03 f13c eed7 7cbe 8fec d33c d46f 35be
00000370: 426d d0bf 52c8 f63d dbff a2be 92d8 8c3e
00000380: 6a88 9dbe 4e69 e7bf bd2b 8a3e c4d5 21bf
00000390: 3d35 5f3c 0977 c3be 7f10 debf 9a4f f6bc
000003a0: c057 343c c6cc 743c 6db1 1abf acad c83b
000003b0: f9ac a6bc 5125 fdbc 9700 023d 130d 8bbf
000003c0: 07fb 493d 05dd 35bc 9c87 95b8 3ccc abbc
000003d0: 5315 b2ba 26b4 98bc 2913 183e 475e 403b
000003e0: 43ab bd3c a026 50bc ec49 88be 7ddc 1b3e
000003f0: 69c6 eb3c 43fb 223c f220 66bc c23b 903b
