results/c_0_0/1268084_except/q_func1.pt (torch, 502309 bytes, 5 tensors)

1.weight f4 [400, 10]
00000000: 257b 62bf f92e 39c0 c8f9 7540 a0c0 b23c
00000010: 8cf3 27be 7856 08c0 1e7f a23e 202d 393e
00000020: 9de1 bebd 8434 3dbe 2eb2 5341 9f90 0cc1
00000030: 9d14 14bf d709 8fbf 8d5c 79c0 60a0 213d
00000040: 724d febf 3a45 69be 4f6a adc0 5ae4 5b3b
00000050: f187 9fc0 19e6 1740 ac71 6dc0 2527 0441
00000060: b834 33c1 c956 0abf 03e0 cb3e 93df b6bd
00000070: bc26 ed3d 277c 28bd 0358 5cc0 05fc 16c0
00000080: 8929 a440 eb62 27bf 1bcd 3b40 a53c b53f
00000090: 337a 1b3e 5779 d83d c0ca 05bf 1149 b93d
000000a0: 67ff 4f41 04c7 67c0 63e6 bc3f 465c 0940
000000b0: 91c7 bc3d e065 cb3e d51b 5bbf a6fe ef3e
000000c0: b16e b43e c1ad 253d ea25 4440 de51 bd40
000000d0: e731 e2c0 cb86 b03f d2f4 3a3f 2d8c 7fbf
000000e0: 7c76 93c0 f1cd eabd d938 d3bf c704 96bd
000000f0: 9bda 7840 5d6e 5e40 034a 7fc0 0e70 73c0
00000100: 1c7e 13c1 7e16 8ebe cfdb 72bf 387d be3e
00000110: f839 c7bf fc56 18bc 67f3 7bc0 d80b 0f3e
00000120: 0db2 a240 c308 0640 6d0c b73f 3b47 e2bf
00000130: 771a 9ec0 d78a b2bd 30d4 23c0 a2b1 5dbe
00000140: c61d 0540 0e7a 863f 6a4e 87c0 c7d2 03be
00000150: bc64 0fbd 9562 4341 135f f6c0 084e 613e
00000160: 8b34 a43e d2ec 913f 3bec b8c0 821e 2d40
00000170: f936 1bbe 0b51 c0c1 5bc4 053f 9eec 24be
00000180: d4a0 973e d70a 14be 4c2e 47bc ccd9 87bc
00000190: 6f17 b7c0 6b11 d040 fde6 bbbe 8b3c 03c1
000001a0: 0bb9 8f40 98eb 81bf 9991 bbc0 96d9 cdbe
000001b0: 9ad9 27c0 1da3 32bc 7e7d 9e40 2658 2dc0
000001c0: ac7d a140 93e3 bf3f 16b6 a740 cbb9 b03f
000001d0: b5ca b5be 88ae 05be 781c 59be 4c5f c73d
000001e0: 1502 02c1 376b b0c0 2612 33bf d475 dec0
000001f0: 953a abc0 42b8 b9bd ac3e b73f 8112 c23e
00000200: a2ce f43c 386b 043b e9bb 45c0 002f 013f
00000210: 7b91 14c0 bc11 d240 5f77 afc0 4939 d7be
00000220: aa55 3d3f 8488 383f 1817 64bf 32e7 09bd
00000230: e509 c340 05ca 28c0 ca68 ee3f 5268 5041
00000240: 53f3 6ec0 f4a6 633e 58aa 04c0 957c b83f
00000250: da22 c7bf eb24 4b3d c487 9340 bf1e 473f
00000260: 131a 00bf 011b 6fc1 9048 ac3f d872 94be
00000270: 87e7 bdc0 db40 aa3f e9e2 52bf d347 c2bc
00000280: 8228 04c0 4826 7040 e307 803f d8e5 1b40
00000290: bfe4 c541 cf5c a33e 3754 22c1 05ee b6be
000002a0: ee42 4e3c f6f5 0b3d bfe1 be3f 52a9 22c0
000002b0: 975a eabe da6e ae3e 6d03 9fc1 4b3b 5b3d
000002c0: 3bfb 94bd e3b1 453e 3c1f df3c 78b0 403b
000002d0: 23b5 4c40 b683 c13f 0f84 e1c0 b241 c43f
000002e0: b7b3 9740 6bf5 bdbf 27cc d3c0 237a b53e
000002f0: dea9 aa3e 4db9 f6bd 2b7f 953f 734a aac0
00000300: 461f fb3e 41d7 823f e4a0 8fc1 85e5 a63e
00000310: b155 b63e 971a c5c0 a622 113e 8010 073d
00000320: c919 d840 275e 18c1 809d 603b eac1 09c1
00000330: d292 3bc0 f12e 533e 97dc 9e3e aa2c 943c
00000340: f47e 07bd 17b2 673c ceae dac0 c442 f9c0
00000350: 30ec 09bf 01a9 7fc1 8a25 30c0 175c aabd
00000360: 0718 bd3f 9444 f73f fcb3 bf3e 4180 a9bc
00000370: 5335 87c0 c8c4 e740 7ce9 1ac0 4575 5abe
00000380: 1d43 8640 998d 24bf 08fb bfbe 28dd 463f
00000390: be28 4dbe b7f3 b2bc 676d 08c0 7bee d0bf
000003a0: 0bc5 7ebf 724c 57c1 63e5 aac1 f592 a03d
000003b0: c3d8 073f 15be 3b3e 6a33 253d 1152 b53b
000003c0: 4239 8040 d004 c6c0 b2dd a73f fecf bd3e
000003d0: 2eed e540 2f87 98be 4de6 053e a5ac b83e
000003e0: 5537 84be 7986 08bd 4b17 17c1 21eb f33f
000003f0: ff4a 9abe 62c3 2141 3191 f8be 584d 8ebc
-0.88469154 -2.893492 3.8433704 0.021820366 -0.164015 -2.1302776 0.31737608 0.1808362
-0.09320376 -0.18477064 13.231001 -8.785308 -0.57843953 -1.1174878 -3.8962739 0.039459586
-1.9867384 -0.22780314 -5.419227 0.0033552856 -4.9853444 2.373419 -3.710063 8.259557
-11.200371 -0.54038674 0.39819345 -0.08929362 0.115796536 -0.041134026 -3.4428718 -2.359132
5.13007 -0.6538531 2.9343936 1.4159132 0.15183334 0.10570019 -0.52262497 0.090471394
12.999854 -3.621522 1.4757808 2.146257 0.09217752 0.39726162 -0.85589343 0.4687397
0.352407 0.040448908 3.064814 5.9162436 -7.0685916 1.3791136 0.73029816 -0.99823266
-4.6082134 -0.114650615 -1.6501724 -0.0732513 3.8883426 3.475486 -3.9888923 -3.8037143
-9.218288 -0.27751535 -0.9486665 0.3720491 -1.5564566 -0.009298082 -3.936731 0.13969362
5.0842347 2.0942848 1.4300667 -1.7677988 -4.9407306 -0.08717888 -2.559826 -0.21649793
2.0799422 1.0505998 -4.228322 -0.12873374 -0.035008177 12.211568 -7.6991057 0.22002423
0.32071337 1.1400397 -5.7788367 2.704987 -0.15157689 -24.039572 0.5225274 -0.16105887
0.2961489 -0.1445726 -0.012157034 -0.016583346 -5.7216105 6.502126 -0.36699668 -8.202281
4.4913383 -1.0150023 -5.861523 -0.40205067 -2.6226563 -0.010903147 4.952819 -2.7085052
5.046591 1.4991325 5.2409773 1.38067 -0.35506216 -0.1305486 -0.21202266 0.09734973
-8.125508 -5.5130877 -0.6994957 -6.9518833 -5.350901 -0.090683475 1.4316001 0.37904742
0.029883686 0.002020551 -3.0895941 0.5046234 -2.3213794 6.564665 -5.4833217 -0.42035893
0.7395884 0.72083306 -0.8909774 -0.03366775 6.094958 -2.6373303 1.8625729 13.025469
-3.7336013 0.22231656 -2.072897 1.441302 -1.5557511 0.049595755 4.610323 0.7778129
-0.50039786 -14.944093 1.3459644 -0.2899387 -5.9345126 1.3301042 -0.8237749 -0.02371589
-2.0649724 3.7523365 1.0002407 2.4359035 24.736692 0.31906745 -10.14556 -0.3572847
0.0125891995 0.034170114 1.4912642 -2.5415845 -0.4577224 0.34068948 -19.876673 0.053523343
-0.07274481 0.1930614 0.027236573 0.0029402059 3.1985557 1.511832 -7.0473704 1.5332549
4.740688 -1.4840521 -6.618671 0.35444745 0.33332723 -0.12047062 1.1679434 -5.321588
0.49047297 1.022194 -17.95356 0.32596985 0.35612252 -6.159496 0.14173374 0.03297472
6.7531476 -9.522986 0.0034273565 -8.609842 -2.9308362 0.20623375 0.31027672 0.018087704
-0.033080056 0.014141581 -6.8338385 -7.7894 -0.5387602 -15.978761 -2.7522912 -0.08318346
1.4772958 1.9317803 0.37442005 -0.020691039 -4.2252593 7.242771 -2.4205008 -0.21333797
4.1956925 -0.6427856 -0.3749621 0.7768121 -0.20035073 -0.021844728 -2.1316774 -1.6322778
-0.99519414 -13.456163 -21.362005 0.0784053 0.5306513 0.1833423 0.040332235 0.0055334647
4.0069895 -6.1880875 1.3114531 0.37072748 7.1852026 -0.29790637 0.13076134 0.36069217
-0.25823465 -0.033331368 -9.443187 1.9056131 -0.30135342 10.110201 -0.48548272 -0.017370865

1.bias f4 [400]
00000000: b810 c3bf 80d3 3c3e 43a3 2c3f f8f5 11bf
00000010: ef7b d6bf 5391 f43b 9532 8dbe 66e3 1dbf
00000020: 48c8 523e 0dad bc3e 2a3d 95be bdbd a4bf
00000030: e00f 6f3f 1771 bbbe acfc e3bf 0bcf c1bf
00000040: c453 dabe 38c9 e23e 1012 013f d04b a93e
00000050: bb9b c53e 70ca 34bf 89a1 90bf 0e83 133f
00000060: 32bd 8c3c 3845 88be 5728 cdbf 8e02 723f
00000070: 6d10 f8bf 2560 c13d e724 2ebf 9f16 02c0
00000080: a440 6cbf 10ce ccbe 8be2 65bf 7aff a8bf
00000090: 2259 81be dbc9 6d3c 1d51 3f3f ebbc 8dbe
000000a0: 41b9 a6be efde 4f3d b961 a9be ed3a 32bf
000000b0: 00cd a6be 8a7b 97bf c430 123e 0232 10bf
000000c0: fc2c 62bf 6239 91be d1d7 06c0 aac4 1bc0
000000d0: ed78 a0be c3b5 45bf 2c0d ea3d ffc4 713e
000000e0: 7c5a 8ebf 4e34 0a3f 5ba9 d0bf 6d96 bcbf
000000f0: 860b cfbb ecdb d0be 5862 eabf 5d50 ccbe
00000100: 3d2c 4cc0 9fba d4bf f622 ce3e f2d2 39bf
00000110: aec6 1fbf 6f56 853f eabc 72bf d25e 6abf
00000120: ea99 26c0 67e1 4cbf c080 adbe e596 bebe
00000130: 0d56 3dbf 114f fbbe 1e73 bc3e c572 70be
00000140: 0b41 84bf 643f aebf 8dfe fdbe 6ba0 81bf
00000150: 0a74 a7bf cd9d 2abf 81e2 83be 7086 babf
00000160: 8fd5 30be b1ce e13e 536b d2be 22a4 773e
00000170: 0500 babf d247 edbf db37 ecbe 6b6a 9fbe
00000180: 85af 1dbf 137e 44bf 98df 11bf 85d6 80bf
00000190: 9d10 b3bf a5a1 083e 2f9a 41bf 13e5 b4be
000001a0: e519 c7bf 840a 083f 0fc2 e8bf 4305 ce3c
000001b0: a966 99be 90f1 85bf d2ae bbbe c5d8 ed3e
000001c0: eaee 93bf 08e7 863e bb09 4bbf f80c 6fbf
000001d0: 7eb1 063f 5fd4 5d3d 830c 1bbe 892c a5bd
000001e0: b1ca 44be 6c40 32c0 3674 29bf eba4 64be
000001f0: e149 debe 9517 8cbf 9d37 0fc0 0c94 5b3f
00000200: 6081 dabf 3b71 e6be 130c 57bf ce46 b93d
00000210: cbaa 4b3e 3fd4 b7be c498 4bbf 4542 23be
00000220: 95fe 5abf bae2 ecbe 180d b2bf 1456 bdbe
00000230: 8bc9 b5be 3a0a 693e df1f 00bf 4f8f b5bf
00000240: bf5e 81be 45ec 2dbf 8b77 dcbf 4677 a9bf
00000250: 394c 273f 4c60 1abf 0814 8e3c a9b2 aabf
00000260: 0a23 aabf 1c51 233f d4d9 9cbe 42c3 2ac0
00000270: eaa2 bcbf 3667 0e3f 3c52 363f dc42 b0bf
00000280: f4fa ecbc 7e13 17bf 7fb1 afbf a62c d4bf
00000290: b343 e3bf 91e5 abbf 8586 b7bf 5603 8bbf
000002a0: 9a4c 633f 4af1 f4be be6f 3c3f 78fe b7be
000002b0: 6ad4 bfbf b711 9fbf 5103 313e 412e 8abf
000002c0: 0625 723f 87cc 92be 82b4 03bf a504 7abf
000002d0: 823d aebe 77a7 f8bd eca7 55bf cadc 753e
000002e0: 99ce a33e 79b0 56bf e26b 24be e8f2 58bf
000002f0: d85a a5be 04d7 053e d3fa 3bbe 7f38 f4bf
00000300: 3f1e f3bf 920d 42be c22b 81bd 9508 893e
00000310: 1120 3f3d 189c e9be e95d 8dbf f384 f1be
00000320: 0dfa 5bbf f128 213f fe9f 983e 9641 aebe
00000330: 7d8f 343d 7547 42bf bf42 733e 83c7 9bbf
00000340: 7706 20bf ce07 6dbf beaa 55bf 00b4 023f
00000350: 4ea3 48be aa59 453d 45f9 4ebf c28f 4b3f
00000360: 5c7b 20bf d507 c93e b559 b33b 5cb9 febf
00000370: e222 bebf 3c8a 13c0 a7e1 08c0 3d23 71be
00000380: 98ab 033f d03f 50be 7e3d abbf 5b46 1dc0
00000390: 11b2 9cbf c2d5 5f3f 34d1 973e fbfe f7bf
000003a0: 1c11 c6bf 6fb4 74be 41de 4abe 1641 cdbf
000003b0: 0baf 863d 1c7f 10bf 1d27 8f3f afb0 6abe
000003c0: d597 d8bf e957 6fbf ca40 f9be 2fd5 b2be
000003d0: 83bb 64bf eb71 3dbe 513c 98bf f34a 0b3e
000003e0: 59b0 e5bf 56bf 8abf 7d2e 033f bce2 8abe
000003f0: df55 0dbd c2d4 e0bf a168 1abf d298 22be
-1.5239477 0.18440056 0.6743662 -0.57015944 -1.6756572 0.007463613 -0.27577654 -0.6167511
0.20584214 0.36850777 -0.29148227 -1.2870404 0.933836 -0.36609718 -1.7811484 -1.514131
-0.42642033 0.44294143 0.50418186 0.33065653 0.38595375 -0.70621395 -1.1299297 0.5762185
0.01718006 -0.2661531 -1.6027936 0.9453515 -1.9380013 0.09442166 -0.6802506 -2.0326307
-0.92286134 -0.40000963 -0.897988 -1.3202965 -0.25263315 0.014513458 0.74733144 -0.27683195
-0.32563213 0.050749715 -0.3308237 -0.69621164 -0.32578278 -1.1834576 0.14276415 -0.56326306
-0.8834989 -0.28364092 -2.1069224 -2.4338784 -0.3134226 -0.7723047 0.114282936 0.23610304
-1.1121364 0.5398606 -1.6301683 -1.4733406 -0.0063185124 -0.40792787 -1.8311262 -0.39905062
-3.1902 -1.6619452 0.40261048 -0.725875 -0.62412536 1.0417002 -0.9481951 -0.91550934
-2.6031442 -0.80031437 -0.3388729 -0.37224498 -0.7395943 -0.4908376 0.36806577 -0.23481281
-1.033235 -1.3613095 -0.4960827 -1.0127081 -1.3082287 -0.66647035 -0.25758746 -1.4572277
-0.17268966 0.44103006 -0.41097507 0.24183705 -1.4531256 -1.8537543 -0.46136364 -0.31135878
-0.61595947 -0.76754874 -0.569818 -1.0065466 -1.3989445 0.13342912 -0.7562589 -0.3533102
-1.5554777 0.53141046 -1.8184222 0.025148993 -0.29961136 -1.0464344 -0.36656815 0.46454445
-1.1557286 0.26348138 -0.7931172 -0.93379164 0.5261458 0.05415761 -0.15141492 -0.08065135
-0.19217946 -2.785182 -0.6619295 -0.22328536 -0.4341574 -1.0944697 -2.2377694 0.85772777
-1.7070732 -0.45008263 -0.840028 0.09046708 0.19889371 -0.35904118 -0.79529977 -0.15943249
-0.8554471 -0.4626673 -1.3910246 -0.36979735 -0.35505328 0.22757807 -0.5004863 -1.4184359
-0.25267598 -0.67938644 -1.7223982 -1.3239524 0.6535068 -0.6030319 0.017343536 -1.3335773
-1.3291943 0.6379564 -0.3063494 -2.6681676 -1.4737217 0.5562624 0.7121923 -1.3770404
-0.028928258 -0.5901412 -1.3726043 -1.6576126 -1.7755035 -1.3429433 -1.4337927 -1.0860393
0.8878876 -0.4784034 0.73608005 -0.35936332 -1.4986699 -1.2427281 0.17286421 -1.0795366
0.94587743 -0.28671667 -0.5144731 -0.97663337 -0.34031302 -0.121413164 -0.83459353 0.24010006
0.3199356 -0.83863026 -0.16056779 -0.84745646 -0.3229587 0.13070303 -0.183574 -1.9079741
-1.8993605 -0.18950489 -0.06307174 0.2676436 0.04666144 -0.45626903 -1.1044284 -0.47171745
-0.8592842 0.62953097 0.29809564 -0.34034413 0.044082154 -0.75890285 0.2375593 -1.2170261
-0.62509865 -0.92590034 -0.83463657 0.5105591 -0.19593546 0.048181213 -0.80849105 0.7951623
-0.6268823 0.39263788 0.0054733404 -1.9900317 -1.4854395 -2.3053122 -2.1387727 -0.23548599
0.51433706 -0.20336843 -1.3378141 -2.4574192 -1.2241842 0.87435544 0.29651797 -1.9374689
-1.5473971 -0.23896955 -0.19811346 -1.6035488 0.065763555 -0.56443954 1.1183811 -0.22918962
-1.6921335 -0.93493515 -0.48682243 -0.3492827 -0.8934862 -0.18500488 -1.1893407 0.1360281
-1.7944442 -1.0839641 0.5124281 -0.2712611 -0.03450572 -1.7564929 -0.603159 -0.15878609

3.weight f4 [300, 400]
00000000: 6057 493d 0786 263d 1ca3 3bbd 073c a4bd
00000010: 5323 b4bd 26d3 c4bc e394 45bd 318e 09be
00000020: 5ea8 8cbc a71c a4bd 77e3 77bd 86b5 7ebc
00000030: eebb f6bc 987f dbbd a016 5bbd 1417 5b3c
00000040: 85e1 04bd 233b 45bd a004 d9bd af7a a8bd
00000050: 8143 05bd 7af2 9dbd 4dfb 653d d0d5 4ebd
00000060: 5b50 b0bd 7b1c 85bd ada9 2cbc 28fa 83bd
00000070: 7a1f 65bc 82eb 71bd 8612 41bc a289 f0bd
00000080: f0b7 bdbd 1019 e1bc 4ded 03bc 3bbe 863d
00000090: 5588 17bc e9d6 38bd 1b4d 783d cef0 70bd
000000a0: e456 bebc a0b6 c1bd a98a 77bd b550 f0bd
000000b0: 60de 11bd 8245 f6bd f701 dd3c 11db 05be
000000c0: 795b 6cbd 8bbc 12ba 0a02 1bbd b78d 83bc
000000d0: e33e 523d 7d6e acbc fd1f 1cbd 7aba c7bd
000000e0: 3961 95bd b156 e5bc 1ffb f33c b691 86bd
000000f0: 8ff4 77bc 68f7 8cbd 03d0 4dbc 9783 a3bc
00000100: db97 72bd 75eb 67bd ceab 59bd 4a99 0abe
00000110: 7a03 19bd d898 b7bc d30c 843c 73f0 17bd
00000120: 6dc9 6bbc d48a e8bc df09 733d 1a89 97bb
00000130: 4e51 7bbd 3456 54bd 064e 04be 62f7 5ebd
00000140: ba39 0b3d e9e6 96bd 5dec dfbc 4c6f ae3a
00000150: d4d3 84bc 88ee 0dbd adea fa3c 1fae 19bd
00000160: 46c0 00be 80e9 9ebd 8de8 46bd dd25 e9bc
00000170: 10aa 8bbd 7fb6 1ebd c264 d3bc 855d 2cbc
00000180: 86de e2bc 2365 a93d 360a e6bd cc73 b8bd
00000190: a082 b43b c0f2 2abd 0175 71bc 3aa3 04be
000001a0: ba78 f3bd df18 02be 0d7e b03c b8ec 3ebd
000001b0: a64b 0fbd 13a4 d9bd 580b b23c 2c43 a4bd
000001c0: 1619 9cbd 42d7 94bd 5470 38bd 383a 45bd
000001d0: d5d2 683c 6ba1 1fbc fe4e 7abd 03a1 25bd
000001e0: 90aa c53b 5db0 d03a 8070 f93c 1855 babd
000001f0: 8d35 8cbd fb32 39bc 06b4 4bbd de0b 9e3c
00000200: d2c2 b23c 55b1 06be d945 7bbc 73fc b0bd
00000210: 6db5 583c ff73 58bc ed3d ccbd e8ae a4bc
00000220: 24d5 81bc 2d6b 9cbb 2aad 04be 1907 35bd
00000230: 9324 0c3c dbe6 d13c 40e1 e3bc 1826 babc
00000240: f338 213c 734b 7dbc 445f 7abd ce8d 28bd
00000250: 1108 99bd a302 a6bb 0ca8 8cbd 2d20 c5bd
00000260: f9d7 113d 3642 d5bd 7975 82bd 5d7c 153d
00000270: dcdf 31bd e4cf 65bd cb20 7bbc 0803 273d
00000280: 5a1c 53bd 68b5 92bc 3c9e a2bd 4d9a 77bd
00000290: 8f3d adbd ea29 3cbd e43b 003d c52c 73bd
000002a0: dc1c 9abd 908d 83bd 7968 6fbc f458 56bb
000002b0: 1b03 e4bd fb2a a4bd 1813 d2bd 4121 9ebd
000002c0: 7019 86bd e8ef 8fbc ca49 9abd 29ec babc
000002d0: 2d38 9abd 706e 1e3c 7704 463d 81c3 dfbd
000002e0: 39ca 5abd 3f3a b9bc 2775 a6bd 0258 debd
000002f0: 8c32 c6bc c07c 67bd 0ea1 76bd 925b 63bd
00000300: 2f28 9a3c d67a 3abd 9928 bfbb 8cec cfbc
00000310: 7bfb 283c d65c 1cbd 4880 d8bc 7b87 5b3c
00000320: 7f36 5ebd 5465 9dbd 3135 e83b b9a6 8fbb
00000330: 4986 84bd e9dd e0bc 4c6d 42bd 7c25 853d
00000340: 1352 263d e2ee 8f3b 732a fcbd 2c8d f4bc
00000350: 8d58 453b cfec 24bb eb7c 02be fec1 94bb
00000360: 32cb bfbc 4b3e c1bd da9b e23c 9a74 bc3c
00000370: 04a7 81bb b20d 60bd cd16 65bb dd91 8bbc
00000380: bb25 ecbd 59e4 94bd 2416 f83c e48c 50bd
00000390: 4a87 493d 1442 06bd 3d57 1fbd 6977 a7bc
000003a0: f09f 86bd b9c5 fdbc 9e12 893a 6cd0 b9bc
000003b0: e63a 32bd 8aa1 8bbd 8d17 19bd 3374 1c3c
000003c0: 43b6 31bd 3494 fc3c ed77 a3bd aab4 69bd
000003d0: b2d6 82bd 66f1 34bd 73b5 41bd 9a6b 10bd
000003e0: a85c 49bc 1c75 82bd 7d71 b13c 88d4 e9bc
000003f0: 65dd 1a3d e34e a7bc 4c60 4d3b 53da 8ebc
0.049155593 0.040655162 -0.04580985 -0.08019262 -0.087958 -0.024026465 -0.048237693 -0.13433148
-0.017170127 -0.080132775 -0.06051966 -0.015546208 -0.030118909 -0.10717696 -0.053488374 0.0133722015
-0.032441635 -0.0481521 -0.10596585 -0.08226525 -0.03253508 -0.07712264 0.056147862 -0.050496876
-0.086090766 -0.06499573 -0.010538501 -0.06444198 -0.013984555 -0.05906249 -0.0117842015 -0.117450014
-0.09263599 -0.027477771 -0.008052182 0.06579252 -0.009248813 -0.04512683 0.06062041 -0.0588234
-0.023234792 -0.09458661 -0.06043497 -0.11734144 -0.035612464 -0.12024976 0.026978476 -0.13071848
-0.057704423 -0.0005597553 -0.03784374 -0.016058786 0.051329505 -0.021048779 -0.038116444 -0.097523645
-0.072939344 -0.02799544 0.02978283 -0.06570761 -0.015133991 -0.068831265 -0.012561801 -0.019960208
-0.059226852 -0.056621034 -0.05314236 -0.13535038 -0.03735683 -0.022411749 0.016119396 -0.037094545
-0.014391285 -0.02838651 0.059335586 -0.004624498 -0.061356835 -0.051840022 -0.12920389 -0.05443514
0.0339906 -0.07368261 -0.027334386 0.0013308316 -0.016214289 -0.03465131 0.03062948 -0.03751957
-0.12573346 -0.0775938 -0.04856162 -0.028460437 -0.06819546 -0.03874826 -0.025804881 -0.010520344
-0.027693998 0.082712434 -0.11232416 -0.090064615 0.005508736 -0.04173541 -0.014737369 -0.12952891
-0.11888261 -0.127048 0.02154448 -0.04661247 -0.034984253 -0.10626998 0.021733925 -0.080206245
-0.07621972 -0.0726762 -0.045029 -0.048151225 0.0142104225 -0.009743075 -0.06111049 -0.040436756
0.0060322955 0.0015921701 0.030449152 -0.090982616 -0.068461515 -0.011303659 -0.04973223 0.019292768
0.021821413 -0.13153584 -0.015336477 -0.08641901 0.013226849 -0.013211249 -0.09972749 -0.020102933
-0.015848704 -0.0047735185 -0.12956682 -0.044196222 0.008553642 0.025622776 -0.027817369 -0.022723243
0.009840238 -0.015459883 -0.06112601 -0.04115086 -0.07472242 -0.0050662323 -0.0686799 -0.09625278
0.03560636 -0.10413019 -0.063700624 0.036495555 -0.04342638 -0.056106463 -0.015327643 0.040774375
-0.05154071 -0.017908767 -0.07940337 -0.060449887 -0.08459007 -0.04593841 0.031307116 -0.059368867
-0.07525036 -0.06423485 -0.014612311 -0.0032706829 -0.11133405 -0.080160104 -0.10257548 -0.077211864
-0.065478206 -0.01757045 -0.075336054 -0.022817688 -0.07530246 0.009669885 0.0483441 -0.10925961
-0.05341551 -0.022610782 -0.08127814 -0.1085663 -0.024194025 -0.056515455 -0.060212187 -0.05550725
0.01881799 -0.0455273 -0.005833697 -0.025381349 0.010313864 -0.038174473 -0.026428357 0.013399
-0.05425119 -0.076853424 0.007086419 -0.0043838886 -0.06470925 -0.027449565 -0.047467515 0.0650129
0.040605616 0.0043924907 -0.12312784 -0.029852472 0.0030112595 -0.0025165563 -0.12742965 -0.0045397272
-0.02341232 -0.094357096 0.027662206 0.023004819 -0.0039566774 -0.05470056 -0.0034956217 -0.017037326
-0.11530634 -0.07270116 0.030283995 -0.050915614 0.049201287 -0.03277786 -0.038901556 -0.020442681
-0.065734744 -0.03097807 0.0010457819 -0.022682391 -0.0435132 -0.068179205 -0.037375975 0.009549188
-0.04338671 0.030832388 -0.079818584 -0.05705706 -0.06388606 -0.044175528 -0.047292184 -0.035258867
-0.012290157 -0.06369993 0.02166056 -0.028543726 0.037808795 -0.020423358 0.0031337915 -0.01743809

3.bias f4 [300]
00000000: 1df3 7fbd 87d9 d9bd b094 7f3f 9530 793e
00000010: 9256 a8bd 62f0 f43f 4459 17bd e02c b63f
00000020: 7787 8bbc d7ee febf 4028 c2bf 9ca0 cbbd
00000030: c23a 2240 3993 92bd 9a62 6dbd 891d 5ebd
00000040: d6f0 77bd 1c0a 00be e574 23bd fe15 9bbd
00000050: 4e13 9ebe 2047 6dbf 8f6d 11be 477e 24bd
00000060: acbb 81bd 87ff 96c0 568b b9bd ca5f 7d40
00000070: c3df b2bd b3c8 a2be b5f9 01bf 53df 4fbd
00000080: 9eab 88bd 2724 ffbc 0b7c 63bd 9d7e 133f
00000090: 68a1 c8bc 57ef 5b40 58fd 30bd 72f9 1dc0
000000a0: 9d81 b13a 0fff b13f f6d5 81bd 5f54 94bd
000000b0: fda4 afbd d22b f6bc 260c babd 43ef 8dc0
000000c0: 1a35 333e ddec 0ebd de01 36bd 85e9 a4bd
000000d0: 4083 5940 b554 03c0 b407 35c0 327f 49bd
000000e0: 3d9c b2bd 2434 23bd cfb4 56bd 7977 afbd
000000f0: 9a19 7ebd af1a 26bd 596f 58bc 70ed f7bc
00000100: b0aa 6fbc 90b5 123e 3c18 5040 699b 11bd
00000110: e35c 9fbd 41b9 143a 7265 a2bd 1240 dd3f
00000120: 7b1c 17c0 a555 24bf 1ace b4bf 1eaa 1d40
00000130: a1f3 e0bd a154 95bd 7dfa fdbf 63c1 9e40
00000140: c3bd 3cbf af44 7ebd a0e8 fe3e 0034 5cc0
00000150: aa90 b3bd 8114 89bd 93ee 6fbd 1855 cabd
00000160: ead0 ffbd b795 fbbc 049d d9bc 522a 9fbf
00000170: 8b6a 6dbd 06f3 543d 18c4 bdbb ddff be3f
00000180: f170 18be 2fdc 0bbf 1650 fcbd 5d4f df3f
00000190: b269 56bd c4d0 abbd a9ea d5bc 20b4 4f3e
000001a0: c80e 9fbd 59ce c83e 26c9 e4bd 0667 f3bf
000001b0: 4191 0740 6ffb 17bd 53da b5bd 98e7 b1bd
000001c0: ad4e 2fbd 4a21 cbbe 5090 95bd dce3 f63f
000001d0: fa7c dabd f7de 483e c998 0fbf 75d7 7cbf
000001e0: f3f5 aebd f648 a8bd 350b 0fbe adaa 7e3f
000001f0: 916c bbbd f87c 77bd 4561 3b40 9efe 26c0
00000200: 7e42 6c40 710e adbd a997 b4bb 21fa 713e
00000210: e618 47bd b8cf 43bd 35e3 cbbd 4734 6ebf
00000220: 420c dbbc 0ecc 273e 0829 4ebd 463e a1c0
00000230: 9698 8a3b 951c 05bf dd1d bdbf cd37 fcbd
00000240: 0dec 7f3f c930 96bd 74e6 02be 5ec5 2b3b
00000250: 0574 a5c0 6723 8240 7138 af3f a317 9fbd
00000260: 031b 89bd e8b7 dcbd 60c4 7e40 585b 7ebc
00000270: f3b1 8bbb 5fd0 e5bc b210 d6bd 6042 99bd
00000280: e3e2 863a 0ee2 72bb c4a5 d2bd 9e8c 92bc
00000290: 254c fdbc c18b 30c0 ae98 8abd 2bcb c4bd
000002a0: 1398 96bd 4fd0 bcbd 10fd 99bd 5063 9cbc
000002b0: 62fd 943f 102d b1bd 29a6 7cbd 3759 38bd
000002c0: 4faf 463f 068f 8abd d4b7 20c0 8b4b 5ebd
000002d0: 882d 8fbf a46f e93b d318 8a40 62d2 3dc0
000002e0: d6ea 3f3f 5b8f 86bb e632 eabd 64a4 77bd
000002f0: 01dc db3e 5757 92bd 4e3b 3dbb 79bf 47bd
00000300: 59dc aebd fada 12be 5e7f f6bf bbd2 4840
00000310: a338 ecbd 0a41 7bbd edcd 6cbd 6898 c03f
00000320: 025f 89bd ec56 8cbd 28e2 dd3f b64f 3bbd
00000330: 5f6e 833e 38f0 e1bd 414a c4bc 7a85 a6bc
00000340: 42a6 9dbf b130 6dbd 0c53 9ac0 b267 27bc
00000350: 61ee 41bd 6a1b 20bd 201f b4bd bd5f 0140
00000360: 2026 dcbd 1958 b1bd b703 8dbd 65ab bfbe
00000370: 275c f33f 15be b4be 0e3a 05bd afd0 28bd
00000380: e7fd 0b3f 6782 8cbc a89c 3dbd 8ca8 0dc0
00000390: 2071 9abd aa89 dabf db52 7ac0 1a75 783f
000003a0: 6c5b 8fbd 2c74 86bd b643 5fbd f9b9 8140
000003b0: 68e7 a5bd 8777 9dbd dee2 36bb 27a5 d4bc
000003c0: 3ff2 82bc 53b4 09bd 67f1 23be 8c8e 9e3f
000003d0: 839f b140 b692 1cbd abcc d1bd b6e3 983f
000003e0: 045b 67bc 9a7d 9d3f 2b45 e73f 6e74 62bd
000003f0: 8642 bb3f a8d8 7f40 483d b6bd ea86 abbd
-0.06248771 -0.10637193 0.99836254 0.24334939 -0.08219637 1.9135859 -0.036950365 1.4232445
-0.017032368 -1.9916638 -1.5168533 -0.09942743 2.5348363 -0.07156987 -0.057955362 -0.054227386
-0.060532413 -0.12503856 -0.0399064 -0.07572554 -0.30874103 -0.92686653 -0.1420195 -0.04015949
-0.06334624 -4.7186923 -0.09059779 3.9589715 -0.087340854 -0.31793746 -0.5077165 -0.050750088
-0.066733584 -0.031145168 -0.05553822 0.5761507 -0.024491027 3.4364831 -0.043210357 -2.46835
0.0013542656 1.3905963 -0.06339638 -0.07242655 -0.08576391 -0.030050192 -0.090843484 -4.4354568
0.17500725 -0.03489386 -0.044435374 -0.08052353 3.3986359 -2.052045 -2.8285952 -0.04919357
-0.08721206 -0.039844647 -0.052418526 -0.085677095 -0.062036134 -0.04055279 -0.013210141 -0.030264586
-0.014628097 0.14327073 3.2514791 -0.0355486 -0.077813886 0.0005673357 -0.079295054 1.7285178
-2.3611133 -0.64193183 -1.4125397 2.4635081 -0.109839685 -0.07291532 -1.9842068 4.961107
-0.73727053 -0.06207722 0.49786854 -3.4406738 -0.08767827 -0.06693364 -0.05857713 -0.098795116
-0.12491019 -0.030711038 -0.026564129 -1.243479 -0.057962935 0.051989578 -0.0057911985 1.4921833
-0.14886834 -0.5463285 -0.12319963 1.7446095 -0.052346893 -0.08389428 -0.026112871 0.20283556
-0.07766491 0.3921993 -0.111711785 -1.9015815 2.1182406 -0.03710502 -0.08879533 -0.08686751
-0.04279964 -0.39673835 -0.07302916 1.9288287 -0.10668369 0.19616304 -0.56092507 -0.9876626
-0.08543005 -0.08217041 -0.13969119 0.9947918 -0.09151567 -0.060421914 2.9278119 -2.6092906
3.6915584 -0.0845002 -0.0055112434 0.23630573 -0.04860773 -0.047805518 -0.09955446 -0.9304852
-0.026739243 0.16386434 -0.0503321 -5.0388517 0.0042296154 -0.5199674 -1.4774739 -0.12315331
0.9996956 -0.07333524 -0.12783223 0.002621017 -5.1704125 4.0668216 1.36891 -0.0776818
-0.06694605 -0.10777265 3.9807358 -0.015524708 -0.0042631566 -0.02805346 -0.10452403 -0.07483363
0.0010291006 -0.0037061009 -0.102855235 -0.017889317 -0.030920098 -2.75853 -0.067674026 -0.09609064
-0.073532246 -0.09219419 -0.07518971 -0.019090325 1.1639826 -0.08651173 -0.0616819 -0.045006957
0.7761125 -0.06765561 -2.51122 -0.054271262 -1.118577 0.0071239043 4.3155303 -2.9659657
0.74967706 -0.004106445 -0.11435489 -0.06045951 0.42941287 -0.07145565 -0.002887446 -0.048766587
-0.08538122 -0.14341345 -1.9257619 3.137862 -0.1153424 -0.061341323 -0.057813574 1.5046511
-0.067075744 -0.068525165 1.7334642 -0.045730315 0.25670144 -0.11032146 -0.023961188 -0.020327318
-1.2316363 -0.057907764 -4.8226376 -0.010217594 -0.047346476 -0.039088644 -0.08794999 2.0214684
-0.10749459 -0.086593814 -0.06885474 -0.3743545 1.9012498 -0.3530127 -0.03252607 -0.04121464
0.546843 -0.017152024 -0.046291977 -2.2134123 -0.07541108 -1.7073262 -3.911307 0.9705368
-0.06999859 -0.06565127 -0.054507934 4.0539517 -0.08100778 -0.07688814 -0.002790622 -0.025957657
-0.015984653 -0.033619236 -0.16010056 1.2387252 5.5507216 -0.038225852 -0.102441154 1.1944492
-0.014120821 1.2303956 1.8067983 -0.055286817 1.4629676 3.9975986 -0.08898407 -0.08375342

5.weight f4 [1, 300]
00000000: ea50 c2bc 055a b6bc 137c f73f 31d9 003e
00000010: 0e8a a9bc 726b 5f3e 1dad f3bc ebd2 d73e
00000020: 3479 5abc f43f 88bf 3afc 573f 5f26 e5bc
00000030: 7855 0dbe 7355 863c 9e2b 5fbc 6d78 eebc
00000040: 65c7 a5bc 56da ddbc 9a46 963c da0f be39
00000050: b563 573e 2d33 643e 715e b5bb d878 2bbd
00000060: f511 d7bc 4d2b be3d 3093 d83c ed4b d03f
00000070: af48 8abc 5a7c 47bf 0601 833e c0d2 dc3c
00000080: b774 70bb 88fa f2bc fa8e 453c bbec 173e
00000090: 2861 df3c 3abf 753e 8459 39bb ed15 01bf
000000a0: 95d7 a53b 3441 f63f 5798 383c d546 4fbc
000000b0: 5e50 9bbc 6232 de3c 17c7 a9bc 70c9 d23d
000000c0: b55f 8abf 120a 853c e7f7 0d3c 0902 c7bc
000000d0: 8fb9 2c40 ff64 02bf 3c46 053e 39a3 0d3c
000000e0: b497 8f3c ace2 21bc 416a 0fbd b9b7 9d3c
000000f0: 9baf c4bc e244 00bd 3b04 f93c ee70 533c
00000100: 05ad 58bc a18c 51bf 4044 afbe c4d7 4f3c
00000110: d783 193c cf19 adbc f7e0 64bb 8d2f 32be
00000120: 0d9e 01be 083a 0cbf e535 643e b2f5 35be
00000130: 0a05 5f3b 7438 e5bc ea3e f73d 31c7 713f
00000140: 3f25 693e 7091 553d f2f7 14c0 0261 0e3e
00000150: 821c 9cbf 10e2 a9bb deb1 933f 9049 9f3c
00000160: adaf eb3b 3d67 9fbf 41c4 85bf a681 9bbf
00000170: d4f7 a9bc af65 81bf 50fa d7bc 7dae 28be
00000180: 53e5 14bc 5e90 3ebf 91c0 833c b597 0cbe
00000190: 51e6 44bf 5daf 5cbb c0ed 93bc cff3 4cc0
000001a0: cf01 ce3c f184 3340 dc5e aabf 5a15 9ebd
000001b0: 29e2 ba3e c4a5 483b 2862 9ebc 3122 85bc
000001c0: 397a bbbc a381 b9bd c568 80bb dd00 553e
000001d0: 7b4d 2b3c de72 4fbe 13ee 133f 2e96 ab3e
000001e0: a639 073d 9d46 8abc 5cac 123b f6af b6be
000001f0: b81d 8d3c 635a dfbb f08d 3b3f b3a8 103e
00000200: 3de3 203f 8d2f d1bc f2d8 503a ad3b debd
00000210: 792f 93bf 5e90 7bbc 6b48 ceba 4a1e d3bf
00000220: 3a34 ffbb 305c 98bf a8d8 f2bc c124 af3d
00000230: 0544 3e3c cfa0 33bf 13d9 c6bf 0aef f93c
00000240: 61b4 283f ddaf 6b3c c8b5 f33c bd45 57bd
00000250: a248 68be 88dd b13f 0efd a5bf 6140 e03b
00000260: 7464 8b3c 22d6 f33c e40f f53e ccce 30b9
00000270: c765 243d 3675 bbba f039 a8bc 0ac8 c13b
00000280: 7174 25bc fcd8 d73c 9edf 04bc 08fa bdbc
00000290: 2783 c93c 22de 72bf 308d 913c 6eb0 91bb
000002a0: 5927 b8bb c54e 823c 5024 d4bb 16b8 6f3c
000002b0: 99b0 88bf 5603 38bc 0ba9 f63b 4754 cabd
000002c0: 239a a53e b5fa 273c d5d7 39be d375 f9bc
000002d0: d39a 21be ff60 75bc babf 623f 444c abbf
000002e0: 0d90 fe3e 2f13 f4bc 2b4f e2bb 8c6f ec3c
000002f0: 23df 8b3f a27e dbba 7cbd 9cbc 0bad dbbb
00000300: fe45 65bc b387 d6bc aec5 5e3e a22f 0a40
00000310: 5bef d73b 0eb4 cdbc 892c 313c 0b10 823e
00000320: f2d6 bdbc 7758 80bc d0e1 ed3f b05e aa3b
00000330: d196 853f 4251 3dbc 5470 e33b aa8b b9bc
00000340: 810b d9bf 0555 243c 6f6b 3d3e 0bfd e5bc
00000350: 0275 933c 8963 98bc bbe3 95bc 865d 163f
00000360: 00fa d03b 693a e2bb 4c45 08bc fa9e 4abf
00000370: a7c0 403e 429f f3be 5bf0 53bc b9ee 683c
00000380: e409 f6bf 70d6 993a a209 febb 65ea 0bbe
00000390: 2b93 863c bbab 6d3e 2da7 64be 5068 02be
000003a0: 569e a8bc 11bc d13c 0b21 c3bc 77bd 9e3f
000003b0: 732d 813c 5e2d 123d 4a3d c83b 1731 a2bc
000003c0: 9e31 713c 172a c7bc 12c9 a6bc 31d4 cbbd
000003d0: 94cc ec3e 1ec7 1c3d d02b 9ebb fbd1 a4bf
000003e0: 2201 5abc ffdb 783e dc84 9b3e 28ce 423c
000003f0: b74c 873e b453 893f 24ad 983c 4e1c 943b
-0.023720223 -0.022259722 1.933474 0.12582852 -0.020695712 0.21818331 -0.029745633 0.42153105
-0.013334561 -1.0644517 0.8436924 -0.027972398 -0.13802135 0.016398167 -0.013621239 -0.029110158
-0.02023668 -0.02708165 0.018344212 0.00036251434 0.21034129 0.22285147 -0.00553494 -0.041863292
-0.02625368 0.09285603 0.026437372 1.6273171 -0.016880361 -0.7792412 0.25586718 0.026955962
-0.0036690661 -0.029660478 0.012058014 0.148364 0.027268007 0.23998728 -0.0028282115 -0.5042408
0.0050611 1.9238648 0.011266789 -0.012651165 -0.01895922 0.027123634 -0.020724816 0.102923274
-1.0810457 0.016240153 0.008665062 -0.024292963 2.6988256 -0.5093536 0.13015074 0.008644872
0.017528392 -0.009880703 -0.03501344 0.019252645 -0.024009516 -0.03131569 0.030397525 0.0129053425
-0.013224845 -0.8185521 -0.34231758 0.01268572 0.009369812 -0.02113047 -0.0034924129 -0.17400952
-0.12657948 -0.5477605 0.22286184 -0.17769507 0.0034030103 -0.02798102 0.12072547 0.94444567
0.22768115 0.052140653 -2.3276334 0.13904193 -1.21962 -0.0051844195 1.1538656 0.019444257
0.007192573 -1.2453381 -1.0450517 -1.214894 -0.020748056 -1.0109156 -0.026364475 -0.16472812
-0.009087878 -0.74439037 0.016083034 -0.13729747 -0.76913935 -0.003367386 -0.018057704 -3.202381
0.025147347 2.804989 -1.3310199 -0.07718916 0.36500672 0.0030616382 -0.019333914 -0.016251655
-0.022885429 -0.09057929 -0.0039187395 0.2080111 0.0104554845 -0.20258662 0.5778515 0.33513016
0.033013962 -0.016879374 0.0022380566 -0.35681123 0.017226085 -0.006816195 0.73263454 0.14126854
0.6284674 -0.02553537 0.00079668977 -0.10851226 -1.1498863 -0.015354244 -0.0015738135 -1.6493618
-0.0077882083 -1.1903133 -0.029644325 0.08551932 0.011612897 -0.7016725 -1.5534996 0.03050949
0.65900236 0.014385191 0.029749766 -0.052556742 -0.22683957 1.3895731 -1.2967851 0.006843612
0.017015673 0.029765192 0.47863686 -0.00016861706 0.040136125 -0.0014301899 -0.02053544 0.005913739
-0.010098563 0.026348583 -0.008109955 -0.023190513 0.024598671 -0.948702 0.017767519 -0.004446081
-0.005619925 0.0159067 -0.0064740553 0.014631292 -1.0678893 -0.011231264 0.0075274757 -0.09879356
0.3234416 0.010252644 -0.1814874 -0.03045169 -0.15781717 -0.014976739 0.885738 -1.338265
0.49719277 -0.029794304 -0.00690641 0.028861783 1.0927471 -0.0016746114 -0.019133322 -0.006703978
-0.013993738 -0.026187753 0.21755096 2.1591573 0.0065898127 -0.02511027 0.010813841 0.25402865
-0.023173783 -0.015667183 1.8584538 0.005199276 1.043665 -0.011555018 0.006940881 -0.022649605
-1.6956636 0.010030036 0.18498014 -0.028074762 0.01800013 -0.01860215 -0.018297067 0.58736455
0.0063774586 -0.0069039357 -0.008317303 -0.7914883 0.18823491 -0.47582442 -0.012935723 0.014217072
-1.9221768 0.0011736881 -0.007752613 -0.13663633 0.016427597 0.23210041 -0.22329397 -0.12735105
-0.020583313 0.025602372 -0.023819467 1.240157 0.015768742 0.035687797 0.006110822 -0.019798798
0.014721302 -0.024312062 -0.02035955 -0.09952582 0.4624983 0.03827583 -0.004827 -1.2876581
-0.013305934 0.24302672 0.303748 0.011889972 0.26425716 1.0728669 0.018637247 0.0045199757
