results/Train_four_masses/best/target_q_func2.pt (torch, 506903 bytes, 5 tensors)

qfunc_linear_1.weight f4 [400, 13]
2.7408605 3.7372093 -4.2939305 -0.72952133 1.6185454 5.3150177 -4.9311733 -0.4960641
-0.15128787 0.07867294 0.36734504 0.07970692 -0.02677755 -1.7481499 5.0246267 -4.6152596
0.9923737 -0.76733446 -0.096465796 -2.2255862 0.5035631 0.03256249 -0.08668793 0.27431524
-0.10800091 0.037648402 -0.51600814 -1.4086436 -6.1629224 3.229174 -0.6360145 -1.6695625
-4.2227993 1.102792 0.4830372 0.27298787 0.22696882 0.0020322988 0.061237033 3.9280677
-0.43760785 -0.43404216 -1.0254714 -3.3680618 -3.7192905 -1.6601135 -0.8612886 -2.2655272
0.852551 0.48450154 -0.0756411 -0.049216986 4.7972665 1.2112404 -0.17871782 -2.388399
2.8609347 7.363091 -4.2742443 -1.4618354 -0.29585892 -3.7209308 0.8403641 -0.04720892
-0.09688816 0.16778573 -1.8588347 -1.3006253 2.648479 1.177317 1.6718519 -1.9901261
1.1613526 0.3506977 0.5351993 0.49542415 -1.0359741 0.10289581 0.22411063 6.0478683
-3.0171268 -0.7699105 0.7378719 4.908064 -2.97547 -0.37325862 -0.24835448 -0.14119753
0.27333158 0.07974578 -0.025669387 -2.6471345 6.2183523 -0.3708763 -0.22512917 -0.9557626
4.217334 -0.7705926 -0.4108934 -0.43719605 -0.2870061 -1.9462128 -1.2425357 -0.013815855
3.248679 1.7206357 -0.19069815 -1.3458658 -1.3778135 2.061596 1.1866556 -1.5799552
0.14688714 0.50277936 0.1404174 0.27926132 -0.092025496 7.4536076 1.3292243 -2.2729793
-1.1441263 1.5295072 -0.2699035 -0.97850794 -0.3919901 0.4400487 0.14473422 -0.12231559
0.10480214 -0.015067167 -6.6539693 -0.55579096 -1.5251412 -0.027826356 -10.059242 -4.3137183
0.71861947 0.61822206 0.20506708 0.34492224 0.1260386 0.09793278 0.04001868 -2.617107
0.096736036 3.127693 -2.4480681 -0.9253068 0.27747676 -0.6818911 2.1819642 0.4751327
0.46729496 -0.30011046 -1.9101757 0.11075598 -6.190716 -0.27045408 0.6780958 0.34150958
-1.8319058 -5.429124 0.7496708 0.66930413 1.2202407 0.49695337 -2.506226 -0.008664309
0.043218795 -0.14529198 -0.31008562 -5.295544 -1.1028649 2.6424916 -2.935296 -5.2992973
-0.519402 -4.7318983 0.41946933 0.49683022 0.10958142 -0.017081115 -2.4315205 -4.260273
2.43537 1.2390466 -1.1301758 -6.36273 4.395548 0.27742952 0.30556598 0.00031523136
0.15986818 -0.043640606 0.0046065645 -0.49274722 -1.5660821 -3.795181 3.2257037 -0.8923088
-1.0294551 -3.9477003 2.4163344 0.24458258 0.29390463 0.18626963 -0.09522455 0.14935364
-0.9329983 -0.51118785 0.4484926 0.037676502 -0.060479775 -0.16364023 -0.15330477 0.28259483
-0.03430735 -0.26991096 -0.2768684 -0.18360406 0.06907216 -1.118006 3.1535165 1.9398118
1.1298325 7.0054555 9.405805 -0.35646033 0.2981564 -0.47688845 -0.36300093 -0.25150213
-0.13457012 0.019325396 -1.6553236 3.752848 2.5360758 -3.5062006 -3.1142445 -0.27084535
1.9192375 -1.0789622 0.03484801 -1.2144202 0.05871263 0.49821532 -0.08210935 1.6576805
3.8696997 -3.3900185 0.53780556 -1.6346438 -4.0545826 -0.30333492 0.94093734 1.1573665
00000000: 426a 2f40 702e 6f40 e167 89c0 e9c1 3abf
00000010: 7f2c cf3f a014 aa40 2ccc 9dc0 1dfc fdbe
00000020: 35eb 1abe 471f a13d a614 bc3e 623d a33d
00000030: 985c dbbc 60c3 dfbf bec9 a040 35b0 93c0
00000040: 340c 7e3f 0870 44bf dc8f c5bd 0170 0ec0
00000050: 83e9 003f 3f60 053d 7189 b1bd 0c73 8c3e
00000060: 952f ddbd 3635 1a3d 1c19 04bf 6f4e b4bf
00000070: a936 c5c0 c9aa 4e40 d9d1 22bf 39b4 d5bf
00000080: 2c21 87c0 4a28 8d3f a750 f73e 11c5 8b3e
00000090: 846a 683e 5130 053b afd3 7a3d 7665 7b40
000000a0: 230e e0be c63a debe a642 83bf 538e 57c0
000000b0: db08 6ec0 997e d4bf 697d 5cbf 66fe 10c0
000000c0: c840 5a3f 9610 f83e b9e9 9abd c097 49bd
000000d0: 3583 9940 ed09 9b3f ce01 37be 87db 18c0
000000e0: 8e19 3740 719e eb40 9cc6 88c0 6c1d bbbf
000000f0: d27a 97be bb23 6ec0 1a22 573f 245e 41bd
00000100: 4d6d c6bd 06d0 2b3e 4cee edbf e47a a6bf
00000110: ae80 2940 53b2 963f 3eff d53f 74bc febf
00000120: 34a7 943f a68e b33e d202 093f 3ca8 fd3e
00000130: cd9a 84bf 0abb d23d 427d 653e 2388 c140
00000140: 9b18 41c0 db18 45bf 2ce5 3c3f dc0e 9d40
00000150: 1a6e 3ec0 c11b bfbe a350 7ebe 1696 10be
00000160: 1ef2 8b3e c151 a33d 9b48 d2bc a76a 29c0
00000170: befc c640 80e3 bdbe 4388 66be dcac 74bf
00000180: 66f4 8640 8e45 45bf 9f60 d2be 29d8 dfbe
00000190: 77f2 92be 801d f9bf 690b 9fbf e55b 62bc
000001a0: 5bea 4f40 ca3d dc3f 6046 43be 5545 acbf
000001b0: 315c b0bf 30f1 0340 55e4 973f f93b cabf
000001c0: 9569 163e 26b6 003f 94c9 0f3e 57fb 8e3e
000001d0: dd77 bcbd f483 ee40 0624 aa3f 7e78 11c0
000001e0: bb72 92bf e4c6 c33f cb30 8abe 7f7f 7abf
000001f0: edb2 c8be 104e e13e 3535 143e 9980 fabd
00000200: 81a2 d63d 47dc 76bc 51ed d4c0 5148 0ebf
00000210: d437 c3bf 19f4 e3bc a8f2 20c1 fb09 8ac0
00000220: 72f7 373f cd43 1e3f 1bfd 513e a699 b03e
00000230: 4310 013e fb90 c83d a1ea 233d ae7e 27c0
00000240: 8b1d c63d 1f2c 4840 26ad 1cc0 e8e0 6cbf
00000250: 6f11 8e3e 6a90 2ebf 4da5 0b40 9844 f33e
00000260: 4941 ef3e 14a8 99be a380 f4bf 08d4 e23d
00000270: 581a c6c0 f578 8abe b097 2d3f 58da ae3e
00000280: e47b eabf 62bb adc0 6dea 3f3f 8457 2b3f
00000290: d930 9c3f ac70 fe3e 0266 20c0 bff4 0dbc
000002a0: 3106 313d 6cc7 14be 8bc3 9ebe 1975 a9c0
000002b0: ad2a 8dbf 951e 2940 e4db 3bc0 d893 a9c0
000002c0: 88f7 04bf b66b 97c0 afc4 d63e 8860 fe3e
000002d0: 396c e03d b2ed 8bbc 089e 1bc0 2854 88c0
000002e0: 1add 1b40 1499 9e3f 9aa9 90bf 7c9b cbc0
000002f0: 54a8 8c40 3e0b 8e3e 2573 9c3e a345 a539
00000300: 7cb4 233e 7ec0 32bd aaf2 963b 5d49 fcbe
00000310: 6175 c8bf 3fe4 72c0 ee71 4e40 596e 64bf
00000320: 2fc5 83bf 1fa7 7cc0 39a5 1a40 db73 7a3e
00000330: ab7a 963e 77bd 3e3e 1705 c3bd 29f0 183e
00000340: fad8 6ebf 35dd 02bf d2a0 e53e ad52 1a3d
00000350: a4b9 77bd 4e91 27be edfb 1cbe 45b0 903e
00000360: dd85 0cbd c531 8abe b2c1 8dbe b402 3cbe
00000370: b475 8d3d d21a 8fbf 37d3 4940 c14b f83f
00000380: 5a9e 903f b12c e040 2d7e 1641 f881 b6be
00000390: f5a7 983e b92a f4be 42db b9be e3c4 80be
000003a0: c0cc 09be 4b50 9e3c a5e1 d3bf a92e 7040
000003b0: 114f 2240 9765 60c0 c84f 47c0 3eac 8abe
000003c0: 93a9 f53f 6f1b 8abf c9bc 0e3d 1f72 9bbf
000003d0: a87c 703d 1416 ff3e f228 a8bd e02e d43f
000003e0: 29a9 7740 10f6 58c0 a0ad 093f 023c d1bf
000003f0: 24bf 81c0 b74e 9bbe 45e1 703f 9624 943f

qfunc_linear_1.bias f4 [400]
0.17259794 0.014977501 -0.029925322 -0.96563023 -0.8529896 -1.5699888 -0.048973024 -0.25093064
-0.8533308 -1.1184851 0.7164133 -0.6756774 -0.98927754 0.8229451 -0.63939935 -0.6404248
-0.42136055 -0.67142785 -1.3128636 -2.1071234 -1.1607534 0.99263096 -0.26322085 -0.38218042
-0.5949122 -0.90025336 -1.6658801 -0.65565956 0.49417022 -0.65371346 -0.72385746 0.0327188
-0.80656236 0.2388756 0.020420317 -0.66625106 -1.4793273 -1.3813726 -0.8657659 -0.67505825
0.17652167 -0.69913816 0.5738708 -0.619743 -0.90790915 0.6259867 0.25959098 -0.3262672
-0.68141514 -0.7258327 -0.80587643 -0.36916286 -1.6282845 0.39185375 -0.5056795 -1.3603646
-1.5356632 0.76414233 -0.85800505 -0.78483844 -0.8609347 -1.3106444 -2.0760856 -1.4293582
0.086292304 -0.6041022 -0.112013295 0.631395 0.57591176 -0.030290153 -0.32101268 -1.1206988
-1.0669363 0.13682984 -0.220019 -1.7590886 -0.34712887 1.413292 -0.32389405 -0.9632031
0.23378275 -0.99815285 -1.0064467 -1.4430624 -1.6150175 0.41613865 -1.6526417 1.039088
-2.297157 0.2854049 0.29665715 -0.6904149 0.07437605 -0.5137363 -0.355992 1.0303143
-0.8057335 0.03841528 -1.0997211 -0.64552164 -0.15942767 -0.7630155 -1.0999261 -0.45208675
0.2647033 0.7335525 -0.72815484 -0.8091024 -0.724597 -0.53327376 -1.0317944 0.7648749
-1.109496 -0.3490839 -0.221238 -1.0605161 -0.33292764 -1.5257906 0.5267566 -0.2596327
0.30860576 -1.43277 -1.3052644 1.0066893 -0.19500381 0.19840196 0.21306427 -0.60148185
-2.0956905 -1.0721706 -0.9613328 0.3591232 -0.8365034 -2.3766174 -0.4323537 -1.0810462
-1.2693955 0.2710095 -0.747488 0.11333665 -1.3512651 0.6947249 -0.96202195 -1.0059149
-0.35086244 0.7469917 -1.6808625 -1.8055973 0.77804714 -0.02129529 -1.7100619 -1.1116289
-0.36313617 0.10110727 -0.9931876 -1.391701 -0.6920165 -0.56405365 -0.24333878 -0.64783776
-0.65842134 0.35194704 0.49779168 -1.1718559 -0.08572105 0.80780137 -0.8064502 -0.80783796
-1.1122292 -0.47755188 -1.4195957 0.2311678 -0.6416499 -1.7325222 -0.11734801 -0.50125194
0.6009613 0.520931 -0.09756293 -0.7913584 0.5956869 -0.43668297 -0.66436005 -1.419587
-0.5058251 -0.33267573 -2.1329837 -0.014627352 0.46847466 -0.33078888 -0.15299627 -1.4332927
-1.3792425 -0.7982003 -0.2137092 -1.5123469 -0.35006088 0.04221714 -0.39302048 -1.6105591
-0.62233186 -0.9823991 -0.20296852 -0.79311484 -0.09558171 -0.68582857 -0.04099348 -1.426782
0.5804232 -1.2411008 -2.0479865 0.3759761 -1.7849098 -1.0454686 -0.064186305 0.95408154
-0.15528244 -1.0907253 -1.1384169 -1.3951455 0.65408605 -1.0944782 -0.90059966 -1.1105319
-0.9905431 -0.6653108 -1.1559896 0.18891755 -1.5823178 -0.62797046 0.9043097 -0.38234875
-1.6310726 0.9568075 -0.90255046 1.1003848 -0.6761686 -0.4966813 0.52878577 0.8039442
-1.008816 -1.4969746 -0.79065543 -0.28330442 -0.41734397 0.2714121 -1.4631778 -1.6327955
-0.92388815 -1.6661185 -2.011332 -0.8276965 -1.0995773 0.69676244 -1.4172937 -2.1346996
00000000: 84bd 303e 3164 753c f325 f5bc 8b33 77bf
00000010: 875d 5abf 65f5 c8bf f097 48bd fb79 80be
00000020: e373 5abf 852a 8fbf dd66 373f 32f9 2cbf
00000030: 4b41 7dbf 88ac 523f adaf 23bf e1f2 23bf
00000040: 92bc d7be b2e2 2bbf ea0b a8bf 1cdb 06c0
00000050: 9193 94bf 101d 7e3f e2c4 86be 27ad c3be
00000060: 2a4c 18bf 0177 66bf 8f3b d5bf 4ed9 27bf
00000070: e103 fd3e c459 27bf b94e 39bf 2604 063d
00000080: df7a 4ebf ce9b 743e 8248 a73c 6e8f 2abf
00000090: 995a bdbf d1d0 b0bf d6a2 5dbf 9ed0 2cbf
000000a0: 19c2 343e b8fa 32bf 32e9 123f 7aa7 1ebf
000000b0: bc6c 68bf aa40 203f 1ce9 843e 7f0c a7be
000000c0: 3971 2ebf 2cd0 39bf eb4d 4ebf ea02 bdbe
000000d0: a06b d0bf 0ea1 c83e 3674 01bf 6d20 aebf
000000e0: 9d90 c4bf d59e 433f 38a6 5bbf 2ceb 48bf
000000f0: 3766 5cbf 32c3 a7bf 96de 04c0 36f5 b6bf
00000100: 05ba b03d 71a6 1abf 3a67 e5bd 1aa3 213f
00000110: f46e 133f 0e23 f8bc c65b a4be 0f73 8fbf
00000120: 5e91 88bf 1f1d 0c3e a94c 61be d129 e1bf
00000130: e0ba b1be c1e6 b43f 71d5 a5be 7a94 76bf
00000140: bf64 6f3e f286 7fbf 3fd3 80bf 45b6 b8bf
00000150: e5b8 cebf 2010 d53e c389 d3bf d600 853f
00000160: 9f04 13c0 9720 923e 72e3 973e 08bf 30bf
00000170: 7852 983d 3984 03bf 9544 b6be 57e1 833f
00000180: 8d44 4ebf 5759 1d3d a9c3 8cbf e840 25bf
00000190: 0241 23be fc54 43bf 61ca 8cbf ea77 e7be
000001a0: 3187 873e 19ca 3b3f 5b68 3abf 5621 4fbf
000001b0: 307f 39bf a184 08bf d711 84bf d7ce 433f
000001c0: f703 8ebf 20bb b2be 378c 62be febe 87bf
000001d0: 7e75 aabe 1b4d c3bf 85d9 063f 94ee 84be
000001e0: 9301 9e3e 0265 b7bf e712 a7bf 32db 803f
000001f0: 14af 47be e229 4b3e 852d 5a3e b7fa 19bf
00000200: cb1f 06c0 e33c 89bf e819 76bf ffde b73e
00000210: 1625 56bf 801a 18c0 775d ddbe b95f 8abf
00000220: 8d7b a2bf c2c1 8a3e 605b 3fbf 0c1d e83d
00000230: 41f6 acbf 7ed9 313f 1247 76bf d2c1 80bf
00000240: 3ea4 b3be d93a 3f3f 8126 d7bf d01d e7bf
00000250: 192e 473f 7673 aebc 4fe3 dabf db49 8ebf
00000260: fcec b9be 5411 cf3d 8b41 7ebf 4223 b2bf
00000270: fe27 31bf d265 10bf cd2d 79be b2d8 25bf
00000280: 4d8e 28bf 6732 b43e 8dde fe3e 60ff 95bf
00000290: 858e afbd 12cc 4e3f 8573 4ebf 78ce 4ebf
000002a0: 875d 8ebf ae81 f4be 50b5 b5bf 40b7 6c3e
000002b0: 2b43 24bf 4ac3 ddbf 2754 f0bd 0c52 00bf
000002c0: 9ad8 193f bc5b 053f 13cf c7bd 7796 4abf
000002d0: f07e 183f e994 dfbe 8013 2abf 07b5 b5bf
000002e0: c17d 01bf 7954 aabe ce82 08c0 90a7 6fbc
000002f0: e9db ef3e 295d a9be 0eab 1cbe 2376 b7bf
00000300: 058b b0bf db56 4cbf 96d6 5abe 9594 c1bf
00000310: 2e3b b3be e1eb 2c3d fb39 c9be cd26 cebf
00000320: 2451 1fbf 827e 7bbf fbd6 4fbe 9309 4bbf
00000330: 58c0 c3bd 7692 2fbf c7e8 27bd cba0 b6bf
00000340: 9d96 143f 64dc 9ebf 3612 03c0 f07f c03e
00000350: ed77 e4bf ead1 85bf 1c74 83bd b03e 743f
00000360: 5c02 1fbe e39c 8bbf a5b7 91bf 2194 b2bf
00000370: 2f72 273f dd17 8cbf b38d 66bf e925 8ebf
00000380: 3c94 7dbf cf51 2abf 78f7 93bf 9a73 413e
00000390: 6489 cabf acc2 20bf d780 673f 37c3 c3be
000003a0: fdc6 d0bf 56f1 743f 8c0d 67bf 69d9 8c3f
000003b0: 6319 2dbf 034d febe 815e 073f 49cf 4d3f
000003c0: e220 81bf dd9c bfbf 6568 4abf 470d 91be
000003d0: 1cae d5be 87f6 8a3e 6949 bbbf 71ff d0bf
000003e0: ef83 6cbf 5f43 d5bf aab9 00c0 ebe3 53bf
000003f0: f3be 8cbf 065f 323f e169 b5bf eb9e 08c0

qfunc_linear_2.weight f4 [300, 400]
0.028941248 -0.0238335 0.0049148267 -0.07683419 -0.06123303 -0.07209413 -0.08655721 -0.05460722
0.017068736 0.0060761874 -0.036957525 -0.063446976 0.0027810482 -0.030855678 0.0041384757 -0.06722889
0.04725041 -0.02707972 -0.017724391 -0.042321946 -0.059552923 -0.027676886 0.013476716 -0.09625489
-0.012591773 -0.069847025 0.013687754 -0.01600703 -0.030840777 -0.03930484 0.044145107 -0.055239033
-0.053216197 -0.046293855 -0.041645434 0.022121726 0.0049683778 -0.04673046 -0.0048737554 -0.0005242711
-0.06456903 -0.043221235 0.013620885 -0.01479305 0.031006178 -0.02437851 -0.0147956675 -0.032402273
-0.042021688 -0.008268383 -0.0013976217 0.03923219 -0.030990534 -0.031968612 -0.061314985 -0.025318028
0.005826033 -0.05429504 -0.024811015 -0.006975753 -0.0593756 0.013649941 -0.01820011 -0.07715158
-0.027176578 0.03517162 0.0037170749 -0.079039566 -0.009586019 -0.023373423 0.0051435595 -0.03324713
-0.0504334 -0.056250077 -0.031297505 -0.081209175 0.011905712 0.014828254 -0.066394426 -0.064846195
-0.047299687 0.017766485 -0.05720822 -0.081988506 -0.04733247 -0.059245214 0.0060778637 0.012513354
0.027229847 -0.014727671 -0.03753867 -0.021886662 -0.045811802 0.0099522155 0.008354624 -0.023433402
-0.026966099 -0.013375201 0.009937687 0.011041305 0.009930981 0.03420576 -0.074376985 -0.027211223
-0.06319664 0.0151091395 -0.026680369 0.015036124 -0.017852914 -0.06825409 0.0009797349 0.066504695
-0.082755916 -0.03782463 -0.05077613 0.011364109 0.017416244 -0.0071649975 -0.028288206 -0.036513653
-0.0409868 -0.03881421 -0.01999086 -0.037899278 0.054634787 0.01444484 0.0015296406 -0.001169428
-0.028933426 -0.03249984 -0.061578736 0.015408094 0.026393149 -0.04052561 -0.06466589 -0.050968356
-0.047482226 0.013437041 0.014127897 -0.045845326 -0.08111381 -0.0642576 -0.042903837 0.033884153
-0.018684398 0.05635066 0.019160863 0.013058924 -0.04321006 -0.067938186 -0.004584207 -0.055519175
-0.022363871 -0.028249463 -0.040975627 0.034598667 -0.04365486 -0.09374404 0.048778627 0.007890079
-0.019622428 -0.02092181 0.002986964 0.012889982 -0.054678 0.0014639822 -0.03833141 -0.009664623
-0.000657625 0.015960835 -0.04970995 0.007315685 -0.116887055 0.012604624 0.041031506 -0.03397729
-0.043292016 -0.017626043 -0.02285859 -0.07075451 0.0032309706 -0.07239513 0.003412718 0.003473627
-0.036549233 0.013754438 -0.07211499 -0.04552719 -0.03014303 0.0033873396 -0.0689917 0.05932419
0.016975977 -0.050513867 -0.047903184 0.0015204437 0.027739096 -0.056548845 -0.07584475 -0.046398908
-0.03557829 -0.054648943 0.048983034 -0.024576323 -0.0077204704 -0.07019422 -0.055984836 -0.018937677
-0.036923252 -0.0244817 -0.030481659 -0.07138334 -0.03200363 0.013779024 0.01150082 -0.016984547
-0.062240347 -0.03978055 -0.022632465 -0.015340295 -0.035953186 0.0016043561 -0.009261174 0.014470996
-0.00014382691 -0.049075905 -0.06951175 -0.07495515 -0.095630534 -0.033995915 -0.059553668 -0.054571457
0.04349624 -0.0037151193 -0.008277697 -0.04522544 0.019435415 0.061853662 -0.053180434 -0.015585419
0.005035526 0.023713917 0.015787981 -0.039706048 -0.026732896 -0.034484673 -0.033647228 -0.04302156
-0.01094538 -0.02629425 -0.07421605 -0.05376158 0.0022603455 -0.06442449 -0.030557655 -0.025262522
00000000: 3216 ed3c 793e c3bc 8e0c a13b 3e5b 9dbd
00000010: 7ccf 7abd 16a6 93bd e844 b1bd d2ab 5fbd
00000020: bcd3 8b3c c11a c73b c660 17bd 7df0 81bd
00000030: 3f42 363b 0cc5 fcbc 0d9c 873b 4daf 89bd
00000040: a589 413d 4ad6 ddbc be32 91bc c759 2dbd
00000050: c4ed 73bd a3ba e2bc 72cd 5c3c 4921 c5bd
00000060: b94d 4ebc f50b 8fbd 9a42 603c 2d21 83bc
00000070: cca5 fcbc 1dfe 20bd 80d1 343d 5342 62bd
00000080: 3af9 59bd a09e 3dbd 6794 2abd 9f38 b53c
00000090: c6cd a23b 7068 3fbd 06b4 9fbb 3d6f 09ba
000000a0: c53c 84bd c008 31bd 222a 5f3c 8c5e 72bc
000000b0: ab00 fe3c 71b5 c7bc 8769 72bc 3fb8 04bd
000000c0: ef1e 2cbd 1d78 07bc 6730 b7ba efb1 203d
000000d0: dcdf fdbc 85f1 02bd 6c25 7bbd c167 cfbc
000000e0: 4fe8 be3b 7a64 5ebd 7840 cbbc db94 e4bb
000000f0: d433 73bd 01a4 5f3c 6618 95bc a601 9ebd
00000100: 6aa1 debc 1e10 103d 2b9a 733b 7fdf a1bd
00000110: ae0e 1dbc 9f79 bfbc 4e8b a83b 252e 08bd
00000120: 4193 4ebd 7b66 66bd d031 00bd ff50 a6bd
00000130: 2d10 433c 34f2 723c cdf9 87bd 15ce 84bd
00000140: 51bd 41bd 058b 913c 2b53 6abd 97e9 a7bd
00000150: b1df 41bd 1cab 72bd d128 c73b d004 4d3c
00000160: 2111 df3c 544c 71bc 26c2 19bd a84b b3bc
00000170: 28a5 3bbd 9e0e 233c d5e1 083c 68f7 bfbc
00000180: 02e8 dcbc a923 5bbc aed1 223c 97e6 343c
00000190: 8eb5 223c 571b 0c3d f652 98bd 12ea debc
000001a0: 3d6d 81bd 538c 773c ca90 dabc 135a 763c
000001b0: 4640 92bc cdc8 8bbd 736a 803a 9d33 883d
000001c0: ef7b a9bd 00ee 1abd a2fa 4fbd 8730 3a3c
000001d0: 83ac 8e3c 5bc8 eabb abbc e7bc 578f 15bd
000001e0: c6e1 27bd a6fb 1ebd dfc3 a3bc 463c 1bbd
000001f0: bac8 5f3d 0daa 6c3c 397e c83a 7e47 99ba
00000200: cb05 edbc 8d1e 05bd fc39 7cbd 3b72 7c3c
00000210: 7236 d83c 2ffe 25bd 8d6f 84bd 32c4 50bd
00000220: b97c 42bd 0927 5c3c b278 673c 4fc8 3bbd
00000230: ff1e a6bd 7d99 83bd efbb 2fbd 1cca 0a3d
00000240: 0610 99bc f3cf 663d 3ef7 9c3c 19f5 553c
00000250: 08fd 30bd 2d23 8bbd 1e37 96bb 1368 63bd
00000260: 7034 b7bc 6b6b e7bc 0fd6 27bd 55b7 0d3d
00000270: 70cf 32bd e0fc bfbd 19cc 473d 6445 013c
00000280: 37bf a0bc 3764 abbc f1c0 433b 8130 533c
00000290: 0af6 5fbd 17e3 bf3a 6601 1dbd 5e58 1ebc
000002a0: 7764 2cba 4cc0 823c a99c 4bbd 6ab8 ef3b
000002b0: 7b62 efbd a083 4e3c a710 283d c52b 0bbd
000002c0: f852 31bd 7e64 90bc f041 bbbc bee7 90bd
000002d0: b1be 533b e643 94bd e8a7 5f3b caa5 633b
000002e0: a6b4 15bd 4b5a 613c 06b1 93bd b87a 3abd
000002f0: 84ee f6bc 21fe 5d3b 854b 8dbd ecfd 723d
00000300: 3411 8b3c a1e7 4ebd 2136 44bd a049 c73a
00000310: 1a3d e33c c39f 67bd 7e54 9bbd c80c 3ebd
00000320: 8aba 11bd 92d7 5fbd 6fa2 483d 4954 c9bc
00000330: 00fc fcbb fdc1 8fbd 5b50 65bd 3023 9bbc
00000340: d63c 17bd d98d c8bc acb4 f9bc 6e31 92bd
00000350: 3d16 03bd 6ac1 613c ef6d 3c3c 2d23 8bbc
00000360: bcef 7ebd eef0 22bd b867 b9bc dc55 7bbc
00000370: a643 13bd 4249 d23a 2ebc 17bc c217 6d3c
00000380: 3ed0 16b9 d103 49bd 2d5c 8ebd 1682 99bd
00000390: f1d9 c3bd 4d3f 0bbd 8cee 73bd 5286 5fbd
000003a0: 1d29 323d 5c79 73bb 2d9f 07bc 503e 39bd
000003b0: 0537 9f3c 445a 7d3d bad3 59bd fc59 7fbc
000003c0: 0e01 a53b b043 c23c cc55 813c cfa2 22bd
000003d0: f2fe dabc cd3f 0dbd add1 09bd 6037 30bd
000003e0: 4054 33bc 0a67 d7bc 96fe 97bd 1a35 5cbd
000003f0: 4e22 143b fdf0 83bd 0c54 fabc 59f3 cebc

qfunc_linear_2.bias f4 [300]
-0.069604136 -0.08014374 -0.014056 -0.07429652 -0.10630424 1.3369865 -0.054006703 -1.7753376
-0.05530609 0.02429353 -0.0784465 -0.06473444 -0.43445235 0.5878831 -0.16978548 0.4398896
-0.9696375 -0.053032167 -0.045725375 2.5917387 4.268046 1.1480194 0.010056337 -0.07481359
-0.018388983 -0.014135721 -0.8618075 -0.7222164 -0.00011259337 -0.7902847 -0.045747727 -0.06469122
-0.67867756 -0.04797024 -0.11587974 -2.2848077 -0.13963147 -0.0861966 0.27528453 -0.08549773
0.0534049 -1.7737961 -0.059025776 -0.22444002 -0.00019057935 0.010449914 -0.93674016 -0.057668667
-2.420839 -0.044399917 -2.2767756 -0.017456913 -0.07831537 -1.4982829 -0.19718215 1.7573472
-0.03913757 -0.08019888 -0.14231071 -0.05146531 0.8045143 1.6631097 -3.622918 -0.06938062
-0.016205216 1.0169083 1.076637 -1.1433151 -0.08903229 -0.7773711 -0.033088032 -0.07112555
-0.033577193 -0.07197045 -0.4326929 1.8493614 -0.07002435 -0.048595343 -0.14944538 -0.037961863
0.45468557 -1.191139 -0.02727716 -0.07210903 -0.028508956 1.7669141 -0.0031442645 -1.8288435
-0.07267974 -1.0604767 -1.1488032 -1.3979181 -0.046713322 0.00529462 -0.23087136 -0.040479418
-0.061279967 -0.06254881 -0.07458411 -0.06378821 -0.02005568 -0.03301542 -0.07263504 0.43353096
-0.9738068 -0.044215888 -0.04889113 -0.104800716 0.89858514 0.02297668 -0.044480383 -1.4731171
-0.18657613 -0.095645435 -0.00991366 -0.45178932 5.426388 -0.092912555 -0.18287468 -0.007116662
-0.08758986 -1.5754522 -0.53318906 -0.023657667 -0.09389604 0.3884189 -0.07923626 -0.20470789
-0.07816189 0.13314706 -0.054544635 -0.052769907 -0.8379472 1.3991727 -0.052337773 3.5453694
-0.012375706 -0.005192175 -0.06880245 -0.07344119 -0.07238023 1.1793696 1.5398309 -0.027720844
-0.061265066 -0.84878576 -0.18071699 -1.1422608 0.0076437895 0.047685098 -0.005307659 -0.04400578
4.4410987 -0.08967602 -0.014459076 -0.022872001 -0.0957408 -0.018642303 -0.55620253 -0.29098627
0.009810096 1.8462244 -0.91837656 -0.099497385 -0.013561839 -0.020356683 -0.043309152 -0.034781206
-0.09583468 -2.395931 -0.051010825 -0.07084988 -0.090322666 -0.087007225 -0.060785994 -0.026065324
1.324313 1.1265535 -0.15378758 -0.13717575 -0.008310852 -1.5070145 -1.8085389 -0.021667987
-0.85265183 -1.9946892 -0.069988586 -0.09638155 -1.5490401 0.22378579 -0.05398137 -0.011478655
3.2620182 -2.7392278 -0.29061168 4.1262975 -0.2697734 -2.6385787 0.009959666 0.0053193
-0.06572387 -0.75846016 0.020700153 -0.080194406 -0.04037511 -0.007950057 0.013624423 -0.011268176
-0.10422106 -0.04482907 -0.5133086 -0.06789646 -0.022835493 -0.08205109 -0.10738458 -0.059871063
-0.024854602 -0.054128148 -0.024911227 -0.10281588 -2.2305913 -0.041180518 4.1482944 -0.027809134
-1.9708848 -0.013631688 -0.07083051 -0.6835623 1.0012316 -0.044990003 -0.022332951 -0.015736202
0.42045465 -0.03294613 -0.042540994 0.16323248 3.4205778 -0.005379185 -0.055169743 -2.0168855
-0.047838364 -1.9984403 -0.06073831 -0.27410117 -0.045308888 -0.06712756 -0.051713903 -3.0311162
-0.811395 -3.7495818 -0.0712388 -0.01050002 -0.061711356 -1.4378691 -0.18392372 0.38398367
00000000: 9d8c 8ebd 6722 a4bd 234b 66bc c628 98bd
00000010: 0ab6 d9bd 6022 ab3f 2236 5dbd 433e e3bf
00000020: a388 62bd 3a03 c73c 8fa8 a0bd 7d93 84bd
00000030: 8a70 debe 827f 163f 3fdc 2dbe 3639 e13e
00000040: 2a3a 78bf 4238 59bd 884a 3bbd 0cdf 2540
00000050: d593 8840 4df2 923f 56c3 243c de37 99bd
00000060: 7ea4 96bc 8399 67bc 6b9f 5cbf 2de3 38bf
00000070: 1b20 ecb8 1950 4abf f861 3bbd d57c 84bd
00000080: d0bd 2dbf 717c 44bd 5b52 edbd 4a3a 12c0
00000090: 8dfb 0ebe d887 b0bd 18f2 8c3e 6f19 afbd
000000a0: 19bf 5a3d c00b e3bf 03c5 71bd 9bd3 65be
000000b0: 41d6 47b9 1e36 2b3c 34ce 6fbf fb35 6cbd
000000c0: 07ef 1ac0 b0dc 35bd b1b6 11c0 cd01 8fbc
000000d0: cf63 a0bd bcc7 bfbf 1eea 49be c1f0 e03f
000000e0: b74e 20bd 4f3f a4bd e6b9 11be 4acd 52bd
000000f0: a6f4 4d3f c7e0 d43f e3dd 67c0 6d17 8ebd
00000100: cdc0 84bc 0d2a 823f 3ecf 893f 2658 92bf
00000110: 9056 b6bd cb01 47bf 5187 07bd 46aa 91bd
00000120: 3d88 09bd 3e65 93bd ec89 ddbe e0b7 ec3f
00000130: ed68 8fbd e90b 47bd 3608 19be e67d 1bbd
00000140: 8ccc e83e 3e77 98bf 5a74 dfbc e6ad 93bd
00000150: 9d8b e9bc 3e2a e23f 0110 4ebb 8b17 eabf
00000160: 1ed9 94bd b3bd 87bf fc0b 93bf fbee b2bf
00000170: 7856 3fbd 7e7e ad3b 8b69 6cbe bfcd 25bd
00000180: b400 7bbd 9719 80bd 8ebf 98bd 65a3 82bd
00000190: cf4b a4bc 2d3b 07bd aec1 94bd c5f7 dd3e
000001a0: 674b 79bf b81b 35bd 1142 48bd c2a1 d6bd
000001b0: ad09 663f 9739 bc3c 1031 36bd 1a8f bcbf
000001c0: d00d 3fbe c1e1 c3bd e76c 22bc ee50 e7be
000001d0: f8a4 ad40 f048 bebd 8043 3bbe e332 e9bb
000001e0: 5062 b3bd 6ba8 c9bf 147f 08bf b9cd c1bc
000001f0: 914c c0bd d8de c63e 9f46 a2bd f29e 51be
00000200: 5713 a0bd b457 083e 326a 5fbd 4225 58bd
00000210: b583 56bf 1718 b33f 2260 56bd 55e7 6240
00000220: 79c3 4abc 1f23 aabb 4de8 8cbd 5668 96bd
00000230: 163c 94bd 95f5 963f 2e19 c53f d316 e3bc
00000240: 14f1 7abd 064a 59bf e00d 39be 9a35 92bf
00000250: c178 fa3b 7351 433d dfeb adbb 683f 34bd
00000260: 7b1d 8e40 10a8 b7bd c3e5 6cbc 105e bbbc
00000270: c113 c4bd beb7 98bc 4a63 0ebf 27fc 94be
00000280: 86ba 203c 1551 ec3f ba1a 6bbf 49c5 cbbd
00000290: 7a32 5ebc 0fc3 a6bc f064 31bd bd76 0ebd
000002a0: f944 c4bd ef56 19c0 baf0 50bd be19 91bd
000002b0: 17fb b8bd d830 b2bd bcfa 78bd f286 d5bc
000002c0: 1783 a93f e832 903f 7e7a 1dbe cd77 0cbe
000002d0: 3d2a 08bc dae5 c0bf 347e e7bf 1081 b1bc
000002e0: 6447 5abf fa51 ffbf 2d56 8fbd b163 c5bd
000002f0: f246 c6bf 1a28 653e 921b 5dbd f810 3cbc
00000300: e8c4 5040 824f 2fc0 0ecb 94be a10a 8440
00000310: bd1f 8abe 79de 28c0 de2d 233c 864d ae3b
00000320: 3d9a 86bd 722a 42bf 5e93 a93c f73c a4bd
00000330: 5f60 25bd f540 02bc f938 5f3c 289e 38bc
00000340: da71 d5bd b09e 37bd 3168 03bf 4d0d 8bbd
00000350: 8011 bbbc 670a a8bd 72ec dbbd 5c3b 75bd
00000360: e19b cbbc 7ab5 5dbd a112 ccbc 2291 d2bd
00000370: 02c2 0ec0 e7ac 28bd d4be 8440 fbcf e3bc
00000380: f445 fcbf 7257 5fbc 960f 91bd f0fd 2ebf
00000390: 5b28 803f 7047 38bd 98f3 b6bc 35e9 80bc
000003a0: d545 d73e 85f2 06bd 773f 2ebd 6a26 273e
000003b0: bfea 5a40 e043 b0bb abf9 61bd a714 01c0
000003c0: 29f2 43bd e4cc ffbf bcc8 78bd fd56 8cbe
000003d0: d095 39bd 2d7a 89bd f5d1 53bd cffd 41c0
000003e0: 95b7 4fbf 26f9 6fc0 a6e5 91bd 4708 2cbc
000003f0: 0cc5 7cbd 180c b8bf 8056 3cbe 8299 c43e

qfunc_linear_3.weight f4 [1, 300]
0.0359815 0.01326512 -0.017012857 -0.0013755998 0.03140833 0.46832573 0.0074566877 -0.35465756
-0.020270258 -0.53998935 0.023162201 0.029487006 -0.38334975 -0.18661559 -0.0076556182 -0.510036
-0.9979188 0.027714137 -0.0067760767 1.2272189 0.63877064 -0.6647614 0.027282376 0.008600492
-0.011576258 -0.0043117953 -0.3726581 -0.513828 0.019202957 -0.21357773 0.017767977 -0.02920202
-1.1630868 -0.0026027465 -0.017702412 0.23225577 0.026685957 0.03594201 0.4908808 0.0134366695
0.26671442 -1.4297296 0.33237004 0.009237705 -0.018330868 0.021142347 -0.23716697 -0.017234141
0.25411826 -0.012770214 0.5447245 -0.00532554 0.015172469 -2.7583666 -0.51298946 -0.19888239
0.020658804 0.030023076 0.005629897 -0.019237604 0.32811356 1.1097431 0.28803685 -0.020745976
0.0072021573 0.3333107 -0.7314085 -0.2469617 -0.0068635284 0.22803146 0.35236627 -0.018547308
0.008487244 -0.021173267 -0.1755816 1.8526093 -0.023887144 0.016449222 0.061645042 0.0025667972
-0.16386518 -0.6193214 0.018948147 0.030451111 0.32143232 0.3034392 -0.0015554847 -0.46928972
0.024414646 0.70244324 -0.6762783 -2.1300213 0.020101499 -0.012529933 -0.026231844 0.010070307
0.012137286 -0.0044091186 0.015100571 -0.020402132 0.0011504523 0.017554514 -0.0012155285 -0.23203874
0.35430905 0.03955778 0.023748936 0.0019948252 -0.5150184 0.028073255 -0.012356148 0.36250934
0.028677126 -0.00420134 0.013376879 0.46734452 0.9581539 -0.014920268 0.02559333 0.012481503
-0.013759653 -0.27372974 0.61378306 0.019065123 -0.030292414 -0.2751829 0.022990093 0.005622726
-0.020505322 -0.2826674 0.019358676 -0.0083093615 0.44817507 -0.70897555 -0.017246433 0.74393684
-0.019541962 -0.008026426 0.030139303 -0.03146495 0.003749392 -0.42410567 -0.87798756 -0.030127011
-0.014200541 -0.2023614 0.023230001 0.27076623 -0.77197796 -0.15284564 -0.015815923 0.0029773714
0.88093334 -0.0024888455 -0.018756669 0.004683486 -0.0107980445 0.020966139 -0.18581298 -0.42375675
-0.023830147 0.9884577 0.23849943 0.0066315355 -0.028158939 0.0018902024 -0.040620234 0.005216762
-0.029728405 -0.19721161 -0.014356072 0.010390311 -0.15475684 -0.00075349305 -0.0269132 0.0067928405
0.29001644 -0.70568365 0.012983488 0.0071262545 0.022179468 0.15349352 -0.24832375 0.016613878
0.32705337 -0.80149025 -0.00014832927 -0.029638998 -0.4579175 0.50177884 -0.0069720275 -0.015704164
0.9821462 -0.36085925 -0.048461974 0.3796401 -0.16380869 0.27504936 -0.0037928845 0.012648582
0.007002295 -0.2885689 5.815933e-05 0.0031588397 0.010344116 0.02431965 0.021307748 0.010019457
-0.027943617 -0.017086992 -0.46826172 -0.016959587 -0.029091751 0.020815639 -0.018719044 0.0047379686
0.023761973 -0.031503696 -0.009380011 0.022008851 -0.80149657 0.027028682 1.4120355 -0.011262029
0.15716557 -0.024999889 -0.0019201911 -0.15067229 0.17098089 -0.009176796 -0.006805693 -0.018975344
-0.2230101 -0.009218333 -0.016643682 -0.2688475 0.32353896 0.027530108 -0.0025869606 0.14359698
-0.022187293 -0.77084446 0.0048670494 -0.02886339 -0.02050346 -0.0051575294 -0.34221315 -0.41304776
0.21312107 -0.5321629 -0.0063206595 -0.013859491 -0.03805872 -0.55858964 0.03093838 0.2630887
00000000: 5661 133d f255 593c 8c5e 8bbc 784d b4ba
00000010: 05a6 003d 64c8 ef3e 3b57 f43b ad95 b5be
00000020: d00d a6bc be3c 0abf a8be bd3c bc8e f13c
00000030: 6b46 c4be 2818 3fbe fbdb fabb b891 02bf
00000040: 9b77 7fbf c208 e33c da09 debb 8215 9d3f
00000050: 7986 233f ce2d 2abf 4a7f df3c 14e9 0c3c
00000060: 58aa 3dbc f649 8dbb 0bcd bebe 3b8a 03bf
00000070: 854f 9d3c 1fb4 5abe 268e 913c 1339 efbc
00000080: 07e0 94bf d792 2abb a604 91bc 75d4 6d3e
00000090: 829c da3c ee37 133d ba54 fb3e 7a25 5c3c
000000a0: cb8e 883e 6101 b7bf 682c aa3e be59 173c
000000b0: 9e2a 96bc b732 ad3c e6db 72be 9d2e 8dbc
000000c0: ca1b 823e 293a 51bc 1173 0b3f de81 aebb
000000d0: f395 783c 1489 30c0 4753 03bf d3a7 4bbe
000000e0: a73c a93c f4f2 f53c 007b b83b 2e98 9dbc
000000f0: 80fe a73e 100c 8e3f 9179 933e 77f3 a9bc
00000100: 1300 ec3b b3a7 aa3e 963d 3bbf 87e3 7cbe
00000110: 73e7 e0bb 1481 693e 5a69 b43e 86f0 97bc
00000120: 150e 0b3c 8f73 adbc aacb 33be 4d22 ed3f
00000130: f9ae c3bc 85c0 863c 837f 7c3d b637 283b
00000140: 46cc 27be d98b 1ebf 2539 9b3c 9c74 f93c
00000150: c792 a43e 625c 9b3e 68e1 cbba be46 f0be
00000160: 3901 c83c 52d3 333f 9320 2dbf 4552 08c0
00000170: e6ab a43c 594a 4dbc 2ae4 d6bc eefd 243c
00000180: 78db 463c 5e7a 90bb 6368 773c 5f22 a7bc
00000190: c6ca 963a 7cce 8f3c 5e52 9fba 909b 6dbe
000001a0: ff67 b53e 5707 223d 218d c23c 9dbb 023b
000001b0: 3fd8 03bf e2f9 e53c 7171 4abc d39a b93e
000001c0: 4bec ea3c 65ab 89bb b22a 5b3c c847 ef3e
000001d0: 9349 753f 2474 74bc 1aa9 d13c 387f 4c3c
000001e0: 2b70 61bc 4e26 8cbe e320 1d3f 762e 9c3c
000001f0: cc27 f8bc c6e4 8cbe b855 bc3c d83e b83b
00000200: c7fa a7bc c8b9 90be 1696 9e3c fd23 08bc
00000210: 3477 e53e 6c7f 35bf 6448 8dbc a572 3e3f
00000220: 7716 a0bc 4581 03bc b3e6 f63c 64e1 00bd
00000230: 5cb8 753b 6124 d9be cbc3 60bf eccc f6bc
00000240: 63a9 68bc d437 4fbe d84c be3c dfa1 8a3e
00000250: 59a0 45bf 9183 1cbe 6590 81bc 0120 433b
00000260: d984 613f e61b 23bb 96a7 99bc ee77 993b
00000270: 48ea 30bc 2ec1 ab3c c245 3ebe a5f6 d8be
00000280: 7137 c3bc 900b 7d3f 3239 743e 5a4d d93b
00000290: 93ad e6bc abc0 f73a 6761 26bd 5ff1 aa3b
000002a0: fc88 f3bc d7f1 49be bb35 6bbc 1f3c 2a3c
000002b0: 9478 1ebe 1086 45ba 1279 dcbc 7a96 de3b
000002c0: 097d 943e afa7 34bf b2b8 543c 5b83 e93b
000002d0: b7b1 b53c 682d 1d3e 9548 7ebe d419 883c
000002e0: 8a73 a73e 772e 4dbf d688 1bb9 7ccd f2bc
000002f0: 2a74 eabe 9474 003f 9b75 e4bb 05a6 80bc
00000300: ef6d 7b3f 8bc2 b8be 1080 46bd 3060 c23e
00000310: 77bd 27be 45d3 8c3e 0b92 78bb 003c 4f3c
00000320: 8273 e53b 4ebf 93be 1bf0 7338 8904 4f3b
00000330: 5e7a 293c 013a c73c 968d ae3c a628 243c
00000340: 03ea e4bc 05fa 8bbc 00c0 efbe d5ee 8abc
00000350: d351 eebc 8f85 aa3c ae58 99bc f640 9b3b
00000360: 78a8 c23c 050a 01bd 9eae 19bc e84b b43c
00000370: e12e 4dbf 416b dd3c 94bd b43f 6084 38bc
00000380: 03f0 203e 91cc ccbc ecae fbba d649 1abe
00000390: 9d15 2f3e 465a 16bc 4a02 dfbb 2e72 9bbc
000003a0: c25c 64be 7e08 17bc 5558 88bc 61a6 89be
000003b0: e6a6 a53e d286 e13c ff89 29bb 160b 133e
000003c0: 20c2 b5bc 1056 45bf c57b 9f3b eb72 ecbc
000003d0: dff6 a7bc 7e00 a9bb 9036 afbe ff7a d3be
000003e0: 693c 5a3e d43b 08bf 891d cfbb eb12 63bc
000003f0: 76e3 1bbd bbff 0ebf 7c72 fd3c 90b3 863e
