results/c_6_0/283846_except/target_policy.pt (torch, 500709 bytes, 5 tensors)

0.weight f4 [400, 9]
00000000: dc70 833c b728 373e d571 8abe c08b 49be
00000010: 13ac f9bd 7787 3b3d fa63 5cbd b95d 5c3e
00000020: c44e 01bd 9f21 bd3e 619a de3d adc9 02bf
00000030: feb3 22bf 619f d9bf d69e a8bf 0172 df3a
00000040: ac52 01be b65a 1ebc 5dfb 953f 3dd7 42c0
00000050: bc11 2740 d782 b5c0 7835 d1bf 3b55 373f
00000060: 8f5a cbbe 7d16 32be 2837 1d3f 54b0 ccbf
00000070: a40a 1dc0 d2fd 42c0 e0d6 62bf 59d9 0d3f
00000080: 6925 8abf 4673 af3e 4a69 d2be 5c4f fabe
00000090: b82c b8c0 1c8d b840 158f a83e 337d b140
000000a0: 7acc d63d 53c5 fc3d 6456 49bf 832f 81be
000000b0: 81bb b4bd 6d82 11c0 70ab 38bf 2ee7 ad3e
000000c0: 3af2 efbf 6da2 14c0 4c0d 8bbf 0df4 89bc
000000d0: 6fcf 32bf 4794 36be 547f 8e3e 3dd9 88bf
000000e0: ad4a 93be 65e7 18bf 0fbc 3cc0 8957 d6be
000000f0: 1ac8 50be c59f 19bf 717b 40be 19be 83c0
00000100: a114 9dc0 d817 2abe 922f 69be a258 0b3f
00000110: f4f9 46bf 84bc 76be f494 f43d f532 15bf
00000120: 4f0d 24be 9f15 3f3f ec04 0f3f 6e5a 203f
00000130: 8705 3a3f 5fa3 b7be 6ff7 a3bf aad0 d3bd
00000140: e089 4ebf 627e eb3f be00 aa3f bf1d a1bf
00000150: 68ab 3bbc f42f 89bf 2d1a 1940 9f8e afbb
00000160: cd97 8fbc ccb7 79be 8860 483e 2516 0cbd
00000170: 712a 5a3e 8240 61be 3e45 a9bf 0e9a 98bd
00000180: 12ab 5cbd d61d 18be 7fd7 33bf 0d39 8bbe
00000190: 7382 753e 2ebb 2c3e f123 40be 9d9d 073e
000001a0: 5706 37be 7ea0 9fbd a685 80be 17a5 83be
000001b0: 3c43 88bd 7c8d 85bf c0fd cfbe 1659 243f
000001c0: 0d51 87bf 0690 a53e 83ed 723c 08f6 c6be
000001d0: 7a6d 50bf ff4b abbd 169a 15bf 16c2 1fbe
000001e0: 96fd 933f 9451 863f 2c49 8dbf 6536 903e
000001f0: 7cbb 75bf f51c 88bf 23c5 d240 f559 4240
00000200: f2b6 4ebd 85f1 8c3f fcb6 26bf 0ee8 113f
00000210: af97 96bf 4dbd d93d 9bd8 3f3e c4b5 cbbf
00000220: 35d6 3dbf 3baa 5abf cc78 b23f 8562 a8bf
00000230: a4d7 7440 2118 873f 71c1 dfbc 752e 2f3e
00000240: 4450 99be 80d1 21be 686a 683e ab9c 0dbb
00000250: 93a8 29be acc8 82be 00b8 9fbe 480b 90be
00000260: 4b78 8abd 6dd5 4b3d 568c 1040 97b6 3cc0
00000270: a91d 4340 d169 5140 8ee4 963f 1cf4 1e3e
00000280: e9f6 743e 0078 343d 5a6a e9bf f92d 4cc0
00000290: bab2 d2be 5f95 313f e4e8 05c0 6fbc 31be
000002a0: 9ba6 e03e bec7 26bf c03a 31bf a6fe d4c0
000002b0: ba07 0b40 9cfc 79bf 93fb 42bf 1f08 fcbf
000002c0: d39a f63d 6587 8fbe 0d2b 85bf 5d90 a1be
000002d0: 3129 55bf 7155 d7bf 9815 423f 66e0 95bf
000002e0: e0f6 4040 1622 2940 db45 6dbf 213f 4fbf
000002f0: 77f0 363d 8dbf 183f ba54 6a3e 83ac e8be
00000300: 8aab 61bf 61c7 4abe fba1 f3bd e692 a4be
00000310: 6cb9 f3be 5728 29be bee6 a5c0 6889 49be
00000320: bd25 0fbf 6e87 a53e 3b38 75bf 800e 48be
00000330: 59ac 45bf ae3c a63e 953d 81be 96f4 8f3e
00000340: 80db f63d 07e3 2c3d 009e 22bb 5bf3 86bd
00000350: ab4d 2b3d 20e2 9bbd ab7e 19bb 0035 2e3d
00000360: a140 5ac0 3d5e 3ac0 ad66 3c40 1825 84c0
00000370: 0381 b5c0 a079 a2be 2c7f d23e a7da 183d
00000380: f4e5 31be b8b2 1540 59dc 53c0 32f8 d5c0
00000390: cd5f 66c0 4d60 16c0 e0e1 cdbf df65 433f
000003a0: bf83 ccbe 662e bebd 84c5 013f 46e2 90bf
000003b0: 5d31 183f dd5d 9bbe a34a fd3c c1ad 543f
000003c0: 7152 cbbd 3223 d6bd f0f9 c6be 6553 07bc
000003d0: f048 3e3e bd1b 99be d751 803e 14e7 84be
000003e0: d5c7 84bc 2b21 68bd 63c5 33be a993 d93c
000003f0: a220 8d3e 8b8e c7bd c9a5 4abe 0c7a fcbd
0.016045026 0.17886625 -0.27039972 -0.19682217 -0.12191024 0.045783486 -0.053806283 0.21520127
-0.031569257 0.36939713 0.10869289 -0.5108898 -0.63555896 -1.7001764 -1.3173473 0.0017047526
-0.12629193 -0.009665182 1.1717335 -3.044387 2.6104574 -5.6722217 -1.6344442 0.71614426
-0.39717528 -0.17391391 0.61412287 -1.5991311 -2.4537745 -3.046742 -0.88609123 0.5540977
-1.0792667 0.34267634 -0.41095954 -0.4888867 -5.755459 5.7672253 0.32921663 5.546533
0.104882196 0.12342324 -0.78647447 -0.2523156 -0.08824826 -2.2735856 -0.7213659 0.3396544
-1.8745797 -2.3224137 -1.0863433 -0.016840005 -0.6984777 -0.17830001 0.2783152 -1.0691296
-0.2876791 -0.5972808 -2.9489782 -0.4186366 -0.20388833 -0.60009414 -0.18797089 -4.1169553
-4.908768 -0.16610658 -0.22772053 0.5443212 -0.7772515 -0.2409535 0.11942473 -0.5828088
-0.16020702 0.74642366 0.55866885 0.62637985 0.72664684 -0.3586683 -1.2809886 -0.10342534
-0.8067913 1.8397944 1.3281476 -1.2587203 -0.011454441 -1.0717759 2.3922226 -0.005357578
-0.017528439 -0.24386519 0.19568074 -0.034200806 0.21305253 -0.21997264 -1.3224256 -0.074512586
-0.053874083 -0.14855132 -0.70250696 -0.27191964 0.23975544 0.16868278 -0.1876371 0.13243718
-0.17873512 -0.07794283 -0.25101966 -0.2571189 -0.06653449 -1.0433803 -0.40623283 0.64198434
-1.057161 0.32336444 0.014827135 -0.38859582 -0.8141705 -0.083641045 -0.5843824 -0.15601382
1.1561763 1.0493646 -1.1037955 0.281665 -0.95989203 -1.0633837 6.5865645 3.0367405
-0.05046744 1.1011206 -0.6512296 0.5699471 -1.176504 0.106318094 0.18734972 -1.5914845
-0.7415498 -0.85416 1.3943114 -1.3155066 3.8256617 1.0554239 -0.02731392 0.17107566
-0.2994405 -0.15802574 0.22696841 -0.0021608274 -0.16568212 -0.25543725 -0.31195068 -0.28133607
-0.06761225 0.049764086 2.2585654 -2.9486444 3.0486853 3.2720835 1.1788499 0.15522808
0.23922314 0.044059753 -1.8235581 -3.190306 -0.41151983 0.6936855 -2.0923395 -0.17357038
0.4387711 -0.6514853 -0.6923027 -6.656085 2.1723466 -0.97651076 -0.7616512 -1.9689978
0.12041249 -0.28032985 -1.0403763 -0.31555453 -0.8326598 -1.682295 0.758142 -1.1709106
3.015068 2.6427054 -0.92684716 -0.809557 0.04466292 0.59667283 0.22883883 -0.45444116
-0.8815237 -0.1980262 -0.1189613 -0.32143325 -0.47602403 -0.16519295 -5.184417 -0.19681323
-0.5591696 0.32329887 -0.95788926 -0.19536781 -0.77216107 0.3246817 -0.25242296 0.28116292
0.12053585 0.042208698 -0.0024813414 -0.06589385 0.041822117 -0.07611489 -0.0023421447 0.042531013
-3.4101946 -2.9120018 2.9437668 -4.129528 -5.6719985 -0.31733418 0.4111265 0.037317898
-0.17372876 2.3390331 -3.310324 -6.6865473 -3.5995972 -2.3496277 -1.6084557 0.7632732
-0.39944264 -0.092861935 0.5069201 -1.1319053 0.5945032 -0.3034505 0.030919379 0.8307763
-0.09927834 -0.10455932 -0.38862562 -0.008259629 0.18582511 -0.29903975 0.2506244 -0.2595755
-0.016208569 -0.056672256 -0.17555766 0.026559668 0.2756396 -0.09743985 -0.19789805 -0.12327966

0.bias f4 [400]
00000000: 883e bdbe 0308 00bf 9679 2bbf 8f05 5f3b
00000010: 6c52 95be d7c8 21bf 9918 cebe 0138 ccbd
00000020: b066 38bf 85ad 85bf 15c4 0ebf 762d 98be
00000030: ea72 d3be 659d 03bf 5abf 07bf e4c7 26bf
00000040: 3ef1 62be 62ae 14bf fbbf eebe 74e5 f93e
00000050: 8c46 76bf 477d a5be 5aab 5abf 2339 8dbe
00000060: 7942 4d3d c7f0 c03e 3b92 e6be a0c5 2abe
00000070: 447f a6be 95bd 0dbf 8ecb afbe 7925 c3be
00000080: 2e73 1fbf fdac 86be 059d 85be 882d 3abe
00000090: 009b 3bbf bf2c 2bbf 1ca4 74bf b769 28bf
000000a0: 9feb acbe 7ad1 d0be 4178 46bf dfc9 22bf
000000b0: aa37 8f3e 35d3 0cbf a664 1abf 3814 b0be
000000c0: 1e81 92be bb45 e0be d92f c7bf 25d5 01bf
000000d0: e47f f1be fc79 9e3d 2358 e8be f37d 483e
000000e0: 0f43 36be 8914 c4be 6828 1ebe bd1b 41be
000000f0: ecbc b6be 6ec8 afbe 86e3 15bf eec8 18bf
00000100: 2c31 f8be f5d6 0bbf eb47 efbe 7e26 2c3e
00000110: 98e3 013d ec78 0abf ca77 dabe c8a6 b5be
00000120: 3e9e 16bf 5d41 f13e 88ad b7be 16b5 1dbf
00000130: a337 b3be 5085 22bf b3f6 5b3f 7be3 ffbe
00000140: fd5d 0fbf 9d09 ccbd 3d2f 573e bb66 67bf
00000150: d53d 02bf 8887 7b3e f568 0cbf 5d0d 05bf
00000160: 5790 20bf c01d 033f aa27 d2be 4491 90be
00000170: 6b8d f2be d9a4 c0be 6d3a 04bf bd5a 82be
00000180: deba 18bf 6e33 9abe 907d 3cbf 0b29 64bf
00000190: 4783 24bf ac80 0abf a23f 51bf ced2 1abf
000001a0: 1bab 96be bb4c e3bd 4842 94be ed70 3f3f
000001b0: 0e8f 0ebf b281 d9be 6018 cabe 660b 93be
000001c0: 55d5 88bf 6652 a5be 782c 983f 7c50 0a3c
000001d0: 8532 0dbf f29f 74be 923a 5cbf 29fa cabe
000001e0: 3ff2 a6bd a071 0b3f ac49 f6be ebe4 abbe
000001f0: 82d7 92be 96cc 17bf 300d c9be 2d9a 0cbf
00000200: 46d9 1ebf b1ec 43bf 7b99 d03e afd7 21bf
00000210: 8d28 14bf 7b51 76be 50f4 bcbe b91a 933e
00000220: 34a8 f6be dc5e d8be 51aa c0be 1b6c aabe
00000230: 0b7a f93d 9329 ba3e a2dc 54bf a4bf 76be
00000240: b17d c9be 40e3 87bf 9bd1 b83e 068a 5abe
00000250: 90ad 34bf 8fb0 27bf d440 e13c 97ac 2dbf
00000260: b143 dbbe a583 71be a80e 39bf 874d 2ebf
00000270: 2731 2dbf e37d 69bf b0b0 043f de54 a9be
00000280: 0416 ffbd 9729 393e 73a3 e3be 67d0 afbe
00000290: 7768 23bf 07e2 28bf 08ce 08be 4409 febe
000002a0: af89 2ebe 5ae7 87be 5f84 d0be d03f bfbe
000002b0: 9bc8 91be 3865 37bc 644e f8bb 1729 c5be
000002c0: 2286 58be d5df 99bf 461a 10bf ee90 19be
000002d0: d14b a5bd d4ba 82bf 6b84 34bf db9a 07bd
000002e0: 7996 45bf 181b 3fbf 8a08 5fbf a5b5 00bf
000002f0: ff3d 97bd 5d8f 30be 2a63 dfbe 16ba 98be
00000300: 37f6 67be 477f 2dbf 16da 9bbe a21f 3c3f
00000310: 7e32 a9be bc94 2cbe ee9e 9fbf 6093 73be
00000320: 55d3 00bf 0a17 843d 0322 64be 1e4b 9bbe
00000330: 51b1 43bf 6e3b 4ebe b346 e7be 7e67 9cbe
00000340: 36ee 14bf 8190 c3be 3a9d aabe e72e 24bf
00000350: eca5 f0be b556 0ebf 64ea 72bf 78e5 bcbe
00000360: cb65 66bf f553 03bf c360 a93c f6f3 12bf
00000370: 2f6a d53e 0ab3 28be 0408 f9be fd09 04bf
00000380: a2d0 82bf 211d 44bf 1b33 edbe 334e ecbe
00000390: 592b 21bf f0b0 4ebf 7aa9 dfbe 55a0 95be
000003a0: 6e72 9cbe 8b5a 8e3e 37bb 29bf b626 16bf
000003b0: 85b3 04bf 9d9c 1cbf 551c 2abe 438b 00bf
000003c0: dae1 97be 9d96 1dbf 152f 12bf 0652 033e
000003d0: 67f5 b7be 5e45 1dbf 662a 12bf dd5e 06bf
000003e0: bfb3 d53c 1b17 9cbd 0d97 3ebf 65b7 c7be
000003f0: 4ef8 1abf d247 cbbd 8cb3 043f e4e2 06bf
-0.3696177 -0.50012225 -0.669824 0.0034030413 -0.29164445 -0.6319708 -0.40253142 -0.099716194
-0.7203169 -1.0443579 -0.5576795 -0.29722184 -0.4129861 -0.5141204 -0.53026354 -0.6514876
-0.22162339 -0.5807859 -0.46630844 0.4880787 -0.96201396 -0.32322142 -0.8541771 -0.27582654
0.05011222 0.376837 -0.4503344 -0.1667695 -0.3251897 -0.55367404 -0.34334987 -0.38114527
-0.62285125 -0.26303855 -0.2609636 -0.18181431 -0.73283386 -0.6686515 -0.9556291 -0.6578631
-0.33773515 -0.40784818 -0.7752724 -0.6358928 0.27972156 -0.55009776 -0.6030983 -0.34390426
-0.28614134 -0.438032 -1.5561477 -0.5071586 -0.47167885 0.077381104 -0.45379743 0.19579296
-0.17799018 -0.38296917 -0.15445101 -0.18858238 -0.3569101 -0.34332603 -0.585503 -0.59681594
-0.48475015 -0.54624873 -0.46734557 0.16811559 0.03171119 -0.5409076 -0.42669517 -0.35478806
-0.5883521 0.4712018 -0.3587458 -0.6160444 -0.35003385 -0.6348467 0.8592331 -0.4997824
-0.5600279 -0.09962771 0.21014114 -0.9039113 -0.508756 0.2456342 -0.5484765 -0.51973516
-0.62720245 0.5121727 -0.41045886 -0.2823583 -0.47373518 -0.3762577 -0.5165165 -0.25459853
-0.59660137 -0.30117363 -0.73629093 -0.89125127 -0.64262813 -0.5410259 -0.8173772 -0.6047791
-0.29427418 -0.110986196 -0.2895682 0.74781686 -0.55687034 -0.42481762 -0.39471722 -0.28719634
-1.0690104 -0.32289428 1.1888571 0.0084420405 -0.5515521 -0.2388914 -0.8602687 -0.39643982
-0.081516735 0.54470253 -0.48103082 -0.33573088 -0.28680044 -0.5929655 -0.39267874 -0.54922754
-0.6205028 -0.7653304 0.40742096 -0.6321973 -0.57874376 -0.2405452 -0.36905146 0.28731325
-0.48175204 -0.42259872 -0.3762994 -0.33285603 0.12181481 0.36359844 -0.8314916 -0.24096543
-0.39353707 -1.0616226 0.36097416 -0.21341714 -0.70577335 -0.6550378 0.027496733 -0.67841476
-0.42825082 -0.23585375 -0.7228799 -0.6808705 -0.67653126 -0.9120771 0.51832104 -0.3307256
-0.12455371 0.18082272 -0.4446064 -0.34338686 -0.63831276 -0.6596989 -0.13359845 -0.49616444
-0.1704471 -0.26543695 -0.4072599 -0.37353373 -0.28473362 -0.011193566 -0.0075777043 -0.38507912
-0.21144918 -1.2021433 -0.5629009 -0.14996693 -0.080711015 -1.0213265 -0.70514554 -0.033106666
-0.7718273 -0.74650717 -0.87122405 -0.5027717 -0.07384872 -0.17242189 -0.43630344 -0.29829472
-0.22652517 -0.67772335 -0.30439824 0.7348577 -0.33046335 -0.16853613 -1.2470376 -0.23786688
-0.5032247 0.06449707 -0.222786 -0.30330747 -0.7644244 -0.20139858 -0.45171127 -0.30547708
-0.5817598 -0.38196185 -0.3332308 -0.6413407 -0.47001588 -0.55601054 -0.948889 -0.3689382
-0.89999074 -0.51299983 0.020676022 -0.57403505 0.41682574 -0.16474548 -0.48638928 -0.5157774
-1.021992 -0.7660695 -0.46328053 -0.4615341 -0.6295677 -0.80738735 -0.43683988 -0.29223886
-0.30556053 0.27803454 -0.6630129 -0.5865282 -0.51836425 -0.6117647 -0.1661237 -0.50212497
-0.296645 -0.6155794 -0.5710309 0.12824258 -0.35929415 -0.6143397 -0.57095945 -0.524885
0.026086686 -0.076215945 -0.74449235 -0.39007106 -0.6053513 -0.09925808 0.51836467 -0.5268996

2.weight f4 [300, 400]
00000000: b365 7f3c 37f9 a7be ba54 25bf 30fb 32be
00000010: f272 a93c c536 053c d73f a33d 792f c4be
00000020: 9eba 973f 2e26 17c0 c6d9 a03d 7357 f8bd
00000030: 8252 5ebe 0d6e 97bf 3ab2 0bc0 cd9c 0ac0
00000040: 03bf 043d d6fc 90bf 3fa8 3ebe 5296 843e
00000050: 6ecb 22bf 5217 e5be 63a6 753e 9afc dfbb
00000060: cfd6 d23f 7512 c6bb 965a aabe 316b ca3c
00000070: e735 85bb 02e5 503e ca95 6e3d d52b 1ebd
00000080: fc7c 0ebc 49bd c43c 298f d33f a7bf f8bc
00000090: 44d3 063f 7081 bfbe f979 9bbf fab9 d6be
000000a0: 81a3 dd3e 18f0 c13e 2b71 febe 4921 c5bf
000000b0: 6806 55bf dc64 05be 2011 c63f ad08 053e
000000c0: 98bc 3bbf a9b2 583f 5829 c6bf 33bd 7fbf
000000d0: 345f 7e3d 888c 00c0 6af6 ed3c 293c ebbf
000000e0: e2a4 27c0 95d6 8dbe 9346 fdbf 8adf 9ebf
000000f0: 7d1c c23e c2c7 d8be 0c53 0f3f 88cc 4f3f
00000100: 6eda 2c3f db5f 673f 97d2 afbe 7afc 3cc0
00000110: 3743 f03d 7cf2 c6bd 33bd ff3e 7ebb a7bf
00000120: 50fa bb3e 3d68 58c0 6f4f 3fbe d74a 363e
00000130: f183 a83f a79a 2ac0 fc94 be3f 67bf 27be
00000140: b49d febc d7f7 b5bf e95c 98bf 8a70 56be
00000150: 29ad 42be d914 0a3f 629d 6a3f aeb0 1bbf
00000160: 0e09 13bf fef8 2e3f c0ea 4ebf 9ad8 36bd
00000170: 32a1 5a3c 76a5 1dbd a884 cf3d b1c7 c5be
00000180: be9c 90bd 4f57 393e 671e 2dbf cb52 753f
00000190: 55d4 1d3f 66c0 2bbf 6d69 913e 2df8 0dbf
000001a0: 6cfe bfbf f1f9 dfbf 5dd0 203e 0160 483e
000001b0: a6d0 bcbf ee8b 9ebd 5c30 fbbd f178 cfbe
000001c0: 31c6 58be 58bf 163d fe3b f43e ecc3 b3be
000001d0: e23d e33e dd05 993f 917f c43d 970e 26bf
000001e0: 5f50 68bf 2e56 903b be4c ae3e 35a5 1cc0
000001f0: e75c a5bb 2670 2f3f 6c15 063f 9cb3 7bbe
00000200: c1e8 5f3f 9d79 8dbf 683b 73c0 5a06 e93d
00000210: 5815 41bf 17fb bb3d bfc2 abbe d0d9 a93f
00000220: dac9 573c e258 49bf 1cf6 f2be 381b 52c0
00000230: e803 3d3e aae9 19bf f676 92bf 41f2 d3bf
00000240: b4e9 82bf c3bc ff3e 86a4 10c0 70f6 c83c
00000250: 42b9 d0bd c3b4 70be 7809 923f 0f7d 3a3f
00000260: e530 133e f5bf 813f 3eee 913e 01bc c23e
00000270: 2fda 2b3e 27a0 27bf a497 1940 7972 cbbe
00000280: c275 55bd b825 debf f22b 003e 36ad f4bf
00000290: d55a 923e 4f6f 35bf 9dad 863e 1321 f33d
000002a0: 8c8a 8c3e 5365 4abc f06a 61c0 be81 21bf
000002b0: cd5c 143d 6314 08bf 73a0 f8bf 6eae 923f
000002c0: bb19 f8bf f986 a7bf ceda a13d b394 f93b
000002d0: 5cce 973f a263 e4be 8c94 023e 3587 15c0
000002e0: 80e4 4ebf 9fe5 adbe c046 48bf 2cec 0f3f
000002f0: d5f2 efbf f475 8ebe 9a1a efbe 7ce7 0f3d
00000300: ac80 8a3f 5102 dcbf e5f4 9cbf 4dfa efbf
00000310: 805a b3bf 7ce1 19bd f8c9 4bbf 0002 65c0
00000320: 1cc5 8f3f 5979 19bf 9db9 dabc 678a 9c3a
00000330: fc1a fdbe 0b61 fbbf 5b7c 7fbd e318 65bf
00000340: 3e39 2bbf fe80 9ebf b245 bdbf 77ba 26bf
00000350: 031c 7ebf 30ca 36bf 1716 2bc0 7876 423e
00000360: f4f5 813f bc46 fdbb 4c89 2f40 4fc5 afbd
00000370: 19bc f83f 122b d5bf dc5a 0f3f 4550 87bd
00000380: 69f8 67c0 dcc9 093f e3af e9bc 8a32 583c
00000390: e58d 03c0 f95c d93d 8b9c f0bd 8694 9ebf
000003a0: 2dff 103f 9abd c5be 9a5d 683f 0a5b e43e
000003b0: 8960 483c 48bf 333f 15d3 90bf 70b0 333f
000003c0: 9de2 82bc df6c a5be bb0e 7e3f 3762 0cc0
000003d0: a7a3 b53e d1dd c6bf 002c 413e ae59 1dbf
000003e0: ee34 ffbf 7d0f 01bf f93b b13f 0c0e 0ec0
000003f0: 16fd 2abf 7379 653f 1ed3 9b3f c8ae bc3e
0.015588212 -0.32807323 -0.6458241 -0.17478633 0.020684693 0.008130734 0.07971161 -0.3831747
1.1853826 -2.3617053 0.07854037 -0.121260546 -0.21711162 -1.183046 -2.182753 -2.1658204
0.032408725 -1.132716 -0.18618868 0.25895935 -0.6359166 -0.44744354 0.23989253 -0.0068355324
1.6471804 -0.0060446807 -0.33272237 0.024709316 -0.0040652636 0.2039986 0.05824832 -0.03861602
-0.008696791 0.02401604 1.6528064 -0.030364824 0.52666116 -0.3740344 -1.2146598 -0.41938764
0.43288806 0.3787849 -0.49695715 -1.5400783 -0.832129 -0.13026756 1.5473976 0.12991591
-0.73334646 0.84647614 -1.5481367 -0.9989807 0.06210251 -2.0085773 0.029048163 -1.8377734
-2.6194386 -0.27702776 -1.9787163 -1.2411969 0.3791236 -0.42339903 0.55986094 0.81171465
0.675208 0.9038064 -0.34340355 -2.95291 0.1173157 -0.09714219 0.49949035 -1.3104093
0.3671441 -3.3813622 -0.18682645 0.17801987 1.3165265 -2.6656892 1.4889216 -0.16381608
-0.031081058 -1.421626 -1.1903354 -0.20941368 -0.19011368 0.5393806 0.916464 -0.60816467
-0.5743569 0.6834868 -0.8082695 -0.04464016 0.013344096 -0.038487874 0.10132724 -0.38628915
-0.07061146 0.18099712 -0.67624515 0.9582946 0.6165212 -0.6709045 0.28400746 -0.5545681
-1.4999518 -1.7498151 0.15704484 0.19567873 -1.4751174 -0.07741533 -0.12265083 -0.40521958
-0.21169354 0.036803573 0.4770202 -0.35110414 0.4438315 1.1954914 0.09594644 -0.6486601
-0.90747637 0.0044048047 0.34042925 -2.4475834 -0.005046475 0.685305 0.5237644 -0.24580234
0.8746453 -1.1052738 -3.8005009 0.113781646 -0.7542319 0.09178751 -0.33547017 1.3269596
0.013170684 -0.7865125 -0.47453392 -3.2829113 0.18458521 -0.6012217 -1.1442554 -1.6558305
-1.022757 0.499487 -2.2600417 0.024531573 -0.10191585 -0.23506455 1.140914 0.72847074
0.1437412 1.0136706 0.28502077 0.3803406 0.16782449 -0.6547875 2.3998804 -0.39735773
-0.052114256 -1.7355261 0.12516764 -1.911536 0.28584924 -0.7087297 0.2630433 0.11871543
0.27449453 -0.012353259 -3.522152 -0.63088596 0.036221314 -0.5315611 -1.9423965 1.1459482
-1.9382852 -1.3088065 0.07903062 0.0076166033 1.1859851 -0.44607264 0.12751979 -2.3363774
-0.80817413 -0.3396425 -0.78232956 0.56219745 -1.8745981 -0.27824366 -0.46699983 0.03513287
1.0820518 -1.7188207 -1.2262236 -1.8748261 -1.4011993 -0.037568554 -0.79605055 -3.578247
1.1232028 -0.59950787 -0.026699835 0.0011943103 -0.4943465 -1.963899 -0.062374454 -0.894911
-0.6688422 -1.2383115 -1.4786894 -0.6512827 -0.9926149 -0.71402264 -2.6732233 0.18990505
1.0153184 -0.0077293795 2.742755 -0.085825555 1.9432403 -1.6653769 0.55998015 -0.06607107
-3.6245368 0.5382364 -0.028526252 0.013195643 -2.0555356 0.10613436 -0.11748608 -1.2389076
0.5663937 -0.38621217 0.90767825 0.44600707 0.012230047 0.7021375 -1.1314417 0.701911
-0.015977198 -0.32309625 0.99241227 -2.1934946 0.3547642 -1.5536443 0.18864441 -0.61464965
-1.9938028 -0.5041426 1.3846427 -2.2196074 -0.6679243 0.8963844 1.2173803 0.36852098

2.bias f4 [300]
00000000: cecc acbf 632c e8bd 2f94 26bd 4a53 45bf
00000010: bf8d 89bf 3e73 99bd 5730 fb3e f0db b2bd
00000020: df06 c4bf 6b68 743b f691 9abd f142 243f
00000030: c2d2 d2bd d20b 623e 4bf8 e8bd 4666 94bd
00000040: d84a 5abc 2523 8ebd 76c8 93bd 9cd9 fdbd
00000050: 7dc6 88bd b57a 08bd 43f0 64bd 4f28 2cbd
00000060: d8d3 34bd 517f 43bd db1b eebf 9e8e 16bd
00000070: b698 9cbd e720 ddbe 71b4 43bd ae20 1abd
00000080: d635 94bc e5c4 8bbd 4e23 2dc0 eb1f 65bd
00000090: fe0e 98bd ce84 a7bd 2bd1 6ebf bd15 81bd
000000a0: e9da bbbf 9779 a9bd 2efd 943e 991d 49bd
000000b0: 07c0 d8bf 0d44 85bd d20f 00bd 61d2 44bd
000000c0: 06e7 8abd 0604 9bbd bbcf 62bd cc13 73bc
000000d0: d9b5 b2be 0ebe 12bd d19d 40bd 7878 b1bc
000000e0: 7563 0fbd 501a bfbd 8101 c6bc 9d32 04bd
000000f0: 8087 38bf 6508 07bd da71 5dbf c0bd b0bd
00000100: 8a52 5bbf e814 39bd 484a babc f299 56bd
00000110: 1290 d4bd 99f9 cebc 5f78 a1bd 8940 c5be
00000120: e16a 4fbd bbf0 69bd 48cb b1bd 68e9 b9bd
00000130: a8c9 b7bc e546 87bd 9e1e 98bd 0010 b5bd
00000140: 2326 e8bc a883 cbbe cd7c 07bd ac25 fcbc
00000150: f529 0abd cd50 1f3b 950c 85bd 8f5d a0bd
00000160: 604a b1bd 9c3b f6be f262 5bbd 37d4 a9bf
00000170: be66 99bd a4e4 74bd bdf6 2a3e ed65 83bd
00000180: 290a 0bbf ad10 8cbd 48c4 82bf c00c 41be
00000190: 1c2b ffbc 1d17 593f 8d65 0ebd ab78 6abd
000001a0: 057b 52bf f661 f1be bc71 fabc e601 9fbd
000001b0: 30ab 37bd 48e4 31bd 0ac8 56bf 5acf 54bd
000001c0: f93e c5bd 6e76 93bc ddc4 0ebb ef8c 22bd
000001d0: 0556 85bd c788 febd bad8 54bd 4e76 9fbd
000001e0: a018 b2bd 25c6 edbd 1121 c1bc 6fb2 073f
000001f0: 28af b1bd 5145 523d 5279 5dbc a430 79bd
00000200: 3eea 9abd 707a bcbc 7435 03bf f952 4abd
00000210: b2f9 5ebd 8442 8d3e 3f83 27bd 4679 d7be
00000220: 5219 6dbd fd18 0ebd 9941 5cbc fe99 05bd
00000230: fee2 2fbd 029b 54bc 3d74 84bd 2a00 89bf
00000240: 8d4a 06bd c333 60bd 5de5 93be 5963 4dbd
00000250: 77a8 a9bc a5bf eabe 0983 16bf 1bb4 7d3a
00000260: 9494 7fbd ad16 0bbd 33fb e4bc 39ef 4abf
00000270: e708 dc3d 5d0e 89bd 3614 97bd 599b 4cbc
00000280: 271c 24bd 1e3f 9dbd eee9 1fbd 5589 84bd
00000290: 80a6 b7bd fcdb 93bf 7c17 a7be 0bd3 e9bd
000002a0: fe49 163f e79f 26bd f7bb acbd c419 f5bc
000002b0: a62a 13bd 2d80 88bd 8342 7eba f250 863f
000002c0: 5d47 8cbd 7886 37bc c8a2 3ebd 5dc2 84bd
000002d0: 203a 3bbd 8142 c0bf 9e2b 1abe 556a 85bd
000002e0: 79b1 cdbd 5ef1 11bd 0250 b53e 123a 5abd
000002f0: 2340 b0be 63bb e5bb a6fe 91bd a541 0bbd
00000300: 3243 59bb df92 27bf 368d 7cbf c8cd bbbd
00000310: ca9a 50bd c33c ebbd f9cc 8a3f ca8b 5fbd
00000320: 72a6 d6bc 3e4e 9bbd 718f c5bd 19c5 44bf
00000330: 01be 4abf 2268 df3e 9994 cabd 29df 42bd
00000340: 6c82 78bd 28b6 34bd e64f 92bd f743 a7bd
00000350: be9f 8fbf 8b05 6cbd 8e98 12bd 9d8c 0ebc
00000360: 694b cbbd d544 e3bd 7580 06bc 596c dbbf
00000370: 77af acbc f1e8 4dbd 5dd9 b7bf cedf 1dbe
00000380: bfc7 d93e 4103 6cbf 05b5 8abd 8bc7 edbc
00000390: 26be a2be 1d47 8bbd 4614 91bd 266b 9bbd
000003a0: cf16 a1bf 032e e2ba 4f83 a1bd 0b64 efbc
000003b0: ed02 87bd d622 93bf c922 cbbd a37e ecbc
000003c0: 4327 80bd 43b1 e2bd 0a45 d7bd 6fc1 acbd
000003d0: c2fa 5cbf 99e5 49bd ae31 93bd e687 91bc
000003e0: 4480 ffbc 740b 273f 5b55 e0bc fae5 57bd
000003f0: cd75 04bc 75b4 0ebd d9b7 abbe 573a a6bd
-1.3500001 -0.11336591 -0.040668663 -0.77080214 -1.0746382 -0.07492684 0.49060318 -0.08733356
-1.5314597 0.0037293683 -0.07547371 0.64164644 -0.10294105 0.22074822 -0.11375483 -0.072460696
-0.013323508 -0.06940297 -0.07215969 -0.12395021 -0.06678484 -0.033320148 -0.055893194 -0.04203063
-0.044147342 -0.04772884 -1.8602251 -0.036757104 -0.07646315 -0.43189165 -0.047779504 -0.037628822
-0.018092077 -0.06824664 -2.7052798 -0.055938642 -0.074247345 -0.08179627 -0.93287915 -0.063029744
-1.4676181 -0.082751445 0.2909941 -0.049100492 -1.6933602 -0.0650712 -0.031265087 -0.048052195
-0.067823455 -0.07569127 -0.05537389 -0.014836263 -0.34904364 -0.03582578 -0.047025505 -0.02166389
-0.03500696 -0.093311906 -0.024170639 -0.03227483 -0.72081757 -0.03296699 -0.8650185 -0.08629942
-0.8567282 -0.045185953 -0.022740498 -0.052392907 -0.10379042 -0.025265502 -0.07884287 -0.385258
-0.050639037 -0.057114344 -0.08681351 -0.09077722 -0.022435024 -0.06605319 -0.07427715 -0.088409424
-0.028338498 -0.39748883 -0.033078004 -0.030779682 -0.03373142 0.0024309636 -0.064965405 -0.07830345
-0.08656764 -0.48092353 -0.05356116 -1.3267888 -0.074903 -0.05978836 0.16695686 -0.06415925
-0.5431238 -0.06839118 -1.021615 -0.1885252 -0.031148486 0.84800893 -0.034764815 -0.057243984
-0.8221896 -0.4714505 -0.03057181 -0.07764034 -0.04484099 -0.043430597 -0.83898985 -0.05195556
-0.09631152 -0.018000808 -0.002178482 -0.039685186 -0.065105475 -0.12428432 -0.0519645 -0.07786237
-0.08696103 -0.11610059 -0.023575338 0.53006643 -0.086759865 0.051335637 -0.013517695 -0.060837403
-0.075642094 -0.023007601 -0.5125344 -0.049395535 -0.054437347 0.2758981 -0.04089665 -0.42084712
-0.057885475 -0.0346918 -0.013443374 -0.03261756 -0.042941086 -0.01297641 -0.06467483 -1.0703175
-0.03278594 -0.054736864 -0.28885928 -0.050143573 -0.020710213 -0.45849338 -0.58793694 0.0009678022
-0.062397555 -0.033957172 -0.027951812 -0.79271275 0.107438855 -0.06692193 -0.07376902 -0.01248821
-0.04006591 -0.07678054 -0.039041452 -0.064715065 -0.08967304 -1.1551509 -0.32635105 -0.114172064
0.58706653 -0.04067984 -0.08434289 -0.029919513 -0.035929345 -0.066650726 -0.0009699242 1.0493453
-0.06849549 -0.011201493 -0.04654196 -0.06482384 -0.04570973 -1.5020295 -0.15055701 -0.06514422
-0.10043616 -0.035630576 0.35412604 -0.053278036 -0.34423932 -0.0070108636 -0.071286485 -0.03399815
-0.0033151624 -0.6545848 -0.9865297 -0.09170109 -0.05092887 -0.11486199 1.0843803 -0.054576673
-0.026202414 -0.07583283 -0.096465 -0.7686325 -0.7919617 0.43634135 -0.09891624 -0.047576103
-0.060671255 -0.04411903 -0.07144146 -0.0816726 -1.1220624 -0.057622474 -0.03579002 -0.008700517
-0.09926493 -0.11097113 -0.0082093375 -1.714244 -0.021079762 -0.05027098 -1.4363209 -0.15417406
0.42535207 -0.92192465 -0.06772808 -0.029025814 -0.31785697 -0.06800673 -0.07083945 -0.07588796
-1.2585086 -0.0017256144 -0.07886373 -0.029222509 -0.06592355 -1.1495006 -0.09918744 -0.028868979
-0.062574886 -0.11068966 -0.10511215 -0.08435332 -0.86320126 -0.049291227 -0.0718721 -0.017764997
-0.031189092 0.6525185 -0.02738445 -0.052709557 -0.0080847265 -0.034840066 -0.33538702 -0.08116596

4.weight f4 [1, 300]
00000000: 4f81 89c0 31c9 cbbc 2360 efbc ab57 bfbf
00000010: 3247 813f 9e05 983c 5676 d53f 777b 243c
00000020: d631 69bf 547a 7abc b5b5 133b 898b 53c0
00000030: f21b d2bb 7b03 97bf 8308 fb3b 1838 4f3b
00000040: 676c 12be 5d89 81bc 18e7 cf3c f5a7 0ebc
00000050: 1d1e 16bc ca43 d2bc d857 b8bc 08b9 33bd
00000060: 4655 1bbd 056e 1abb 2977 a540 60e6 30bc
00000070: 66eb a83b e033 273f 5fe3 a43c b1ba c3bc
00000080: 757a 873c a8ed ca3b 077d 1ac0 b156 c3bc
00000090: 7817 3d3c 81d0 4940 96b8 2b40 fd27 983c
000000a0: 8aa1 8a40 51b5 533b 6ff5 53c0 2728 bb3b
000000b0: 7581 4cbf 168b a43c 5937 cc3a e473 73bc
000000c0: 08bf 4b3b 79a1 d83c 6676 16bc 1aae 65bb
000000d0: 2484 5f3f 09e3 c5bc 7569 0e3d 3759 b1b9
000000e0: 9d20 873c eb3d e03c f0e3 39bb 3c53 fd3a
000000f0: 5511 1840 e3b1 f13b af49 f33f bab8 d13c
00000100: a77d b33f e2a4 d63b d7a9 3bbd c449 06bc
00000110: 4d7c 1ec0 6129 dcbc 69eb daba 767a 8040
00000120: 5c5f 88bc 4474 013d 71cd c33b 2eaf 153d
00000130: bd11 8a3c fdac 06bd 3727 313c ce35 97bc
00000140: da40 593c b75e aebf 2626 9a3b a56b 043d
00000150: 7958 c73c ddee 073c 1153 5a3c cebd 913d
00000160: 7ed6 2fbb 2485 063f dc93 793c 02f2 ebbf
00000170: 869d 903c bb89 f6bb 8a6e 10c0 ed59 05bd
00000180: 7f02 14bf 2581 0fbc f775 ae40 9c62 7c40
00000190: ed64 18bc 1a78 3e40 22c9 eabc 54f3 83bb
000001a0: 3469 56c0 a688 4bc0 92ea 60bb 82fa 5b3c
000001b0: c1be cd3c c31f f4bc f693 2240 7769 a7bc
000001c0: c77e abbc 974d a8bb 090a ccb7 2dd9 0e3b
000001d0: 37a2 293c 7877 aac0 9689 9ebc bf4a 263c
000001e0: 8bfc 79ba 76ab 58bd 8520 103b 6b03 0540
000001f0: 0f2a 33bd 3a23 08c0 27e7 303b e1c4 c0bc
00000200: 8d7e 0ebc d9d6 59bb 1aef 21c0 ebe3 eebc
00000210: 0cd2 7ebc 1f87 a7c0 cbcb 7e3b d1c7 5fc0
00000220: a682 95bc d634 293c 1e49 acbc 2d99 883c
00000230: 106f 4dba 23a8 7cbc d4c5 7cbb f364 15c0
00000240: 7306 80bb ca5a e33c 4935 4a40 1e4a 173c
00000250: 8e07 26bc 3ca6 ad3e 6f39 8b3f a680 263b
00000260: a2f7 5cbc 00f2 393c 15d4 03bc b409 86c0
00000270: 2a03 3040 2e2f a23c 7078 b43c 476a a4bc
00000280: edb0 833c 6bfa fd3a 86f6 afbc a7b7 21bb
00000290: 14f5 f13c fc1b 45c0 f2ac 233f 1f63 303e
000002a0: 10f9 25c0 1f82 2fbc a87d b3ba 93d0 f53b
000002b0: ebd8 f4bb 0f90 223c 6d68 e23e 7043 44c0
000002c0: f71e a93c 75ca 823b b82d b23a b578 99bb
000002d0: 91b3 4cbb 63db 5dbf 9c2e 8dbb 1484 083b
000002e0: fbd1 6b3c bf3c a03c f5d6 0fbf d555 97bc
000002f0: 62fd 90bf 4f96 bbb7 86a0 9c3c 7a6a ddbb
00000300: 152b 02bd c541 18c0 274a 9540 a03e 343c
00000310: 0575 9dbc 80e4 4e3c ba8a 263e 9e15 263d
00000320: 852d 123d cacd edbb f358 e5bc 6d21 1dc0
00000330: 500b cebf 6bea c6bf cadc 5e3b 64af 003c
00000340: 20a8 4a38 85c0 9fbc 3d01 93bb e41e 7d3c
00000350: 8866 d1bf 4f33 26bd 600c b33c d50b 823c
00000360: a531 96bc a816 ccbf 1208 5a3c 9c08 d0bf
00000370: 9c06 033d 744e 063c af80 9f40 6fcc e1bd
00000380: 4f75 9fc0 5e45 1ebe 1c6b 853b a6e1 9a3c
00000390: a6e5 913f a741 a43b 97b0 bd3c f8c3 b3bc
000003a0: 419f b640 aa5f 6abc 6f73 a03c 0b22 e1bc
000003b0: 14d1 77bb 7533 1740 9a6a 51bd 8cc3 f6bb
000003c0: 1a71 d2bc ae9d 9abb d429 fd3c a019 cf3b
000003d0: 9fdc 3b40 8afd e43c 21aa d2bc b057 c73c
000003e0: 1758 a0bd 8ef5 c63e 9c9e 0b3d 7bee 79b9
000003f0: 99c1 4f3d 236a 653c 342d a2bf bc3d 723d
-4.2970347 -0.024876209 -0.029220646 -1.4948629 1.0099852 0.018557366 1.6676738 0.010039202
-0.9109167 -0.015287954 0.0022538726 -3.3053916 -0.0064120227 -1.1797937 0.007660927 0.0031619128
-0.14299165 -0.01581257 0.025378749 -0.008707036 -0.009162453 -0.02566709 -0.022502825 -0.04387763
-0.03792312 -0.0023564112 5.170796 -0.010797113 0.005155015 0.6531353 0.02012795 -0.023892732
0.016537884 0.0061928816 -2.413881 -0.023845049 0.01154124 3.153351 2.6831412 0.018573755
4.332219 0.0032304118 -3.311855 0.0057115736 -0.79885036 0.020085853 0.001558046 -0.014859173
0.0031089205 0.026444184 -0.009183502 -0.00350464 0.87311006 -0.02415611 0.03476854 -0.0003382654
0.016495043 0.027373275 -0.002836462 0.0019327174 2.3760579 0.007375942 1.9006861 0.02560078
1.4022721 0.0065504173 -0.04581627 -0.008196298 -2.4763367 -0.0268752 -0.0016702238 4.014949
-0.016647033 0.03160502 0.0059754183 0.036544017 0.016854161 -0.03287982 0.010812572 -0.018458273
0.013260091 -1.3622655 0.0047042547 0.03232922 0.02433418 0.008296696 0.013325469 0.071162805
-0.0026830728 0.52546906 0.015233006 -1.843323 0.017653238 -0.007523743 -2.2567468 -0.032556463
-0.5781631 -0.008758818 5.4519 3.9435186 -0.009301406 2.9760804 -0.02866036 -0.0040268097
-3.350171 -3.1802154 -0.0034319502 0.013426425 0.025115373 -0.029800301 2.5402808 -0.020436032
-0.020934476 -0.0051362026 -2.4323368e-05 0.0021796927 0.010353616 -5.3270836 -0.019352715 0.010149657
-0.0009536228 -0.052897893 0.002199204 2.0783336 -0.043741282 -2.12715 0.0026993246 -0.02353138
-0.008697164 -0.0033239631 -2.5302186 -0.029161414 -0.015553009 -5.2352443 0.0038878794 -3.4965708
-0.018250775 0.0103275385 -0.021030959 0.016674602 -0.0007836679 -0.015420946 -0.0038570063 -2.3342865
-0.003907019 0.027753253 3.1595023 0.0092339795 -0.010133637 0.3391589 1.0876902 0.002540627
-0.013486775 0.011349201 -0.00804617 -4.1886845 2.750193 0.019797888 0.022030085 -0.020070208
0.016075576 0.0019376999 -0.021479856 -0.0024676116 0.029535808 -3.079833 0.6393577 0.17225312
-2.5933266 -0.010712176 -0.0013694065 0.0075016706 -0.0074721477 0.009922042 0.44220296 -3.066616
0.020644648 0.00399142 0.0013593948 -0.004683579 -0.003123496 -0.8666288 -0.004308535 0.0020830678
0.014393325 0.019560216 -0.56187373 -0.018473545 -1.1327326 -2.236213e-05 0.019119512 -0.0067570778
-0.031779367 -2.3790143 4.665302 0.011001259 -0.019220838 0.012627721 0.16263857 0.04054796
0.035687942 -0.007257198 -0.027996516 -2.4551651 -1.6097202 -1.5540289 0.0034006112 0.007854316
4.831713e-05 -0.01950098 -0.0044862316 0.015449259 -1.6359415 -0.040576275 0.021856487 0.015874783
-0.01833422 -1.5944414 0.013307588 -1.6252627 0.031988725 0.008197416 4.9844584 -0.11025321
-4.98307 -0.15456149 0.0040716063 0.018906426 1.1398208 0.005012709 0.023155494 -0.021944031
5.70694 -0.014305035 0.019586293 -0.027482053 -0.003781383 2.3625157 -0.051127054 -0.007530635
-0.025688697 -0.004718504 0.030903734 0.0063201934 2.9353406 0.027952928 -0.02571589 0.024333805
-0.07829302 0.38859218 0.03408681 -0.00023835331 0.05072174 0.014002356 -1.2670045 0.059140906
