results/c_1_5/best/target_q_func2.pt (torch, 502303 bytes, 5 tensors)

1.weight f4 [400, 10]
00000000: 9b74 953f 5794 c33f 98de 1f3f 8d8b 9c3f
00000010: 82db b33f 8ff7 933e 80ee 42be beff 68be
00000020: 42b5 7b3d 867a 7e3c cfd0 513d 9f68 c83e
00000030: 7eb3 2c3e 657f c23d a308 d93e a950 e23f
00000040: 56a3 10bf 0c74 a83e 20b2 713e d19a a93d
00000050: a7ad dcbe 73cd 8dbe d238 06bd 64c7 973e
00000060: 38d4 a73f ab7d f43d 6d50 b3be 5323 63bf
00000070: 32de 54bf 0b22 25be 3641 89bf c490 c23d
00000080: 5ae6 173f 3f7c 033f 7292 5fbe 9556 03c0
00000090: 0503 563e 24ca f1be 3a6e 8cbf 472d 0abe
000000a0: d3b1 cc3e f8d6 163f f633 033f 65f6 f0bd
000000b0: 0ce6 0fbf fd53 a93f 3380 6cbf 1117 2bbf
000000c0: 57f6 96be 233e 293e 49cd c0bf 2f40 b7bf
000000d0: 58fd d8be afaf a3bf ef20 d5bf de0f a2be
000000e0: d7ad fd3e 2b46 273d b476 3cbe 7d03 f3bb
000000f0: 490a 3d3f 1bfd 85bf d9f7 3ebf 3dda 923e
00000100: 49ff 17bd 0626 fc3e f193 e43e c8f7 57be
00000110: d37a 63bf d6cc c83c e3f2 02bf a544 c73e
00000120: fd2f e83e 6f17 30c0 c635 10c0 bd2b 2c3f
00000130: dbd9 aabf 070b f53d a72f 11bf 7f57 6b3d
00000140: 1608 46bf 516f bfbf ae02 68bf de41 8f3d
00000150: 40df 94bf 6e6f c7be 758d 9d3e 85d8 393e
00000160: 3e57 b33d d4e3 65bc a30c 66bd ba7a ec3d
00000170: 803a 30be 7753 b3be c36f 6fbe 1c73 8cbe
00000180: e399 f5bd c87e c43b 2472 853b 3f9f 33be
00000190: c7ae 2ac0 3b85 bbbe 0bed 8ebe 4dc1 803f
000001a0: 5421 ef3e 1860 98bd 436c 61bf 7f68 3c3d
000001b0: 2da3 2f3d 22c5 90bc 53af 12bf d745 263b
000001c0: 0d7b 66bf bb61 78bd d750 d63d 9078 b3be
000001d0: 67b5 3a3e fdaa deba a506 ca3c d7ce 6fbd
000001e0: b023 74bf c9ec 7abf e77d 473f 7f07 64bf
000001f0: 427c a2bf 9da9 963e 5545 da3e fdb1 a1bd
00000200: 37d7 823d b0f0 093c 5503 22c0 2860 a53f
00000210: ed1e 563d 17b5 5abf d65d 433f 2740 06bd
00000220: ee90 0b3e 9702 15bf 19c1 843a 540c e0bb
00000230: 62c3 963f 8c40 bbbe b6e2 0e3f 5b1b 583e
00000240: ea75 aa3f b053 f13e 28c3 f8bc ed38 883d
00000250: 5682 2ebd ddb5 083e 9a1b 873e 9d1d a8be
00000260: 05fe 5bbf e38e d9bf 09e0 4cbe 80b8 d43f
00000270: 3e15 943e 3105 06bf dbc7 76bd 0bee 6f3d
00000280: 8158 f53f 5545 9ebf 4e3d 2abf 1397 a63f
00000290: c8c1 a1be 68d4 9f3e 1add 59bf 08e7 a83d
000002a0: fc7a 573d 1d80 b4bc f948 43bf 58ac e43e
000002b0: a2dc cabf c2d3 03c0 a09f d8be 17cf fa3e
000002c0: de83 21bf 9b1a 9b3c 2a22 1a3d 3c83 823d
000002d0: f08c 70be 68de 00bf a5d8 7fbf cc3a ad3d
000002e0: c133 dcbf 68e4 5b3f 5d58 85bf b1e7 31bd
000002f0: 2a80 93be 27cf 563e ce55 cf3e 0f5d 4f3f
00000300: 4732 97bf ca20 36bf 2883 0640 3f0a 783e
00000310: c98b af3d 90d2 343c 2cdb 963d ebd1 b93c
00000320: f5f9 91bd 4ae7 6fbe d913 54be b559 813c
00000330: 7112 debe da2e dcbd eca4 94be 8f3c 323d
00000340: ef4e 8cbe 5913 d2bd 0e1c 063f a61a 8fbf
00000350: c44e 453f eb67 d2bf 0ef1 643f fdc9 cc3f
00000360: 0233 4a3d 4c94 d8bd 31b8 5f3c a8e2 dd3d
00000370: 3ca5 0740 83bf bcbd f463 00bf 8618 3e40
00000380: fae6 b13f c592 f7be 67e6 b23e 84d3 4f3e
00000390: 8540 bc3d f732 65bd 9e3d 97bf 5f7e ffbe
000003a0: e9b7 2c3f 98ec a1bf 6db7 3b3e 141a 5e3f
000003b0: 03cc dbbe 4e67 e5be dcd8 91bd d2f0 8c3e
000003c0: 617a 91bf 855d 333f b1c2 45bf 68a5 ba3f
000003d0: afad 98bf df27 89bf 3c9b b0be b504 b23e
000003e0: 2de6 80bf 3840 99bd 0d91 0740 f443 af3e
000003f0: cd22 753e fcb8 c4be 17b4 e6be 5306 74bd
1.167621 1.5279645 0.62449026 1.2230088 1.4051363 0.2889981 -0.19036293 -0.22753808
0.061452158 0.015532142 0.051224526 0.3914232 0.16865346 0.09496955 0.42389402 1.7680866
-0.5649923 0.32901037 0.23603106 0.08281482 -0.43101236 -0.27695808 -0.03276903 0.2964431
1.3111639 0.11938032 -0.35022298 -0.88725775 -0.83151543 -0.16126268 -1.0723026 0.09500268
0.59335864 0.5136146 -0.21833208 -2.0521595 0.2089959 -0.47224534 -1.0971138 -0.13493834
0.3997942 0.58921766 0.5125116 -0.11765746 -0.562104 1.3228756 -0.92383116 -0.6683207
-0.29484817 0.1652761 -1.5062648 -1.4316462 -0.42380786 -1.2787989 -1.6650676 -0.3165273
0.49546692 0.0408384 -0.18404657 -0.0074161873 0.7384382 -1.0467867 -0.74596936 0.28682128
-0.037108693 0.4924776 0.4464412 -0.21090615 -0.8885929 0.024511736 -0.51151866 0.3891956
0.45349112 -2.7514303 -2.253282 0.6725424 -1.3347734 0.11964994 -0.56713337 0.05745649
-0.7735609 -1.4955846 -0.9062909 0.06994985 -1.163063 -0.38952202 0.30771986 0.18149002
0.087568745 -0.014031369 -0.056164395 0.11546846 -0.17209816 -0.35024616 -0.23382477 -0.2743157
-0.11992242 0.005996559 0.0040724445 -0.17541216 -2.6669176 -0.36625084 -0.27915224 1.0058991
0.46705115 -0.074402034 -0.8805582 0.045998093 0.042880226 -0.017672125 -0.57298774 0.0025371218
-0.9003151 -0.060640078 0.10464638 -0.3505292 0.18233262 -0.0016988214 0.024661371 -0.058546867
-0.95366955 -0.98017555 0.77926487 -0.8907394 -1.269417 0.2942628 0.4263102 -0.07895277
0.06388705 0.008419201 -2.5314534 1.291997 0.052275587 -0.8543257 0.7631506 -0.032776024
0.13629505 -0.58207077 0.0010128348 -0.006837407 1.1778376 -0.36572683 0.55814683 0.21104185
1.3317235 0.4713416 -0.030366495 0.06651483 -0.042604767 0.13350625 0.26388246 -0.32835093
-0.8593448 -1.699673 -0.20007338 1.6618805 0.28922457 -0.5235167 -0.06024919 0.058576625
1.9167634 -1.2364908 -0.66499794 1.3014854 -0.31593156 0.3121674 -0.85103 0.08247191
0.05260752 -0.022033745 -0.7628322 0.44662738 -1.5848582 -2.0597997 -0.42309284 0.48986122
-0.6309184 0.018933585 0.037630238 0.06372687 -0.23491263 -0.50339365 -0.9993995 0.0845848
-1.7203294 0.85895395 -1.0417591 -0.04343385 -0.2880872 0.2097746 0.4049515 0.8100137
-1.1812218 -0.7114378 2.1017551 0.24222659 0.08571584 0.01103653 0.073660225 0.022683105
-0.07127754 -0.23428074 -0.20710696 0.015789846 -0.43373445 -0.10751124 -0.29032075 0.043514784
-0.27403972 -0.102575965 0.5238656 -1.1180007 0.7707331 -1.6437963 0.8943032 1.5999142
0.04936505 -0.105751604 0.0136547545 0.10834247 2.11946 -0.092162155 -0.50152516 2.9702468
1.3898613 -0.48354164 0.34941408 0.2029553 0.091919936 -0.055956807 -1.1815679 -0.499011
0.67468125 -1.2650328 0.1833169 0.8675854 -0.42929086 -0.44805378 -0.07121441 0.2752748
-1.1365472 0.70064574 -0.772502 1.4581728 -1.1928004 -1.0715293 -0.34493434 0.34769216
-1.0070244 -0.07482952 2.1182282 0.34231532 0.23939057 -0.38422382 -0.45059273 -0.059576344

1.bias f4 [400]
00000000: f2ab 92be b34d 1fbf 488d f7bd f0ae febd
00000010: 8ffe 12be 31a0 003f cb1c 17be 311f bb3c
00000020: 4ec6 993e fa62 d8be 55ca 0d3e 3833 933e
00000030: c956 da3e 28e4 4e3a 5df0 54be ab42 bbbd
00000040: e603 0c3e 5678 3b3d 3e0b f73d 12c2 893d
00000050: 8563 89be a118 06be 0f76 84be 2bb5 bbbe
00000060: 48b8 86bd a9de f7be 9861 7b3e bc23 96be
00000070: fb7a 6dbe 3617 a0be 4efa 8bbe 3cb1 31be
00000080: 756f 8dbe 223a b03d 26b0 99bd 2fee 503e
00000090: 84bc f53c c2a0 e93d 9336 023e 17ff 9d3e
000000a0: 06b8 76bd bd66 d83e 04c0 2fbe e8d4 b13e
000000b0: 338b e6be c994 80be b427 adbe 110e 14be
000000c0: 6d83 b7bd 2933 18be 0fda 5d3e 6abe 773c
000000d0: e80f 96bd 7bb0 383e 395d 843e 5cca 333e
000000e0: 9ed3 cc3d ac2d 85bd 162a 453e 8092 9e3e
000000f0: 7853 f8be e43f 04bf 15ac fc3e 3ec5 7f3d
00000100: d306 3fbe 6092 74bd 7259 0b3e a166 b33e
00000110: 5365 0e3e 41a6 cebd 4e13 5d3d c4ec 26be
00000120: b144 81be 7815 303e 2db6 ed3d 2031 b0be
00000130: 199a d2bd 5e5c a6be 3356 95be 0598 543d
00000140: fd7e bebe 48cf 403c 68af 81be 2927 0dbf
00000150: f16e 54bb 7f4e ce3e c249 e9bc bc42 b73d
00000160: 43ea 81bc 3a9c 5c3d fa8d 5fbc 9b06 f3be
00000170: 594a 4ebc ed3d 6a3d 719a cf3d 2f65 023e
00000180: c3bd 62be 42dc 7d3d 4179 593e 33ba 9ebe
00000190: b289 a33d 1d73 79be 5f94 c5bd c63c 1dbf
000001a0: a077 653e e677 e7be 8037 e1bd 99ca c1be
000001b0: 89c1 5b3e ceca db3c ccc7 29bd 9cf6 83be
000001c0: a107 46bd 2743 9b3e 0dee 693d bc11 1c3e
000001d0: 3fd3 20be 3e80 e0bd be38 90be 4c23 673d
000001e0: eed2 c93d ea88 0dbe dacc a5be ade3 aabd
000001f0: 7eea 2b3d c9bc b53d 05bb 063d 9829 00be
00000200: f789 acbe 1ac2 c2be 2d6a 733d 903d debe
00000210: 7f47 9ebd fcc4 febe fdda 283d 3cf2 afbd
00000220: 6b40 1ebe 8bc5 8abe 52be 533e 0262 143c
00000230: b7f1 e3bd 8d7e a1be da64 553e 9a26 4abe
00000240: 53b0 c5be 5f5d e7be d872 263c 9245 59be
00000250: b1d7 08be 3df3 8abe 1fa1 b43e 96b2 93be
00000260: 6132 6bbc 01db 2f3e 4189 b83e 2833 d5be
00000270: 2811 8e3e cae4 153e a476 08bf 0997 05bd
00000280: 031b 2b3d 95b6 253e 998d 5bbe eb86 383b
00000290: 03cf dbbd 1733 453e 4b83 eebe 3d8b 9bbc
000002a0: 0007 e5be 4b9d 833e 4ca2 1cbe f691 203e
000002b0: 5ecf 973c 0d3e 37bf 3fce 903c 71a2 0c3e
000002c0: c178 7a3e 4294 80be 57e3 e8bd a4bd b03e
000002d0: 6efb 1dbf ef5b d0bc 5d87 22be 6050 193e
000002e0: 9c93 fcbd 2daa 0ebe b84b 7f3e fb14 733e
000002f0: 57dc 773e c534 84bd a4ac 3a3e b302 903e
00000300: e37b 873d 043d 303e 926b c53c 858f a4bb
00000310: 229b 89be 8903 0c3d d860 fcbe 64b1 9a3d
00000320: a374 d4be 36ff 99be ad98 35be 3fb9 92bd
00000330: 04ba ac3d 8e32 a93d 42eb c8bd db71 21be
00000340: bcd3 d7be 0855 27be eb76 4a3e 54b1 f5be
00000350: dae4 d2bc 2c5a 7cbe 3130 293e 4696 823b
00000360: 8bcd 3cbe 90b4 44be bb44 78be b01d 4dbe
00000370: 8bd4 353e be0a 23be da1a f3be 53d9 1e3d
00000380: 0ce7 1b3e cd21 3cbe 58de d3be ed0c 093e
00000390: 5b67 fa3d 13a4 03bd 8ce7 9a3d 8e27 90be
000003a0: 4018 a93d 792c 263e 0a89 5abe 5b05 9dbe
000003b0: 89e1 fabe d397 43be 20f6 dd3d 9c66 413d
000003c0: bf80 9dbe 430b 5a3d 6394 3c3e 846f 5abe
000003d0: 4c4c 0d3e 25e6 89bd ec79 65bd 58a2 e4bd
000003e0: f941 8e3e a51f bfbe 8714 2a3d ad71 ccbd
000003f0: b871 5b3e bbbb 39be 5d30 dfbc 5e8c 0dbe
-0.2864681 -0.62227935 -0.12087494 -0.124357104 -0.14354919 0.5024443 -0.14757077 0.022842022
0.30034107 -0.42263013 0.13846715 0.28750014 0.42644337 0.00078922743 -0.20794816 -0.09143575
0.13673362 0.04576906 0.12062691 0.06726469 -0.2683374 -0.13095333 -0.25871322 -0.36661658
-0.065781176 -0.48412064 0.24548948 -0.29324138 -0.23191445 -0.3126771 -0.27339405 -0.17352766
-0.27624097 0.08604838 -0.07504301 0.2040336 0.029997118 0.11407615 0.12716131 0.3085868
-0.060234092 0.42265883 -0.17163092 0.34732747 -0.45028076 -0.25113514 -0.33819354 -0.14458491
-0.08960614 -0.14863266 0.21665214 0.015121082 -0.073272526 0.18036072 0.25852373 0.17557663
0.100013 -0.06502852 0.19254336 0.30971146 -0.48501182 -0.5165999 0.49350038 0.062443964
-0.18654947 -0.059709907 0.1360834 0.35039237 0.1390584 -0.10090304 0.05397349 -0.16301256
-0.2524772 0.1719569 0.11607013 -0.3441248 -0.10283298 -0.32492346 -0.29167327 0.05190279
-0.3720626 0.01176817 -0.25329137 -0.5513788 -0.003241476 0.40294263 -0.028477553 0.089482754
-0.015858775 0.053859927 -0.01364469 -0.47465977 -0.012590968 0.057187963 0.10136879 0.12733911
-0.22142701 0.061977632 0.21237661 -0.31001434 0.07985248 -0.24360318 -0.0964744 -0.6142086
0.22408915 -0.45208663 -0.10996914 -0.37849882 0.21460547 0.026830103 -0.041450307 -0.25774086
-0.04834712 0.3032467 0.05711179 0.1524114 -0.15705584 -0.1096196 -0.2816829 0.056430146
0.09854685 -0.1382176 -0.32382852 -0.08344207 0.041971676 0.088738985 0.0328932 -0.12515867
-0.3369901 -0.38038713 0.05942743 -0.43406343 -0.077284805 -0.49759662 0.04122447 -0.085911244
-0.15454261 -0.27103838 0.2067807 0.00905657 -0.11130088 -0.31541863 0.20839253 -0.19741288
-0.38611087 -0.45188424 0.010159217 -0.21217945 -0.1336353 -0.271387 0.35279176 -0.28847188
-0.014355273 0.17173387 0.36042216 -0.41640592 0.27747464 0.14638057 -0.5330603 -0.03261474
0.041773807 0.16182931 -0.21440734 0.002815659 -0.10732844 0.1925777 -0.46584544 -0.018987292
-0.44731903 0.25705943 -0.15296286 0.1568068 0.018531498 -0.71579057 0.01767647 0.13733841
0.24460126 -0.25113112 -0.11371487 0.34519684 -0.61711776 -0.025434462 -0.1587195 0.14972067
-0.12332842 -0.13932104 0.24931228 0.23738472 0.24205147 -0.064553775 0.1822992 0.2812706
0.066154264 0.17210776 0.024099145 -0.0050219917 -0.2687617 0.03418306 -0.49292636 0.07553366
-0.41495237 -0.30077523 -0.17734022 -0.07164239 0.08433917 0.08261596 -0.09810497 -0.15766089
-0.42153728 -0.1634103 0.19771926 -0.47986853 -0.02574389 -0.24643773 0.1652229 0.003985199
-0.18437783 -0.19209504 -0.24244969 -0.20030856 0.1775686 -0.15922067 -0.47481424 0.038781475
0.15224856 -0.18372269 -0.41380572 0.13383837 0.12226745 -0.032138895 0.07563695 -0.28155178
0.082565784 0.16227902 -0.21341339 -0.30668148 -0.49000195 -0.19100885 0.1083796 0.047216997
-0.30762288 0.053233396 0.1841598 -0.21331602 0.13798636 -0.0673335 -0.056024477 -0.11163777
0.27784708 -0.3732883 0.041523483 -0.099826194 0.21430099 -0.1813802 -0.027244741 -0.13823077

3.weight f4 [300, 400]
00000000: 6d6d 88bd fc02 013d 7dcb 03bd 526e 63bd
00000010: cc5a fcbc 3ab4 d83c 4f38 a1bc df8d acbb
00000020: f0d6 37bc c11d 53bd cdba 1e3d 5fee b73b
00000030: 2d41 86bd ca8e 52bd 86c3 92bd ad27 043d
00000040: a13d 49bc faad d8bc 9289 ecbc 4b23 ff3c
00000050: 5b44 303d de57 1cbc 404a bd3c 78de b9ba
00000060: ba9d 623c dc84 08be e4f8 fa3c 098c 47bb
00000070: 30f9 c33c 4224 edbc 78d6 cb3c 9f4a 323d
00000080: 1d52 85bd 9766 a83c 4ca0 7f3b d8c3 3fbc
00000090: f823 3dbd 7c12 0d3b 05d9 04bc 6ffc b73c
000000a0: 5db1 8b3c 818c 4cbd c3ea e73c f81e 423c
000000b0: ad66 1f3d 7084 4bbd ab76 e2bd c392 fe3c
000000c0: 72ac ee3b df36 2ebd cc3d 053b 7603 9fbc
000000d0: b75c 26bd 4a11 d0bc 901f 3bbc 23f3 7c3c
000000e0: c4b4 f0bd 9857 37bc 6520 03bc adb4 92bc
000000f0: 78b1 4dbd 24e9 063d 890e 5e3c 9d79 0dbc
00000100: b68a 96bc 14df 7dbd bd9f 03bc 3568 09bd
00000110: 3f95 bd3c 75d3 8dbd 9254 e0bc 716f 42bd
00000120: 68dd bbbb edc1 953b 3ac6 d5bb 8800 bfbc
00000130: 4f21 29bc 9ada 68bd fbd6 e6bc 73e2 7ebc
00000140: 98c6 31bd f42c 7dbb ad27 84bd 7cf0 013b
00000150: 3586 84bd e8bb 32bd ad83 963c abaa 6abd
00000160: bd76 0ebb 43b6 763c f05c 433c 399f 4fbd
00000170: 86b4 213d 303e c5bc 24f8 f7bc e559 08bc
00000180: dfca bf3c 9ecb 10bd 9819 39bd 467a 19be
00000190: d6ba 1bbb ca9d 5cbd 4056 3bbd c8f6 493c
000001a0: 7756 26bc 7618 283d dc7e f0bc 0eb3 98bc
000001b0: 3fdc 2dbe c726 a9bc 7ac9 62bd 65bd 86bc
000001c0: b492 843c 6fa0 a5bc b4c5 083a c18f c0bd
000001d0: 4360 fc3a 68c3 37bd fc3a 543c d9ac 47bd
000001e0: 7980 d13c 5f27 22ba 1441 8f3d 0203 e5bc
000001f0: 60d5 b73c d5b7 0fbc 3eb3 9f3c 2fc0 a7bd
00000200: 8df5 06bd b097 b4bd fa1d d73c 1ab3 e0bc
00000210: 0c42 7dbc 7831 413d 1ba7 e23c 3553 993c
00000220: 1587 943c 0bb4 6abd ce18 003d 32bd e63c
00000230: b4f2 0d3d 02f1 673c e4c7 fe3c baa4 e53b
00000240: 8135 4e3d 2582 133d 2b7f 6bbb 28db 11bd
00000250: 6d8e 8fbd 51a1 4ebd 002c c1bc 4c77 0a3d
00000260: fd81 09bd efec 2bbc 6350 fb3c dfe8 ba3c
00000270: 358e 0bbd bd6f 0bbd 32b2 6c3c 80bc c43c
00000280: 79b5 dd3c cfca 2cbc 50ff b6bd 847a 013d
00000290: ff35 373d e35b 773c 1ff0 3e3d 2630 a9bd
000002a0: dfa5 a8bc 9524 01be 66c7 15be 2669 13bd
000002b0: d3eb 7ebc 4ef5 273d 80b3 39bd 18b1 3fbd
000002c0: ba98 e73c 2cef 65bc efa7 aabc c9ab c9bc
000002d0: c887 4fbd 2ece 14bc eaf6 d6bd 8c0d 0cbd
000002e0: f34e 6fbd 95f8 183d 0143 d23c dace 52bc
000002f0: 0b2a 68bc 3638 aa3c 8b77 f23b 4793 323d
00000300: 0140 46bd 1faf b4bd 2a97 e73b 2aea 55bd
00000310: ea9d 693c 38f0 b53c 0c4c f3bd 5aa5 dbbc
00000320: bc11 71bd 490d 40bc 628f e43c e7b8 26bd
00000330: e923 5c3c 8f00 3c3c 2417 f7bc b8bd cc3c
00000340: ec4a fbbc ff27 b13c 0634 2cbc 4602 2d3c
00000350: c85c b9bc a93e ca3c b2e5 d93b 517f dc3b
00000360: 6d7f 05bd 3126 49bd 4daf 09bd e9f1 db3c
00000370: ac56 78be e32d 6ebd cd36 02bd c2d7 663b
00000380: f9cd c2bb 85e8 10bd 13b1 74bd dbb3 7c3d
00000390: 7689 91bb afd4 aebc 7741 b63c c12e 4cbd
000003a0: 3f9c 27bc 19e9 573c adc9 02be cc1b 2ebc
000003b0: 8518 09be 4700 a5be aa4c e93b 19fe 47bd
000003c0: 3eed a63c 51d7 5e3c 9dc7 003c 296d 553a
000003d0: 9893 463d 4309 7e3c f92a 593a 3981 54bc
000003e0: de39 a13b a26f 623c f949 583c 22c3 eb3c
000003f0: a545 02bb 1795 d2bc a2a9 50bd e6bf 293c
-0.06661496 0.031496987 -0.032176483 -0.05552513 -0.030805014 0.026453126 -0.01968017 -0.005265936
-0.011220679 -0.051542047 0.038752366 0.005613133 -0.065554 -0.051405706 -0.071661994 0.0322644
-0.01228276 -0.026450146 -0.028874192 0.031144759 0.04303394 -0.009542434 0.023106694 -0.0014180681
0.01383155 -0.13331932 0.030636258 -0.0030448458 0.023922533 -0.028947953 0.02488254 0.043528195
-0.065098025 0.020556731 0.0039005456 -0.011704408 -0.04617688 0.002152591 -0.008108382 0.022459237
0.017052347 -0.049938682 0.028310185 0.011848204 0.03891628 -0.04968685 -0.1105779 0.03107584
0.0072837407 -0.042532798 0.0020331023 -0.01941083 -0.040615764 -0.025398869 -0.011421099 0.015438828
-0.11753228 -0.011190318 -0.008003329 -0.017908419 -0.050218076 0.032937184 0.01355327 -0.008634952
-0.01837669 -0.061980322 -0.00803369 -0.033546645 0.023142455 -0.06925098 -0.027384076 -0.04746956
-0.005733181 0.004570237 -0.0065238746 -0.023315683 -0.010322883 -0.0568491 -0.028178683 -0.015556919
-0.043402284 -0.003863153 -0.0645288 0.0019827178 -0.064709105 -0.043636233 0.018373335 -0.057291668
-0.0021738254 0.015058103 0.0119240135 -0.050688956 0.0394788 -0.024077505 -0.03026969 -0.008322214
0.023412166 -0.035350434 -0.045190424 -0.1498805 -0.0023762486 -0.053861417 -0.04573655 0.012326904
-0.010152451 0.041038953 -0.029357366 -0.018640067 -0.16978548 -0.020648373 -0.055367924 -0.016447732
0.016183235 -0.020218102 0.00052174483 -0.09402419 0.0019254762 -0.04486409 0.012953516 -0.048748825
0.025573956 -0.00061856763 0.069948345 -0.027955536 0.022440612 -0.008771856 0.019494649 -0.08190953
-0.03294902 -0.088179946 0.026259411 -0.027429152 -0.015457641 0.047166318 0.027667573 0.018716434
0.018130818 -0.05730061 0.031273656 0.028166387 0.034655288 0.014156582 0.031101175 0.0070081623
0.050343994 0.036012787 -0.0035933952 -0.035609394 -0.070095874 -0.050446812 -0.023580551 0.033805177
-0.033571232 -0.010493501 0.03067798 0.02281612 -0.034071166 -0.03404211 0.014446782 0.024015665
0.027064072 -0.0105464 -0.08935416 0.03161098 0.04472923 0.015097591 0.046615716 -0.08261137
-0.020586906 -0.12611611 -0.14626846 -0.03598895 -0.015559155 0.041005425 -0.0453372 -0.04679975
0.028271068 -0.014034074 -0.02083203 -0.024618046 -0.0506666 -0.00908236 -0.10496314 -0.034192607
-0.0584249 0.03734644 0.025666716 -0.0128667 -0.01417018 0.020778757 0.0073995045 0.043597486
-0.048400883 -0.08822464 0.0070675807 -0.05222527 0.014258841 0.022209272 -0.11879739 -0.026812244
-0.058854803 -0.011721917 0.027900402 -0.04070368 0.013436296 0.011474743 -0.030162401 0.024992809
-0.030675374 0.021625517 -0.01051045 0.010559624 -0.02262725 0.024688082 0.0066496963 0.0067290445
-0.032592226 -0.049108688 -0.033614445 0.02684875 -0.24251813 -0.05814923 -0.031790543 0.0035223817
-0.005944964 -0.035377998 -0.059739184 0.06169496 -0.0044414354 -0.02134165 0.022248013 -0.049849275
-0.010230123 0.013178133 -0.12772246 -0.0106267445 -0.1338826 -0.32226774 0.007119735 -0.04882631
0.020376798 0.01360114 0.0078600915 0.00081415713 0.0484806 0.015505138 0.00082842965 -0.012970262
0.0049202284 0.013820561 0.01320123 0.02877957 -0.0019877937 -0.025705857 -0.050943024 0.010360694

3.bias f4 [300]
00000000: 3809 36bd ef66 16be 80f0 4c3c d981 cabc
00000010: 6e5b f03d c19b d73d 60f0 bfbb c8f2 b9bd
00000020: ef04 28bd e638 1abd cd2a 04bd 9b9c eaba
00000030: e50d 84bd 4a0c d5bc 9beb 2abd 49e6 523c
00000040: a6ee 9cbc 7af2 57bd 56d1 91bd 7af1 d3bc
00000050: a6aa c83e 68fa 11bc 4152 44bd 1019 3abd
00000060: 76c7 e8bd 4811 593e 6ba0 863e edff 933c
00000070: 884d a33e 0836 34bd 4698 17bd c665 ab3c
00000080: 3f51 27bd 3cab 18bd 4e5d 1fbd ea13 c1bd
00000090: bda2 0fbd fb85 e7ba 1257 51bd 5a66 7e3c
000000a0: 5315 05bd 0400 72bd 8d07 8dbd ed90 993a
000000b0: f328 aabe aeb3 b7bc 3eb9 9ebc 28e9 38bd
000000c0: c5af 0ebd be9f 1cbd f55e 0abe 793f c7bb
000000d0: 970f 2abd 363b 89bd 8767 71bc f9a5 1f3c
000000e0: ca32 59bd 98a8 b6bc efea a3bd 05e5 1b3e
000000f0: f471 00bd 8a8e 51bd 1121 da3d 3187 54bb
00000100: 9fdc 22bd ea28 d7bc 7055 bebd 5f32 353b
00000110: a477 823d c848 4d3b de7a 92bd 2232 663c
00000120: 5430 1dbd fd54 84bc c069 9f3e 57bf adbc
00000130: 9d64 84bd 94ec 87bd d2ee 6c3f 753a 81bd
00000140: e8e1 34bd 4f76 383c 5572 0cbd 239e edbc
00000150: 367f 433e bdae 8dbd dfd3 313c 554d 8ebd
00000160: ab59 88bd a909 d73b 56d9 18be b61b f9bd
00000170: 21b2 10be 0a00 d6bc 22f5 eb3c aeea 223b
00000180: 2604 a839 4a66 dfbc a1a5 40bd f4c4 053e
00000190: 9e3c 13bc fa9a d7bc 2135 c0bc 4eb9 18bd
000001a0: 7139 f5bd 7069 433b 1dfe ecbd 8198 8abe
000001b0: 8450 cdbe 1906 cfbc b390 7c3c aa6c 53bd
000001c0: 2c7a 393c 2c0e 023c a553 04be a308 bfbd
000001d0: f442 71bc 456b 943b 3d11 88bd 7db3 87bd
000001e0: 9519 453f ff76 c33c b8de babc 18e7 5abe
000001f0: 091d 99bc a5e6 153e db3e 6abe d32a e8bc
00000200: cf90 8e3e 3804 bbbd d3d2 65bd 2c5c f5bc
00000210: fed7 9cbc 4a84 dabc 7145 49bd ff8d a0bd
00000220: ed91 84bd 9d40 acbd 741e 75bb 7386 6cbd
00000230: d512 05bd 775e e3bc 1e09 a13e 3aa6 eb3b
00000240: a3b8 733b 16ef a43c c628 8d3e 0de1 08bd
00000250: da37 9cbd 26f3 15bc b51b 83bd a609 6b3d
00000260: 088e cf3c e619 1bbd 3379 e9bc 51ec ceba
00000270: 7c09 823c 9124 cfbd 79fa 45bd cd2a 04bd
00000280: beee 93bd 5ffa 26bd 8829 cd3c 08f8 ce3b
00000290: ded0 98bd 171a bb3c 70b4 b03c dc88 a63e
000002a0: 73e3 ebbd a439 7f3e 688e 0bbe 414e 4dbd
000002b0: 229e d4bc 0d8b 8ebd 5f72 3b3e f525 933c
000002c0: f654 203b 4a39 5abb 50eb b1bc d3c7 503e
000002d0: cf00 bd3c 225a d7bc 1dfd b2bd f9b1 4fbd
000002e0: e41b 3fbe 816d e4bd 267c 14be 1b00 e9bd
000002f0: 7b2f 6bbc 0795 20bd 565f 1fbe 7b93 ebbc
00000300: a03e 1abd 2edb 16bd ccdb 48be a88a 35bd
00000310: 6334 efbc 30da c43b cdc0 573c f466 043c
00000320: 351f b6bc 48e4 b1bd dba5 0d3c cd39 8ebd
00000330: 3639 3f3f 8e8e 9cbd 030f c33e f114 4fbd
00000340: b040 4f3c 28cf 34bd f52b 123d 8492 fdbc
00000350: 7c29 c5bb 7832 60bd 3bbb 57bd 1d20 b33c
00000360: 3a1e d8bc aa47 aabd aa9b 093f 97c5 aebd
00000370: 0de6 03be b69a a43b a2e9 e93c ee25 343f
00000380: 3b9d e0bc db34 11bc fd7a 86bd 9690 e4bd
00000390: de48 92bc cf04 883d 5226 863d c1e7 c2bc
000003a0: 7594 8bbd 2f6f 28bd df52 17be aeae 13bd
000003b0: 0524 85bc c019 433c 27ab 21bc 6d69 9cbd
000003c0: f5eb 8bbd fa7c 5cbd 6813 33bd 5d9e 0abd
000003d0: f020 34bd cac0 52bc 2983 c43e b33e 80bd
000003e0: 1a42 debc 817e c6bc 4d6f 46bd 3b0d 70bc
000003f0: 6dc3 9b3b 54fc 8e3c ba99 eb3c e1c1 4dbd
-0.044442385 -0.14687704 0.012508512 -0.02472012 0.11736189 0.105277546 -0.0058575124 -0.0907951
-0.04102033 -0.03765192 -0.03226738 -0.0017899455 -0.06447963 -0.026006836 -0.041728597 0.012872287
-0.019156765 -0.052721478 -0.07120006 -0.025871981 0.39192694 -0.008909799 -0.047930006 -0.045434058
-0.11366169 0.21197999 0.26294264 0.01806637 0.3189509 -0.04399684 -0.037010454 0.020922553
-0.040848967 -0.037272677 -0.03890734 -0.094276264 -0.03506731 -0.0017663831 -0.051108427 0.015527332
-0.03249104 -0.059082046 -0.06886206 0.0011716165 -0.33234367 -0.022424545 -0.01937544 -0.04514423
-0.034835596 -0.03823828 -0.13512786 -0.0060805646 -0.041518774 -0.06700747 -0.0147341555 0.009744161
-0.05302695 -0.022297189 -0.080037944 0.15224083 -0.031358674 -0.051161326 0.10650838 -0.0032429213
-0.039761182 -0.026264627 -0.0929364 0.0027648432 0.06370476 0.0031323899 -0.07152341 0.0140500385
-0.038376167 -0.016153807 0.31135368 -0.021209402 -0.06464503 -0.066369206 0.9255191 -0.06309978
-0.044160753 0.011258676 -0.034288723 -0.02900607 0.19091496 -0.06918094 0.010853737 -0.06948344
-0.06657728 0.006562431 -0.14926657 -0.121634886 -0.14130451 -0.026123066 0.028803412 0.0024859118
0.00032046548 -0.027270455 -0.047032956 0.13063413 -0.00898662 -0.026319016 -0.023462834 -0.037286095
-0.11973847 0.0029817484 -0.11571906 -0.27069476 -0.4010049 -0.025271462 0.015415358 -0.051617302
0.011320632 0.007937949 -0.12922533 -0.09327819 -0.0147254355 0.004529389 -0.06643913 -0.066260315
0.7699216 0.023860453 -0.022811279 -0.21377218 -0.018690603 0.14638765 -0.2287554 -0.028340733
0.27844855 -0.09131664 -0.05610926 -0.029951178 -0.019145962 -0.026674408 -0.04913849 -0.078395836
-0.06473146 -0.084107615 -0.0037402185 -0.05774541 -0.032488663 -0.027755005 0.31452268 0.0071914466
0.003718891 0.020133536 0.2757017 -0.03341775 -0.0762784 -0.009152209 -0.06401769 0.05738225
0.02533628 -0.037866496 -0.028500175 -0.001578698 0.015873663 -0.10114396 -0.048334572 -0.03226738
-0.07223271 -0.040766116 0.025044218 0.0063161887 -0.07461713 0.022839589 0.021570414 0.3252629
-0.11517992 0.24924332 -0.13628542 -0.050123457 -0.02595431 -0.069601156 0.18305348 0.017962435
0.0024464703 -0.0033298307 -0.021718651 0.20388727 0.023071675 -0.026288096 -0.08739684 -0.050706837
-0.18662983 -0.11153699 -0.14500484 -0.11376973 -0.014354582 -0.039204624 -0.15563712 -0.028756848
-0.03765738 -0.03683012 -0.19615096 -0.044321686 -0.029199785 0.0060074553 0.013168526 0.008081187
-0.022231678 -0.08686119 0.0086455 -0.069446184 0.7469667 -0.07644378 0.3809739 -0.05055708
0.0126497 -0.044142872 0.035686452 -0.030953653 -0.006016908 -0.05473563 -0.05266879 0.021865899
-0.0263816 -0.0831445 0.5375315 -0.08533781 -0.12880726 0.005023326 0.028553788 0.70370376
-0.027418723 -0.008862699 -0.06566427 -0.1116039 -0.017857011 0.06641542 0.06550278 -0.02379215
-0.06815425 -0.041121658 -0.14777707 -0.03605526 -0.016252527 0.011907995 -0.009867466 -0.07637296
-0.068321146 -0.053830124 -0.04371968 -0.033842433 -0.043976724 -0.012863347 0.38381317 -0.06261959
-0.027131129 -0.024230244 -0.04844599 -0.014651592 0.004753521 0.017454304 0.028759826 -0.050233725

5.weight f4 [1, 300]
00000000: cadf ea3c 8c83 00bf cb7d f23b ed97 9c3c
00000010: 5b92 863f 826b 3b3f b586 863c 8d56 043d
00000020: 0198 c8bc 685b 403d c8e8 c3ba 6d1b 1e3d
00000030: a49f 733b 7919 c5ba 55d2 02bf 6c78 02bc
00000040: ac55 f43c 8d04 81bc 5633 a33c 819d 5e39
00000050: 208b 0e40 ac60 dcbf 38a2 42bc deb9 14bd
00000060: ce2f 4c3f f8b1 3b3f 4edb 6e3f abc2 ff3c
00000070: 6787 c53f 37ca b33c d397 60bf 4d2f f0bf
00000080: 5555 153d f8b1 49bf 8e42 183c 894b 9b3f
00000090: 9e65 21bd 1fa9 35bb 26a1 ab3a 3ccc 28c0
000000a0: ef49 8fbf 9594 983d 8e8d 98bb 03d5 f43a
000000b0: 316a f33f 137b 30bf 1cbb 00bb b3ee e4bc
000000c0: 6bbb fb3b e1dd 59bc 2b20 67bf d738 20bd
000000d0: 2aad db3c 6a88 5cbe 5b04 35bf c764 1fbf
000000e0: 78ba bfbc b59f 1f3d 1fe2 383c 31a6 d53e
000000f0: 3ed1 293c 1c08 093b af7f b83e eb3e 8f3f
00000100: e393 763b a423 f73c aeab 20bb 7cb5 0f3b
00000110: 9451 863e 342b 0f3d e719 b43c c97d 59bc
00000120: fd32 b63f b084 333b 465c fb3f b7a4 333d
00000130: e61d 92ba d93a 37bf d9b9 6a3f 8b54 fc3c
00000140: c01b 4b3b 6ad0 52bc 8e1a a73c f819 c73b
00000150: 220a 6a3f 92a2 533c e788 aeba a850 c73b
00000160: 59ce 8fbf 892a d13c f2ff de3c 831b 01bf
00000170: 3c8d 2bbf ac0f 88bc 132f e0bb a857 cabc
00000180: cfb3 b439 378d a0ba c4f9 0a3d 07a3 bf3e
00000190: 9d4b 9d3a 3561 863c 8ebf 98bc 21c9 d1bc
000001a0: 8f04 88bf 9e93 913d 4474 81bf 52f8 cf3f
000001b0: eeaf 4e3f de68 aeb8 f754 393d 5523 953b
000001c0: 25ee a83f a1bb cd3a d012 d1bf fa84 22bf
000001d0: cdfc 133d 19ad 82bf 6175 c73c aa3a d33c
000001e0: f04a 653f 2a0e 033f 91d3 4f3b 619b 95bf
000001f0: be08 07bf 60db cf3e 8750 ba3e d18a 583c
00000200: daa7 953f 870d a8bc 8c0e f7bc 006c 473c
00000210: 3611 243d f66a adbc 9215 debb 828c e5bc
00000220: bf49 a2bc edaa f6bf 4ccd 04bb 4980 ca3c
00000230: 5ca6 78bb cc32 9cbf 35cc 743f b57f 83bb
00000240: 2b54 eebc e109 db3c e899 863f 70d5 4abc
00000250: 538e 96bf 47ef abbb 1b3c f8b9 c1fd 8cbf
00000260: 26ea a33b 97bc 3bbd 0208 003d 16b6 213b
00000270: 37a9 2c3c 753b 85bc ee1f 973c 7840 4b3c
00000280: 8f19 a33c fae1 2fbf 7126 ca3b 9818 b53b
00000290: 068a 2abf 5069 cf3c de94 4bbf 118a a93f
000002a0: 117f c3be f5c6 9a3f 1f87 fbbf bc94 f03c
000002b0: b454 863c 99a4 583c deb8 293f be55 003c
000002c0: fbae 753c 8fa2 ba3b a6ea 25bc 8fb7 043f
000002d0: b770 2b3c b36e f1bc 68aa 7cbf 288f 47bb
000002e0: 62b5 8e3f 0edb c8bf 2210 dbbc 5960 c13c
000002f0: 8c7b 023d 0d81 183d e318 a1bf 1f37 af3b
00000300: 51e9 3cbf 4a2d 5c3c d7dc 03c0 3ce0 0b3c
00000310: 52f7 61bc 88a0 cebb de44 8fbf b4be 853c
00000320: d4ab 83bf e70c b23c 8cfd b6bf bf05 3ebc
00000330: 293f 763f e839 b73c 1f89 f53f 0634 2c3b
00000340: 02a5 63bb 3156 413b 19c5 44bb c389 f33c
00000350: 9a22 b03f 43e8 bf3f b5d3 36bf 2912 a0bf
00000360: f94b c7ba cbcd a0be 3ad5 0b3f af20 c3be
00000370: e22c d1bc c29f e73a 2bd3 cabf b07c c23f
00000380: 9836 c93c a190 34bf 9440 f4bc 7864 2abf
00000390: 2a21 d13c 4837 08c0 d649 a3bf f221 eab6
000003a0: ca87 683c df6c 3e3d b8ce d7be ac36 f53b
000003b0: b6d4 92bc 458e 1ebb 4c67 fcba 0b9a 79bf
000003c0: bacc ef3c b581 0b3c f672 9b3b 1535 913c
000003d0: ceee 26bd 3826 c63c f895 8c3f d6a7 1a3c
000003e0: e6e9 22ba cfda 21b9 d5e8 86be 2677 46bf
000003f0: f128 d439 6642 273c 68db cc3b 80e7 c13c
0.028671164 -0.50200725 0.0074002496 0.019115413 1.0513414 0.7321092 0.016421655 0.032309104
-0.024486544 0.04696217 -0.0014946694 0.038600374 0.003717401 -0.0015037499 -0.5110219 -0.007963281
0.029826008 -0.01574924 0.01992194 0.00021230245 2.2272415 -1.7217002 -0.011879496 -0.03631007
0.79760444 0.73318434 0.9330338 0.031220755 1.5431947 0.02194701 -0.87731665 -1.8764435
0.036458332 -0.78787184 0.009293212 1.2132427 -0.03940355 -0.0027719212 0.0013094291 -2.6374655
-1.1194438 0.07450215 -0.0046555465 0.0018679205 1.9016782 -0.68937796 -0.0019642776 -0.027945852
0.007682254 -0.013297529 -0.9028346 -0.039116707 0.02681597 -0.21536413 -0.7070977 -0.6226315
-0.023404345 0.038970668 0.01128438 0.41728356 0.010364829 0.0020909375 0.36034915 1.1191076
0.0037624768 0.030168362 -0.0024516392 0.0021928241 0.26234114 0.03495331 0.021985007 -0.013274618
1.423431 0.002739232 1.9637535 0.043858256 -0.0011147826 -0.7157417 0.9168983 0.030802032
0.0030991882 -0.012867073 0.020398404 0.0060760938 0.9142171 0.012917178 -0.0013315947 0.006082613
-1.1234847 0.025532978 0.027221654 -0.50432605 -0.6701238 -0.016609035 -0.006841549 -0.0247
0.00034466243 -0.0012249117 0.0339296 0.37429067 0.0012000684 0.016403774 -0.018646028 -0.025608601
-1.0626391 0.07108234 -1.0113606 1.6247656 0.807372 -8.3164996e-05 0.045247044 0.004551331
1.3197676 0.0015696177 -1.6333866 -0.63484156 0.03612976 -1.0209075 0.024347963 0.02578481
0.8956747 0.5119349 0.0031711797 -1.1688043 -0.52747715 0.40597057 0.36389562 0.01321669
1.1691849 -0.020514263 -0.030158304 0.012171745 0.040055476 -0.021169167 -0.0067774737 -0.0280211
-0.019810556 -1.9270912 -0.0020263968 0.024719374 -0.0037940955 -1.2203002 0.95624095 -0.0040130266
-0.029092869 0.026738109 1.0515718 -0.012379989 -1.1762184 -0.00524703 -0.00047347028 -1.101494
0.005002278 -0.04583415 0.031257637 0.0024675182 0.010538391 -0.016263703 0.018447842 0.012405507
0.019909648 -0.6870419 0.0061691334 0.0055266134 -0.6661686 0.025318772 -0.7952403 1.324526
-0.3818288 1.2091967 -1.9650611 0.029367797 0.016397811 0.013222837 0.6629771 0.0078329425
0.014995332 0.005695648 -0.010126745 0.5184259 0.010463885 -0.02947173 -0.9869752 -0.0030450318
1.1149104 -1.569185 -0.026741091 0.023605512 0.031856105 0.037232447 -1.258572 0.005347147
-0.7379351 0.013438532 -2.060354 0.008537348 -0.013791876 -0.006305758 -1.1192892 0.016326286
-1.0286813 0.021734668 -1.4296126 -0.01159805 0.96190125 0.022366479 1.9182471 0.0026276126
-0.0034735803 0.0029500837 -0.0030024706 0.029728776 1.376056 1.4992756 -0.7141679 -1.2505542
-0.0015205137 -0.31407008 0.5462223 -0.38110873 -0.025534097 0.0017671513 -1.5845693 1.5194302
0.024562165 -0.70533186 -0.02981595 -0.66559553 0.02552851 -2.128374 -1.2756908 -6.977695e-06
0.014192531 0.046490546 -0.421499 0.007483324 -0.017923694 -0.0024193686 -0.0019256859 -0.97500676
0.029272426 0.008514811 0.004743929 0.017725507 -0.040755086 0.024188146 1.0983267 0.009439429
-0.0006214663 -0.00015435669 -0.26349512 -0.77525556 0.00040466295 0.010208702 0.006251741 0.023669958
