results/c_7_0/471345_except/target_q_func2.pt (torch, 502309 bytes, 5 tensors)

1.weight f4 [400, 10]
0.19075143 0.99058837 -0.10614182 0.19306111 2.1853228 0.41766503 -0.44296724 -0.74232286
-0.0054964386 0.091456704 0.99161357 0.9030529 0.35207602 -0.07154576 0.80043745 0.20131637
-0.16694532 -0.0586894 0.18935668 0.11233921 0.8632608 0.14978215 -1.1146674 1.1060605
-1.8637316 -0.7854409 -0.6058639 -1.0587107 -1.009072 -0.026254568 5.3171782 -1.4608672
-1.802986 -0.045770876 -0.3176208 -0.87582016 1.1642622 1.078836 -1.7814296 -0.09286438
-2.0806093 0.37135813 0.27449453 -0.42482358 -2.4153492 0.25397265 -0.6226367 -0.86433375
-0.28680295 -0.05719704 -0.58717185 -0.6344384 -2.0781775 0.97126454 -1.6632216 -0.55760795
0.11533435 -0.53215677 -0.6341285 -0.40568447 2.7496839 2.324017 -0.3130736 2.9574134
-2.1275458 -0.17110865 -1.9943852 -0.09756485 1.3338807 -0.006176816 -0.3957484 -0.43841347
0.35446617 -1.3353717 -1.302637 1.1137137 -0.88953465 0.044500496 -0.11562492 0.021581559
0.5104845 -0.89269364 -0.2376514 -0.89070284 -0.11613454 -0.7492489 -0.053600647 -0.57830274
-0.48638928 -0.076157674 2.7432227 -0.44140562 -0.19552876 -0.47222123 0.2775344 0.8676477
-0.8861849 -0.3859792 0.08038066 0.05040509 0.8248874 -2.01328 -1.280607 -1.0622393
-2.0086427 -1.1619698 -0.55374557 -0.8369275 -0.5285805 -0.3575418 -9.452606 3.4857206
-1.1960282 -1.291939 1.642163 -0.5960603 -2.1683953 -0.6718386 -2.2706294 -0.044793066
-0.6681508 -1.6622916 0.1392023 -0.29354423 -1.811804 -0.26834336 -0.67059463 -0.49623597
-0.5671805 -0.16234085 -2.2537968 0.8551665 0.1434104 -1.98008 1.2503755 0.7493085
-1.192702 -0.9220788 -0.8662411 -0.006048713 0.8173891 -0.6897993 1.0160336 0.9644219
0.47510612 0.20032395 -1.1514556 -0.18799771 -1.0187517 0.12392338 1.46109 -1.5281334
0.42848328 -0.42812565 -1.3444793 0.40213203 -0.031125017 0.033042982 -0.3476534 0.060440283
0.5490487 -1.3948096 -0.28037155 2.2061605 0.51502633 -0.32145712 -0.0012755058 -0.024603145
-0.5083029 -0.01719726 -8.537788 0.603587 0.35129026 -0.30526006 -0.12259815 0.03530973
0.7656108 -0.025484221 -0.002676008 0.0026206954 0.18931796 -0.41255096 -1.8861192 -0.42868593
-2.1284838 -1.4515294 -0.49350607 -0.4830395 -0.55676156 -0.24335855 2.1465158 0.69940406
-4.9466133 2.4490752 1.1223894 -0.5741228 -0.41516167 -0.4659091 0.397012 0.14838605
-1.2465757 -0.9977907 -0.06636377 -1.5969825 -2.254291 -0.51626927 -1.2963903 -0.47812805
-0.9634564 -0.36136374 -6.154763 5.0685267 -0.93747985 -1.8817228 0.5692991 -1.0597543
-1.0821472 -0.9140083 0.3872788 -0.29981467 4.799804 1.1123568 0.32015043 2.4093633
0.037845485 -0.07857585 -0.4871124 -0.2249123 0.38688663 0.007475421 -12.182673 -1.0646609
0.91934514 -4.2768197 -1.6713394 -0.02264171 -1.2822822 -2.4189868 0.8731076 0.021357965
-12.378333 0.42196974 0.8192218 -4.062259 -1.6232481 0.15229467 -2.1577637 0.44941694
0.86705494 0.029005056 0.21128823 2.6717925 -2.822092 -0.6596154 -0.121910244 -1.6035929
00000000: 5854 433e 3397 7d3f e260 d9bd d0b1 453e
00000010: 54dc 0b40 31d8 d53e 9acc e2be df08 3ebf
00000020: 781b b4bb a74d bb3d 63da 7d3f 7a2e 673f
00000030: 4f43 b43e 9586 92bd 78e9 4c3f e125 4e3e
00000040: b7f3 2abe 4c64 70bd b8e6 413e 1a12 e63d
00000050: a9fe 5c3f 7e60 193e 6cad 8ebf 6493 8d3f
00000060: c28e eebf a812 49bf e619 1bbf d583 87bf
00000070: 4529 81bf d213 d7bc 5326 aa40 b2fd babf
00000080: 3fc8 e6bf 3e7a 3bbd 329f a2be c035 60bf
00000090: 8b06 953f 4c17 8a3f e305 e4bf ae2f bebd
000000a0: b428 05c0 a722 be3e 8c8a 8c3e 7a82 d9be
000000b0: 1595 1ac0 b408 823e 1e65 1fbf fa44 5dbf
000000c0: d6d7 92be 7247 6abd e550 16bf 8e6a 22bf
000000d0: dc00 05c0 cba4 783f 72e4 d4bf 65bf 0ebf
000000e0: 6a34 ec3d 6d3b 08bf 3f56 22bf e0b5 cfbe
000000f0: d2fa 2f40 b2bc 1440 2f4b a0be 4346 3d40
00000100: b629 08c0 1b37 2fbe 0448 ffbf 14d0 c7bd
00000110: 9abc aa3f e366 cabb 899f cabe bb77 e0be
00000120: 977c b53e 76ed aabf cfbc a6bf 2c8e 8e3f
00000130: 8bb8 63bf 2746 363d c2cc ecbd cfcb b03c
00000140: 1daf 023f 9287 64bf e35a 73be 1a05 64bf
00000150: f2d7 edbd c7ce 3fbf 5a8c 5bbd a60b 14bf
00000160: 0408 f9be 8ef8 9bbd f690 2f40 ebff e1be
00000170: b138 48be fbc6 f1be fd18 8e3e 291e 5e3f
00000180: 03dd 62bf 119f c5be 9e9e a43d 9175 4e3d
00000190: d22b 533f 94d9 00c0 eeea a3bf 75f7 87bf
000001a0: 9a8d 00c0 6dbb 94bf 45c2 0dbf e140 56bf
000001b0: 0d51 07bf b80f b7be e03d 17c1 0c16 5f40
000001c0: 7417 99bf 425e a5bf 6632 d23f 6897 18bf
000001d0: fdc6 0ac0 9dfd 2bbf fe51 11c0 ef78 37bd
000001e0: ee0b 2bbf f9c5 d4bf 0c8b 0e3e 6e4b 96be
000001f0: 32e9 e7bf 4d64 89be 17ac 2bbf a412 febe
00000200: be32 11bf ae3c 26be 353e 10c0 31ec 5a3f
00000210: 2dda 123e 4373 fdbf 4e0c a03f afd2 3f3f
00000220: 76aa 98bf 5b0d 6cbf fac1 5dbf 4834 c6bb
00000230: 6940 513f b096 30bf 640d 823f 5be4 763f
00000240: 1c41 f33e b921 4d3e e662 93bf 7982 40be
00000250: 7566 82bf 8bcb fd3d ff04 bb3f e099 c3bf
00000260: 2962 db3e 4933 dbbe e617 acbf 40e4 cd3e
00000270: e4f9 febc 1458 073d a0ff b1be 3b90 773d
00000280: 758e 0c3f 1f89 b2bf dc8c 8fbe bc31 0d40
00000290: c4d8 033f 0796 a4be df2e a7ba 898c c9bc
000002a0: 2420 02bf 45e1 8cbc c89a 08c1 ad84 1a3f
000002b0: 51dc b33e 0c4b 9cbe bd14 fbbd efa0 103d
000002c0: 12ff 433f 49c4 d0bc f75f 2fbb f9bf 2b3b
000002d0: 91dc 413e e139 d3be 5b6c f1bf b97c dbbe
000002e0: 1439 08c0 b7cb b9bf d4ac fcbe f450 f7be
000002f0: ed87 0ebf fc32 79be 8460 0940 250c 333f
00000300: a84a 9ec0 a6bd 1c40 75aa 8f3f b6f9 12bf
00000310: 1290 d4be a38b eebe 2845 cb3e 83f2 173e
00000320: cb8f 9fbf 366f 7fbf bae9 87bd ec69 ccbf
00000330: 4e46 10c0 392a 04bf 1ef0 a5bf 33cd f4be
00000340: 14a5 76bf ab04 b9be d2f3 c4c0 5f31 a240
00000350: aefe 6fbf 4bdc f0bf 96bd 113f 07a6 87bf
00000360: cd83 8abf 73fc 69bf 6849 c63e 4f81 99be
00000370: ff97 9940 b561 8e3f c2ea a33e 0233 1a40
00000380: de03 1b3d 60ec a0bd cc66 f9be 694f 66be
00000390: 0116 c63e 60f4 f43b 3bec 42c1 cf46 88bf
000003a0: 345a 6b3f b5db 88c0 73ee d5bf 1b7b b9bc
000003b0: d321 a4bf aed0 1ac0 fb83 5f3f e6f6 ae3c
000003c0: a70d 46c1 6b0c d83e 85b8 513f 07fe 81c0
000003d0: 98c6 cfbf 22f3 1b3e cd18 0ac0 fa19 e63e
000003e0: 50f7 5d3f 039c ed3c f15b 583e a6fe 2a40
000003f0: 289d 34c0 8edc 28bf 14ac f9bd 8842 cdbf

1.bias f4 [400]
-0.8924791 -1.4239206 -0.6086534 -2.3274322 -0.733716 -1.2001407 -1.7918824 -0.674159
-0.3388259 -1.0339867 -0.8227178 0.27391148 -0.6265945 -0.7923432 -0.8559414 -0.65233177
-0.6524748 0.38943368 -0.7986017 -1.792838 -0.47282463 -1.5322615 -0.8409002 -0.4035838
-1.2409166 -1.0976921 -0.6532735 -0.29324138 -0.42820656 -0.750736 -1.6248204 -0.93152016
-0.3045662 -0.9828581 -0.6403687 -1.7274991 -0.02187557 -0.40061295 -0.7281847 -1.0161402
-0.5591338 -0.23004758 -1.7142067 -0.46482354 -0.8923003 -0.6926842 -0.85169756 -0.7829495
-0.8580514 -0.3156099 -0.48651323 -0.1472229 -1.0370623 -0.6958313 -0.2246098 0.8062635
-1.1894457 -0.70752573 -0.9727309 -2.0612886 -1.7693479 -0.83294594 0.08017719 -0.48053014
-1.1800182 -1.9789834 -0.48803276 -0.9883473 -1.4540454 -0.54093057 -0.8937666 -0.39652556
-0.58525264 -0.8031793 -1.195335 -0.32852027 -0.9546945 -0.96308684 -0.84672654 -0.93191355
-1.3347601 -0.65096086 -0.7461734 -1.3099043 -0.275226 1.1574551 -0.82552314 -1.6927855
-0.83351815 -0.34079123 0.4992984 -0.38939455 -0.91876477 -0.8057983 0.28124735 -0.29039115
-0.34201187 -0.8471557 -0.33111763 -1.9417073 -1.9041344 -0.8822912 -0.84143364 -2.0305178
0.31685048 -1.0513912 -0.8411952 -1.0426413 0.62316227 0.47504 -0.79486024 -0.9552548
-1.0092865 -0.274948 -1.077212 -0.7475085 -0.5784413 -0.35451984 -0.25004625 -0.8173653
-0.048889875 -0.8463262 -1.1585605 -0.8218762 -0.7962652 -2.137811 -0.37765878 -1.4800837
-0.8905675 -1.1589086 -1.2810907 -0.72137785 -1.2542083 -1.199127 -0.65619534 -0.6191937
-0.5808783 -1.3150144 -0.49717176 -0.90331525 -1.0354649 -0.9558389 -1.2889088 -0.78903466
-0.78353363 -0.9587806 -0.5237883 -0.21217944 -0.4500185 -0.9018132 -0.85094655 -0.7346339
-0.7137723 -0.91647 0.51910883 -1.540709 -0.6988473 -0.01913316 -1.2717522 -0.8697339
-0.087524526 -0.31975093 -0.95177877 -0.8753713 -2.0465515 -0.8083053 -0.8429493 -1.1629215
-1.20435 -0.1512663 -1.4625714 -0.9276984 -0.626768 -0.61351717 -0.78913647 -0.60296714
-1.086937 -0.25113112 -1.0343455 0.29872364 -1.0080944 -0.89735687 -1.9133309 -1.0390412
-1.4720329 -1.6384617 0.7229292 -1.1445838 -1.2022163 -0.7300015 -0.8002061 0.2532244
0.051486466 -0.9713719 -0.93283147 -0.092332564 -1.1398922 -0.24345864 -0.5581444 -0.8272954
-2.2886238 -0.80604035 -1.4723434 0.025698515 -0.95957017 -0.6622619 -0.42451364 -0.95677197
-0.6262726 -1.2642516 -0.7162141 -1.0728251 -0.8047858 -1.0984074 -0.23077387 -1.2797488
-0.8357792 -1.2013415 -1.0988842 0.76910007 0.32375932 -1.2049568 -1.1147152 -0.30597505
-1.1642121 -0.95494485 -0.65829223 -0.84235734 0.78431344 -1.3735125 -0.20190573 -0.8084603
0.5772612 -0.59647024 -0.9892279 -0.30668148 -0.07727068 0.35358346 -1.2083536 -0.816805
-1.3270987 -1.9398609 -0.5824967 -0.76497275 -1.2901495 -1.9196368 -0.36250752 -0.9270379
-0.93779254 -1.5134926 -0.68313545 -0.54093486 -0.5613938 -0.8799979 0.08075918 -1.3323439
00000000: 8379 64bf 0843 b6bf b6d0 1bbf a6f4 14c0
00000010: d0d4 3bbf 369e 99bf 675c e5bf af95 2cbf
00000020: 977a adbe ad59 84bf a29d 52bf 203e 8c3e
00000030: 7f68 20bf 01d7 4abf fa1e 5bbf 37ff 26bf
00000040: 9708 27bf da63 c73e 2971 4cbf b77b e5bf
00000050: 1216 f2be 2521 c4bf 3c45 57bf 89a2 cebe
00000060: 5bd6 9ebf 2d81 8cbf ef3c 27bf bc23 96be
00000070: e43d dbbe 3c30 40bf 1dfa cfbf 1b78 6ebf
00000080: 1af0 9bbe 979c 7bbf 34ef 23bf b11e ddbf
00000090: 6534 b3bc 241d cdbe 506a 3abf e210 82bf
000000a0: 6523 0fbf 9891 6bbe 206b dbbf 5afd edbe
000000b0: cb6d 64bf c053 31bf da08 5abf 616f 48bf
000000c0: 42a9 5bbf 9f97 a1be 4318 f9be 9ac1 16be
000000d0: 75be 84bf 0022 32bf 1d00 66be 4967 4e3f
000000e0: c23f 98bf 6820 35bf e404 79bf 27ec 03c0
000000f0: fe79 e2bf f23b 55bf f033 a43d 0c08 f6be
00000100: d60a 97bf 544f fdbf 6edf f9be 5404 7dbf
00000110: 291e babf 6d7a 0abf e3cd 64bf 6605 cbbe
00000120: 1ed3 15bf 299d 4dbf bd00 99bf cf33 a8be
00000130: dc66 74bf dc8c 76bf 12c3 58bf e391 6ebf
00000140: 6bd9 aabf 5fa5 26bf 3805 3fbf f2aa a7bf
00000150: 6cea 8cbe 7d27 943f 7c55 53bf 32ad d8bf
00000160: 7261 55bf 307c aebe 0aa4 ff3e b95e c7be
00000170: 2b34 6bbf cc48 4ebf a7ff 8f3e 26ae 94be
00000180: 2e1c afbe 32df 58bf 4088 a9be dd89 f8bf
00000190: adba f3bf d6dd 61bf 3268 57bf 01f4 01c0
000001a0: 3a3a a23e fd93 86bf 9258 57bf 4575 85bf
000001b0: 9087 1f3f 7138 f33e f67b 4bbf 948b 74bf
000001c0: 4d30 81bf fcc5 8cbe 15e2 89bf b85c 3fbf
000001d0: bb14 14bf a083 b5be 1006 80be da3e 51bf
000001e0: c040 48bd d5a8 58bf b64b 94bf 7b66 52bf
000001f0: 09d8 4bbf e5d1 08c0 7e5c c1be 6273 bdbf
00000200: 3bfc 63bf 1e57 94bf c8fa a3bf 38ac 38bf
00000210: e689 a0bf fe7c 99bf 6bfc 27bf 7a83 1ebf
00000220: 71b4 14bf 6452 a8bf 4c8d febe ab3f 67bf
00000230: 1d8a 84bf dcb1 74bf f7fa a4bf 2dfe 49bf
00000240: a995 48bf a572 75bf fd16 06bf 9145 59be
00000250: d368 e6be 3bdd 66bf a2d7 59bf f810 3cbf
00000260: c8b9 36bf c79d 6abf 51e4 043f f435 c5bf
00000270: a8e7 32bf 25bd 9cbc c7c8 a2bf e2a6 5ebf
00000280: 0f40 b3bd 65b6 a3be c6a7 73bf 5518 60bf
00000290: b3fa 02c0 19ed 4ebf 86cb 57bf 9dda 94bf
000002a0: 2428 9abf 8ee5 1abe 8a35 bbbf a47d 6dbf
000002b0: de73 20bf 760f 1dbf d904 4abf 0e5c 1abf
000002c0: c020 8bbf 4294 80be 6f65 84bf 4ef2 983e
000002d0: 3d09 81bf 2eb9 65bf 07e8 f4bf 4dff 84bf
000002e0: 936b bcbf 1db9 d1bf e311 393f b981 92bf
000002f0: 39e2 99bf 61e1 3abf 4fda 4cbf a1a6 813e
00000300: 79e3 523d d4ab 78bf 0bce 6ebf db18 bdbd
00000310: fde7 91bf 394d 79be 8de2 0ebf a2c9 53bf
00000320: d078 12c0 a958 4ebf c075 bcbf b185 d23c
00000330: 64a6 75bf ff89 29bf da59 d9be 02ef 74bf
00000340: 6753 20bf ffd2 a1bf cf59 37bf 5552 89bf
00000350: 7106 4ebf 9d98 8cbf fc4f 6cbe cfce a3bf
00000360: a0f5 55bf 8fc5 99bf 3da8 8cbf bee3 443f
00000370: c8c3 a53e 063c 9abf fdae 8ebf c3a8 9cbe
00000380: e704 95bf 4477 74bf d785 28bf bba4 57bf
00000390: c4c8 483f 42cf afbf 60c0 4ebe 41f7 4ebf
000003a0: 64c7 133f 46b2 18bf 0a3e 7dbf 5b05 9dbe
000003b0: 1740 9ebd e408 b53e 55ab 9abf 221a 51bf
000003c0: 5fde a9bf 5d4d f8bf 811e 15bf 41d5 43bf
000003d0: 9e23 a5bf a9b6 f5bf 969a b9be 5b52 6dbf
000003e0: 2c13 70bf 20ba c1bf f7e1 2ebf b57a 0abf
000003f0: 81b7 0fbf 8b47 61bf 1265 a53d 3f8a aabf

3.weight f4 [300, 400]
-0.85532147 0.79554987 -0.27530515 0.4947408 -0.23129754 0.6724066 1.394751 -1.177181
0.039074235 0.017871913 1.2450825 0.07545582 0.19597876 -1.6598837 -1.5827789 0.71953005
0.7096357 -1.5384145 -0.5315249 -0.09447271 -0.9065696 0.09112407 -0.27070913 -0.90050775
-2.0472786 -1.3265979 -2.3857856 -0.0030448458 -0.8550625 1.3506157 -3.373844 -0.9094783
1.3960569 -1.203378 -2.8560348 -5.2049136 -0.05054286 -0.61351055 1.1446369 0.30068466
-0.7239885 -0.9130352 -2.5241637 0.19079514 -0.18394159 1.0297666 -0.016446615 -0.007265953
-0.16262697 -0.039737336 -2.678098 0.054003753 1.7887967 -0.053678133 5.8327255 0.068952255
0.22296183 2.0377893 -1.0761391 0.5689294 0.28755665 0.8373566 0.5089139 -0.22905938
0.22576623 -0.17004178 -0.58415323 0.17277467 0.10592916 -0.19426514 0.17905399 -1.936274
0.4092429 -0.9931871 3.2787116 -0.0062004253 -0.96952415 -0.080405995 -1.8924373 1.3359439
-0.3912717 0.33008188 0.2548727 -0.5056207 -3.0450134 0.61383986 4.0450215 -0.33637616
-0.11000272 -6.882878 -0.46446255 0.088537574 -3.1945498 1.2561593 2.5425704 0.16499028
-2.3855286 0.09241932 -0.26879457 1.5169425 1.7113426 2.6977804 -0.8260914 0.23113064
-0.08654491 -0.12732609 -1.2429607 -0.08782977 -7.1564016 -1.5457633 -2.48218 -0.47488558
-1.6865388 -5.376311 1.7018216 -4.172663 -2.9090466 -0.044793304 0.012953514 -0.9475896
-1.1763245 -0.8994048 1.1069428 -0.28701052 -2.1108885 -0.31072825 -0.9684423 -0.21811582
-1.1187205 -2.0809667 -1.583685 0.6191319 -1.4948263 -3.7908218 -7.463543 0.19432756
-0.021043357 -0.62864196 0.5405848 -2.7882366 0.19814242 -0.9438464 0.45590246 0.48514625
0.59568346 -2.4189706 -0.037348676 -0.035609394 -0.67754453 0.3506038 0.87398964 -1.4062299
-1.0848652 1.3204571 -4.568379 -0.46180812 -0.86456025 -3.9041471 -1.2045133 0.007648168
1.234793 -0.40488645 -2.1319566 -2.5918496 -0.12668799 -1.4935626 4.7972784 -0.25074062
0.21604744 -0.037774105 0.53274083 -4.9634504 -0.793895 0.5765503 1.151551 -1.0941874
-2.4246454 -0.014034075 -1.3740909 -0.7359582 -2.0455143 -0.8467192 -2.371719 -0.109278515
-0.8961955 -0.92792004 0.30137622 0.2231605 0.06319217 0.4805682 0.19450173 -2.2431953
0.06372401 -1.2862575 -0.96052384 -4.2395782 0.15753971 -0.14235093 2.432277 -0.4119251
0.12687005 0.06543032 0.105043605 -10.407788 0.39646962 -1.3190879 0.05654512 -3.9475508
-2.277019 0.3418419 -5.329852 -0.08064442 -8.24633 1.0003637 -1.1988639 0.34566855
-1.9813073 -0.23791584 0.5796975 2.248821 -0.66470575 1.250924 0.4798447 -7.8585186
0.56726396 0.3359112 -0.18574762 -1.7915206 0.532846 2.0669243 0.3951889 0.22598378
0.22830199 0.094340086 -1.2231503 -0.010626745 -1.0993848 0.7764547 -0.75846034 -0.054816585
0.18245147 -0.515566 0.80694634 0.027842289 0.8555599 1.4562898 -3.733924 -0.35429335
-0.19712815 -2.01785 1.2917173 -0.60987526 2.576432 -0.3884528 -2.497413 -0.7921644
00000000: 59f6 5abf 28a9 4b3f ccf4 8cbe ab4e fd3e
00000010: 43d9 6cbe d722 2c3f 3387 b23f dead 96bf
00000020: 4e0c 203d 1e68 923c dd5e 9f3f 9588 9a3d
00000030: a8ae 483e 1277 d4bf 8098 cabf 1f33 383f
00000040: afaa 353f c4ea c4bf 0412 08bf e87a c1bd
00000050: f214 68bf 429f ba3d 639a 8abe ad87 66bf
00000060: 9d06 03c0 f6cd a9bf b6b0 18c0 098c 47bb
00000070: 60e5 5abf fae0 ac3f 0fed 57c0 92d3 68bf
00000080: feb1 b23f 4a08 9abf 46c9 36c0 a78e a6c0
00000090: 0806 4fbd 070f 1dbf 7683 923f 57f3 993e
000000a0: 4f57 39bf adbc 69bf e68b 21c0 cd5f 433e
000000b0: 2f5b 3cbe 64cf 833f 0dbb 86bc 3b17 eebb
000000c0: af87 26be 9ec3 22bd f565 2bc0 0a33 5d3d
000000d0: 4af7 e43f 9add 5bbd b0a5 ba40 d736 8d3d
000000e0: 1b50 643e 246b 0240 edbe 89bf 5ba5 113f
000000f0: a03a 933e 015d 563f 2e48 023f 8b8e 6abe
00000100: 432f 673e 6f1f 2ebe 118b 15bf d8eb 303e
00000110: 63f1 d83d 71ed 46be ee59 373e d4d7 f7bf
00000120: 4988 d13e 8341 7ebf 69d6 5140 f02c cbbb
00000130: bc32 78bf e6ab a4bd 633b f2bf 3600 ab3f
00000140: c454 c8be 7e00 a93e ad7e 823e 5c70 01bf
00000150: 80e1 42c0 9c24 1d3f d170 8140 7f39 acbe
00000160: 1b49 e1bd 8940 dcc0 09ce edbe 3053 b53d
00000170: 8173 4cc0 d4c9 a03f 79b9 2240 36f3 283e
00000180: 80ac 18c0 5746 bd3d 719f 89be 2c2b c23f
00000190: 460d db3f 6fa8 2c40 ba7a 53bf 83ad 6c3e
000001a0: 753e b1bd c561 02be 5619 9fbf 18e0 b3bd
000001b0: 3e01 e5c0 92db c5bf 0adc 1ec0 3424 f3be
000001c0: 81e0 d7bf bd0a acc0 4ad5 d93f 7586 85c0
000001d0: d22d 3ac0 2f79 37bd fa3a 543c 3b95 72bf
000001e0: cd91 96bf 653f 66bf 4db0 8d3f 0bf3 92be
000001f0: cc18 07c0 c617 9fbe d6eb 77bf c159 5fbe
00000200: 3c32 8fbf 8f2e 05c0 31b6 cabf 6e7f 1e3f
00000210: 7856 bfbf d39c 72c0 58d5 eec0 cefd 463e
00000220: 1e63 acbc aeee 20bf c463 0a3f 7872 32c0
00000230: d9e5 4a3e eb9f 71bf 0c6c e93e 1765 f83e
00000240: b67e 183f 6ad0 1ac0 edfa 18bd 28db 11bd
00000250: 8f73 2dbf 5782 b33e c9bd 5f3f 57ff b3bf
00000260: dddc 8abf bd04 a93f 2930 92c0 1d72 ecbe
00000270: d253 5dbf 8cdd 79c0 7e2d 9abf 7c9d fa3b
00000280: b20d 9e3f 474d cfbe fa71 08c0 dde0 25c0
00000290: 7fba 01be 0f2d bfbf 4e83 9940 1361 80be
000002a0: 8a3b 5d3e 05b9 1abd b461 083f 96d4 9ec0
000002b0: b43c 4bbf cd98 133f 0666 933f 550e 8cbf
000002c0: 642d 1bc0 2def 65bc 36e2 afbf c267 3cbf
000002d0: b5e9 02c0 97c2 58bf 3eca 17c0 6acd dfbd
000002e0: 116d 65bf 2b8c 6dbf fc4d 9a3e 3084 643e
000002f0: e56a 813d 090d f63e 762b 473e 8390 0fc0
00000300: bc81 823d 16a4 a4bf e4e4 75bf a0aa 87c0
00000310: 1752 213e 71c4 11be 6daa 1b40 d9e7 d2be
00000320: 39ea 013e 5500 863d 1a21 d73d 4d86 26c1
00000330: 11fe ca3e dfd7 a8bf db9b 673d aca4 7cc0
00000340: aeba 11c0 e705 af3e 268e aac0 e728 a5bd
00000350: f8f0 03c1 eb0b 803f 5f74 99bf 78fb b03e
00000360: 7a9b fdbf 36a0 73be 0e67 143f afec 0f40
00000370: 282a 2abf 471e a03f 34ae f53e fc78 fbc0
00000380: 3638 113f 8efc ab3e a034 3ebe 8c50 e5bf
00000390: 9868 083f 7d48 0440 3356 ca3e 4b68 673e
000003a0: ffc7 693e 6035 c13d 3090 9cbf cd1b 2ebc
000003b0: a4b8 8cbf bcc5 463f 752a 42bf 5b87 60bd
000003c0: 8fd4 3a3e 22fc 03bf 0994 4e3f 8315 e43c
000003d0: f905 5b3f b467 ba3f 9cf8 6ec0 f065 b5be
000003e0: f6db 49be 7424 01c0 fe56 a53f c920 1cbf
000003f0: 43e4 2440 49e3 c6be 9dd5 1fc0 49cb 4abf

3.bias f4 [300]
2.2168021 -0.06828687 0.008359838 -0.03591072 -1.8536339 -2.7494729 -0.01997037 -0.11248674
-0.34114715 -0.093167365 -0.14047785 -0.021651968 -0.04713577 -0.047634963 1.4658638 -1.6777035
-0.046342283 -0.124943025 -0.08023464 -0.060843363 -0.0142169325 -0.103255466 -0.078097805 -0.12252268
-1.2410426 2.732104 3.0825257 -0.03257062 0.6231729 -0.07887863 -0.34655675 -0.18879046
-0.09703273 -0.12978478 -0.09096064 -0.103775516 -0.09760345 -0.016461143 -0.050335053 -0.7039614
0.5933109 3.1573162 -0.079917245 -0.033531 -0.21503142 -0.01537196 -0.050985493 -0.09505833
-0.06744347 -0.044703156 -2.0394335 -0.016721169 -0.06241469 0.26108828 -2.1051304 -2.2982042
-0.043620586 -0.0535321 -0.11621352 3.4013665 -0.0325587 2.0249684 2.63765 2.0601983
-0.03958833 -0.06776831 -0.05807994 -0.043824732 -0.030810602 -0.019018557 -0.07391207 -0.07881009
-0.53094435 -0.040255155 1.7504586 -0.048661653 -0.06370477 -0.015376616 2.8369017 -0.06962053
-0.0700318 -0.058778808 -0.06361089 -0.0489865 2.4905028 -1.2633533 -0.050713543 -0.052982993
-0.21693525 -0.066768445 -0.5209511 2.6615162 -0.11011448 -0.023884537 -0.05003256 -0.0027464498
-0.33887774 0.56319875 -0.11019047 -0.019441005 -0.022476003 -0.02958908 -0.029777579 -0.9909345
0.41749975 0.7247184 -0.5226538 -1.5055983 -0.7473422 -0.036159568 -0.00542333 -0.05190266
-0.1207867 -0.03702309 -1.2450529 -0.66433257 -0.069842555 1.545158 -0.05384577 -0.116244815
-0.062047377 2.1880102 -0.062703036 -0.21880442 -2.0723946 0.7113272 -0.106869 -0.03137089
-0.31190068 1.0323524 -0.07634245 -0.03107845 -0.08062058 -0.06376437 -0.069703974 -0.09446079
-0.05589394 -1.3378345 -0.04074913 -0.10777946 -0.033248622 0.007623044 0.007115624 -0.03819283
0.298022 -0.0563067 -0.052254327 1.7457231 -0.5004143 -0.053491868 -0.094088264 2.0487964
-0.44341844 -0.75129944 -0.06188719 -0.012730727 -0.041153695 0.1555067 -0.07329516 -0.040200766
-0.134124 1.6158471 -0.037568472 -0.020842833 0.21584445 -0.030470856 -0.8688146 3.5625603
0.40441096 0.9849121 -0.030786015 -0.07544689 -0.02047105 -0.10062093 -1.2811335 1.9193962
0.40090725 -0.04445952 -0.0828036 -0.05790634 -0.0446361 1.6011562 2.2874584 -0.11758891
1.0612453 -0.018542092 -0.16257928 0.19495347 -0.06004317 -0.020262433 0.10868074 -0.07107787
2.3027663 -0.07030151 0.37573293 2.7448478 -0.055455845 -0.017207319 -1.1254686 -0.07055484
1.7972748 -0.086888015 -1.1891257 -0.041214045 1.8608253 2.8470678 1.8341955 -0.10548319
-0.030348666 -1.84118 -0.018817391 -0.05043042 1.3871683 -0.029093241 0.5771641 -0.09986992
-0.07495366 0.78197795 -0.008957749 0.4533972 -1.4407768 -0.038795583 0.45095134 1.5970975
-0.91454697 -1.0130758 1.8513515 1.8365498 -0.043121397 -2.1903298 -0.26719323 -0.04733396
-0.111238025 -0.07034324 1.468013 -0.04855213 -0.013513969 -0.064576484 -0.0022274232 -2.4359083
-0.07315956 -0.015941465 -0.034268606 -0.059225842 -0.08686119 -0.03454875 3.7243772 -0.06440363
-0.104401365 -0.107232586 -0.41230872 1.9055667 -0.017987397 -0.03986251 1.0435511 -0.07422201
00000000: 16e0 0d40 fdd9 8bbd b4f7 083c 1e17 13bd
00000010: e043 edbf 5df7 2fc0 e798 a3bc 735f e6bd
00000020: d7aa aebe 88ce bebd 6dd9 0fbe 785f b1bc
00000030: 7011 41bd e11c 43bd 6da1 bb3f fdbe d6bf
00000040: 68d1 3dbd 21e2 ffbd 0f52 a4bd e436 79bd
00000050: 23ee 68bc 9a77 d3bd bef1 9fbd 2ced fabd
00000060: 7cda 9ebf cbda 2e40 1a48 4540 c568 05bd
00000070: 4288 1f3f 1f8b a1bd e36f b1be 4952 41be
00000080: 19b9 c6bd 4de6 04be 9249 babd 4288 d4bd
00000090: 51e4 c7bd 85d9 86bc 212c 4ebd d036 34bf
000000a0: 39e3 173f 7811 4a40 a7ab a3bd cd57 09bd
000000b0: 3231 5cbe acda 7bbc 2ad6 50bd f1ad c2bd
000000c0: cd1f 8abd a81a 37bd 1486 02c0 d5fa 88bc
000000d0: 8ca6 7fbd 5dad 853e 75ba 06c0 c715 13c0
000000e0: 80ab 32bd 7a44 5bbd 5b01 eebd fdaf 5940
000000f0: 455c 05bd 1599 0140 42cf 2840 4ada 0340
00000100: 5f27 22bd 1dca 8abd 3be5 6dbd 9081 33bd
00000110: 8466 fcbc cecc 9bbc 365f 97bd 2f67 a1bd
00000120: f8eb 07bf 97e2 24bd 070f e03f 7151 47bd
00000130: a577 82bd 34ee 7bbc cc8f 3540 3595 8ebd
00000140: d56c 8fbd 0cc2 70bd 6d46 82bd 11a6 48bd
00000150: 6664 1f40 90b5 a1bf 01b9 4fbd b204 59bd
00000160: 4624 5ebe e5bd 88bd 0d5d 05bf 4856 2a40
00000170: b383 e1bd 81a9 c3bc f1ee 4cbd c8fd 33bb
00000180: 6281 adbe cb2d 103f 8bab e1bd be42 9fbc
00000190: 981f b8bc cc64 f2bc 1cf0 f3bc e2ad 7dbf
000001a0: 87c2 d53e 2587 393f a4cc 05bf 72b7 c0bf
000001b0: d251 3fbf 0e1c 14bd 30b6 b1bb e297 54bd
000001c0: 045f f7bd 86a5 17bd e55d 9fbf b311 2abf
000001d0: 9d09 8fbd bdc7 c53f 628d 5cbd c311 eebd
000001e0: 6425 7ebd 5c08 0c40 736a 80bd 440e 60be
000001f0: 1da2 04c0 8a19 363f 22de dabd c37e 00bd
00000200: 72b1 9fbe 2024 843f 6e59 9cbd 3c98 febc
00000210: 671c a5bd e596 82bd f5c0 8ebd a974 c1bd
00000220: 0bf1 64bd 293e abbf 8fe8 26bd 7abb dcbd
00000230: b52f 08bd baca f93b 2e2a e93b 1670 1cbd
00000240: 5796 983e dba1 66bd a208 56bd db73 df3f
00000250: 271b 00bf 4a1a 5bbd 59b1 c0bd 7b1f 0340
00000260: be07 e3be 2955 40bf 6c7d 7dbd 8a94 50bc
00000270: c790 28bd 263d 1f3e c61b 96bd 8fa9 24bd
00000280: cd57 09be 14d4 ce3f 66e1 19bd 97be aabc
00000290: 5406 5d3e 049e f9bc a26a 5ebf fd00 6440
000002a0: f40e cf3e 3323 7c3f f432 fcbc e683 9abd
000002b0: e7b2 a7bc 5912 cebd 2ffc a3bf c6ae f53f
000002c0: b743 cd3e 301b 36bd ef94 a9bd 332f 6dbd
000002d0: 58d4 36bd b0f2 cc3f b865 1240 74d2 f0bd
000002e0: e3d6 873f 96e5 97bc 2f7b 26be e2a1 473e
000002f0: d4ef 75bd 67fd a5bc 0294 de3d 4691 91bd
00000300: 8660 1340 3dfa 8fbd 1160 c03e 96ab 2f40
00000310: ab25 63bd 5df6 8cbc 5b0f 90bf 0e7f 90bd
00000320: 1a0d e63f 58f2 b1bd 4535 98bf 0fd0 28bd
00000330: 862f ee3f 5c36 3640 ebc6 ea3f 9207 d8bd
00000340: c49d f8bc c9ab ebbf ee26 9abc 2190 4ebd
00000350: bb8e b13f f354 eebc 07c1 133f 9a88 ccbd
00000360: 4e81 99bd b52f 483f 86c3 12bc ae23 e83e
00000370: 606b b8bf 1ee8 1ebd 18e3 e63e b16d cc3f
00000380: c01f 6abf 78ac 81bf 16f9 ec3f 1014 eb3f
00000390: 10a0 30bd 5d2e 0cc0 8dcd 88be 41e1 41bd
000003a0: c3d0 e3bd 1e10 90bd dae7 bb3f 99de 46bd
000003b0: b269 5dbc ad40 84bd f6f9 11bb ece5 1bc0
000003c0: aed4 95bd ad97 82bc 3d5d 0cbd cc96 72bd
000003d0: 48e4 b1bd fd82 0dbd 325c 6e40 0de6 83bd
000003e0: 62d0 d5bd c29c dbbd 211a d3be 9ce9 f33f
000003f0: 4e5a 93bc df46 23bd 1593 853f b601 98bd

5.weight f4 [1, 300]
2.1757205 0.014501172 0.011497653 0.019217113 -0.7836486 1.1328197 -0.025210368 -0.012439222
0.7584801 -0.005193572 0.030824758 0.007812826 0.0011140608 0.044446856 -2.272079 -7.497697
0.0015785117 -2.6764934 0.015709005 0.0060829856 0.012886816 -0.024841564 -0.0030321798 0.009546531
3.570052 0.17290528 3.8038864 0.01667572 -1.9998009 9.2500064e-05 -3.4625802 0.020311235
0.020169673 -0.01882745 0.5107201 0.020932985 0.015240643 -0.02679399 0.003610252 1.2661111
-3.9920726 0.95707375 -0.023994433 -0.0080938535 -0.021204557 0.0033128804 0.012236194 -0.014033089
0.020147694 -0.02151115 -1.4918901 0.017640198 -0.021011217 -0.34729654 2.5678453 -0.6275802
-0.0217261 0.008048777 0.015885213 0.8966455 0.0027550643 2.940157 0.7660786 2.7331066
0.006818731 -0.021983147 -0.024247753 -0.01904687 -0.0007993026 0.0004288599 0.016386263 0.021518975
0.2693442 0.002276271 1.1899247 0.0012300571 0.0038076926 0.004455964 4.0503225 0.027605731
0.011796981 0.022979662 0.012311817 -0.0037908358 0.2337356 6.9326153 0.012467721 -0.0015244485
-0.20535903 -0.013109403 -1.9980806 -1.5693747 -0.008106705 -0.019384751 0.013503724 -0.012037076
-1.2613722 0.37958345 -0.028867861 -0.008091618 -0.0062077832 0.0077527557 -0.024823682 -3.1001718
-1.2275621 2.4031897 -3.1579537 0.25175932 0.74039286 -0.0146373315 0.014413999 -0.0016705499
-0.03611114 -0.020683764 0.28661448 -0.7982485 0.010839581 -1.4965127 -0.024865406 0.019823967
-0.020205436 0.8716871 -0.005108449 -0.027423194 -9.436984 4.590972 0.008857353 0.02175851
3.0812192 3.2803762 0.027688434 -0.0032235202 -0.0015003505 0.0033846856 0.004847864 0.018658321
-0.025944997 -0.45882967 0.008151968 0.02598225 -0.0039700926 -2.3603504 0.40097886 0.0093327
-0.27739155 0.029472478 -0.0071219704 -1.8283398 -1.3628614 -0.002435993 0.02744182 -2.0240693
3.3619022 -1.625599 0.017520614 0.008446451 -0.01660941 0.65041417 0.004511378 -0.020277707
-0.021190774 -1.8641994 -0.0028035399 0.0029434713 -0.41299286 0.018570032 0.15817194 0.3695384
1.1970348 -3.971305 -0.02046546 0.0014054253 -0.017778035 0.029669173 0.30783033 0.29972515
4.2402353 -0.034346092 -0.036019493 0.009164875 -0.0019492251 -4.284459 -3.9143314 -0.0080720605
0.45292202 -0.0130036045 0.015652288 0.50480723 -0.0066738175 0.32062858 -1.2619903 -0.016153434
-1.5530157 0.022683501 -5.335118 0.4063795 0.008639236 -0.0023402062 1.0770177 0.009691073
-0.8260981 0.014288643 -0.53393745 0.015804 2.1545656 0.47213894 2.6993866 -0.018446352
0.015950033 0.4221959 -0.015452798 0.012092583 -4.2129703 -0.018293615 -0.67317027 0.0025318263
-0.0233168 -4.640087 -0.0056583025 -1.3657825 -5.854755 -0.022093788 -1.3650736 1.8387628
-1.1633073 -0.45142558 1.527437 -2.2209165 0.013623493 -5.524307 -2.4769552 -0.030067034
-0.026992548 0.014941501 -2.377634 0.0054983012 -0.02034588 -0.0309015 -0.01740774 -1.4335569
0.080578856 0.011434138 -0.008695301 0.010410612 -0.0013586729 -0.01864044 0.27283016 -0.013961937
-0.013426611 0.022778869 -0.95198244 0.9987082 -0.014942247 0.00994756 1.2897452 0.0044016675
00000000: 013f 0b40 5396 6d3c a760 3c3c 356d 9d3c
00000010: 329d 48bf 3c00 913f f985 cebc e1cd 4bbc
00000020: c02b 423f d72e aabb 3484 fc3c 5e01 003c
00000030: ad05 923a e80d 363d be69 11c0 22ed efc0
00000040: 10e6 ce3a ab4b 2bc0 2cb0 803c c853 c73b
00000050: 3923 533c 8980 cbbc 89b7 46bb 0e69 1c3c
00000060: bb7b 6440 150e 313e e072 7340 859b 883c
00000070: 7af9 ffbf 98fc c138 ea9a 5dc0 bf63 a63c
00000080: df3a a53c 063c 9abc 8dbe 023f a77b ab3c
00000090: e4b3 793c 127f dbbc fa99 6c3b ee0f a23f
000000a0: 1e7e 7fc0 c902 753f f98f c4bc 159c 04bc
000000b0: 2eb5 adbc e91c 593b 517a 483c 0beb 65bc
000000c0: c70c a53c 2738 b0bc 41f6 bebf 2d82 903c
000000d0: b71f acbc dad0 b1be 9457 2440 19a9 20bf
000000e0: effa b1bc 04df 033c b521 823c 8f8a 653f
000000f0: 4f8e 343b 882b 3c40 ba1d 443f 38eb 2e40
00000100: a96f df3b 0016 b4bc 39a3 c6bc 2e08 9cbc
00000110: 4a88 51ba 9ad8 e039 7c3c 863c 9048 b03c
00000120: 7ce7 893e 7e2d 153b 744f 983f de39 a13a
00000130: 7b8a 793b 5603 923b 3e9c 8140 6a25 e23c
00000140: 2048 413c d83f bc3c 81b7 493c ac6f 78bb
00000150: 6358 6f3e fcd7 dd40 6945 4c3c 01d0 c7ba
00000160: a349 52be d2c8 56bc 1bc1 ffbf 45e1 c8bf
00000170: fcd1 04bc c5cc 9ebc b93e 5d3c 2837 45bc
00000180: a574 a1bf c358 c23e 4b7c ecbc b592 04bc
00000190: a96a cbbb d40a fe3b 095b cbbc 3769 46c0
000001a0: c120 9dbf dccd 1940 ea1b 4ac0 99e6 803e
000001b0: 638a 3d3f 6bd1 6fbc b228 6c3c 5af6 daba
000001c0: 46e9 13bd ff70 a9bc 22bf 923e 045a 4cbf
000001d0: 7f98 313c ba8d bfbf 89b2 cbbc df65 a23c
000001e0: df85 a5bc e326 5f3f c764 a7bb 9ba6 e0bc
000001f0: e3fd 16c1 3ee9 9240 6e1e 113c e73e b23c
00000200: b232 4540 aff1 5140 dbd2 e23c b241 53bb
00000210: 69a7 c4ba 9ad1 5d3b d5da 9e3b 56d9 983c
00000220: 9a8a d4bc b9eb eabe d58f 053c bad8 d43c
00000230: 8d17 82bb fb0f 17c0 1a4d cd3e 2ee8 183c
00000240: 4406 8ebe 4470 f13c 6b5f e9bb 0a07 eabf
00000250: 3e72 aebf 2ea5 1fbb abcd e03c 5a8a 01c0
00000260: 6829 5740 a113 d0bf 6487 8f3c fc62 0a3c
00000270: 7510 88bc 8b81 263f 2ed4 933b 6f1d a6bc
00000280: 4698 adbc 169e eebf 98bb 37bb 41e7 403b
00000290: cd73 d3be 2e20 983c d3f7 213e 2334 bd3e
000002a0: 7038 993f dc29 7ec0 2ea7 a7bc 3f36 b83a
000002b0: 3ea3 91bc c40c f33c f09b 9d3e 9375 993e
000002c0: 02b0 8740 7dae 0cbd 2d89 13bd 4628 163c
000002d0: 247d ffba 4a1a 89c0 6884 7ac0 ad40 04bc
000002e0: 65e5 e73e 120d 55bc 3a39 803c 0c3b 013f
000002f0: 0ab0 dabb 6e29 a43e e688 a1bf 3554 84bc
00000300: 38c9 c6bf c0d2 b93c 49b9 aac0 f910 d03e
00000310: 958b 0d3c 255e 19bb b7db 893f 4ec7 1e3c
00000320: 2a7b 53bf ea1a 6a3c 20b0 08bf 6477 813c
00000330: 67e4 0940 32bc f13e c0c2 2c40 ce1c 97bc
00000340: a5a9 823c 102a d83e bc2d 7dbc f81f 463c
00000350: a7d0 86c0 7edc 95bc e354 2cbf ffec 253b
00000360: e002 bfbc 987b 94c0 4869 b9bb f6d1 aebf
00000370: 275a bbc0 08fe b4bc bbba aebf 945c eb3f
00000380: 41e7 94bf 4121 e7be 0e83 c33f 7f23 0ec0
00000390: 1235 5f3c 1fc7 b0c0 6f86 1ec0 244f f6bc
000003a0: 7a1f ddbc 33cd 743c 282b 18c0 182b b43b
000003b0: 67ac a6bc 2425 fdbc ad9a 8ebc cb7e b7bf
000003c0: 8706 a53d 4056 3b3c bc76 0ebc 4691 2a3c
000003d0: 7f15 b2ba d6b3 98bc 65b0 8b3e 9cc0 64bc
000003e0: 4afb 5bbc c09a ba3c 1fb5 73bf 57ab 7f3f
000003f0: 54d0 74bc 17fb 223c 5f16 a53f dd3b 903b
