results/c_0_0/c_0_1_from_0_2/290094_except/target_policy.pt (torch, 500709 bytes, 5 tensors)

0.weight f4 [400, 9]
0	0x3c8370dc	0.016045026
1	0x3e3728b7	0.17886625
2	0xbe8a71d5	-0.27039972
3	0xbe498bc0	-0.19682217
4	0xbdf9ac13	-0.12191024
5	0x3d3b8777	0.045783486
6	0xbd5c63fa	-0.053806283
7	0x3e5c5db9	0.21520127
8	0xbd014ec4	-0.031569257
9	0x3f47d41c	0.7805803
10	0xbe28a06c	-0.16467446
11	0xbfd6ae47	-1.6771935
12	0xbf4e248e	-0.8052453
13	0x405a6798	3.4125729
14	0xc050f2fe	-3.264831
15	0x3e89918f	0.26868865
16	0x3df059a1	0.11735845
17	0xbec5b4f9	-0.38614634
18	0xc0695cea	-3.646296
19	0xbfcace27	-1.5844163
20	0x402263c8	2.5373402
21	0xc02898c5	-2.6343243
22	0xc0046923	-2.068917
23	0x4035de28	2.8416843
24	0xbf1f7936	-0.6229433
25	0xbcf2a541	-0.029619815
26	0x3f0bc556	0.54597986
27	0xc085afb5	-4.1776986
28	0xbe41e5d2	-0.18935326
29	0xc0398a33	-2.89906
30	0xbfddb708	-1.7321482
31	0xbf92fa5f	-1.1482657
32	0xbf5e1936	-0.8675722
33	0x3f892843	1.0715412
34	0xbf9e5230	-1.2368832
35	0x3e5c455f	0.21510838
36	0xc0229f81	-2.5409853
37	0x407649d9	3.8482573
38	0xbb8c56d6	-0.0042828126
39	0xbf71a6f3	-0.9439537
40	0x408c6821	4.387711
41	0xbe49eada	-0.19718495
42	0xbe14e621	-0.14540912
43	0xbf0485f4	-0.51766896
44	0xbf7b7493	-0.98224753
45	0xc0990850	-4.7822647
46	0xbf6a39dc	-0.91494536
47	0x406bb4f1	3.6829188
48	0xc0d7a2a6	-6.7386045
49	0xc0820b6f	-4.0638957
50	0x3f2ba7ed	0.6705311
51	0x3e59db84	0.21275145
52	0xbeb688b4	-0.3565117
53	0xbecaba50	-0.3959527
54	0x409e6c19	4.9506955
55	0xc006db5e	-2.107139
56	0xc04ffc59	-3.249777
57	0xbff7f60a	-1.937196
58	0xc0c06869	-6.0127454
59	0xbf44a6da	-0.76817095
60	0xbf7e5931	-0.99354845
61	0xbe5a8064	-0.2133804
62	0xbf2dd80c	-0.67907786
63	0xc01cf676	-2.4525428
64	0xc0af3693	-5.475412
65	0xbf714940	-0.94252396
66	0xc0fda3bf	-7.9262385
67	0xc01032f3	-2.2531097
68	0xbded78d8	-0.11595315
69	0xc00f2c66	-2.2370849
70	0x3f1cbf5e	0.61229503
71	0x3f5edd18	0.8705611
72	0x3e59485e	0.21219012
73	0x3fd88968	1.6916933
74	0x3f9657a1	1.1745492
75	0x3e0db2cd	0.13837738
76	0x3f4873b4	0.7830155
77	0x3c920179	0.017822968
78	0xbfa5c31d	-1.2950169
79	0xbff4eae4	-1.9134183
80	0xbfb9fed0	-1.4530888
81	0x3fbe30f8	1.4858694
82	0x3fa35682	1.2760775
83	0xbfd370c0	-1.6518784
84	0x400929e6	2.1431823
85	0xc050a1b7	-3.2598703
86	0x3f3859a3	0.72011775
87	0x3eed7128	0.46375394
88	0xbf75fc5d	-0.960882
89	0xbf33031d	-0.69926625
90	0xc0cb104b	-6.345739
91	0xc01c44d5	-2.4417012
92	0xbeb5e8fe	-0.3552932
93	0x40525848	3.2866383
94	0xc06db78c	-3.7143278
95	0x3f93bee4	1.154263
96	0xbe61ffc0	-0.22070217
97	0x3da8688c	0.08223066
98	0xbed65fa4	-0.41869843
99	0xbe8c0bfd	-0.27352896
100	0x3e729923	0.2369123
101	0x3e28c2c6	0.1648055
102	0xbe3f62f7	-0.18690096
103	0x3e07a56d	0.13246699
104	0xbe34e43f	-0.17665194
105	0xbd9fa07e	-0.07794283
106	0xbe8085a6	-0.25101966
107	0xbe83a517	-0.2571189
108	0xc00b2023	-2.1738365
109	0xc007cf95	-2.1220448
110	0xbf5d1757	-0.8636374
111	0x3fba3daf	1.4550074
112	0xc0f17e86	-7.5466948
113	0x3f060731	0.52354723
114	0x3eef2a49	0.4671195
115	0x3e3aae5e	0.18230578
116	0xc00eb8a9	-2.2300208
117	0xbf7144d1	-0.9424563
118	0xbf961892	-1.1726248
119	0x3fa8bbf1	1.3182355
120	0x40dd7973	6.9210753
121	0x3e17310a	0.147648
122	0xbf712d33	-0.94209594
123	0x3f79ab46	0.9752697
124	0xc081a2a3	-4.051103
125	0xbf1fddf6	-0.6244806
126	0x40c7bce9	6.2418103
127	0x3f0efab3	0.55851287
128	0xbf4b10e7	-0.79322666
129	0x4036326d	2.8468277
130	0xbf8a7b9f	-1.0818976
131	0xbec30514	-0.38089812
132	0xbff1b972	-1.8884718
133	0x3ce0dcaf	0.02744898
134	0xbcb1dc53	-0.021711504
135	0xc0195d7e	-2.3963313
136	0xbf862d46	-1.0482566
137	0xbf8031d2	-1.0015204
138	0xbeaf78db	-0.34271893
139	0x3f4788d8	0.7794318
140	0x4035452d	2.8323472
141	0x3f515091	0.8176356
142	0xc0243f9d	-2.5663826
143	0x3effdef6	0.49974793
144	0xbe995044	-0.2994405
145	0xbe21d180	-0.15802574
146	0x3e686a68	0.22696841
147	0xbb0d9cab	-0.0021608274
148	0xbe29a893	-0.16568212
149	0xbe82c8ac	-0.25543725
150	0xbe9fb800	-0.31195068
151	0xbe900b48	-0.28133607
152	0xbd8a784b	-0.06761225
153	0x3f8664b1	1.0499479
154	0x404731f6	3.1124244
155	0xc0929da1	-4.581742
156	0xbe100633	-0.14064865
157	0x403d0f1a	2.9540467
158	0xbfbb9246	-1.4654014
159	0x3e318258	0.17334878
160	0x3e9a6112	0.30152184
161	0xbf05c804	-0.52258325
162	0xbf94c838	-1.1623602
163	0xc0858b24	-4.173235
164	0x40784a84	3.879548
165	0x4018fbc7	2.3903673
166	0xc0f95c76	-7.7925367
167	0x3f99cbe0	1.2015343
168	0xbfbac2fb	-1.4590753
169	0xbd179eae	-0.037016563
170	0xbe1f7c0a	-0.15574661
171	0xc05bf5bc	-3.4368734
172	0x4026b5df	2.6048505
173	0xbe187454	-0.14888126
174	0xc0dd5184	-6.9162006
175	0xc025a148	-2.5879688
176	0x3ff70f7c	1.93016
177	0xc032731b	-2.7882755
178	0x3ef0a152	0.46998078
179	0xbeb74008	-0.3579104
180	0x40297fe2	2.6484303
181	0xbeae5b68	-0.34054112
182	0x404b79e5	3.1793149
183	0xc014a83f	-2.322769
184	0x40420570	3.0315819
185	0x401ebf1b	2.4804142
186	0xbf50c30b	-0.8154761
187	0x3ddbf0d3	0.10739293
188	0xbf1d7dec	-0.61520267
189	0x40bf8983	5.985536
190	0x3ea51d0d	0.32248726
191	0x3f7e077a	0.9923016
192	0xbe8b596f	-0.2721667
193	0x401bb75d	2.4330666
194	0xbe783403	-0.24238591
195	0xbfc5e582	-1.5460665
196	0xbfaf3610	-1.3688374
197	0xbdbea57c	-0.093089074
198	0xc1236523	-10.212192
199	0xbdc0197f	-0.09379863
200	0xbf32eae0	-0.6988964
201	0xbf8c087b	-1.0940088
202	0xc08c4a30	-4.384056
203	0x3ebe83ac	0.37209833
204	0xc002a5bd	-2.0413659
205	0x3d74b99b	0.05974732
206	0xbfad6237	-1.3545598
207	0x3e8ff496	0.28116292
208	0x3df6db80	0.12053585
209	0x3d2ce307	0.042208698
210	0xbb229e00	-0.0024813414
211	0xbd86f35b	-0.06589385
212	0x3d2b4dab	0.041822117
213	0xbd9be220	-0.07611489
214	0xbb197eab	-0.0023421447
215	0x3d2e3500	0.042531013
216	0xbeec275b	-0.46123776
217	0xc054a655	-3.322652
218	0x400d9118	2.2119808
219	0xc0d935fa	-6.787839
220	0x4064cc2e	3.5749621
221	0x3f93fd58	1.1561689
222	0x3ea37b65	0.3193008
223	0xbf30c377	-0.69048256
224	0xbf214ef1	-0.6301108
225	0x40b92134	5.785303
226	0xbf02d20d	-0.5110176
227	0xbfbc7429	-1.4722949
228	0xc0d75488	-6.7290688
229	0xc000dcaa	-2.0134683
230	0xbf4d5731	-0.8021117
231	0x3f353006	0.707764
232	0xbc4e7ca7	-0.012602962
233	0x3cff3eaf	0.03115782
234	0x40a71c03	5.2221694
235	0xc052b632	-3.2923703
236	0x3fa70cbd	1.3050762
237	0xbf36882f	-0.7130155
238	0x3fa336c9	1.2751094
239	0x403fd948	2.9976368
240	0xbeaefefd	-0.34178916
241	0x3e9959fd	0.29951468
242	0x3e1bd755	0.15218861
243	0x3eec1b26	0.46114463
244	0x3ef57231	0.47938684
245	0xbec982af	-0.39357516
246	0x3ee9c161	0.4565535
247	0xbfaa4e04	-1.3305058
248	0x3f97408d	1.1816574
249	0xbc448b36	-0.011996081
250	0xbf630165	-0.88674
251	0x3e41749f	0.18892144
252	0x3e8d20a2	0.2756396
253	0xbdc78e8b	-0.09743985
254	0xbe4aa5c9	-0.19789805
255	0xbdfc7a0c	-0.12327966

0.bias f4 [400]
0	0xbebd3e88	-0.3696177
1	0xbf8b1ee1	-1.0868798
2	0xbf2ab916	-0.6668867
3	0x3e91be37	0.28465435
4	0xbf04f6bd	-0.5193899
5	0xbc816d21	-0.015799107
6	0x3f04169c	0.51597
7	0xbf1504e6	-0.582106
8	0xbe0eea81	-0.13956644
9	0xbee7b390	-0.45254183
10	0xbe90063d	-0.2812976
11	0xbe9a7cde	-0.3017339
12	0x3e509f64	0.20373303
13	0xbf593c64	-0.84857774
14	0xbf4aa5ea	-0.79159415
15	0xbead1760	-0.33806896
16	0xbe62f13e	-0.22162339
17	0xbea2fdb7	-0.31834194
18	0x3da63f46	0.08117537
19	0xbee4c031	-0.4467788
20	0xbf4f229f	-0.809122
21	0xbf01085e	-0.5040339
22	0xbeacf1de	-0.3377828
23	0xbe8d3923	-0.27582654
24	0xbdd0c27b	-0.10193344
25	0xbf7e21e9	-0.9927049
26	0xbeffe86e	-0.49982017
27	0xbe67f67d	-0.22652622
28	0xbea67f44	-0.3251897
29	0xbf8260aa	-1.018575
30	0x3d1491c3	0.03627182
31	0xbe4e8ed3	-0.2017167
32	0xbe1e67ae	-0.15469238
33	0xbe86acfd	-0.26303855
34	0xbf9d19c8	-1.2273493
35	0xbe3a2d88	-0.18181431
36	0xbf5bca42	-0.85855496
37	0xbee2e599	-0.44315794
38	0xbe87b913	-0.26508388
39	0xbf7ee306	-0.9956516
40	0x3e7db576	0.24776253
41	0xbea9ba58	-0.33149981
42	0xbfc53955	-1.5408121
43	0xbe86a4ff	-0.26297757
44	0x3caed955	0.021343866
45	0xbf5dbeda	-0.8661934
46	0x3f00287f	0.5006179
47	0xbedc4991	-0.43024877
48	0xbddb2ac6	-0.10701518
49	0xbeeeb34c	-0.46621168
50	0xbf8a4937	-1.0803593
51	0x3f412dc1	0.7546044
52	0x3cea4682	0.028598074
53	0xbf2a7d66	-0.6659759
54	0xbf3ab6cc	-0.72935176
55	0xbf5ff3c0	-0.8748131
56	0x3ed4a34a	0.4153083
57	0xbf0ea38b	-0.55718297
58	0xbedd16ec	-0.4318155
59	0x3ebaf975	0.36518446
60	0x3d40159f	0.04689562
61	0x3e894858	0.26813006
62	0xbf27b4c7	-0.6551022
63	0xbde914ab	-0.11380895
64	0x3c763438	0.015027098
65	0xbdd9c002	-0.10632326
66	0x3a9a32cc	0.0011764406
67	0x3f127d18	0.5722213
68	0xbe67bead	-0.22631331
69	0xbf65f59d	-0.898279
70	0xbed97b0a	-0.42476684
71	0xbe9dbcb3	-0.3080803
72	0xbf3b7a7e	-0.73233783
73	0x3ecc2330	0.39870596
74	0xbe88f1c7	-0.2674696
75	0xbf890804	-1.0705571
76	0xbec6d705	-0.38835922
77	0xbec3bd2e	-0.3823027
78	0x3e0f0ef1	0.13970543
79	0xbf2c09e7	-0.6720261
80	0xbed72e37	-0.42027447
81	0xbf347d51	-0.7050372
82	0x3f1579e0	0.5838909
83	0xbf5e2b4a	-0.86784804
84	0x3ea00e45	0.31260887
85	0xbe929b24	-0.28633988
86	0xbdb92956	-0.09041087
87	0x3f505f1b	0.8139512
88	0xbda55092	-0.08072008
89	0xbf6e5eed	-0.93113595
90	0xbcab9e7f	-0.0209496
91	0xbe909144	-0.2823583
92	0xbf2133ab	-0.62969464
93	0xbf19946e	-0.5999211
94	0xbf301d02	-0.6879426
95	0x3f037a92	0.513589
96	0xbe5011f6	-0.20319352
97	0xbf44ed49	-0.7692457
98	0xbf6f584f	-0.93494123
99	0xbf28aca8	-0.6588845
100	0xbf32aea0	-0.69797707
101	0xbf338c42	-0.7013589
102	0x3e2637ed	0.16232271
103	0xbf90f42a	-1.1324513
104	0xbecb4a3c	-0.39705074
105	0x3e3f3166	0.18671188
106	0x3f2be2b7	0.67142814
107	0x3f1374cc	0.5760009
108	0xbf2ca632	-0.67441094
109	0x3e9d29c0	0.30695915
110	0xbba3a3d0	-0.004993893
111	0xbe951134	-0.29114687
112	0xbf147da8	-0.58004236
113	0xbead55df	-0.33854577
114	0x3e9d9a34	0.3078171
115	0x3d35d650	0.044393837
116	0xbe927b6f	-0.28609797
117	0x3e1248c6	0.14285573
118	0xbf79fe73	-0.97653884
119	0x3e82683a	0.25470144
120	0x3df7e7c9	0.121047564
121	0x3e09bd36	0.13451084
122	0x3ec187cb	0.37798914
123	0xbf38e07d	-0.7221754
124	0xbe92d782	-0.28680044
125	0xbd912d5a	-0.07088728
126	0xbf3e8c20	-0.74432564
127	0x3e952cec	0.29135835
128	0xbec1041f	-0.37698457
129	0xbf18a5db	-0.59628075
130	0x3f1b9e33	0.6078827
131	0x3e9a4b34	0.301355
132	0xbf10b406	-0.56524694
133	0xbe50f88a	-0.2040731
134	0xbf06825b	-0.52542657
135	0xbf11d4a3	-0.5696508
136	0xbf0b06a5	-0.54307014
137	0x3ef14205	0.4712068
138	0x3e20da00	0.1570816
139	0xbf2bcbff	-0.6710815
140	0xbe0115fe	-0.12606046
141	0xbebbb1ad	-0.36658993
142	0x3e4c1d40	0.19933033
143	0x3e831bbb	0.25607094
144	0xbdd3a5f2	-0.10334386
145	0xbf948402	-1.1602786
146	0x3e8dcbcd	0.2769455
147	0xbe5a8a06	-0.21341714
148	0xbc7b62a8	-0.015343346
149	0xbf9d07f2	-1.226805
150	0xbd1a06a7	-0.037604
151	0xbd187200	-0.037218094
152	0x3e1ad8b3	0.15121727
153	0xbd841f0e	-0.06451236
154	0xbe9cd5b7	-0.306318
155	0xbdd05d0a	-0.10173996
156	0xbf2e6367	-0.68120426
157	0xbf6083d6	-0.87701166
158	0xbd128202	-0.035768516
159	0xbef7e66f	-0.48417994
160	0xbe396ba0	-0.18107462
161	0xbe9cdc56	-0.30636853
162	0xbea01dbf	-0.31272694
163	0x3d6d4ecd	0.05793648
164	0xbedddd13	-0.4333273
165	0xbf012bd3	-0.50457495
166	0xbf99f598	-1.2028074
167	0xbf07a26a	-0.529822
168	0xbc22b3ae	-0.009930534
169	0xbe942ece	-0.2894196
170	0xbe2945a4	-0.16530472
171	0x3d3f7208	0.046739608
172	0xbe91c89b	-0.28473362
173	0x3edbf8d2	0.42963272
174	0xbf2e2ad5	-0.68034106
175	0x3f334547	0.70027584
176	0xbebf79d1	-0.37397626
177	0xbefcecc8	-0.493994
178	0xbf02d66a	-0.5110842
179	0xbe372728	-0.1788603
180	0xbe4a4fdd	-0.19757028
181	0x3e2607e0	0.16213942
182	0xbe87d755	-0.26531473
183	0x3e72990b	0.23691194
184	0xbf94aff2	-1.1616194
185	0xbf5a6691	-0.85312754
186	0xbf535524	-0.8255179
187	0xbec86f96	-0.39147633
188	0x3e138ca6	0.14409122
189	0x3ef38d06	0.4756853
190	0x3f69bd70	0.91304684
191	0xbea23ae7	-0.31685564
192	0xbe5c8d5a	-0.21538296
193	0xbe519470	-0.2046678
194	0x3e041b40	0.1290102
195	0x3f86ab45	1.0521017
196	0xbec6eb9e	-0.38851637
197	0xbdfc8143	-0.12329342
198	0xbe4d9a44	-0.20078379
199	0xbf396037	-0.7241244
200	0xbf184fb3	-0.5949661
201	0xbe2d8fc1	-0.16949369
202	0xbe80dd7d	-0.25168982
203	0xbeab6e5f	-0.33482644
204	0xbebc98e9	-0.3683541
205	0xbf0c24fd	-0.5474394
206	0xbee746b3	-0.45171127
207	0x3e9f399d	0.31098643
208	0xbf701c35	-0.9379304
209	0x3e7dba48	0.24778092
210	0xbee48607	-0.44633505
211	0xbfe5512a	-1.7915394
212	0xbf00f831	-0.5037871
213	0xbf6eb72c	-0.9324825
214	0xbe00aeac	-0.12566632
215	0xbf4b5946	-0.79433095
216	0xbf1bd589	-0.60872704
217	0xbef372f8	-0.47548652
218	0xbe440e7c	-0.1914615
219	0xbf1a92be	-0.6038016
220	0xbebee4cd	-0.37283936
221	0x3efa6a95	0.4890944
222	0xbf044207	-0.5166325
223	0xbf6e9cee	-0.93208206
224	0x3e97fbae	0.29684204
225	0xbf159c70	-0.5844183
226	0xbefd18a4	-0.49432862
227	0xbf5efa7a	-0.87100947
228	0xbf3fd0ca	-0.7492796
229	0xbf5152f6	-0.81767213
230	0xbddd0907	-0.107927375
231	0xbeb8a94a	-0.36066657
232	0xbf176eea	-0.59153616
233	0xbe4bdf3f	-0.1990938
234	0xbeefec2a	-0.46859866
235	0xbf8cc8bb	-1.0998758
236	0xbf98511c	-1.1899753
237	0xbe182d4e	-0.14861032
238	0xbeb098c7	-0.3449156
239	0x3cc67866	0.024227332
240	0xbe15b092	-0.14618137
241	0x3e561ebd	0.20910163
242	0xbf440e8e	-0.7658471
243	0x3d1a22e5	0.037630934
244	0x3e8ab5fd	0.2709197
245	0x3e961900	0.29315948
246	0xbfd33d9f	-1.650318
247	0x3e6fbea5	0.23412569
248	0x3e884ead	0.26622525
249	0x3ef2bde0	0.47410488
250	0xbfc2886b	-1.5197881
251	0xbd818993	-0.06325068
252	0xbf29246e	-0.6607121
253	0x3db11de9	0.08648283
254	0xbdadd330	-0.084875464
255	0xbd41688a	-0.047218837

2.weight f4 [300, 400]
0	0x3c7f65b3	0.015588212
1	0xbfa1a082	-1.2627108
2	0x3f9e9939	1.239051
3	0x3f01b6e0	0.5066967
4	0x3fc7b23f	1.5601271
5	0x3f971b37	1.180518
6	0xbfd24b52	-1.6429236
7	0x40111907	2.2671525
8	0x3e830835	0.255922
9	0x3fa3348b	1.275041
10	0xbf28e9a7	-0.65981525
11	0xbdf85773	-0.121260546
12	0x3fb45320	1.4087868
13	0xbfdcb4be	-1.7242658
14	0xbedffb1d	-0.43746272
15	0xc01d68fd	-2.459533
16	0x3d04bf03	0.032408725
17	0xbfa452e9	-1.2837802
18	0x3fd60e7f	1.6723174
19	0x3defa76e	0.117018566
20	0x3d10f460	0.035389304
21	0x3f69c2bd	0.9131277
22	0x3ea105f5	0.31449857
23	0xbbdffc9a	-0.0068355324
24	0xbed46281	-0.41481403
25	0x3f647711	0.8924418
26	0x3fac9427	1.3482713
27	0x3dbbff06	0.09179501
28	0xbb8535e7	-0.0040652636
29	0xbf8a6293	-1.0811332
30	0x3fb59d62	1.4188654
31	0xbfeae772	-1.8351882
32	0x3fd121c6	1.6338432
33	0x3cc4bd49	0.02401604
34	0xbfba6563	-1.4562191
35	0xbcf8bfa7	-0.030364824
36	0x3eea7bca	0.4579757
37	0x400bd982	2.1851506
38	0xbf7eb8d5	-0.9950078
39	0x3fb44b73	1.4085525
40	0x40159d9b	2.3377445
41	0x3d8d5bef	0.069023006
42	0xc01991bb	-2.3995197
43	0x4072aec5	3.791917
44	0x3f80ca21	1.0061685
45	0xbf90c87e	-1.1311185
46	0xc03635f5	-2.8470433
47	0xbf45f3c8	-0.77325106
48	0xbfee4edb	-1.8617815
49	0x3f73be84	0.9521258
50	0xbf935a2a	-1.1511891
51	0x3f7bcf67	0.98363346
52	0x3f107377	0.56426185
53	0x3f39777f	0.7244796
54	0x3f203f57	0.6259665
55	0x3f02b717	0.5106062
56	0xbfd548f9	-1.6662894
57	0xc00a09c9	-2.1568472
58	0x3e46cffc	0.19415277
59	0x3e518944	0.20462519
60	0xbe54765a	-0.20748273
61	0xc01fea19	-2.4986632
62	0xbe1fa10c	-0.15588778
63	0x408b20fd	4.347777
64	0x40a09818	5.018566
65	0x40218458	2.5237026
66	0xbf4a8aff	-0.7911834
67	0xbea5c5a2	-0.32377344
68	0x3e736c90	0.23771882
69	0x3fe78205	1.8086554
70	0xbe890401	-0.26760867
71	0x3a0e8089	0.00054360233
72	0x3ee11efe	0.43968958
73	0x3f0405ac	0.51571155
74	0xbebc14ea	-0.36734706
75	0x3f2141ba	0.62990916
76	0x3fb2bf07	1.3964547
77	0xc04d1caa	-3.2048745
78	0xbfd96c91	-1.6986257
79	0x402bc3c7	2.6838243
80	0xc00ddb5c	-2.2165136
81	0xbff59540	-1.9186172
82	0x3f0c772a	0.5486933
83	0xbfc7bf58	-1.5605268
84	0xbee4cf25	-0.4468929
85	0x3f236d96	0.6383909
86	0x3ebcf7a4	0.36907685
87	0x3f2c265c	0.6724603
88	0xc00adfa7	-2.1699007
89	0x3f4957cc	0.7864959
90	0x3e5a2b10	0.2130549
91	0xbd36d89a	-0.04464016
92	0x4009c472	2.152615
93	0xbdf2f2f6	-0.11862747
94	0xc01e79bb	-2.4761798
95	0x3f30e74d	0.69102937
96	0xbf0e3ca4	-0.5556128
97	0x3f97ee9f	1.1869696
98	0xbeff3638	-0.49846053
99	0xbfe560e8	-1.7920198
100	0x3f1dd455	0.6165212
101	0x4002bcf8	2.0427837
102	0xbf3553cc	-0.7083099
103	0xbd273a96	-0.040827356
104	0x3f7ed26a	0.99539816
105	0xc0094185	-2.144624
106	0xbf860458	-1.0470076
107	0x3e5365bd	0.20644279
108	0x3f03b691	0.5145045
109	0xbfb91e79	-1.4462425
110	0x3efb904c	0.49133527
111	0xbf60f71f	-0.87877077
112	0x3ecd8b0c	0.40145147
113	0x3d16bf58	0.036803573
114	0xbde983cd	-0.11402092
115	0x4016d059	2.3564665
116	0xbfdf87a9	-1.7463275
117	0xbfc0594d	-1.5027252
118	0x3ecf42aa	0.40480548
119	0xbfdc8ea6	-1.7231033
120	0x3fc1e1b4	1.5147004
121	0xbf5fb3df	-0.87383837
122	0xc00a7d3c	-2.1638937
123	0xbfa096a5	-1.2545973
124	0xbba55ce7	-0.005046475
125	0x3f961fea	1.1728489
126	0xbe696bea	-0.22795072
127	0xbfb7b65c	-1.4352527
128	0x3fac1246	1.3443077
129	0x3fba6dba	1.4564736
130	0xbf140a88	-0.5782857
131	0xbf50a110	-0.8149576
132	0x3e985ec7	0.2975981
133	0xbd028b2c	-0.031871006
134	0xbf573ec1	-0.8408013
135	0x3fc4883f	1.5354079
136	0x3f4b17ba	0.7933308
137	0x405e41ac	3.4727583
138	0xc005470b	-2.082461
139	0x3f79a312	0.9751445
140	0x4044272f	3.0648916
141	0xbe261859	-0.16220225
142	0x3d2c27b3	0.042030048
143	0xbe4fe286	-0.20301256
144	0xbf39e5cb	-0.7261626
145	0xc011b2b5	-2.2765324
146	0xc009de5b	-2.1541965
147	0x3cc8f670	0.024531573
148	0xbf1b573d	-0.6067999
149	0x3e9629c5	0.29328743
150	0xc0163b80	-2.3473816
151	0xbe96926a	-0.2940858
152	0x401c3dca	2.4412713
153	0x3f828853	1.0197853
154	0xc05a9ee9	-3.415949
155	0xbfba0b2c	-1.4534659
156	0x40150ad2	2.3287854
157	0xbfa2c204	-1.2715459
158	0xc013c53e	-2.3089137
159	0xbfae5670	-1.3620129
160	0xbd564ef2	-0.052321382
161	0x3fa309e1	1.273739
162	0xbf19b8fe	-0.600479
163	0xbdaa4b3f	-0.08315133
164	0x4007bc9c	2.1208868
165	0xbf537442	-0.8259927
166	0x3fadf994	1.359179
167	0xbe940a9d	-0.28914347
168	0xc025f6e8	-2.593195
169	0xbc4a6553	-0.012353259
170	0xbf7f6f2e	-0.9977902
171	0x3eeef395	0.46670213
172	0x3d145ccd	0.036221314
173	0xbf3de003	-0.7416994
174	0x3df1a49c	0.11798975
175	0xbfebe50e	-1.8429277
176	0xc0320b5c	-2.7819433
177	0xbf44c31b	-0.7686021
178	0xbf04ee09	-0.5192571
179	0x3bf994b3	0.0076166033
180	0x3fd4e226	1.6631515
181	0x4008f708	2.1400776
182	0xbd18f6b4	-0.03734465
183	0xbf20a9d4	-0.6275914
184	0xc062c4d1	-3.5432627
185	0xbefb5541	-0.4908848
186	0xbe35b4d3	-0.1774476
187	0x3fb9dad5	1.4519907
188	0x3f2384f1	0.6387473
189	0xc02cd934	-2.700757
190	0x3de62c03	0.11238863
191	0x3d0fe77c	0.03513287
192	0xbf668ab7	-0.9005541
193	0xbff9587b	-1.9480127
194	0xc03803d1	-2.875233
195	0xc0323b46	-2.7848678
196	0x40142c5a	2.315207
197	0xbe9e4c52	-0.30917603
198	0x3fd1ed36	1.6400516
199	0xbf2ed2a7	-0.6829018
200	0x4003ad19	2.05744
201	0x3f8f6bb9	1.1204749
202	0xbcdab99d	-0.026699835
203	0x3a9c8a67	0.0011943103
204	0xbfa58bce	-1.293329
205	0x40af678e	5.481391
206	0xbd7f7c5b	-0.062374454
207	0x3cba9033	0.022773838
208	0x406f537a	3.73947
209	0x3eff6573	0.49882087
210	0xbf22cd96	-0.6359495
211	0xbf60a48b	-0.8775107
212	0x3e6e6604	0.23281103
213	0x3f66ab54	0.90105176
214	0xbe8c4c51	-0.27401975
215	0xc0135984	-2.3023386
216	0xc00543e2	-2.0822682
217	0xc01c230e	-2.4396396
218	0x401aad8a	2.416842
219	0xbd8f210c	-0.06988725
220	0x3e3529e6	0.17691764
221	0xc01c01b1	-2.4376032
222	0x3f551c60	0.8324642
223	0x3e3a3e65	0.18187864
224	0xbf02927c	-0.5100477
225	0x3fa9b8c3	1.325951
226	0x3b32cde0	0.0027283356
227	0xbf33eeef	-0.7028646
228	0xbfa5a1c8	-1.2939997
229	0x3f947742	1.1598895
230	0xbe4757f3	-0.19467144
231	0xbe67ea5a	-0.22647992
232	0x400d9e60	2.2127914
233	0xbe3ea6ab	-0.18618266
234	0xbf8b5436	-1.0885074
235	0xbfe550c5	-1.7915274
236	0xbfb81dcb	-1.4384092
237	0xbf44bc0a	-0.76849425
238	0xc06496f4	-3.5717134
239	0xc0162c8b	-2.3464687
240	0x3f3fdee0	0.74949455
241	0xbfe20cd7	-1.7660168
242	0xc05678a2	-3.3511128
243	0x3fef4d46	1.8695457
244	0x3f025ceb	0.5092303
245	0xc00066d8	-2.006277
246	0x3ebb371b	0.3656548
247	0xbf72be78	-0.9482188
248	0xbed710fe	-0.42005152
249	0xc0048497	-2.0705926
250	0x405cbc51	3.448994
251	0xbfdefa8e	-1.7420213
252	0x3eefef1a	0.46862108
253	0x3f0f28c0	0.55921555
254	0x4011252e	2.2678943
255	0xc091682d	-4.543967

2.bias f4 [300]
0	0xbff7ff1b	-1.9374727
1	0xbda954df	-0.08268141
2	0xbd26942f	-0.040668663
3	0xbed462d0	-0.41481638
4	0xbfc57cd8	-1.5428724
5	0xbd99733e	-0.07492684
6	0xbfc7df1b	-1.5614961
7	0xbd799e04	-0.06094171
8	0xbea1bab4	-0.31587756
9	0x3b74686b	0.0037293683
10	0xbd9a91f6	-0.07547371
11	0x3f544eaf	0.8293256
12	0xbdce70e1	-0.10080124
13	0x3d9f1819	0.07768268
14	0xbde8f84b	-0.11375483
15	0xbd946646	-0.072460696
16	0xbd256f37	-0.040389266
17	0xbf3e84f3	-0.74421614
18	0xbd93c876	-0.07215969
19	0xbe1cfcb6	-0.15330777
20	0xbd88c67d	-0.06678484
21	0xbd4154a1	-0.04719985
22	0xbd64f043	-0.055893194
23	0xbd2c284f	-0.04203063
24	0xbd34d3d8	-0.044147342
25	0xbd437f51	-0.04772884
26	0x3d84eaea	0.06490119
27	0xbd168e9e	-0.036757104
28	0xbddcd092	-0.10781969
29	0x3ff89e47	1.9423302
30	0xbd43b471	-0.047779504
31	0xbd7313cc	-0.05934505
32	0xbc9435d6	-0.018092077
33	0xbde470eb	-0.1115435
34	0xc0a5f70c	-5.186407
35	0xbd651feb	-0.055938642
36	0xbd980efe	-0.074247345
37	0x3f74292b	0.9537532
38	0x3ce09611	0.027415307
39	0xbd7eaa34	-0.062174037
40	0xbed2588e	-0.41083187
41	0xbda97997	-0.082751445
42	0x3f93dd34	1.1551881
43	0xbd491d99	-0.049100492
44	0xc087eb36	-4.2474623
45	0xbd85440d	-0.0650712
46	0xbd62dc3b	-0.05538581
47	0xbd44d261	-0.048052195
48	0xbd8ae706	-0.067823455
49	0xbd5749ba	-0.052560546
50	0xbd62cfbb	-0.05537389
51	0xbc7313cc	-0.014836263
52	0x3cdc7219	0.026909875
53	0xbd12be0e	-0.03582578
54	0xbd409dd1	-0.047025505
55	0xbcb17878	-0.02166389
56	0xbd0f6375	-0.03500696
57	0xbdbf1a50	-0.093311906
58	0xbd3606e0	-0.04444015
59	0xbd04329d	-0.03227483
60	0x3f4d8ed4	0.80296063
61	0xbd070865	-0.03296699
62	0x3f48f992	0.78505814
63	0xbdb0bdc0	-0.08629942
64	0xbfee5f6e	-1.8622873
65	0xbd1357f6	-0.035972558
66	0xbdd64272	-0.10461892
67	0xbd5699f2	-0.052392907
68	0x3fa7e8b9	1.3117896
69	0xbccef999	-0.025265502
70	0xbda1785f	-0.07884287
71	0xbfa9885a	-1.3244736
72	0xbdf1d124	-0.118074685
73	0xbd69f0bb	-0.057114344
74	0xbdb1cb48	-0.08681351
75	0xbdb9e968	-0.09077722
76	0xbcb7c9a8	-0.022435024
77	0xbd8746e5	-0.06605319
78	0xbd981e9e	-0.07427715
79	0xbdb51000	-0.088409424
80	0xbce82623	-0.028338498
81	0x3e3aff5c	0.18261474
82	0xbd077ccd	-0.033078004
83	0xbcfc25ac	-0.030779682
84	0xbd0a29f5	-0.03373142
85	0x3b1f50cd	0.0024309636
86	0xbd850c95	-0.064965405
87	0xbdeeddab	-0.116633736
88	0xbdb1ece0	-0.086877584
89	0xbf04408f	-0.5166101
90	0x3e331ed1	0.17492224
91	0x3f1aa9c7	0.6041531
92	0xbd9966be	-0.074903
93	0xbd74e4a4	-0.05978836
94	0xc0081078	-2.1260052
95	0xbdd74cda	-0.10512705
96	0xbe926027	-0.28588983
97	0xbdcaf321	-0.099096544
98	0x3f1584cb	0.5840575
99	0xc090e43d	-4.527861
100	0xbc1f796e	-0.009733541
101	0x3f58eb95	0.8473447
102	0xbcfa42dc	-0.03054946
103	0xbd323bc8	-0.043514043
104	0xbfd2c5ee	-1.6466653
105	0x3ff035f2	1.8766463
106	0xbcfa71bc	-0.03057181
107	0x3dbb59d0	0.0914799
108	0xbd70acf4	-0.05875869
109	0xbd7e8194	-0.062135294
110	0xbe37c37c	-0.17945665
111	0xbdab65c7	-0.08369022
112	0xbdc730a1	-0.09726072
113	0xbc93766e	-0.018000808
114	0xbb0ec4dd	-0.002178482
115	0xbdf5383c	-0.119736165
116	0xbd0bbd15	-0.03411587
117	0xbe06577e	-0.13119313
118	0xbca824f7	-0.020525439
119	0xbdb63e58	-0.0889861
120	0xbd9937de	-0.07481359
121	0xbe99252b	-0.2991117
122	0xbdb1b248	-0.086765826
123	0xc0259ac4	-2.5875711
124	0xbdb1af28	-0.086759865
125	0xbf7baaab	-0.98307294
126	0xbc5d7952	-0.013517695
127	0xbd7930a4	-0.060837403
128	0xbd9aea3e	-0.075642094
129	0xbcbc7a70	-0.023007601
130	0xc01e7ba6	-2.476297
131	0xbda13b6f	-0.07872664
132	0xbd5ef9b2	-0.054437347
133	0x3ee888d1	0.45416883
134	0xbd3c6940	-0.04599881
135	0xbf5dd5cc	-0.86654353
136	0xbd6d1952	-0.057885475
137	0xbd0e18fd	-0.0346918
138	0xbc5c4199	-0.013443374
139	0xbd0599fe	-0.03261756
140	0xbd2fe2fe	-0.042941086
141	0xbd459f11	-0.0482474
142	0xbd85d23d	-0.065342404
143	0xbffc30eb	-1.9702429
144	0xbd4e4cf1	-0.050366346
145	0xbd6033c3	-0.054736864
146	0x3f676e06	0.9040226
147	0xbd4e0ce1	-0.05030525
148	0xbd5dedba	-0.05418179
149	0x3cd44914	0.025913753
150	0xc06c096d	-3.6880753
151	0x3a7db41b	0.0009678022
152	0xbd7f9494	-0.062397555
153	0xbd0b16ad	-0.033957172
154	0xbd0066ef	-0.031348165
155	0xbe9199de	-0.28437704
156	0x3ea95be6	0.33077925
157	0xbe55aa1a	-0.2086567
158	0xbd9746fe	-0.073865876
159	0xbc4c9b59	-0.01248821
160	0xbd5396da	-0.051657535
161	0xbde58c83	-0.11208441
162	0xbd899bc5	-0.06719164
163	0xbd87f2c5	-0.066381015
164	0xbd487f01	-0.048949245
165	0xc002ecb5	-2.0456975
166	0xbd4393b0	-0.047748268
167	0xbde9d30b	-0.114172064
168	0x3f2394b1	0.6389876
169	0xbd2dd217	-0.042436685
170	0xbdacbbf7	-0.08434289
171	0xbcf519c4	-0.029919513
172	0xbd132aa6	-0.035929345
173	0xbd95b7c6	-0.073104426
174	0x3f132583	0.57479113
175	0xbf003436	-0.5007967
176	0xbd8c475d	-0.06849549
177	0xbc378678	-0.011201493
178	0xbd3ea2c8	-0.04654196
179	0xbd84c25d	-0.06482384
180	0xbd19dd7e	-0.037564747
181	0x3fa4f01e	1.2885778
182	0xbde3d3e3	-0.111243986
183	0xbd856a55	-0.06514422
184	0xbdcdb179	-0.10043616
185	0xbd11f15e	-0.035630576
186	0x3fae3ded	1.3612648
187	0xbeb493c8	-0.35268998
188	0x3f49bb23	0.7880117
189	0x3f52970b	0.82261723
190	0xbd91fea6	-0.071286485
191	0xbd0b41a5	-0.03399815
192	0xbb594332	-0.0033151624
193	0xbf66b690	-0.9012232
194	0x3dd150ad	0.10220466
195	0xbdbded88	-0.09273821
196	0xbd09a13d	-0.033601034
197	0xbdcdacc9	-0.10042722
198	0x3f1e044e	0.6172532
199	0xbd848bad	-0.064719535
200	0xbcd6b612	-0.026209865
201	0xbd9b4e3e	-0.07583283
202	0xbd9aa4b6	-0.07550947
203	0x3f4c7b50	0.7987566
204	0x3f8d473a	1.1037362
205	0x3f2f5112	0.6848308
206	0xbdca9499	-0.09891624
207	0xbd42df29	-0.047576103
208	0xbcbaa420	-0.022783339
209	0xbd96b73e	-0.073591694
210	0xbd924fe6	-0.07144146
211	0xbda743f7	-0.0816726
212	0xc0046817	-2.0688531
213	0xbd6c058b	-0.057622474
214	0xbd12988e	-0.03579002
215	0xbc0e8c9d	-0.008700517
216	0xbd9a4246	-0.07532172
217	0xbf9e2dcd	-1.2357727
218	0xbd11c1b6	-0.035585128
219	0xc0725a75	-3.786771
220	0xbd1d0166	-0.03833141
221	0xbd4de8f1	-0.05027098
222	0xbf67ee9c	-0.90598464
223	0xc00ad760	-2.1693954
224	0xbeac0898	-0.33600307
225	0xbf84d8ef	-1.0378703
226	0xbd8ab505	-0.06772808
227	0x3f00cd66	0.50313413
228	0x3f4ca41e	0.7993792
229	0xbda680a7	-0.08130007
230	0xbd3ffe70	-0.04687351
231	0xbd9b6b26	-0.07588796
232	0xbe155dda	-0.14586583
233	0xbae22e03	-0.0017256144
234	0xbda1834f	-0.07886373
235	0xbcef640b	-0.029222509
236	0xbd8702ed	-0.06592355
237	0xc017bbfa	-2.3708482
238	0xbdcb22c9	-0.09918744
239	0xbcec7ea3	-0.028868979
240	0xbd802743	-0.062574886
241	0xbe5b9cc2	-0.21446517
242	0xbdd7450a	-0.10511215
243	0xbdacc16f	-0.08435332
244	0x3f7c974a	0.9866835
245	0xbd49e599	-0.049291227
246	0xbdcdfe09	-0.10058219
247	0xbd47a761	-0.04874361
248	0xbcff8044	-0.031189092
249	0x4013e6a6	2.3109527
250	0xbcb206a7	-0.021731688
251	0xbd3314f8	-0.04372117
252	0xbc0475cd	-0.0080847265
253	0xbc5b654a	-0.013390848
254	0x3f7d6b1e	0.9899157
255	0xbd74b9ac	-0.059747383

4.weight f4 [1, 300]
0	0xbecab37f	-0.3959007
1	0x3b98473d	0.004647164
2	0xbcef6023	-0.029220646
3	0xbf021655	-0.50815326
4	0x3e8318cf	0.25604865
5	0x3c98059e	0.018557366
6	0x3e8db3b9	0.2767618
7	0xbc39ed4f	-0.011348083
8	0xbeaca1bc	-0.33717144
9	0xbc7a7a54	-0.015287954
10	0x3b13b5b5	0.0022538726
11	0xbf16acab	-0.5885722
12	0xbbade72f	-0.0053071002
13	0xbe75f1d0	-0.24018025
14	0x3bfb0883	0.007660927
15	0x3b4f3818	0.0031619128
16	0xb785b93d	-1.5941094e-05
17	0x3ec1528b	0.37758288
18	0x3ccfe718	0.025378749
19	0x3cb242d0	0.021760374
20	0xbc161e1d	-0.009162453
21	0xbb27aca6	-0.0025585084
22	0xbcb857d8	-0.022502825
23	0xbd33b908	-0.04387763
24	0xbd1b5546	-0.03792312
25	0xbb1a6e05	-0.0023564112
26	0x3ff3fd42	1.9061663
27	0xbc30e660	-0.010797113
28	0xbcd623fa	-0.026140202
29	0x3f336863	0.70081156
30	0x3ca4e35f	0.02012795
31	0x3c4886d0	0.012239173
32	0x3c877a75	0.016537884
33	0x3c0db68d	0.0086494805
34	0xbf0ccbd4	-0.5499852
35	0xbcc356b1	-0.023845049
36	0x3c3d1778	0.01154124
37	0x3e8ea58c	0.27860677
38	0x3f3dd273	0.74149245
39	0xbbc789b1	-0.006089412
40	0x3e71bd36	0.23607334
41	0x3b53b551	0.0032304118
42	0xc14907eb	-12.564433
43	0x3bbb2827	0.0057115736
44	0xbf0ce1c0	-0.5503197
45	0x3ca48b16	0.020085853
46	0x3c294dd7	0.0103335
47	0xbc7373e4	-0.014859173
48	0x3b4bbf08	0.0031089205
49	0x3d016955	0.031594593
50	0xbc167666	-0.009183502
51	0xbb65ae1a	-0.00350464
52	0x3f343e5a	0.7040764
53	0xbcc5e309	-0.02415611
54	0x3d0e6975	0.03476854
55	0xb9b15937	-0.0003382654
56	0x3c87209d	0.016495043
57	0x3ce03deb	0.027373275
58	0x3bdc3a92	0.0067208493
59	0x3afd533c	0.0019327174
60	0x413aa6de	11.665739
61	0x3bf1b1e3	0.007375942
62	0x3e867dee	0.26267952
63	0x3cd1b8ba	0.02560078
64	0x3f052850	0.52014637
65	0x3bb0be88	0.005393807
66	0x3b7fd4a3	0.0039036653
67	0xbc0649c4	-0.008196298
68	0xc09ffaee	-4.999381
69	0xbcdc2961	-0.0268752
70	0xbadaeb69	-0.0016702238
71	0x3fbf72b6	1.4956882
72	0xbcc74429	-0.024324493
73	0x3d017444	0.03160502
74	0x3bc3cd71	0.0059754183
75	0x3d15af2e	0.036544017
76	0x3c8a11bd	0.016854161
77	0xbd06acfd	-0.03287982
78	0x3c312737	0.010812572
79	0xbc9735ce	-0.018458273
80	0x3c5940da	0.013260091
81	0x3f7f8b3d	0.99821836
82	0x3b9a2626	0.0047042547
83	0x3d046ba5	0.03232922
84	0x3cc75879	0.02433418
85	0x3c07eedd	0.008296696
86	0x3c5a5311	0.013325469
87	0x3cb68c77	0.022283776
88	0x3d0ee73c	0.03488849
89	0x3f4e928f	0.8069238
90	0x3e882bd9	0.26595953
91	0xbeaa2a88	-0.33235574
92	0x3c909d86	0.017653238
93	0xbbf689bb	-0.007523743
94	0xbef7db39	-0.4840944
95	0x3b9bbc66	0.0047526835
96	0xbe6d65e6	-0.23183402
97	0x3cb86070	0.022506922
98	0x41eedc9d	29.857721
99	0x3ea4b90a	0.32172424
100	0xbd0d140d	-0.03444295
101	0x3f0ef1c9	0.55837685
102	0xbc098e7c	-0.008395787
103	0x3c90a236	0.017655473
104	0xbf3a8c81	-0.7287064
105	0xc0902048	-4.5039406
106	0xbb60ea92	-0.0034319502
107	0xbed0fb74	-0.40816844
108	0xbcd91db2	-0.026503418
109	0xbca2c07e	-0.019867178
110	0x3e871d4c	0.2638954
111	0x3c383c80	0.011244893
112	0xbcb87c90	-0.022520334
113	0xbba84d97	-0.0051362026
114	0xb7cc0a09	-2.4323368e-05
115	0x3b88721c	0.0041639935
116	0xbca83d2f	-0.020536987
117	0xbfa19d62	-1.2626154
118	0x3c166536	0.009179404
119	0xbc4f8a21	-0.01266721
120	0x3ca24447	0.019807948
121	0x3df131f2	0.117771044
122	0x3b5df7e2	0.0033869673
123	0x3f915091	1.1352712
124	0xbd332a0f	-0.043741282
125	0xbe3c3722	-0.18380406
126	0x3b30e727	0.0026993246
127	0xbcc0c4e1	-0.02353138
128	0xbc0e7e8d	-0.008697164
129	0xbb59d6d9	-0.0033239631
130	0xbe846d41	-0.25864604
131	0x3b01016d	0.0019684688
132	0xbc7ed20c	-0.015553009
133	0xbed5eb5c	-0.41781127
134	0x3aa3e63e	0.0012504531
135	0xbedc07df	-0.42974755
136	0xbc9582a6	-0.018250775
137	0x3c2934d6	0.0103275385
138	0xbcac491e	-0.021030959
139	0x3c88992d	0.016674602
140	0xba4d6f10	-0.0007836679
141	0xbc8dcba5	-0.01730902
142	0xbac3f869	-0.0014951351
143	0xbe8606fd	-0.26177207
144	0xbcbd3528	-0.023096636
145	0x3ce35aca	0.027753253
146	0x3f406b99	0.7516418
147	0x3c058675	0.008149733
148	0x3cb4d568	0.022074416
149	0x3eb9bd1c	0.36277092
150	0x3f231c95	0.6371549
151	0x3b2680a6	0.002540627
152	0xbc5cf7a2	-0.013486775
153	0x3c39f200	0.011349201
154	0x3c1c4f45	0.009540384
155	0xc05c3db1	-3.4412653
156	0x4158c249	13.547433
157	0xba134b76	-0.00056188495
158	0xbc3da288	-0.011574395
159	0xbca46a47	-0.020070208
160	0x3b12ee7d	0.0022419982
161	0x3c592a31	0.013254688
162	0x3cce74c9	0.025202172
163	0xbc4a77b1	-0.012357638
164	0xbc93d74d	-0.018047
165	0xbf0ff158	-0.56227636
166	0x3e990333	0.29885253
167	0x3e30631f	0.17225312
168	0xbec66dd7	-0.38755676
169	0xbc7e6e0c	-0.015529167
170	0xbab37da8	-0.0013694065
171	0x3bf5d093	0.0075016706
172	0xbbf4d8eb	-0.0074721477
173	0xbcb17238	-0.021660909
174	0x3f205fbb	0.62646073
175	0xbea85a35	-0.32881323
176	0x3ca91ef7	0.020644648
177	0x3b82ca75	0.00399142
178	0x3ab22db8	0.0013593948
179	0xbb9978b5	-0.004683579
180	0xb81f250e	-3.7943064e-05
181	0xbf0de10d	-0.55421525
182	0x3c4ad890	0.012380734
183	0x3b088414	0.0020830678
184	0x3c6bd1fb	0.014393325
185	0x3ca03cbf	0.019560216
186	0xbf0835bf	-0.5320701
187	0xbad4c6c2	-0.0016233551
188	0xbe7c7035	-0.24652179
189	0xbe71a7e4	-0.23599201
190	0x3c9ca086	0.019119512
191	0xbbdd6a7a	-0.0067570778
192	0xbd022b15	-0.031779367
193	0xbef87d6c	-0.4853319
194	0x3f1f67f7	0.6226801
195	0x3ca3c24f	0.019990114
196	0xbd03e79d	-0.032203306
197	0x3c90b686	0.017665159
198	0x3dd35193	0.103182934
199	0xbbffaa74	-0.007802302
200	0x3d122d85	0.035687942
201	0xbbedcdca	-0.007257198
202	0x3ca03fdf	0.019561706
203	0xc0824414	-4.0708103
204	0xbec34579	-0.3813894
205	0xbf4b47a7	-0.7940621
206	0x3b5edcca	0.0034006112
207	0x3c00af64	0.007854316
208	0x3c18cb46	0.009325808
209	0x3beaa853	0.007161179
210	0xbb93013d	-0.0044862316
211	0x3c7d1ee4	0.015449259
212	0xbf3e5ea8	-0.74363184
213	0xbd26334f	-0.040576275
214	0x3cb30c60	0.021856487
215	0x3c820bd5	0.015874783
216	0xbcfae3cc	-0.0306262
217	0xbe677b02	-0.22605518
218	0x3bc17958	0.005904358
219	0xbe605d4d	-0.21910591
220	0xbc9a1bfe	-0.018812176
221	0x3c064e74	0.008197416
222	0x3f17c51f	0.5928516
223	0xbf0361c7	-0.5132107
224	0xbed87233	-0.42274627
225	0xbdf12083	-0.11773779
226	0x3b856b1c	0.0040716063
227	0xbec3f551	-0.382731
228	0x3eae97ae	0.34100097
229	0x3ca3d37f	0.01999831
230	0x3cbc23b7	0.022966249
231	0xbcb3c3f8	-0.021944031
232	0x3dbe20f3	0.09283628
233	0xbc6a5faa	-0.014305035
234	0x3ca0736f	0.019586293
235	0xbce1220b	-0.027482053
236	0xbb77d114	-0.003781383
237	0x3ea4c50f	0.32181594
238	0xbd516a9a	-0.051127054
239	0xbbf6c38c	-0.007530635
240	0xbcd2711a	-0.025688697
241	0xbc6df66b	-0.014524083
242	0x3cfd29d4	0.030903734
243	0x3bcf19a0	0.0063201934
244	0x3fc8600a	1.5654309
245	0x3ce4fd8a	0.027952928
246	0xba257ed6	-0.00063131505
247	0xbb0a8d2d	-0.0021141276
248	0xbda05817	-0.07829302
249	0x3fa738cf	1.3064212
250	0x3d0ef9fd	0.034906376
251	0x3c3c2d18	0.011485361
252	0x3d4fc199	0.05072174
253	0xbc3b8a97	-0.011446617
254	0xc14f14a5	-12.94254
255	0x3d03e544	0.032201067
