results/c_0_0/c_0_1_from_0_2/290094_except/target_q_func1.pt (torch, 502309 bytes, 5 tensors)

1.weight f4 [400, 10]
000000 4e 6c 4f bf 69 ec f4 bf ad 98 c3 3f d0 51 a6 bf
       -0.81024635 -1.9134647 1.5280968 -1.2993717
000010 df 9c fd 3e bb cc 2a c0 c1 b5 05 3f b9 7a 40 3f
       0.49533746 -2.6687458 0.5223046 0.7518726
000020 3c d7 4b bf d1 7c 8f be 11 d5 3b 41 ca 78 0c c1
       -0.79625297 -0.28024915 11.739518 -8.7794895
000030 4c f3 6f be 9c df 38 c0 da 18 61 c0 ab 6a eb 3d
       -0.23432654 -2.888648 -3.5171418 0.11494955
000040 ed a5 58 c0 c5 32 7f be 9a a4 68 c0 bf fe 3d 3c
       -3.3851273 -0.24921711 -3.6350465 0.011596381
000050 84 02 78 c0 f4 c7 4c 3f 85 3b 3d c0 f4 69 ea 40
       -3.8751535 0.79992604 -2.9567578 7.3254337
000060 e3 94 31 c1 c4 a8 22 bf 82 31 aa 3e ef 50 ab bc
       -11.098849 -0.63538766 0.33240896 -0.020912616
000070 12 9d 4d 3e b7 3e 15 bd 7d 81 67 c0 b7 83 cc bf
       0.20079449 -0.036436763 -3.6172783 -1.5977696
000080 ad ec 8e 40 30 eb 41 3f ab af 67 40 52 8f a5 3f
       4.466391 0.7574949 3.620097 1.2934363
000090 af 10 04 3e c0 87 84 3e b9 6e 4b bf cb e3 c4 3d
       0.1289699 0.2588482 -0.79465824 0.096137606
0000a0 92 33 22 41 07 81 f8 bf b2 24 e2 3f 4a ba f8 bf
       10.13759 -1.9414376 1.7667449 -1.9431851
0000b0 ea c6 23 40 4a c2 15 3f 1d b4 6d bf 3a 0a d0 3c
       2.5590158 0.58499587 -0.92852956 0.025395501
0000c0 ff cb 1e 3f 81 73 5d 3d 36 5b 17 40 ca 91 cb 40
       0.62030023 0.05406523 2.364942 6.3615465
0000d0 b5 cf 81 c0 92 c7 30 40 50 8c 52 be d2 2d 17 bf
       -4.056605 2.7621808 -0.20561337 -0.5905429
0000e0 5a 92 4a c0 56 ce d4 bc f1 50 d4 bf b2 98 67 bd
       -3.1651826 -0.025977295 -1.6587201 -0.056542106
0000f0 9b 0a 4d 40 56 c5 ee 3f a8 a3 2f c0 7a 8e b2 c0
       3.2037723 1.8653972 -2.7443638 -5.579892
000100 97 d8 18 c1 53 92 ca be de a9 77 bf bd e6 4e 3e
       -9.552878 -0.39564762 -0.9674357 0.20205207
000110 9b 9f 85 bf 86 10 ba bc cc 5f a8 c0 26 85 ab 3f
       -1.0439333 -0.022712957 -5.261694 1.3400009
000120 ee fb 19 40 20 24 fa 3e 3a 30 0d c0 0c f8 97 c0
       2.4060016 0.48855686 -2.2060685 -4.749029
000130 73 f2 82 c0 11 8f 22 3e 64 bf 8e c0 3f 3b f1 be
       -4.092096 0.15874888 -4.460863 -0.47115514
000140 cb a3 07 40 2a b9 89 3f ff 58 32 c0 03 1d e1 be
       2.1193721 1.0759633 -2.786682 -0.43967447
000150 b5 ed e1 3f 34 8e 18 41 d4 eb f5 c0 26 39 68 bd
       1.7650667 9.534718 -7.6850376 -0.056695126
000160 67 58 1d bd 1e 4c 83 3f 54 8a be c0 f4 f1 f7 3f
       -0.038414385 1.0257604 -5.9543858 1.9370713
000170 52 cc 5b be 40 cf 66 c1 4c e1 36 bf e4 f4 1b bb
       -0.21464661 -14.425598 -0.71437526 -0.002379709
000180 4d bf a4 3e 34 26 36 be d8 6a 62 3d a4 f9 7f ba
       0.321772 -0.17788011 0.055277675 -0.00097646774
000190 c1 3f f8 c0 02 6f ae 40 a3 ca 36 bf 1a 6a eb c0
       -7.7577825 5.4510508 -0.7140295 -7.356702
0001a0 b7 16 11 40 16 b2 cb be 9b 86 65 c0 30 e6 81 be
       2.2670114 -0.39784306 -3.5863407 -0.25370932
0001b0 6c e1 38 c0 06 92 9c bc 29 af 70 40 ac ff 54 bf
       -2.8887587 -0.019112598 3.760691 -0.83202624
0001c0 6a f9 96 40 e9 b4 83 3f e0 69 ac 40 84 43 7c 3f
       4.717946 1.0289584 5.387924 0.9854052
0001d0 b4 83 2f bf ce a0 95 bd 21 f5 61 be 76 5c 9a 3d
       -0.6856034 -0.07306062 -0.22066166 0.07537167
0001e0 4c d5 c9 c0 9f 1e ad c0 33 fa f7 be 08 74 41 c0
       -6.307287 -5.409988 -0.48433074 -3.022707
0001f0 fd a0 92 c0 d6 dd d9 bc 0c 54 9b 3f d0 68 b7 3e
       -4.582152 -0.026595037 1.2135024 0.35822153
000200 bb 1f 0f 3d 25 80 29 3b eb fd 90 bf bd 7d 84 3e
       0.03494237 0.0025863734 -1.132749 0.2587718
000210 42 a0 b4 bf 35 46 c8 40 c2 3c 66 c0 d5 91 8d be
       -1.4111407 6.25857 -3.5974584 -0.27650324
000220 91 7b ee 3e 2b af ab 3e cd aa b6 bf f1 8f 1f bc
       0.4657865 0.3353208 -1.4270874 -0.009738908
000230 da f9 de 40 14 ee 1e c0 73 1e b3 3f 53 11 16 41
       6.9679995 -2.4832811 1.3993667 9.37923
000240 71 fd 94 bd e4 32 80 3f c6 37 33 c0 9f a6 a1 3f
       -0.072749026 1.001553 -2.8002791 1.2628974
000250 15 99 a5 bf 3b 60 a2 3d 33 4a 07 3f ea 93 19 3f
       -1.2937342 0.07928511 0.52847594 0.59991324
000260 7f 7b 16 bf 50 da 3b c1 61 77 84 3f ac 6a fe 3d
       -0.5878219 -11.740799 1.0348932 0.1242269
000270 ce a7 8b c0 76 62 98 3f 2c 11 c5 bd e5 16 e4 3b
       -4.364234 1.1905048 -0.09622416 0.006960737
000280 86 c3 d3 bf 53 2d 4d 40 bd 42 25 3f 45 cd c4 3e
       -1.6544044 3.2058914 0.6455496 0.38437858
000290 81 31 a9 41 83 a4 5b 3e 83 a0 11 c1 5a c3 ad be
       21.149172 0.21449475 -9.101687 -0.33938104
0002a0 a4 87 ea 36 91 3c 3c 3d 76 8d ba 3f 49 6d 0b c0
       6.989534e-06 0.045956198 1.457442 -2.1785452
0002b0 22 0e 2d 3d 93 d3 81 3f 48 69 84 c1 42 bf ce bd
       0.042249806 1.0142692 -16.551407 -0.10095073
0002c0 c3 e0 34 3d 9e 08 32 3e 2b f2 66 3e 4b 61 20 bc
       0.044159662 0.173861 0.22553317 -0.009788821
0002d0 06 0b 51 40 25 e3 0a 40 39 67 da c0 fb 07 da 3f
       3.2662978 2.1701138 -6.8251004 1.7033685
0002e0 4c 1b 8e 40 b9 ac ca bf 6f 0c ad c0 24 12 b6 3e
       4.440832 -1.5833961 -5.407768 0.35560715
0002f0 8d 6b e5 3e 0c 08 8e bd cd d5 b1 3f be 0d b0 c0
       0.44808617 -0.069351286 1.3893372 -5.5016775
000300 03 09 be 3e 64 72 20 bc ee f3 5c c1 76 a4 2e 3f
       0.3711625 -0.009792898 -13.809553 0.682197
000310 6c 6f bf 3e a5 57 58 c0 ca 8c 50 bd 9d 55 84 3d
       0.37389696 -3.3803494 -0.050915517 0.06461642
000320 1f 22 a4 40 ee 7b fa c0 1a 86 52 3e ab e4 1f c1
       5.129165 -7.827628 0.20558968 -9.993327
000330 df 0d c7 bf f7 e7 aa 3d fb 7d 89 3e 99 5a 8d bc
       -1.5551108 0.08345025 0.26853928 -0.017255114
000340 99 a4 46 bc 55 5f 03 3c 53 08 eb c0 70 58 d3 c0
       -0.012124204 0.008018334 -7.344766 -6.6045456
000350 f3 8a 88 3e 99 e3 44 c1 0a ef 2a c0 8d 32 1c 3e
       0.2666851 -12.305566 -2.6708398 0.15253659
000360 ed 29 a2 3f e1 4e d6 3f 1b 06 65 3d 08 8d b1 3c
       1.2669045 1.6742822 0.055914026 0.021673694
000370 62 42 21 c0 c9 e5 c1 40 fd 28 ee bf f1 4d 03 bf
       -2.5196767 6.0593 -1.8606259 -0.51290804
000380 fb e6 48 40 f6 60 e2 be df 7d 94 be dc e5 05 3f
       3.139098 -0.442146 -0.29002282 0.5230386
000390 54 dd 19 bf 26 88 e4 bc 88 c8 fe bf d8 42 1d c0
       -0.60103345 -0.027896952 -1.9904947 -2.4572048
0003a0 bf ea 9b be 2f 57 0d c1 b5 cb 98 c1 68 f4 b2 3d
       -0.30452535 -8.833785 -19.099466 0.08738023
0003b0 43 e1 ee 3e 5b 6e 84 3e 33 95 6a 3c 27 bc 95 3c
       0.46656236 0.25865445 0.014317798 0.018278195
0003c0 f4 ad 92 40 5a ad 6a c0 d9 e7 44 be dc 5a 9e 3f
       4.5837345 -3.6668305 -0.19229068 1.2371478
0003d0 7a e1 11 41 6e 4b ac be 16 dd ae be 81 02 09 3f
       9.117548 -0.33651298 -0.3415305 0.53519446
0003e0 33 21 7e be a3 c7 14 bd c5 e4 bf c0 e9 14 82 3e
       -0.24817352 -0.0363232 -5.996676 0.25406578
0003f0 35 91 72 3f 9e c9 2c 41 b3 b5 0c 3c 2c 5b f4 3e
       0.9475282 10.799223 0.008588242 0.4772581

1.bias f4 [400]
000000 7b 00 9c bf 06 00 6c 3e ef 2c 03 3f 51 34 2d bf
       -1.2187647 0.23046884 0.5124044 -0.67657954
000010 bb 14 d1 bf f0 77 83 be e6 a8 90 be c2 3f ca be
       -1.6334451 -0.25677443 -0.2825386 -0.39501768
000020 c8 75 ff 3c cd 60 e9 3e ce 8b bc bd e6 a2 9e bf
       0.031184092 0.45581666 -0.09206353 -1.2393463
000030 03 db 55 3f 1e 90 40 be ad 1f bf bf f8 c7 ac bf
       0.8353731 -0.18804976 -1.4931542 -1.3498526
000040 82 7a a0 be f0 1c 38 3d d2 b9 c5 3e b7 49 06 3f
       -0.31343466 0.044949472 0.38618332 0.5245623
000050 34 d9 a3 3e f4 7a 07 bf e3 0a 82 bf ff 04 0a 3f
       0.3200165 -0.52921987 -1.0159572 0.53913873
000060 37 f3 70 3d ea 09 5e 3d db bd 69 bf ad a4 6d 3f
       0.058825698 0.054208674 -0.9130532 0.928294
000070 83 0f f2 bf 6a 49 19 bd b8 45 97 be 31 82 c2 bf
       -1.8910984 -0.03742353 -0.2954538 -1.5195981
000080 18 0e 95 bf 11 17 ad be b5 74 89 be f3 2c 62 bf
       -1.1644926 -0.3380666 -0.26846853 -0.8834984
000090 cb 4f bd be c3 96 0b be 68 fb 18 3f d3 06 20 be
       -0.3697494 -0.1363173 0.59758615 -0.15627603
0000a0 7e fe 00 bf 43 5b 4f 3c f6 8a 14 bf 10 d8 06 bf
       -0.50388324 0.012656036 -0.5802454 -0.52673435
0000b0 6f cc a6 be e1 98 b4 bf 55 f5 8b be 0d 01 12 bf
       -0.32577845 -1.4109155 -0.2733561 -0.57032853
0000c0 ee bf 14 bf 2d 27 b0 be d8 c1 7a bf 4f 8b 96 bf
       -0.5810536 -0.3440489 -0.9795203 -1.1761264
0000d0 14 b9 e7 bd d8 ad 02 3e 78 a5 97 bd 3b e7 82 3e
       -0.11314598 0.12761629 -0.074046075 0.2556704
0000e0 93 0a a1 bf 39 89 04 3f b9 47 e1 bf 99 49 ba bf
       -1.2581352 0.51771885 -1.7600013 -1.455371
0000f0 39 8f 00 bd 40 d8 c6 be 2c ed db bf 94 ed f1 be
       -0.031386588 -0.3883686 -1.7181754 -0.4725157
000100 e7 dc 2c c0 ca 8b b6 bf a4 1c 79 3e bc e2 32 bf
       -2.7009828 -1.426141 0.24327332 -0.6987722
000110 4e ef 03 bf 8c ff 4c 3f 05 48 52 bf c7 42 40 bf
       -0.51537025 0.80077434 -0.82141143 -0.75101894
000120 e2 4d 0f c0 ed 5f 70 bf 0f 80 ad be 4e 78 87 be
       -2.2391286 -0.9389637 -0.33886763 -0.26458973
000130 7f 98 1c bf ec a2 ca be ef 21 96 3e eb 70 5e be
       -0.6117019 -0.39577425 0.29322764 -0.21722762
000140 22 c0 76 bf 34 d1 90 bf 78 bc 83 be 04 19 68 bf
       -0.9638692 -1.1313844 -0.25729728 -0.9066317
000150 f1 45 4b bf 90 3d b6 be 25 10 96 be 42 ab a7 bf
       -0.794036 -0.35593843 -0.29309192 -1.3099139
000160 06 ae ad bd da f0 23 3f a5 79 57 be ae 66 9f be
       -0.08480458 0.64039385 -0.21042497 -0.31133026
000170 45 99 64 bf 02 0f 03 c0 01 db e1 be 33 05 66 be
       -0.8929637 -2.047791 -0.441124 -0.22462921
000180 5e 6d dd be 61 23 31 bf 2f b9 16 bf 6f 8b 5c bf
       -0.43247503 -0.6919461 -0.5887632 -0.8615026
000190 8a f4 75 bf a0 54 9a 3d 1c bb 9e bf d0 2c 1b be
       -0.9607626 0.07535672 -1.2400851 -0.15153813
0001a0 4b 73 7e bf 79 09 91 3e 9d 1d 22 c0 5e 77 1c 3d
       -0.99394673 0.2832754 -2.5330575 0.038199775
0001b0 d4 09 b7 be a1 6b 4a bf 29 2b 94 ba ac b0 de 3e
       -0.35749686 -0.7907048 -0.0011304367 0.43494165
0001c0 34 e6 c5 bf b0 37 37 3e f5 41 1b bf db 14 18 bf
       -1.5460877 0.17892337 -0.6064752 -0.5940682
0001d0 68 6b 19 3f 5f 08 14 bd fb 44 15 be e7 05 af be
       0.59929514 -0.036140796 -0.14577095 -0.3418419
0001e0 53 c5 f5 be 9e 22 11 c0 41 02 cd be b6 fc 29 be
       -0.4800211 -2.2677379 -0.40040782 -0.16600308
0001f0 09 96 82 be 36 5a 26 bf 9a 99 c8 bf a8 6e 19 3f
       -0.25505093 -0.649814 -1.5671875 0.59934473
000200 0f ed c7 bf 4f 87 4e be 80 aa 21 bf d5 3e 28 3e
       -1.561922 -0.20168804 -0.6315079 0.16430219
000210 04 c1 bf 3e ab 97 bb be 41 64 3d bf 48 4e ec 3d
       0.37451947 -0.3663915 -0.739811 0.115383685
000220 eb d2 4e bf 5a 9f dc be 31 aa b0 bf f8 55 bd be
       -0.80790585 -0.43090326 -1.3801938 -0.3697965
000230 e6 97 9f be 2e 8b f4 3d 9e 25 a0 be 46 57 f0 bf
       -0.31170577 0.11940609 -0.312787 -1.8776634
000240 6c 26 7f be 06 17 f4 be d7 3a c6 bf 98 aa 61 bf
       -0.24917 -0.47673815 -1.5486706 -0.8815093
000250 14 53 d2 3e 51 c5 23 bf 45 d4 98 be 59 ed 82 bf
       0.4107901 -0.63972956 -0.2984945 -1.0228683
000260 38 55 1b bf 84 e8 7f 3e 77 d2 14 3e 01 4f 0a c0
       -0.6067691 0.24991041 0.14533411 -2.161072
000270 6b 32 bd bf 7a 00 0e 3f 46 c1 43 3f 82 7e a5 bf
       -1.4781011 0.5546948 0.76466787 -1.2929232
000280 70 9b 41 3d c1 c4 08 bf 3a 6f 8d bf 40 14 b1 bf
       0.047267377 -0.5342522 -1.1049569 -1.3834305
000290 92 29 ad bf 7f c0 83 bf ca 51 ab bf c4 64 70 bf
       -1.3528311 -1.029312 -1.3384335 -0.93903756
0002a0 19 af 3e 3f 9a 65 58 bf df f2 24 3f fb d6 dd be
       0.7448593 -0.8453003 0.6443309 -0.4332808
0002b0 23 d1 9f bf 78 3d c7 bf 5c 70 20 3e fa 87 7b bf
       -1.2485698 -1.5565634 0.15667862 -0.9825436
0002c0 34 b4 5d 3f 94 6c b0 be e0 ba 0b bf 02 3d 20 bf
       0.86603093 -0.3445784 -0.54582024 -0.6259309
0002d0 ee 48 09 3b 4b a0 44 3e 28 fe 40 bf 5a 80 10 3e
       0.002094801 0.19201772 -0.7538781 0.14111462
0002e0 8b 00 ef 3e fc 1c 4f bf 39 8b d6 be 45 a4 82 bf
       0.46680102 -0.809036 -0.41903093 -1.0206381
0002f0 0d 5e b1 bd 4b 7a 1d 3e e2 04 49 be f7 39 81 bf
       -0.08660517 0.15378682 -0.19630769 -1.0095814
000300 85 d7 e4 bf 81 ee de be 8c a5 0d 3e 23 fb 34 3e
       -1.7878271 -0.4354134 0.13832682 0.17673926
000310 2e ee 89 3d 47 ce da be 92 2a 8c bf 80 4d be be
       0.06734882 -0.42735502 -1.0950491 -0.37168503
000320 22 49 2d bf 11 11 0b 3f 35 f9 a0 3e aa 4d b2 be
       -0.67689717 0.54322916 0.3144013 -0.34824878
000330 e3 f3 6b 3e 89 63 b0 be cf 02 64 3e 93 88 72 bf
       0.23042254 -0.3445094 0.22266696 -0.94739646
000340 99 47 09 bf 35 64 4d bf ca be 41 bf e1 b5 c3 3e
       -0.53624874 -0.8023103 -0.75681746 0.382247
000350 20 20 90 be 3c 98 82 3d d7 e7 2d bf e2 5a 3a 3f
       -0.2814951 0.06376693 -0.67931885 0.72794926
000360 2b 1e 0b bf be 37 07 3f a7 fb 41 3c cc 08 ef bf
       -0.5434291 0.5281943 0.011839784 -1.867456
000370 ce 40 d8 bf a4 37 e2 bf 4e 12 10 c0 43 15 51 be
       -1.6894777 -1.767323 -2.2511172 -0.20418267
000380 54 1b 20 3f d7 f0 91 be 1a 70 af bf b8 d1 15 c0
       0.625417 -0.2850406 -1.3706086 -2.3409252
000390 f9 16 97 bf cc 72 52 3f 83 a0 40 3e 29 98 b6 bf
       -1.1803886 0.82206416 0.1881123 -1.4265186
0003a0 88 a0 fd bf 6e 4b 96 be af 6d 3e be 8a c4 bc bf
       -1.9814615 -0.29354423 -0.18596528 -1.4747479
0003b0 01 c9 aa 3c 56 2b eb be a1 b3 60 3f 5d 84 87 be
       0.0208478 -0.459315 0.8777409 -0.26468173
0003c0 cb 80 ac bf ce 62 3a bf f5 33 07 bf 03 92 38 be
       -1.3476804 -0.72807014 -0.52813655 -0.18024449
0003d0 88 15 4e bf ce a6 a0 3d 5e 28 99 bf 0e f4 ee 3d
       -0.80501604 0.078443155 -1.1965444 0.116676435
0003e0 5a b3 0f bf 66 78 7f bf f0 a8 1a 3f f3 27 54 bf
       -0.56133044 -0.9979309 0.6041403 -0.8287346
0003f0 4f bd 28 be 21 78 a2 bf fc 44 5b bf 07 3e cd 3d
       -0.16478465 -1.269291 -0.85652137 0.100215964

3.weight f4 [300, 400]
000000 69 57 49 3d 57 85 26 3d d0 a2 3b bd 67 3b a4 bd
       0.049155626 0.040654507 -0.045809567 -0.080191426
000010 48 23 b4 bd 29 d3 c4 bc e9 94 45 bd b5 8d 09 be
       -0.08795792 -0.02402647 -0.048237715 -0.13432963
000020 3d a8 8c bc 27 1c a4 bd 0c e3 77 bd 24 b5 7e bc
       -0.017170066 -0.08013182 -0.060519263 -0.015546117
000030 bc bb f6 bc 12 7f db bd 29 17 5b bd 62 16 5b 3c
       -0.030118816 -0.10717596 -0.053488884 0.013372036
000040 d5 e0 04 bd 11 3b 45 bd ea 03 d9 bd 1f 7a a8 bd
       -0.03244098 -0.048152033 -0.1059645 -0.08226418
000050 45 43 05 bd 06 f2 9d bd ab fa 65 3d a9 d5 4e bd
       -0.032534856 -0.07712178 0.05614726 -0.05049673
000060 60 50 b0 bd 35 1c 85 bd fe a9 2c bc 95 f9 83 bd
       -0.0860908 -0.06499521 -0.010538576 -0.06444088
000070 23 1f 65 bc ec ea 71 bd 00 13 41 bc 04 89 f0 bd
       -0.013984474 -0.05906193 -0.011784315 -0.11744884
000080 a0 b7 bd bd ab 18 e1 bc 4d ed 03 bc 2d be 86 3d
       -0.09263539 -0.027477583 -0.008052182 0.06579242
000090 d6 87 17 bc 68 d6 38 bd 84 4c 78 3d 24 f0 70 bd
       -0.009248694 -0.04512635 0.060619846 -0.058822766
0000a0 38 56 be bc 49 b6 c1 bd fc 89 77 bd fc 4f f0 bd
       -0.023234472 -0.09458596 -0.060434327 -0.11734006
0000b0 60 de 11 bd fc 44 f6 bd f7 01 dd 3c d5 da 05 be
       -0.035612464 -0.120248765 0.026978476 -0.13071759
0000c0 7b 5b 6c bd 7e bc 12 ba ae 01 1b bd fd 8c 83 bc
       -0.05770443 -0.00055975455 -0.0378434 -0.01605844
0000d0 52 3e 52 3d 9e 6e ac bc 9e 1f 1c bd 21 ba c7 bd
       0.051328965 -0.02104884 -0.03811609 -0.09752298
0000e0 0e 61 95 bd 9b 56 e5 bc 0c fb f3 3c a5 91 86 bd
       -0.07293902 -0.027995398 0.029782794 -0.06570748
0000f0 3c f4 77 bc 25 f7 8c bd f1 cf 4d bc ce 83 a3 bc
       -0.015133914 -0.068830766 -0.012561784 -0.01996031
000100 94 97 72 bd c3 ea 67 bd 1a ab 59 bd e5 98 0a be
       -0.059226587 -0.05662037 -0.05314169 -0.13534887
000110 85 03 19 bd 70 98 b7 bc 1c 0d 84 3c be ef 17 bd
       -0.037356872 -0.022411555 0.016119532 -0.03709387
000120 63 c9 6b bc 23 8a e8 bc a4 09 73 3d 1a 89 97 bb
       -0.014391276 -0.028386181 0.059335366 -0.004624498
000130 2c 51 7b bd 7a 55 54 bd f5 4d 04 be 5a f7 5e bd
       -0.06135671 -0.05183933 -0.12920363 -0.05443511
000140 0d 39 0b 3d e6 e6 96 bd e2 eb df bc 1f 6f ae 3a
       0.033989955 -0.07368259 -0.027334157 0.0013308263
000150 8d d3 84 bc 88 ee 0d bd d3 ea fa 3c d6 ad 19 bd
       -0.016214157 -0.03465131 0.030629551 -0.0375193
000160 cd bf 00 be e6 e8 9e bd f9 e7 46 bd dd 25 e9 bc
       -0.12573166 -0.077592656 -0.04856107 -0.028460437
000170 8d a9 8b bd 1e b6 1e bd 12 64 d3 bc 6f 5d 2c bc
       -0.068194486 -0.0387479 -0.025804553 -0.010520323
000180 93 de e2 bc 7f 64 a9 3d 83 09 e6 bd 30 73 b8 bd
       -0.027694022 0.08271121 -0.11232283 -0.09006345
000190 98 82 b4 3b 27 f2 2a bd f4 74 71 bc 1d a3 04 be
       0.005508732 -0.04173484 -0.014737356 -0.12952848
0001a0 94 78 f3 bd 55 18 02 be 77 7e b0 3c 38 ec 3e bd
       -0.11888233 -0.12704594 0.021544678 -0.046611995
0001b0 04 4c 0f bd 12 a4 d9 bd 58 0b b2 3c 70 42 a4 bd
       -0.034984604 -0.10626997 0.021733925 -0.080204844
0001c0 96 18 9c bd c6 d6 94 bd 10 70 38 bd 81 39 45 bd
       -0.07621877 -0.07267527 -0.045028746 -0.048150543
0001d0 92 d3 68 3c 46 a1 1f bc 94 4e 7a bd 03 a1 25 bd
       0.014210599 -0.00974304 -0.061110094 -0.040436756
0001e0 c8 aa c5 3b a9 b0 d0 3a b3 70 f9 3c 70 54 ba bd
       0.0060323216 0.001592179 0.030449247 -0.090981364
0001f0 65 35 8c bd 98 32 39 bc 51 b3 4b bd ce 0b 9e 3c
       -0.06846122 -0.011303566 -0.049731556 0.019292738
000200 28 c2 b2 3c e5 b0 06 be 74 45 7b bc 40 fc b0 bd
       0.021821097 -0.13153417 -0.015336383 -0.08641863
000210 c9 b5 58 3c 62 73 58 bc 99 3d cc bd 3f ae a4 bc
       0.013226935 -0.013211103 -0.09972686 -0.020102618
000220 25 d5 81 bc 9e 6a 9c bb 7d ac 04 be a0 06 35 bd
       -0.015848706 -0.004773452 -0.12956424 -0.04419577
000230 93 24 0c 3c d2 e6 d1 3c 2b e1 e3 bc 90 25 ba bc
       0.008553642 0.025622759 -0.02781733 -0.02272299
000240 f3 38 21 3c 33 4c 7d bc fc 5e 7a bd a7 8d 28 bd
       0.009840238 -0.015460062 -0.06112574 -0.041150715
000250 6e 07 99 bd 17 02 a6 bb 75 a7 8c bd b9 1f c5 bd
       -0.0747212 -0.005066167 -0.068678774 -0.09625191
000260 96 d7 11 3d 32 42 d5 bd 4d 75 82 bd 66 7c 15 3d
       0.03560599 -0.104130164 -0.063700296 0.03649559
000270 98 df 31 bd b3 cf 65 bd bc 20 7b bc 1e 03 27 3d
       -0.043426126 -0.05610628 -0.015327629 0.040774457
000280 32 1c 53 bd ae b4 92 bc 1f 9e a2 bd 9c 99 77 bd
       -0.05154056 -0.01790842 -0.079403155 -0.060449228
000290 df 3c ad bd 30 29 3c bd 93 3b 00 3d cc 2c 73 bd
       -0.08458876 -0.045937717 0.031306814 -0.059368894
0002a0 c6 1c 9a bd c4 8d 83 bd ba 68 6f bc 19 59 56 bb
       -0.07525019 -0.06423524 -0.014612371 -0.0032706915
0002b0 c3 02 e4 bd ff 2a a4 bd 92 12 d2 bd e6 20 9e bd
       -0.11133339 -0.08016013 -0.10257448 -0.07721119
0002c0 55 19 86 bd 4d ef 8f bc 4e 49 9a bd 00 ec ba bc
       -0.065478005 -0.017570162 -0.07533513 -0.022817612
0002d0 1e 38 9a bd 3e 6e 1e 3c a0 04 46 3d 42 c3 df bd
       -0.07530235 0.0096698385 0.048344254 -0.10925914
0002e0 d2 c9 5a bd a0 39 b9 bc ef 74 a6 bd fa 57 de bd
       -0.053415127 -0.022610486 -0.08127772 -0.10856624
0002f0 f1 31 c6 bc 9b 7c 67 bd 64 a0 76 bd 93 5b 63 bd
       -0.024193736 -0.056515317 -0.060211554 -0.055507254
000300 7d 28 9a 3c 7f 7b 3a bd 60 28 bf bb 58 ed cf bc
       0.018818134 -0.04552793 -0.0058336705 -0.025381729
000310 ce fb 28 3c 8e 5c 1c bd e2 7f d8 bc e2 86 5b 3c
       0.010313941 -0.038174205 -0.026428167 0.013398858
000320 29 37 5e bd 9e 64 9d bd c2 35 e8 3b a5 a6 8f bb
       -0.054251824 -0.07685207 0.0070864866 -0.0043838792
000330 35 86 84 bd 4b dd e0 bc 19 6d 42 bd cd 24 85 3d
       -0.064709105 -0.02744927 -0.047467325 0.0650116
000340 8e 52 26 3d 4c ef 8f 3b 5c 2a fc bd eb 8d f4 bc
       0.040606074 0.00439254 -0.12312767 -0.029852828
000350 c0 58 45 3b bf ec 24 bb 55 7c 02 be ae c1 94 bb
       0.0030112714 -0.0025165526 -0.12742741 -0.00453969
000360 e0 ca bf bc f9 3d c1 bd 2a 9c e2 3c f7 74 bc 3c
       -0.023412168 -0.094356485 0.027662355 0.023004992
000370 46 a6 81 bb 7b 0d 60 bd 8b 16 65 bb 55 91 8b bc
       -0.003956589 -0.054700356 -0.0034956064 -0.017037073
000380 93 25 ec bd 0e e4 94 bd d4 15 f8 3c ba 8c 50 bd
       -0.11530604 -0.072700605 0.030283846 -0.050915457
000390 d8 87 49 3d f5 41 06 bd 0e 57 1f bd bf 76 a7 bc
       0.049201816 -0.032777745 -0.03890138 -0.020442365
0003a0 b5 9f 86 bd 4c c5 fd bc 0c 13 89 3a 68 d0 b9 bc
       -0.065734304 -0.030977868 0.0010457947 -0.022682384
0003b0 38 3a 32 bd f5 a0 8b bd 0e 17 19 bd 33 74 1c 3c
       -0.043512553 -0.068178095 -0.037375502 0.009549188
0003c0 30 b6 31 bd d4 93 fc 3c 4f 77 a3 bd 93 b4 69 bd
       -0.04338664 0.030832209 -0.07981741 -0.057056975
0003d0 2d d6 82 bd c0 f0 34 bd b9 b4 41 bd 86 6b 10 bd
       -0.06388507 -0.04417491 -0.04729149 -0.035258792
0003e0 19 5c 49 bc 85 74 82 bd 37 72 b1 3c d3 d3 e9 bc
       -0.012290024 -0.063698806 0.021660907 -0.028543388
0003f0 65 dd 1a 3d e7 4e a7 bc 00 61 4d 3b f5 d9 8e bc
       0.037808795 -0.020423366 0.0031338334 -0.017437914

3.bias f4 [300]
000000 1c f3 7f bd 32 d9 d9 bd e9 da 5a 3f b3 79 51 be
       -0.062487707 -0.1063713 0.8549028 -0.20456581
000010 2f 56 a8 bd e4 cc da 3f f6 58 17 bd 80 65 de 3f
       -0.08219563 1.7093778 -0.036950074 1.7374725
000020 2d 87 8b bc 10 7e c8 bf b6 ad e2 bf 91 a0 cb bd
       -0.01703223 -1.5663471 -1.7709262 -0.09942735
000030 23 69 46 40 16 93 92 bd fb 61 6d bd 62 1d 5e bd
       3.100167 -0.07156961 -0.05795477 -0.05422724
000040 54 f0 77 bd 93 09 00 be 2f 74 23 bd fe 15 9b bd
       -0.06053193 -0.12503652 -0.039905723 -0.07572554
000050 f4 c4 24 3e 95 9b b7 be 56 6d 11 be cf 7d 24 bd
       0.16090757 -0.35860887 -0.14201865 -0.040159043
000060 5d bb 81 bd d6 af 29 c0 e0 8a b9 bd 41 3f 4e 40
       -0.06334565 -2.6513572 -0.090596914 3.2226107
000070 10 df b2 bd 07 54 7f 3e 46 fc 3e bf 49 df 4f bd
       -0.08733952 0.24934398 -0.7460369 -0.05075005
000080 25 ab 88 bd 14 24 ff bc 9b 7b 63 bd 06 52 c0 3e
       -0.06673268 -0.031145133 -0.0555378 0.3756258
000090 61 a1 c8 bc 7c 6b 2c 40 08 fd 30 bd d6 aa f9 bf
       -0.024491014 2.6940603 -0.04321006 -1.950526
0000a0 d7 81 b1 3a f1 c5 34 3f ed d5 81 bd 4e 54 94 bd
       0.0013542724 0.70614535 -0.06339631 -0.07242642
0000b0 7f a4 af bd 34 2b f6 bc c8 0b ba bd 7b 71 18 c0
       -0.08576297 -0.030049898 -0.09084278 -2.3819263
0000c0 d3 c1 96 be b5 ec 0e bd 68 01 36 bd d7 e8 a4 bd
       -0.2944475 -0.03489371 -0.044434935 -0.08052223
0000d0 cb cb 40 40 80 a3 2d c0 3d 43 c6 bf 79 7e 49 bd
       3.0124385 -2.7131042 -1.548927 -0.04919288
0000e0 e0 9b b2 bd 1f 34 23 bd 82 b4 56 bd 2f 77 af bd
       -0.08721137 -0.03984463 -0.05241824 -0.08567654
0000f0 e4 18 7e bd 4f 1a 26 bd b2 6e 58 bc 34 ed f7 bc
       -0.062035456 -0.040552434 -0.013209986 -0.030264474
000100 5b aa 6f bc 40 38 29 3f 0d 88 eb 3f 6e 9b 11 bd
       -0.014628018 0.66101456 1.8400894 -0.03554862
000110 86 5c 9f bd dd b9 14 3a 17 65 a2 bd d6 bd 1a 40
       -0.07781319 0.0005673448 -0.079294376 2.4178367
000120 3d ce 0a c0 61 c6 28 be f6 c7 0c c0 e2 0a 09 40
       -2.1688378 -0.16481926 -2.1997046 2.1412892
000130 2b f3 e0 bd 8e 54 95 bd 80 f8 fa bf 4b 3c 89 40
       -0.109838806 -0.07291518 -1.9607086 4.28861
000140 ed 76 64 bf a4 44 7e bd 4c de 10 3f b4 e2 33 c0
       -0.89243966 -0.06207718 0.565892 -2.8107119
000150 21 cb 20 3e d5 13 89 bd 6a c6 7d bf bd 49 89 bd
       0.15702488 -0.06693236 -0.9913088 -0.067035176
000160 1f 47 24 bd 00 db 07 3e cc 80 ee 3e d8 3a a3 bf
       -0.04010689 0.13267136 0.4658264 -1.2752333
000170 93 6a 6d bd b0 e8 10 3f 20 c4 bd bb 84 47 a6 3f
       -0.057962965 0.5660505 -0.005791202 1.2990575
000180 a6 70 18 be be 42 6c bd dc 4f fc bd a0 3b fb 3f
       -0.14886722 -0.057680838 -0.123199195 1.9627571
000190 f7 a2 13 3e 08 d0 ab bd 2a ea d5 bc 03 ef 1b 3f
       0.14417635 -0.08389288 -0.026112635 0.6091158
0001a0 66 0e 9f bd f5 c9 6f bf c8 ca 73 3c 4a 07 ce bf
       -0.07766418 -0.93667537 0.01487989 -1.6095974
0001b0 28 08 8e 3f 76 fb 17 bd 58 da b5 bd 68 e7 b1 bd
       1.1096239 -0.037105046 -0.088795364 -0.08686715
0001c0 8f 4e 2f bd da 5e 87 3f ee 8f 95 bd cf f8 1d 40
       -0.04279953 1.0575821 -0.07302843 2.468311
0001d0 7a 7c da bd f6 bb 86 3e cc e2 fb be 4a a6 b9 be
       -0.10668273 0.26315278 -0.4919647 -0.3625968
0001e0 7f f5 ae bd e7 48 a8 bd 2d 0b 0f be 42 7a 9b 3f
       -0.085429184 -0.0821703 -0.13969107 1.2146685
0001f0 20 6c bb bd b4 7c 77 bd bb 13 dd 3f b5 4f 28 c0
       -0.091514826 -0.06042166 1.7271646 -2.629865
000200 b4 5f 44 40 ff 0d ad bd b0 97 b4 bb c2 3b b3 3e
       3.0683413 -0.08449935 -0.0055112466 0.3500653
000210 2f 92 1a bf 01 cf 43 bd 8d e1 8a bd 0c b9 ab be
       -0.6037931 -0.047804836 -0.06781302 -0.33539617
000220 3a 0c db bc 53 8b af 3e 01 29 4e bd 1d d0 88 c0
       -0.026739229 0.34285983 -0.050332073 -4.2754045
000230 e4 98 8a 3b fa 73 71 be 0e 67 82 bf a4 37 fc bd
       0.0042296518 -0.23579398 -1.01877 -0.123153
000240 0e cd fd bd cf 59 2a bd cd e5 02 be de c5 2b 3b
       -0.12392627 -0.041589554 -0.12782975 0.0026210467
000250 bd 9c 58 c0 35 0f 61 40 86 4b c4 3f fe 16 9f bd
       -3.3845665 3.5165532 1.5335548 -0.07768057
000260 dd 1a 89 bd 92 b7 dc bd 56 94 41 40 4c 5b 7e bc
       -0.06694577 -0.10777201 3.0246787 -0.015524697
000270 5d b1 8b bb b3 cf e5 bc d8 89 b8 bd 06 42 99 bd
       -0.0042630867 -0.02805314 -0.090106666 -0.07483296
000280 ac e3 86 3a cc e1 72 bb 72 a5 d2 bd 0e 8c 92 bc
       0.001029124 -0.0037060855 -0.102854624 -0.017889049
000290 6c 4b fd bc 26 1b f5 bf 1d 98 8a bd d4 bf 7d bd
       -0.030919753 -1.914891 -0.067672946 -0.06195052
0002a0 fe 97 96 bd 80 e6 3d bd 64 b8 72 bd ce 62 9c bc
       -0.07353209 -0.0463624 -0.05925788 -0.019090082
0002b0 7d 72 96 3f b0 2c b1 bd cc a5 7c bd ed 0f a9 3b
       1.1753689 -0.086511016 -0.061681554 0.005159369
0002c0 ae 8a 3c 3f bd 8e 8a bd ee a1 d1 bf 7a 4b 5e bd
       0.7364911 -0.067655064 -1.6377542 -0.0542712
0002d0 8e 1b 31 bf d2 6f e9 3b d6 c2 5f 40 52 5a 3d c0
       -0.6918267 0.0071239257 3.4962668 -2.9586377
0002e0 91 6a 37 3f 4d 8f 86 bb 57 28 a9 bd c4 a3 77 bd
       0.7164698 -0.0041064383 -0.08259647 -0.060458913
0002f0 d6 2f 95 bd ee 56 92 bd a0 3a 3d bb d1 be 47 bd
       -0.072845146 -0.07145487 -0.0028874055 -0.04876596
000300 b7 db ae bd f6 da 12 be d4 5e 71 bf 05 12 20 40
       -0.08538001 -0.1434134 -0.9428532 2.5010998
000310 53 38 ec bd c4 40 7b bd 8b cd 6c bd be c4 30 3f
       -0.115341805 -0.061341062 -0.05781321 0.69050205
000320 d5 5e 89 bd 35 56 8c bd 28 08 d3 3f 38 4f 3b bd
       -0.06707541 -0.0685238 1.6486864 -0.045729846
000330 e2 49 23 3c 83 ef e1 bd a9 49 c4 bc 57 85 a6 bc
       0.0099663455 -0.11032011 -0.023960905 -0.020327253
000340 f3 f3 80 bf fb 2f 6d bd 3d 5c 81 c0 1f 67 27 bc
       -1.0074447 -0.057907086 -4.0425096 -0.010217457
000350 c1 ed 41 bd 80 b1 b1 bc 98 1e b4 bd 66 31 8e 3f
       -0.04734588 -0.021691084 -0.08794898 1.1108825
000360 7a 25 dc bd a8 57 b1 bd a5 03 8d bd 99 c3 89 be
       -0.107493356 -0.08659297 -0.06885461 -0.26907042
000370 d8 1f bd 3f 45 a0 1f be e5 39 05 bd 0f d0 28 bd
       1.4775343 -0.15588482 -0.032525916 -0.041214045
000380 c5 56 81 3f f5 81 8c bc 48 9c 3d bd 53 49 cc bf
       1.0104605 -0.017151812 -0.04629162 -1.5959877
000390 26 71 9a bd 31 e1 e1 bf f3 c1 94 c0 a9 df 94 3f
       -0.075411126 -1.7646848 -4.6486754 1.1630756
0003a0 dd 5a 8f bd f5 73 86 bd 22 43 5f bd cf 3e 21 40
       -0.06999753 -0.06565086 -0.054507382 2.5194585
0003b0 bf e6 a5 bd 5e 77 9d bd 68 e2 36 bb 2a a5 d4 bc
       -0.08100652 -0.07688783 -0.0027905945 -0.025957663
0003c0 85 f1 82 bc fd b3 09 bd 2f f1 23 be bf 96 1b bf
       -0.015984306 -0.033618916 -0.16009973 -0.60776895
0003d0 db 99 82 40 76 92 1c bd 42 cc d1 bd 75 19 95 3e
       4.081281 -0.038225614 -0.10244037 0.29120985
0003e0 03 5b 67 bc f7 05 cf 3f e3 ab ac 3f 53 74 62 bd
       -0.01412082 1.6173695 1.3489956 -0.055286717
0003f0 dd 11 cd 3f 2f 61 49 40 c8 3c b6 bd 97 86 ab bd
       1.6021076 3.1465566 -0.08898312 -0.0837528

5.weight f4 [1, 300]
000000 31 50 c2 bc b0 59 b6 bc 0e 31 a8 3f 70 89 87 3e
       -0.023719879 -0.022259563 1.313997 0.26472044
000010 ff 89 a9 bc 6a b5 64 3e ec ac f3 bc 4e a4 31 3f
       -0.020695684 0.22334829 -0.029745542 0.69391334
000020 92 78 5a bc ef b3 70 bf 10 f8 39 3f 2b 26 e5 bc
       -0.01333441 -0.94024557 0.7264414 -0.027972301
000030 09 9a 82 be 7c 55 86 3c ea 2a 5f bc 1b 78 ee bc
       -0.25508144 0.016398184 -0.013621071 -0.029110005
000040 b7 c6 a5 bc 32 da dd bc f6 45 96 3c 20 0f be 39
       -0.020236356 -0.027081583 0.018343907 0.00036250893
000050 c6 99 67 3e 63 ea 80 3e e7 5e b5 bb 4e 79 2b bd
       0.22617254 0.25178823 -0.005534995 -0.041863732
000060 7a 11 d7 bc 18 19 11 3e a2 92 d8 3c 13 59 cf 3f
       -0.02625345 0.14169729 0.026437107 1.6199058
000070 6d 48 8a bc d4 25 49 bf b7 d2 61 3e 22 d2 dc 3c
       -0.016880238 -0.78573346 0.22053038 0.026955668
000080 7b 75 70 bb 04 fa f2 bc 70 8f 45 3c 6e a8 ce 3e
       -0.0036691118 -0.029660232 0.012058124 0.40362877
000090 d2 60 df 3c 8d 89 c4 3e a7 59 39 bb 68 7b 26 bf
       0.027267847 0.38386193 -0.0028282197 -0.65032053
0000a0 e6 d7 a5 3b 92 03 47 40 af 98 38 3c 29 46 4f bc
       0.0050611375 3.109593 0.011266871 -0.012651005
0000b0 ce 4f 9b bc b2 31 de 3c ef c6 a9 bc b2 ac 1b 3e
       -0.018958952 0.027123306 -0.020724742 0.15202597
0000c0 0a 5c 2e bf 75 09 85 3c 2c f8 0d 3c c1 01 c7 bc
       -0.6810919 0.016239861 0.008665126 -0.024292829
0000d0 4b 1c 16 3f 74 08 e0 be a1 6d 05 3e cc a3 0d 3c
       0.5863692 -0.4375645 0.13030101 0.008645009
0000e0 cc 97 8f 3c 9f e2 21 bc b5 69 0f bd 35 b8 9d 3c
       0.017528437 -0.009880691 -0.03501292 0.019252876
0000f0 39 af c4 bc 8f 44 00 bd e3 04 f9 3c 92 70 53 3c
       -0.024009334 -0.031315383 0.030397838 0.012905257
000100 6a ac 58 bc 61 6a 86 bf fa 42 02 bf 40 d8 4f 3c
       -0.0132247005 -1.0501214 -0.5088345 0.012685835
000110 6d 84 19 3c b7 19 ad bc 6a e1 64 bb 7f 73 42 be
       0.009369952 -0.021130426 -0.0034924396 -0.18989371
000120 c3 ff 01 be 8a 5b bd be 9b 85 a4 3e 4b ab 79 be
       -0.12695222 -0.369839 0.32133183 -0.2438175
000130 69 05 5f 3b 23 38 e5 bc f8 af 14 3e 0b 2a c1 3f
       0.0034030324 -0.02798087 0.14520252 1.5090955
000140 dc d5 84 3e 1a 91 55 3d 95 ab 97 bf 7a fa 5d 3e
       0.25944412 0.052140333 -1.1849238 0.2167758
000150 bb 24 09 c0 7f e1 a9 bb 31 15 46 3f 69 0c 49 bc
       -2.1428668 -0.005184352 0.77376086 -0.012271025
000160 2e 7d 95 3c b2 d0 0c c0 99 eb ce bf 0c 61 00 c0
       0.018248167 -2.2002378 -1.6165649 -2.0059233
000170 5f f7 a9 bc 7d bd 0e bf 4a fa d7 bc f5 f0 51 be
       -0.020747839 -0.55757886 -0.026364464 -0.20502074
000180 d6 e4 14 bc 2b 85 6a bf 54 c1 83 3c 90 4a 48 be
       -0.009087762 -0.9160945 0.016083397 -0.19559693
000190 8b b8 6d bf fa ae 5c bb 2e ed 93 bc f7 7d 31 c0
       -0.92859715 -0.003367363 -0.018057432 -2.7733133
0001a0 29 01 ce 3c 27 1c a9 3e ef 3b da bf 18 fe 23 be
       0.025147038 0.3302929 -1.704954 -0.16014898
0001b0 0f 07 f7 3e 10 a6 48 3b be 61 9e bc ad 21 85 bc
       0.48247573 0.003061656 -0.019333716 -0.01625141
0001c0 30 7a bb bc ba 1a 2f be 7f 68 80 bb 1f 46 3a 3e
       -0.022885412 -0.17100039 -0.003918707 0.18190812
0001d0 c7 4c 2b 3c 0e a8 d2 be 73 5e 48 3f fb 5d f5 3e
       0.010455317 -0.4114384 0.7826912 0.47923264
0001e0 9d 39 07 3d 15 46 8a bc dd ac 12 3b 44 98 96 be
       0.03301393 -0.01687912 0.0022380867 -0.29413044
0001f0 34 1e 8d 3c 91 5a df bb 5a 6d 28 3f ab e3 0e 3e
       0.017226316 -0.0068162163 0.6579186 0.13954036
000200 b9 b1 4f 3f 3a 2f d1 bc 82 d8 50 3a 97 81 77 be
       0.8113056 -0.025535215 0.00079668325 -0.24170528
000210 66 a2 87 bf 73 90 7b bc e3 04 00 bd 69 fd 0e c0
       -1.0596435 -0.015354264 -0.03125466 -2.234217
000220 b4 33 ff bb 12 c5 94 bf 6c d8 f2 bc 92 8c 41 3e
       -0.007788146 -1.1622641 -0.029644214 0.1890128
000230 3f 44 3e 3c c0 dc 93 bf e0 4d c3 bf 7c ee f9 3c
       0.011612951 -1.1551743 -1.525814 0.030509226
000240 5e 36 a1 3e 5d 01 87 bc 84 b5 f3 3c d1 45 57 bd
       0.3148679 -0.016480142 0.02974964 -0.052556816
000250 4e 20 c9 be 49 d5 a2 3f c1 ac c6 bf 43 40 e0 3b
       -0.3928246 1.272134 -1.552147 0.006843598
000260 cc 64 8b 3c 8c d5 f3 3c 7a 62 c2 3e ef ce 30 b9
       0.017015837 0.029764913 0.37965757 -0.00016861757
000270 5e 66 24 3d 7f 75 bb ba 05 85 12 3a 40 c8 c1 3b
       0.040136687 -0.0014301984 0.00055892795 0.0059137642
000280 ae 74 25 bc 79 d9 d7 3c 0c e0 04 bc 08 fa bd bc
       -0.010098619 0.026348816 -0.008110058 -0.023190513
000290 29 83 c9 3c be 10 b0 be 5d 8d 91 3c cb 30 ea bb
       0.024598675 -0.34387773 0.017767603 -0.00714693
0002a0 a0 26 b8 bb 46 c5 99 bc 7c 72 7d 3c a3 b7 6f 3c
       -0.005619839 -0.018770825 0.01546919 0.014631185
0002b0 8c 28 76 bf b0 02 38 bc c3 a9 f6 3b 8c 83 1a be
       -0.9615562 -0.0112311095 0.0075275614 -0.15089244
0002c0 11 b1 d0 3e c6 fa 27 3c 7d f3 5f be 64 75 f9 bc
       0.4076009 0.01025266 -0.21870227 -0.030451484
0002d0 84 f4 4c be a3 61 75 bc 8a 88 9a 3f b4 5c ed bf
       -0.2001515 -0.014976892 1.2072918 -1.8543916
0002e0 cb 84 5a 3f 7c 12 f4 bc 39 9e cb 3c 03 6f ec 3c
       0.85358876 -0.02979397 0.02485572 0.028861528
0002f0 65 bf 8e 3c 11 7f db ba 6e bd 9c bc 62 ac db bb
       0.017425248 -0.0016746243 -0.019133296 -0.0067038992
000300 6b 45 65 bc 32 87 d6 bc f3 b1 7a 3e b8 f8 61 40
       -0.013993601 -0.026187513 0.24481945 3.5308056
000310 5a ef d7 3b d1 b3 cd bc e8 2b 31 3c c2 9f 75 3e
       0.006589812 -0.025110157 0.010813691 0.23986724
000320 e0 d6 bd bc 17 58 80 bc ec b9 f4 3f 7f 5e aa 3b
       -0.02317375 -0.015667005 1.9119239 0.005199253
000330 17 70 f3 3f 48 51 3d bc e3 6f e3 3b a8 8b b9 bc
       1.9018582 -0.0115550235 0.006940828 -0.022649601
000340 70 d2 cf bf 67 54 24 3c 5f f1 59 3e 03 fd e5 bc
       -1.6236095 0.010029889 0.21283482 -0.028074747
000350 a5 75 93 3c ea 50 61 3b 86 e3 95 bc b2 85 eb 3e
       0.018000433 0.0034380504 -0.018296968 0.4600044
000360 52 f9 d0 3b bb 39 e2 bb 94 45 08 bc 58 1e 12 bf
       0.0063773775 -0.0069038547 -0.00831737 -0.5707755
000370 5f a2 82 3e 18 de 48 bf ea ef 53 bc ea ee 68 3c
       0.25514504 -0.7846389 -0.012935618 0.014217118
000380 bf f3 0a c0 3d d7 99 3a 44 09 fe bb d6 76 23 be
       -2.171127 0.001173712 -0.0077525694 -0.15963301
000390 34 93 86 3c c0 43 42 3e d2 4c 89 be 9f ad 1d be
       0.016427614 0.18971157 -0.26816422 -0.15398262
0003a0 0f 9e a8 bc da bb d1 3c c9 20 c3 bc 2d 7a fe 3f
       -0.02058318 0.02560227 -0.023819344 1.9881035
0003b0 2d 2d 81 3c be 2c 12 3d 60 3d c8 3b bf 30 a2 bc
       0.015768612 0.0356872 0.006110832 -0.019798635
0003c0 fc 30 71 3c 99 29 c7 bc 87 c8 a6 bc 4f 53 1c be
       0.014721151 -0.024311827 -0.02035929 -0.15266155
0003d0 b8 51 f7 3e 95 c7 1c 3d d6 2b 9e bb 3a b7 8a bf
       0.48304534 0.038276274 -0.004827003 -1.0837166
0003e0 0a 01 5a bc d9 09 d3 3e c5 fa c4 3e c0 ce 42 3c
       -0.013305912 0.4121845 0.38472572 0.011890113
0003f0 0e de c0 3e 39 f9 a8 3f 95 ad 98 3c d5 1c 94 3b
       0.37669414 1.3201057 0.018637458 0.0045200386
