results/c_5_0/c_4_0/c_3_0/best/target_q_func1.pt (torch, 502309 bytes, 5 tensors)

1.weight f4 [400, 10]
000000 10 c2 f6 3d ad dc 03 3f d1 ff 91 bf 64 c4 b7 be
       0.12048733 0.515086 -1.1406194 -0.35892022
000010 f9 88 2b 3f 55 10 a7 bd a1 58 26 3e c8 60 00 3e
       0.6700588 -0.08157412 0.16244747 0.12536919
000020 03 8f 6f bf 00 7f 8a bc 80 03 68 3e a0 97 96 bf
       -0.93577594 -0.016906261 0.22657585 -1.1765022
000030 ee 78 ee be 02 02 c8 bf 6b 12 16 3e 30 f4 50 be
       -0.46576637 -1.5625613 0.14655463 -0.2040565
000040 0b ae 54 bf ea 34 b2 bb dd 76 82 bf 22 73 b1 bc
       -0.8307807 -0.0054384368 -1.0192524 -0.021661345
000050 0f a4 27 3d 0d a6 96 bf e6 29 a9 be 4b 03 fc 3f
       0.040927943 -1.1769425 -0.33039778 1.9688505
000060 d0 0f 47 c0 47 25 23 bf fc 2b 76 be 23 2d eb be
       -3.11034 -0.63728756 -0.24040216 -0.45932874
000070 9d 75 16 3b d5 53 0f bd 9f 94 d7 3e 38 8e a0 3e
       0.0022958287 -0.034992058 0.42105576 0.31358504
000080 c6 99 47 3f 2d 56 c1 3e bd 13 27 40 fc 05 c6 3e
       0.77969015 0.3776106 2.6105797 0.3867644
000090 78 a1 98 bd 2b fb 22 3e f1 7d 4a bf 4d 74 91 3c
       -0.07452673 0.15916125 -0.7909842 0.017755652
0000a0 7d 26 44 be 28 0f 10 3f 3b 2f 0a bf 8b 22 65 c0
       -0.19155307 0.56273127 -0.5397832 -3.5802333
0000b0 19 09 a8 3f 53 65 8a be ef 5f 8c be 9d 2e 73 3e
       1.3127776 -0.2703043 -0.27416942 0.2374825
0000c0 1e 5f 47 3d c7 b8 3f 3d f2 d7 7a be 95 d5 ce 3f
       0.048674695 0.046807077 -0.24496439 1.615893
0000d0 2a 7c b5 bf 1d b4 12 c0 31 9d af 3d ae d2 fb bd
       -1.4178517 -2.2922432 0.08574904 -0.12296043
0000e0 50 9b 36 bf 9d f9 34 3e 79 c8 45 bf f4 85 4e bb
       -0.7133074 0.17673345 -0.7725902 -0.0031512948
0000f0 40 5f e4 be d0 64 fc bf 35 d2 7b bf ac 1a 0d c0
       -0.4460392 -1.9718266 -0.98367625 -2.204753
000100 7e ee 12 c0 cb 29 f9 be 88 19 51 3f f4 34 c6 3d
       -2.2958064 -0.48664698 0.8167958 0.09678069
000110 ac 4a 71 bd c5 26 a6 bc f5 c5 09 bf b4 bd 4b bf
       -0.058909103 -0.020282159 -0.53817683 -0.7958634
000120 9e d3 2a bf e2 00 aa bf 20 5b 74 bf 05 9d 4f be
       -0.6672915 -1.328152 -0.95451546 -0.20274742
000130 69 85 6d 3e d5 56 f0 3d 2c 1d 00 3e 9a 97 05 bd
       0.23195423 0.11735312 0.12511128 -0.03261528
000140 76 ff 26 40 75 b2 b2 bf 13 55 81 bf d1 24 7d be
       2.609342 -1.3960711 -1.0104088 -0.24721076
000150 be c6 f7 3f c6 2d d5 bd 47 9d 28 bf ed bb 72 be
       1.9357526 -0.10409121 -0.65864986 -0.237045
000160 35 f2 0b bf 7b 39 73 bd 75 be 45 c0 21 03 60 be
       -0.54666454 -0.05938099 -3.0897496 -0.21876194
000170 81 46 c3 bd 75 e0 4b bf 5a ac bc bd 9e 77 01 bd
       -0.09534932 -0.7963937 -0.09212561 -0.031608216
000180 08 cf af 3e ac 46 d6 3c 3a 19 2d 3c 6e d3 66 bb
       0.3433764 0.026156746 0.0105650965 -0.0035221237
000190 dc 25 06 c0 c9 cb 75 bf 2d 55 10 3f ab 40 8c 3f
       -2.0960608 -0.96014076 0.5637997 1.0957235
0001a0 dc 8a 17 bf bb f2 34 3d 30 0e 2a bf f3 32 a3 be
       -0.5919626 0.0441768 -0.664279 -0.3187481
0001b0 2c f0 c4 bd a8 cc 59 bb 05 66 93 bf f6 1a 19 3d
       -0.09616122 -0.0033233557 -1.1515509 0.037379228
0001c0 aa 18 61 3f b0 94 c1 bf 3b 24 f0 3e f1 8e 5c 3f
       0.8792826 -1.5123501 0.46902642 0.8615561
0001d0 cc 1c 7e be 66 ff 2d 3e 2f 25 ac be 89 2d c4 bb
       -0.24815673 0.16991958 -0.3362212 -0.0059868735
0001e0 c0 9f 7e bf f8 37 02 c0 90 2c d1 bc a5 a6 8b be
       -0.9946251 -2.034666 -0.025533944 -0.27275577
0001f0 e3 67 43 bf b5 43 9a bd 71 44 8e 3e e8 07 04 3e
       -0.76330394 -0.07532445 0.27786592 0.12893641
000200 72 e0 3d bb aa 7b c7 3a 52 2f 10 be e8 1f 1b bf
       -0.002897289 0.001521935 -0.14080551 -0.6059556
000210 73 28 8a be d7 46 41 40 55 d8 10 3f 27 3b 83 be
       -0.26983985 3.0199487 0.56580096 -0.25631067
000220 b6 cb 3f 3e 19 71 67 3d ac 75 77 bf 8f 03 2b 3b
       0.18730053 0.056504343 -0.9666393 0.002609465
000230 1b 74 e8 3f 77 8e 26 bf 3f dc 5e 3f c3 ae 49 3e
       1.8160433 -0.65061134 0.8705482 0.19695573
000240 34 9b 17 3f c0 14 77 3e 7e 58 92 bf 9a 78 b9 3e
       0.59221196 0.24129009 -1.1433256 0.36224824
000250 6b 2b 37 bf 42 97 1a bc 02 2f 18 c0 72 ed 9b bf
       -0.71550626 -0.009435477 -2.3778691 -1.2181838
000260 7b ce c9 be 6f b4 a5 bf 05 b3 f8 be 20 78 d3 bd
       -0.39415345 -1.2945689 -0.4857408 -0.103256464
000270 19 60 7c bf c2 9b e2 3e 73 4c 72 be 42 d2 db bc
       -0.98584133 0.4425946 -0.23661976 -0.026833657
000280 23 33 ac bf bd d3 06 40 7a 7f 3c be 8a c3 36 3f
       -1.3453106 2.1066735 -0.18408003 0.7139212
000290 39 c4 9d 3f 07 17 c5 3c 26 b9 5b bd a8 94 da bd
       1.2325507 0.024058832 -0.05364337 -0.10672885
0002a0 f1 cc 81 3c 54 a0 f0 ba ea fc a3 3f a9 bc 0a c0
       0.015844794 -0.0018358328 1.2811558 -2.167765
0002b0 5e 95 d3 3e 95 53 cc 3f ac da 2d c0 e0 de 0e bf
       0.41324896 1.5963007 -2.7164717 -0.5580883
0002c0 73 e8 db bc ed ff 8a 3d ee 4f 8d 3e da 79 d3 bc
       -0.026844239 0.06787095 0.27600044 -0.02581494
0002d0 04 2c a3 3d f8 de 25 3f 71 71 fe bf 8a 85 49 bf
       0.0796738 0.6479335 -1.987837 -0.7871939
0002e0 92 c4 2f be f9 39 6a bf 91 1d 47 bf 3b 7f 95 3e
       -0.1716483 -0.9149471 -0.7777949 0.29198632
0002f0 7e d0 8c 3e 6b 3a 90 bd 75 54 8c 3f 45 5c e6 bf
       0.27502817 -0.07042392 1.0963274 -1.7996908
000300 6c 6e f5 be cd 1b 3a 3f 47 59 0e c0 59 80 54 be
       -0.47935808 0.7269867 -2.224199 -0.20752086
000310 b6 b2 85 3e 8d 7b e4 be c4 77 f9 3c 56 01 0b bd
       0.26112908 -0.44625512 0.030452617 -0.03393682
000320 ca 39 81 c0 e2 ab 8b bf 1e 65 95 3d ab f8 cb bf
       -4.0383043 -1.091183 0.07294677 -1.5935262
000330 7f 74 4b bf 16 86 21 bd 48 a5 fc 3e dd b2 85 3d
       -0.79474634 -0.039434515 0.4934485 0.06528256
000340 e3 d0 da bb a9 50 1f bc 34 c7 39 c0 7b 98 fd bf
       -0.0066777333 -0.009723821 -2.9027834 -1.9812158
000350 8b 01 97 3f 2a 17 dd bf 53 09 2a 3f 11 5a ed 3e
       1.1797346 -1.7272694 0.6642048 0.46357778
000360 cb 3e c7 3e a1 a6 4d 3d 63 1e f2 bc af 91 62 3d
       0.38915095 0.050207738 -0.029555505 0.055314716
000370 8b b3 d0 bd 3b 8a d5 3f 52 19 1b bf 54 d0 18 3e
       -0.10190495 1.668281 -0.6058551 0.14923221
000380 9d 7e 12 3f 76 4f de be af 64 78 bd 26 76 d2 3e
       0.57224447 -0.4342 -0.060642894 0.41105765
000390 2f f8 df be e3 fb 00 bd ab a7 c3 bf 3c 74 dd bf
       -0.43744037 -0.031490218 -1.5285543 -1.7301097
0003a0 93 59 c3 be cc fb 26 bf f7 f9 d5 bf 58 ee 83 be
       -0.38154277 -0.6522796 -1.6716908 -0.2576778
0003b0 1a 00 c1 3e 0d a2 ad 3d 67 02 df 3d 9f ae 03 bc
       0.3769539 0.08478174 0.1088913 -0.008037238
0003c0 84 ee 72 be 5c 1d bd 3e 2f 00 e5 bd eb 82 09 c0
       -0.23723799 0.36936462 -0.11181676 -2.1486156
0003d0 06 2a d6 3f d9 b2 c4 be 8b b2 8d 3d ed 71 81 bf
       1.6731575 -0.384177 0.0691882 -1.0112892
0003e0 d9 14 a2 be 6c 01 a0 bd 1e 49 b7 3f 7b cb a2 3d
       -0.3165653 -0.07812771 1.4319189 0.07948967
0003f0 d9 e8 cd 3e 96 ac ce 3f 3a c1 9f 3f a7 32 2a 3f
       0.4021671 1.6146419 1.2480843 0.6648354

1.bias f4 [400]
000000 8d c3 a1 3c 3a 12 b2 3e 17 3b 29 bf 06 2d 0d bf
       0.019746566 0.3477953 -0.6610579 -0.55146825
000010 5b 40 3a bf 1f 37 8b bd c5 8f 73 be a6 79 ce 3e
       -0.7275445 -0.06797623 -0.23785312 0.40327185
000020 51 01 40 be 1a d6 5a 3e a0 b9 28 3e 47 c3 2a bf
       -0.18750502 0.21370736 0.1647706 -0.6670422
000030 a0 99 61 3e e2 0e 82 bd 70 77 e5 be 5b d8 03 be
       0.2203126 -0.06350495 -0.44817686 -0.12875502
000040 68 fa af bd d3 07 09 be 44 e6 74 bd 3c 3b 1f bd
       -0.08592683 -0.13381891 -0.05978991 -0.03887485
000050 98 38 92 3e 8e 88 9f 3d e3 23 05 bf aa 5e 17 3e
       0.28558803 0.077897176 -0.52007884 0.14782205
000060 57 00 30 bd 8e a3 3b bf 1f 7f a2 be 92 bf 76 3d
       -0.042969074 -0.7329644 -0.3173761 0.06024129
000070 31 8f 44 bf 17 23 04 be cf d1 0a be c9 5e 41 bf
       -0.7678099 -0.1290401 -0.13556598 -0.75535256
000080 e3 e8 17 3d 5f 41 86 be 04 64 72 be 2b 79 ec be
       0.037087332 -0.2622175 -0.23670965 -0.46186194
000090 c4 e9 54 bf 33 0f fd bd 65 e4 a9 bd a7 1c 65 be
       -0.831692 -0.12356415 -0.08295516 -0.22374211
0000a0 ae 4a b7 bd 21 eb a5 be e1 4f da be 1d 3c 15 bf
       -0.08949791 -0.32405952 -0.42639068 -0.5829485
0000b0 6f cc a6 be 5a b9 f9 be 4d 9b 84 be 1b 21 99 3d
       -0.32577845 -0.48774225 -0.25899735 0.074770175
0000c0 e4 8a 89 be 23 59 6c bf 50 9d c7 be 4b bf fc bd
       -0.26863778 -0.9232351 -0.38987207 -0.12341174
0000d0 06 9f 16 bf d4 af 3e 3e 63 fa 3f bf bf ca 8f 3b
       -0.588364 0.1862176 -0.74991435 0.004388183
0000e0 eb d4 bd be 0a a7 8c bd b5 b4 0f bf ed eb 18 be
       -0.37076506 -0.06867798 -0.5613511 -0.14933749
0000f0 bd 30 27 be 80 f2 7e be d0 08 a6 be de 64 41 be
       -0.16327186 -0.24897194 -0.32428598 -0.18886134
000100 c2 b3 16 bf 8b bf 66 bf 6a 46 cc be 94 f0 17 bf
       -0.5886804 -0.9013602 -0.39897472 -0.5935147
000110 7f 66 10 be 80 ce 69 3e f1 e2 1c bf 25 81 aa be
       -0.14101599 0.2283268 -0.61283785 -0.33301654
000120 99 96 56 be 41 e6 05 bf 0f 80 ad be 4e 78 87 be
       -0.20955886 -0.52304465 -0.33886763 -0.26458973
000130 4f f8 1c bf ba 92 11 bf 8a 88 83 be 57 68 ad be
       -0.6131639 -0.5686451 -0.2569011 -0.33868667
000140 44 ae ea be 4e ec 7b be 84 ca 9d bd fa 58 5c b9
       -0.4583608 -0.24601862 -0.077046424 -0.00021013981
000150 bf 25 28 bf 7c 7b 92 be ab 67 04 be 4c 05 3f bf
       -0.65682596 -0.28609836 -0.12930171 -0.7461746
000160 92 af 8d 3c d1 5d 9f bd 57 ac 3d 3d 86 71 86 be
       0.017295633 -0.07781566 0.046306934 -0.26258487
000170 ed 6c 84 3e f7 8e 27 bf 6b 25 62 be 09 52 81 be
       0.25864354 -0.6545252 -0.22084586 -0.252579
000180 f2 68 e4 be 3e 4e 9b be d8 e9 36 be 60 d4 e3 be
       -0.44611317 -0.30333132 -0.17862642 -0.44497967
000190 1c c8 7c bf 66 b5 9e be c5 aa c9 be 12 38 89 be
       -0.9874284 -0.3099777 -0.393881 -0.2680059
0001a0 e6 3a 0c bf ab 4d 1b bf 6f 5a 1b bf 4a f8 d3 bd
       -0.5477737 -0.60665387 -0.60684866 -0.10350092
0001b0 b2 5c 3d 3e 7e 53 e2 be 7f 50 24 bf 8a 26 96 3e
       0.18492392 -0.44204324 -0.6418533 0.29326278
0001c0 ce f0 19 bf c7 74 16 3e 07 aa ba be af f6 20 bf
       -0.60133064 0.14692985 -0.36457846 -0.6287641
0001d0 7d 15 c3 3e 49 d4 b8 be e1 f5 07 bd e3 c3 9e be
       0.38102332 -0.3609946 -0.033193473 -0.31008825
0001e0 76 18 7a 3e d3 0b 69 bf 27 bf b4 be f0 14 ac 3e
       0.24423394 -0.9103367 -0.35302088 0.33609724
0001f0 ac 00 67 bb 79 06 30 be e7 83 df be b8 09 51 bf
       -0.0035248203 -0.17189969 -0.4365532 -0.81655455
000200 52 49 2b be 1e 17 0b 3d a8 88 fc be a6 2c 1b bf
       -0.16727188 0.033957593 -0.4932301 -0.60615003
000210 fc e5 f3 be a9 8c 3b be cd 06 9d be d2 4a b3 be
       -0.47636402 -0.18315376 -0.3066925 -0.3501802
000220 f0 05 a7 be 5a 9f dc be 43 f7 67 bf f8 55 bd be
       -0.32621717 -0.43090326 -0.90611666 -0.3697965
000230 e6 97 9f be ad f1 05 bf d0 3a 0e bf 0d fd 1c bf
       -0.31170577 -0.5232189 -0.5555849 -0.61323625
000240 6c 26 7f be fc f7 f3 bd 46 21 1f bf ab 76 c3 be
       -0.24917 -0.11912534 -0.62160146 -0.38176474
000250 10 99 6a 3d 73 41 78 bd e9 71 e0 be 2f 33 e8 be
       0.057274878 -0.060609292 -0.43836907 -0.4535155
000260 90 9a b3 be f5 57 c3 be 71 ac 0e 3e e4 d9 7b bf
       -0.3507886 -0.38153043 0.13932969 -0.9837935
000270 9e de 91 bf df 1f d4 3d 34 fc ac 3e 08 62 c4 be
       -1.1396062 0.103576414 0.33786166 -0.38356042
000280 c7 13 96 be 43 a4 90 be 98 24 18 be df 49 2f bf
       -0.29311964 -0.28250322 -0.1485771 -0.68472093
000290 c7 ca 8d be 80 01 2b bf cc f7 7f bf 9e 3f f1 be
       -0.2769377 -0.66799164 -0.99987483 -0.4711885
0002a0 b4 6a ad bd a2 5c 19 bf a3 89 aa be 8c de 6b bf
       -0.08467618 -0.5990697 -0.33308133 -0.92136455
0002b0 82 fd a0 3e d6 f1 16 bf 27 bc d0 3d 69 a1 97 be
       0.3144341 -0.5896276 0.10192137 -0.29615334
0002c0 d1 63 d8 3e 11 af 51 be 73 31 68 be a5 8d 0f bf
       0.42263654 -0.20476939 -0.22675113 -0.5607551
0002d0 d1 68 54 3d 5d a9 9a bd c6 dc d8 bd 61 d4 4c bf
       0.051857773 -0.07551835 -0.10588984 -0.80011564
0002e0 05 b4 06 bf f6 40 50 be 8b 9d a5 3c f3 db 8f be
       -0.5261844 -0.2033728 0.020216724 -0.28097495
0002f0 62 33 52 bf 70 33 83 be 35 f8 7c bd 91 47 45 bf
       -0.82109654 -0.2562518 -0.061760146 -0.77062327
000300 56 f4 5d be 88 11 cf bd a8 1d 11 3e f2 b5 b3 3d
       -0.21675238 -0.10110766 0.14171469 0.08774938
000310 be 6b 58 3b 5f 85 bc be 4c ef 41 be df 93 2b bf
       0.0033023204 -0.36820504 -0.18938941 -0.6702251
000320 20 76 84 be a5 5f 1b be c6 f4 18 3d 04 8c f0 be
       -0.25871372 -0.15173204 0.03734281 -0.46981823
000330 c6 bc 14 be de 47 aa be de 25 1c bf d6 fe 18 bf
       -0.14525136 -0.33257955 -0.6099528 -0.5976385
000340 37 71 bd be 1a ea 13 bf 58 55 a1 be 43 7e ce 3d
       -0.3700044 -0.57779086 -0.31510425 0.10082676
000350 6a 9e 0c bf 2b 83 39 bc 4f 45 a3 be 02 33 88 3e
       -0.5492922 -0.011322777 -0.31888816 0.26601416
000360 54 5f 89 be c0 72 dd bd 6f 42 30 be 08 5b 32 bf
       -0.26830542 -0.108129025 -0.17212842 -0.6967015
000370 35 24 1c bf e7 ac 0d bf 46 dc 11 bf 42 5a 9c be
       -0.6099275 -0.55341953 -0.56976736 -0.3053761
000380 05 6b 42 3e 8c 75 b6 bd da 70 09 bf 4c 78 09 bf
       0.18986137 -0.08909139 -0.5368782 -0.53699183
000390 05 81 82 bf 25 8e 8a be 48 ea 30 bf 77 ca 2d be
       -1.0195624 -0.27061573 -0.69107485 -0.16971765
0003a0 bf 35 28 bf f3 98 6b be cb e2 78 bd a2 89 3a bf
       -0.6570701 -0.23007564 -0.06076316 -0.7286626
0003b0 5f aa 21 bf 70 ac 14 bd 5e 47 9c 3e 5d 84 87 be
       -0.6315059 -0.03629726 0.305232 -0.26468173
0003c0 9e 4e 16 bf 64 24 08 bf a2 47 bb be c4 9b 5e 3d
       -0.5871371 -0.5318053 -0.3657809 0.05434777
0003d0 aa 2d c7 bc b3 7d 3c be 06 dc 23 be ab 3c cd bd
       -0.024313767 -0.18407325 -0.16001901 -0.10021337
0003e0 de c8 69 be fd 56 df be 7e 8e 00 bd 46 e6 8d 3c
       -0.22830531 -0.43621054 -0.03138589 0.017321717
0003f0 14 76 0d be 2a 32 1a bf 0e 07 d6 3e f4 63 de 3d
       -0.13814574 -0.60232794 0.41802257 0.10858908

3.weight f4 [300, 400]
000000 fe b1 1a bd a6 74 28 3c 4b 88 6a bc 52 63 50 bd
       -0.037767403 0.010281717 -0.014314721 -0.05087597
000010 e5 8c 8c bc f9 21 4e bc 96 26 a2 bb ca 3a 60 bd
       -0.017157027 -0.012581342 -0.0049484475 -0.054743566
000020 c2 d8 d1 bb 30 bd 34 bd b6 58 16 bd 18 ae cc 3c
       -0.0064040134 -0.044125736 -0.036705695 0.024985358
000030 bd 7a 05 bb fe ee 94 bd e4 f2 7b bd a2 3b 5a bd
       -0.0020367347 -0.07272147 -0.061510935 -0.053279527
000040 f2 5f e8 3c 26 9c 97 bc d3 c6 67 bd 50 6e 4a 3c
       0.028366063 -0.018507075 -0.056586098 0.012355402
000050 4d 08 90 39 69 3d c5 bc ed c3 1d 3d 9c 2e 8d 3b
       0.00027472005 -0.024077134 0.038516928 0.004308535
000060 5b 71 6c bd 4d 82 84 bd 01 e9 47 bd 21 2c ce bc
       -0.05772529 -0.064701654 -0.048806194 -0.025167527
000070 c5 58 10 3b 45 a3 8e bc f2 88 5d bd 2c 62 8d bd
       0.0022025567 -0.017411837 -0.05408568 -0.069034904
000080 b4 7a 88 bc 5c 3b 0e 3c 4d ed 03 bc 21 d0 54 3d
       -0.016660072 0.008681145 -0.008052182 0.0519563
000090 37 9f 36 3b 20 98 3c bc 56 40 a5 3a 20 9c 33 bd
       0.0027865896 -0.011510879 0.0012607675 -0.043850064
0000a0 fa 56 ad 3c d2 f3 53 bd 14 a0 fb bc df 3f 80 bd
       0.021159638 -0.051746197 -0.03071598 -0.062621824
0000b0 60 de 11 bd d5 0c 86 bd f7 01 dd 3c c9 58 c2 bc
       -0.035612464 -0.06545416 0.026978476 -0.023723977
0000c0 e6 cf 1e bd a3 c5 75 3c 77 b0 b0 3c 5b b3 61 bc
       -0.038772486 0.015000734 0.02156852 -0.013775672
0000d0 85 54 18 3c 82 bf d0 bc 6e a4 9c bc f7 3c 24 bd
       0.009297495 -0.025481943 -0.019121375 -0.040097203
0000e0 a3 f8 60 bd 5b 81 61 bc 80 08 49 3c a5 88 94 3c
       -0.05492462 -0.013763751 0.012270093 0.018131563
0000f0 e3 0e 6f bc e4 71 84 3c 41 b8 cc bc da 83 52 bd
       -0.014590952 0.016167589 -0.024990203 -0.051395275
000100 a4 d2 77 bc 93 9e f5 3c 1c 79 72 bd 23 ee 68 bd
       -0.015125904 0.02998284 -0.05919753 -0.05686773
000110 2e d4 2c bd b0 33 b4 bc 19 e1 d0 3c 11 84 d6 bc
       -0.042194538 -0.021997303 0.02549796 -0.026186021
000120 04 19 0b 3c 0a 56 e9 3b a4 09 73 3d 1a 89 97 bb
       0.008489851 0.0071208524 0.059335366 -0.004624498
000130 ee 5a a2 3c 6e d5 98 ba e6 18 97 bb af c1 2d bd
       0.01981875 -0.0011660287 -0.0046111224 -0.04242104
000140 dd f8 96 3c 95 db 88 bd 6c c3 82 3c 5b 6e 00 bd
       0.018429214 -0.06682507 0.015962325 -0.031355243
000150 8d d3 84 bc 88 ee 0d bd aa 0c 63 3d a3 31 fd bb
       -0.016214157 -0.03465131 0.055432 -0.0077268644
000160 c6 5a 98 bd ad 55 0d bd a1 75 48 bd dd 25 e9 bc
       -0.07439189 -0.034505535 -0.048940305 -0.028460437
000170 9d 72 8a bd 37 1d bb 3c 7a b8 2d bc 99 be 5c 3c
       -0.06760142 0.02284108 -0.010603065 0.013473176
000180 7e 2a 22 3c 70 5e 0d 3d 97 32 20 bd 38 3b cf b9
       0.009897826 0.03451389 -0.039110746 -0.00039526238
000190 8e a1 1d bd f6 b1 1d bd f4 74 71 bc 39 d8 52 bd
       -0.03848415 -0.038499795 -0.014737356 -0.051475737
0001a0 41 4b 41 bd 21 71 4f bd 23 cb f2 3c f6 a0 a4 3b
       -0.04719091 -0.050644998 0.029637879 0.005024071
0001b0 55 84 89 bd e3 aa ee bc 9c 9e f2 bc ef 70 2f bc
       -0.067146935 -0.02913422 -0.029616646 -0.010708078
0001c0 9a 72 d8 bb f5 47 05 bd 80 16 b6 bc 27 22 a3 3c
       -0.0066054584 -0.032539327 -0.022227526 0.019913746
0001d0 e3 63 fe 3c 46 a1 1f bc d9 69 4e bd 03 a1 25 bd
       0.03105349 -0.00974304 -0.050393913 -0.040436756
0001e0 f2 78 e8 3b ba 6e 55 3d e8 f9 c9 3c de ce 1d bb
       0.007094496 0.05210755 0.024655297 -0.0024079601
0001f0 8f 91 28 bc 82 a6 e9 3c e5 97 86 bc c8 43 39 bd
       -0.01028861 0.02852178 -0.01642985 -0.045230657
000200 9a b0 6f 3c e3 f8 e1 bc f6 78 1a 3d b9 dd 4f bd
       0.014629507 -0.027584499 0.037713014 -0.05074856
000210 f7 d8 bc 3c 18 7c 4c 3c 6c 32 7d bd 7c c0 09 3d
       0.023052676 0.012480758 -0.061815664 0.033630833
000220 26 d1 23 3c 9e 6a 9c bb 55 e9 8d bd a0 06 35 bd
       0.009998595 -0.004773452 -0.0692927 -0.04419577
000230 93 24 0c 3c 15 b0 09 bd 92 24 68 3c b5 d9 8d ba
       0.008553642 -0.03361519 0.014168875 -0.0010822328
000240 f3 38 21 3c 67 9e a0 bc ad d1 09 bd 83 2a 6d bc
       0.009840238 -0.019606782 -0.033647228 -0.014475468
000250 c1 09 4e bd 17 02 a6 bb 9c 50 7f bd fb 7d 80 bd
       -0.05030227 -0.005066167 -0.062332734 -0.06274029
000260 45 82 07 3d 29 51 49 bd 76 5e 2d 3b 92 5c e7 3c
       0.03308322 -0.049149666 0.0026454008 0.028242383
000270 63 3d 61 bb 97 1c 2c bd b7 20 b0 3c a1 48 43 3d
       -0.0034368865 -0.042019453 0.021499975 0.047676686
000280 16 7b 96 bc 35 66 01 bc 59 9f 43 bd 89 e9 df 3a
       -0.018369239 -0.007897903 -0.047759388 0.0017083149
000290 4c 0b 03 3c c2 16 69 3b 61 73 58 3c e4 69 7d bc
       0.007998299 0.0035566543 0.013211102 -0.015467141
0002a0 b5 55 0a bd be 71 93 bd d5 46 0d bd 42 e0 d6 bc
       -0.033773143 -0.07199429 -0.03449138 -0.026229981
0002b0 2d 2d 01 bd d7 f5 26 bc 1d c9 86 bd b2 95 5e bc
       -0.031537224 -0.010190449 -0.06581328 -0.013585495
0002c0 e2 b7 57 bd 35 51 11 3d 8b 92 e1 bc be c9 ae 3b
       -0.0526656 0.035477836 -0.027535697 0.005334108
0002d0 26 6a 17 bd 2a 7a d7 ba 13 c3 f1 3c e1 28 c1 bd
       -0.036966465 -0.0016439606 0.029511964 -0.09431625
0002e0 46 59 2b 3c 85 21 94 3c dd 5e 06 bd ad 55 0d bd
       0.010458296 0.01808239 -0.032805312 -0.034505535
0002f0 f6 4b 95 bb 0a 2c d7 bc d6 b8 93 bc 59 be c2 bc
       -0.0045561744 -0.026266117 -0.018032473 -0.023772405
000300 8d 15 93 3c 04 09 7d bd 71 b1 d0 3c 1b 77 ea bc
       0.017954612 -0.061776176 0.025475236 -0.028621247
000310 d4 12 85 3c 9e 8d ab 39 f9 f9 43 bd 60 b5 cd 3b
       0.01624433 0.00032721175 -0.047845814 0.006277725
000320 7c f3 74 bd 2f eb a4 bc 97 66 28 3c ef ca 20 bc
       -0.059802517 -0.020131676 0.010278366 -0.009814008
000330 8f 99 2f bd 15 1e 99 3c 5c 0e 89 3c ec 39 82 3c
       -0.042871054 0.018691102 0.01673048 0.01589676
000340 05 5e 0c 3d 2a 3e e1 bc 24 e8 02 bc 3d f9 8b bd
       0.03426935 -0.027495462 -0.007989917 -0.06834648
000350 c6 12 a4 3c 3d 6e 1e 3b c6 9a 1e bd ed c9 83 bc
       0.020028483 0.0024174594 -0.038721822 -0.016087497
000360 6f ae ab bb 38 c5 b8 bb c3 96 f5 3b 86 88 00 3d
       -0.0052393 -0.0056387447 0.007494779 0.0313802
000370 21 a7 c6 3c bd 56 0b bc 01 14 de 3c b5 c2 15 3d
       0.024249615 -0.008504567 0.027109148 0.03656264
000380 f6 d7 1f bd 00 d9 39 bd 90 83 bb bb 4c ce 08 3c
       -0.039024316 -0.045372963 -0.0057224706 0.008349966
000390 7c 7c 8c 3c d7 7e 25 bd 09 21 dd 3c 80 8a c4 3c
       0.017149203 -0.040404167 0.026993291 0.023991823
0003a0 ab 38 e4 bc 4c c5 fd bc 21 b7 54 3d c7 46 2c bc
       -0.027859053 -0.030977868 0.051932458 -0.0105149215
0003b0 20 ae 79 bc dc 10 fa bc 8f b6 a6 bc 33 74 1c 3c
       -0.015239269 -0.030525617 -0.020350723 0.009549188
0003c0 ea 1d dd bc d4 93 fc 3c fc 5b 07 bc ff 4f 3b 3c
       -0.026991803 0.030832209 -0.008261677 0.011432647
0003d0 f0 41 bb bc 4d 54 94 3c 2b fd 6f bc 02 fc e1 3b
       -0.02285859 0.018106604 -0.014647762 0.0068964968
0003e0 a0 a8 4c 3c 39 e7 43 bd 27 22 23 3d 00 2d 45 3c
       0.012491375 -0.047827933 0.039827492 0.012034655
0003f0 65 dd 1a 3d c7 67 b3 3c 02 17 6a 3c 08 3b 48 3c
       0.037808795 0.02190007 0.014287712 0.012221105

3.bias f4 [300]
000000 e1 28 5a 3b 59 2b ce bd 34 ff 74 bd 2c 83 55 3e
       0.0033288526 -0.10066862 -0.059813693 0.2085082
000010 2f 56 a8 bd 57 6c 59 3e f6 58 17 bd 09 5c 17 3f
       -0.08219563 0.21232735 -0.036950074 0.5912481
000020 a5 7f 89 bc 96 0b 3f be ae 41 21 3b 4d 0d 8b bd
       -0.016784498 -0.18656763 0.0024605799 -0.06789646
000030 7e 8d b2 be 16 93 92 bd 12 7e d7 bc a4 50 7c bd
       -0.34873575 -0.07156961 -0.026305232 -0.061600342
000040 bb 3c 6e bd 9d fc 8c bd 13 11 e5 bc 98 ae 35 bd
       -0.058163386 -0.0688412 -0.027962243 -0.04435596
000050 32 a2 36 3e 1c d8 48 3e 67 de 26 bd cf 7d 24 bd
       0.1783531 0.19613689 -0.040739443 -0.040159043
000060 25 20 02 bd da 8b f3 bd 9c 62 fc bc d4 0e 43 3f
       -0.031768937 -0.11891909 -0.03080874 0.761945
000070 74 3e f8 bc 4f c6 8f be 9c 54 a8 3e cd 49 03 bd
       -0.030303217 -0.28080985 0.32877052 -0.032052804
000080 15 5a 0f bd 0a b1 5e bd 9b 7b 63 bd 6a 08 d2 3e
       -0.03499802 -0.054368056 -0.0555378 0.41022044
000090 a1 97 d3 3b 35 bf a9 3f 28 f5 b6 bc d2 c6 19 be
       0.0064572846 1.3261477 -0.022333696 -0.1501725
0000a0 d7 81 b1 3a 3a 6f 57 bf ed d5 81 bd b8 41 37 bd
       0.0013542724 -0.84154093 -0.06339631 -0.04474041
0000b0 7f a4 af bd ec d1 f1 bc 7e 79 99 bd c5 81 67 bd
       -0.08576297 -0.029519044 -0.07493876 -0.056520242
0000c0 15 0b 3d be bd da 0e bd 68 01 36 bd d7 7f 29 bd
       -0.18461259 -0.034876574 -0.044434935 -0.041381683
0000d0 9e d1 91 3f 5d fe c4 be 36 f8 13 bf 79 7e 49 bd
       1.1392095 -0.38475314 -0.57800615 -0.04919288
0000e0 e0 9b b2 bd 1f 34 23 bd 82 b4 56 bd 67 76 af bd
       -0.08721137 -0.03984463 -0.05241824 -0.08567505
0000f0 3c a3 f8 bc 4f 1a 26 bd b2 6e 58 bc 34 ed f7 bc
       -0.030351274 -0.040552434 -0.013209986 -0.030264474
000100 ac 42 8c 3c e1 1c 5f be fb 46 8b be 6e 9b 11 bd
       0.017121635 -0.2178836 -0.2720259 -0.03554862
000110 86 5c 9f bd e6 f0 25 3a 17 65 a2 bd 18 27 8a be
       -0.07781319 0.0006330147 -0.079294376 -0.2698295
000120 09 6f 31 bf e5 e0 ce be 8d e7 9a 3e ae d0 5a 3e
       -0.6931005 -0.40405956 0.30254784 0.21368667
000130 ff c0 a4 bd bb b9 6e bd f2 b6 e2 3c a3 fb 8e 3f
       -0.080446236 -0.058282595 0.027675126 1.1170543
000140 20 98 59 3e a4 44 7e bd 00 d7 9f be 9e 1a ce 3d
       0.21249437 -0.06207718 -0.3121872 0.100636706
000150 a7 e3 ed 3d d5 13 89 bd 0f 5f 34 bd 4e d0 10 bd
       0.11615687 -0.06693236 -0.044035967 -0.035354905
000160 35 3d 0c bc f7 96 6b be 3a 36 c8 3c 53 2e 2b bd
       -0.008559515 -0.23006807 0.02443992 -0.041792225
000170 55 44 03 bd f3 76 00 bf d8 05 ce 3c e9 34 ad 3b
       -0.03204759 -0.501815 0.02514927 0.0052858484
000180 d3 e1 ef bd f4 b9 68 be 10 45 bb bd e9 56 fb 3d
       -0.117129944 -0.22727185 -0.09144032 0.12272436
000190 02 fc 4c 3d 08 d0 ab bd 2a ea d5 bc 87 0d d1 3b
       0.05004502 -0.08389288 -0.026112635 0.0063797864
0001a0 a8 6a 32 bd 27 b1 a0 be 1e f3 00 be b4 c4 d0 bd
       -0.043558747 -0.31385157 -0.12592742 -0.10193768
0001b0 58 a4 9f 3e be ef 17 bd 88 55 b5 bd f1 b4 45 bd
       0.31180072 -0.03709387 -0.088542044 -0.048268262
0001c0 d8 ff 35 bc 4c 75 2c be 37 1f 2a bd 62 8b b1 3f
       -0.011108361 -0.1684162 -0.041533675 1.3870661
0001d0 1d ef 08 be 4d d4 87 bd b1 2e d7 3e e2 bb 15 3d
       -0.13372464 -0.0663229 0.4202781 0.036556132
0001e0 7f f5 ae bd e7 48 a8 bd e7 fe ab bd 7f fd 58 3d
       -0.085429184 -0.0821703 -0.08398228 0.052976128
0001f0 ed 27 05 be 99 e0 4e bd cf 0e 52 3f da 37 92 bd
       -0.13003512 -0.05050716 0.82053846 -0.07139559
000200 ca f2 85 3f 07 66 ac bd 77 93 80 bc 87 1a f7 be
       1.0464718 -0.08417898 -0.015695317 -0.48262426
000210 8f 6a b4 be 50 0f 45 3b 35 11 8b bd a5 94 17 be
       -0.35237548 0.0030068941 -0.06790391 -0.14802797
000220 3a 0c db bc c6 17 e2 3c 01 29 4e bd 29 f7 1e bf
       -0.026739229 0.027599227 -0.050332073 -0.62095886
000230 e4 98 8a 3b d0 a2 40 be 63 19 44 be 97 a3 a2 bd
       0.0042296518 -0.18812108 -0.1915031 -0.079413585
000240 78 e2 d0 3e cf 59 2a bd 1d 16 8f bd 64 04 1f be
       0.40797782 -0.041589554 -0.0698664 -0.15529019
000250 e6 92 10 bf 3d d1 7a 3f 60 57 96 bc da 26 d5 bd
       -0.5647415 0.9797552 -0.01835221 -0.10407801
000260 55 77 87 bd 34 dc 7e bd b5 ba b3 3f 13 2a e5 bc
       -0.06614558 -0.06222172 1.4041353 -0.027974164
000270 5d b1 8b bb b3 cf e5 bc 3f e0 a4 bc be 4d 99 bd
       -0.0042630867 -0.02805314 -0.02012646 -0.07485531
000280 06 8c 95 bc cc e1 72 bb da 36 ca bc 0e 8c 92 bc
       -0.018255245 -0.0037060855 -0.024684358 -0.017889049
000290 9e ac 2a 3a f9 55 49 be dd 91 8a bd d4 bf 7d bd
       0.00065107073 -0.19661702 -0.067661025 -0.06195052
0002a0 fe 97 96 bd 80 e6 3d bd 64 b8 72 bd f2 1c d6 bc
       -0.07353209 -0.0463624 -0.05925788 -0.02613685
0002b0 33 35 2a be 81 19 c2 bd cc a5 7c bd 5d c9 42 be
       -0.16621856 -0.09477521 -0.061681554 -0.19022126
0002c0 ed 1e 8b 3e 95 51 86 bd c0 22 f4 be 7a 4b 5e bd
       0.27172032 -0.06558529 -0.47682762 -0.0542712
0002d0 05 43 09 bf d2 6f e9 3b 69 92 40 3f 1d c9 08 bc
       -0.5361789 0.0071239257 0.75223404 -0.00834873
0002e0 2b 26 e3 3e 4d 8f 86 bb 54 81 fd bb c4 a3 77 bd
       0.44365057 -0.0041064383 -0.0077363644 -0.060458913
0002f0 27 75 2a bd 74 00 7a bd 95 50 02 bd f9 9b 42 bd
       -0.04161563 -0.06103559 -0.03181513 -0.04751203
000300 e2 fb 54 bd 48 82 b9 bd 9e 72 9b 3e c5 22 7c 3f
       -0.051998027 -0.09058052 0.30360883 0.98490554
000310 50 b9 b1 bd c4 71 77 bd 8a c1 d5 bc a3 24 f8 3e
       -0.08677924 -0.06041123 -0.026093263 0.48465452
000320 65 dc 05 bd 35 56 8c bd d7 1c 23 3f 6d b0 81 bd
       -0.032680888 -0.0685238 0.6371588 -0.06332479
000330 65 84 03 bf d8 f5 3f bd bb 6c ff 3b 20 ca 3c bc
       -0.51373893 -0.046865314 0.007794944 -0.0115228
000340 9d 30 b5 3d fb 2f 6d bd 24 66 a2 be 36 45 ac 3c
       0.08847163 -0.057907086 -0.31718552 0.021029096
000350 cb 4d e1 bc 80 b1 b1 bc 98 1e b4 bd 14 18 5b 3d
       -0.027502915 -0.021691084 -0.08794898 0.05348976
000360 7a 25 dc bd a8 57 b1 bd a5 03 8d bd 8c 93 d4 be
       -0.107493356 -0.08659297 -0.06885461 -0.4151882
000370 da cd 1e 3f 0c 3c 20 be 4e 30 9a bd 0f d0 28 bd
       0.62032855 -0.15647906 -0.07528745 -0.041214045
000380 29 66 1c bd f5 81 8c bc e4 b2 f5 bc ea 86 81 be
       -0.038183365 -0.017151812 -0.029992528 -0.25298244
000390 7a b9 6d 3c 03 27 a3 3e a4 ad 79 bf 7e 3c 18 be
       0.014509553 0.318657 -0.9753058 -0.14866826
0003a0 ad 4c 02 bd b5 04 0b bd 22 43 5f bd 6c 10 af 3e
       -0.031811405 -0.033940036 -0.054507382 0.34192216
0003b0 8d cc 81 bd f7 25 2c b9 68 e2 36 bb 2a a5 d4 bc
       -0.06337843 -0.00016417341 -0.0027905945 -0.025957663
0003c0 7f d5 ab bc a5 8b 07 bd 2e 8b 9b bd 47 e3 4d be
       -0.020975826 -0.03309216 -0.07594906 -0.2010623
0003d0 9f aa a0 3f 76 92 1c bd 36 f7 1f bd 38 71 58 be
       1.255207 -0.038225614 -0.039054118 -0.2113694
0003e0 03 5b 67 bc 9b 2a 1a 3f 63 79 e6 3d 53 74 62 bd
       -0.01412082 0.6022126 0.112536214 -0.055286717
0003f0 4e 87 bd 3e c6 c9 27 3f 60 3f b7 bd f2 49 5b bd
       0.37017292 0.65542257 -0.08947635 -0.053537317

5.weight f4 [1, 300]
000000 f5 67 88 3b 98 e6 b4 bc bd 0f 82 3c 66 f0 bd 3e
       0.0041627833 -0.022082612 0.015876645 0.37097472
000010 ff 89 a9 bc 71 a7 84 3e ec ac f3 bc dc 9b 7e 3f
       -0.020695684 0.25908998 -0.029745542 0.9945657
000020 18 2d 3c bc 71 d3 ed bf b5 5f 99 3b c3 61 69 3b
       -0.011485361 -1.8580152 0.0046805986 0.003561125
000030 b2 f5 aa bf 7c 55 86 3c 48 f7 b2 3c 98 c1 b6 bc
       -1.335623 0.016398184 0.021846429 -0.02230911
000040 6f ac a3 bb d9 4d c2 bc 9a 4c 6f bc ec 5a f0 bc
       -0.004994921 -0.023718761 -0.014605666 -0.02934023
000050 09 93 0b 40 3a 9a 84 3f 90 87 cb 3c 4e 79 2b bd
       2.1808493 1.0359566 0.024844915 -0.041863732
000060 f7 cf b1 3b 54 b2 c0 3f fe 10 00 bb e1 fa b2 3f
       0.0054264027 1.5054421 -0.0019541378 1.3982812
000070 b1 d3 c3 bc d4 3b 7e bf 86 cc 79 3f 88 d2 ce bb
       -0.023904653 -0.9931004 0.97577703 -0.0063117184
000080 fa c2 e1 bc c6 8b ad 3c 70 8f 45 3c 69 9b 08 40
       -0.027558792 0.021184813 0.012058124 2.1344855
000090 9e 99 90 bb 53 d3 87 3f 84 4b f4 bc 33 90 ac bf
       -0.004412844 1.0611366 -0.029821165 -1.3481506
0000a0 e6 d7 a5 3b b3 fe 72 3f af 98 38 3c 4d 49 01 3d
       0.0050611375 0.9491989 0.011266871 0.031564046
0000b0 ce 4f 9b bc b0 1a 34 3c d5 18 04 3d 7e 17 48 3f
       -0.018958952 0.010992691 0.032250244 0.78160846
0000c0 d9 81 ea bf e5 26 84 3c 2c f8 0d 3c 02 4a 55 3c
       -1.8320876 0.016131828 0.008665126 0.013018133
0000d0 11 14 91 3f 5a 00 10 c0 9a 54 a7 3e cc a3 0d 3c
       1.1334249 -2.2500215 0.32681733 0.008645009
0000e0 cc 97 8f 3c 9f e2 21 bc b5 69 0f bd ad 64 97 3c
       0.017528437 -0.009880691 -0.03501292 0.018480623
0000f0 0a 4b ef 3b 8f 44 00 bd e3 04 f9 3c 92 70 53 3c
       0.0073026465 -0.031315383 0.030397838 0.012905257
000100 55 67 92 3c 2e dd bc bf 83 51 15 c0 40 d8 4f 3c
       0.017871538 -1.4754999 -2.3331 0.012685835
000110 6d 84 19 3c b7 c2 ae bc 6a e1 64 bb 97 78 9e bf
       0.009369952 -0.021333082 -0.0034924396 -1.2380551
000120 aa 59 45 bf 33 30 c0 bf 0c 31 9e 3f ba f0 2b c0
       -0.7708994 -1.5014709 1.2358718 -2.6865678
000130 13 a0 e2 39 a3 bc 6a bc c3 4c c0 3f f1 90 56 40
       0.00043225344 -0.014327201 1.5023426 3.3525965
000140 a2 b0 84 3f 1a 91 55 3d d2 dd de bf d4 38 96 3f
       1.0366404 0.052140333 -1.7411444 1.1736093
000150 4a 9b 85 c0 7f e1 a9 bb f5 68 35 40 75 60 9c 3c
       -4.175206 -0.005184352 2.834531 0.019088963
000160 91 1d 4c bc 6b a2 d9 bf 94 b8 57 c0 c0 73 9b c0
       -0.012458221 -1.7002691 -3.3706408 -4.8578796
000170 68 a6 c0 3b 63 0f f1 bf b1 09 54 3b 41 fd b7 bf
       0.005879212 -1.8832821 0.003235441 -1.4374162
000180 00 43 b9 3c 0d f7 fa bf 51 ef 41 3d 00 9d e7 bf
       0.022614956 -1.9606644 0.04734737 -1.8094788
000190 ee 73 3f c0 fa ae 5c bb 2e ed 93 bc db 1e 1f c0
       -2.9914508 -0.003367363 -0.018057432 -2.4862583
0001a0 57 b0 bc bc e8 9c 4c 3f f2 31 4b c0 80 b7 13 c0
       -0.023033304 0.7992692 -3.1749234 -2.308075
0001b0 a1 2c fa 3f ee 05 2c 3b 6d 30 8e bc 51 bd 41 3c
       1.954487 0.0026248652 -0.017357076 0.011824922
0001c0 8d a1 04 3c 79 c1 c6 bf 5f f3 b2 3c 28 80 90 3f
       0.008095157 -1.5527793 0.021844564 1.128911
0001d0 97 0f aa 3c 01 cf c3 bb 62 99 1e 40 e8 63 ca 3f
       0.020759387 -0.0059756045 2.4781117 1.5811739
0001e0 9d 39 07 3d 15 46 8a bc 01 01 44 3c 30 83 13 c0
       0.03301393 -0.01687912 0.01196313 -2.304882
0001f0 39 07 47 3d 2b 59 69 3b af 4c 94 3f 7c 6b b7 3f
       0.048590872 0.0035606127 1.1585902 1.4329677
000200 55 43 fe 3f 30 48 3b bb 6f 9a 26 3c f4 78 bc be
       1.9864298 -0.0028576963 0.010168656 -0.3681103
000210 4d 59 e1 bf fb 3c ef bc 03 53 00 bd 03 c7 0b c0
       -1.7605377 -0.029203882 -0.031329166 -2.1840217
000220 b4 33 ff bb 06 37 fb bf 6c d8 f2 bc a6 e5 2b 3f
       -0.007788146 -1.9626167 -0.029644214 0.6714729
000230 3f 44 3e 3c 5b a7 8c bf 1b 69 cf bf 92 41 df 3c
       0.011612951 -1.0988573 -1.6203951 0.027252946
000240 3f 01 44 3f 5d 01 87 bc d6 42 af bb a5 9c 86 bf
       0.765644 -0.016480142 -0.0053485436 -1.0516554
000250 06 ec 4a bf 4e 0f 14 40 76 ac 2d c0 1f 87 2a 3c
       -0.79266393 2.3134341 -2.7136512 0.010408192
000260 71 fd d4 3c f0 16 3e bd 20 32 a3 3f 4d f9 9e 3b
       0.025999757 -0.046408594 1.2749672 0.0048514963
000270 5e 66 24 3d 7f 75 bb ba 09 b8 c8 bb fd 1f 91 3b
       0.040136687 -0.0014301984 -0.0061254543 0.004428862
000280 43 c8 f3 bb 79 d9 d7 3c 39 6a c3 3b 08 fa bd bc
       -0.0074396445 0.026348816 0.0059635905 -0.023190513
000290 f1 b0 ce bb c9 8c 0b bf 65 0b 93 3c cb 30 ea bb
       -0.006307714 -0.54511696 0.01794977 -0.00714693
0002a0 a0 26 b8 bb 46 c5 99 bc 7c 72 7d 3c af bb ae 3c
       -0.005619839 -0.018770825 0.01546919 0.021329729
0002b0 26 0b 13 c0 58 c6 49 bc c3 a9 f6 3b 88 d2 85 bf
       -2.2975554 -0.012315355 0.0075275614 -1.0454874
0002c0 12 4b 92 3f 2d 7c 91 3b 80 66 79 be 64 75 f9 bc
       1.142916 0.0044398517 -0.24355507 -0.030451484
0002d0 4f 5c f3 be a3 61 75 bc 80 35 95 3f 40 ec 5d bf
       -0.47531363 -0.014976892 1.1656952 -0.86688614
0002e0 d0 ac 4b 3f 7c 12 f4 bc 82 69 d6 bb 03 6f ec 3c
       0.79560566 -0.02979397 -0.006543339 0.028861528
0002f0 ca 46 5e bc d2 63 d2 bc 41 d1 4c 3c 93 70 ec bb
       -0.013566682 -0.025682364 0.012501062 -0.0072155683
000300 be 7d 11 bc dd e0 81 bc 6d b8 51 3f 88 c4 d2 3f
       -0.008880077 -0.015854293 0.81922036 1.6466227
000310 0b 70 ed bc e9 82 c8 3c 75 71 95 bc ee 24 a1 3f
       -0.02898409 0.024476485 -0.018242577 1.2589395
000320 34 e3 81 3c 17 58 80 bc ba bd 20 40 f6 08 9c 3c
       0.01585541 -0.015667005 2.51158 0.019047242
000330 9f da b3 3f e8 f6 3d bc 50 48 c8 bc b8 30 be bc
       1.4051093 -0.011594512 -0.024448544 -0.02321659
000340 b1 97 95 bf 67 54 24 3c f1 b4 ac 3e fb 53 67 3b
       -1.1686918 0.010029889 0.33731797 0.003529786
000350 ee 3d 2b 3d ea 50 61 3b 86 e3 95 bc 6c 03 ec 3f
       0.041807108 0.0034380504 -0.018296968 1.8438544
000360 52 f9 d0 3b bb 39 e2 bb 94 45 08 bc 77 9e 38 c0
       0.0063773775 -0.0069038547 -0.00831737 -2.884672
000370 ce e1 17 40 05 d6 46 c0 b7 67 a0 39 ea ee 68 3c
       2.373157 -3.1068127 0.00030594852 0.014217118
000380 28 e4 bc bf 3d d7 99 3a 7e 7e 14 3c 6f 85 0c c0
       -1.4757128 0.001173712 0.009063361 -2.1956441
000390 ce 19 24 3d 72 f5 cd 3f 5c c4 0c c0 26 f8 b5 bf
       0.04006367 1.6090529 -2.1994848 -1.4216354
0003a0 df 59 bd bc 70 eb be bb c9 20 c3 bc 62 2c de 3f
       -0.023114143 -0.005826406 -0.023819344 1.7357295
0003b0 cb 35 65 3b 86 18 a2 3a 60 3d c8 3b bf 30 a2 bc
       0.003497469 0.0012366928 0.006110832 -0.019798635
0003c0 5e ae 18 bb 59 74 c6 bc 40 57 3f 3c 93 94 96 be
       -0.002329729 -0.0242254 0.011678517 -0.29410228
0003d0 27 a1 ce 3f 95 c7 1c 3d 9e 51 9c bb da 5e 78 bf
       1.614293 0.038276274 -0.0047704717 -0.9701973
0003e0 0a 01 5a bc ce 40 9c 3f bb 0d c8 3f c0 ce 42 3c
       -0.013305912 1.2207277 1.562919 0.011890113
0003f0 65 d5 72 3e 11 03 57 40 15 3a 8c ba eb 12 63 bc
       0.23714216 3.3595622 -0.0010698462 -0.013859491
