results/c_8_0/5148637_except/q_func2.pt (torch, 502309 bytes, 5 tensors)

1.weight f4 [400, 10]
00000000: b553 433e c696 7d3f 3461 d9bd 04b1 453e
00000010: dedb 0b40 f9d7 d53e fccb e2be d108 3ebf
00000020: f01b b4bb 1f4d bb3d 31da 7d3f 472e 673f
00000030: e642 b43e ff85 92bd 09e9 4c3f ff25 4e3e
00000040: 6af4 2abe b164 70bd 57e6 413e 6511 e63d
00000050: 6dfe 5c3f d860 193e 07ad 8ebf 9b92 8d3f
00000060: 948e eebf 3612 49bf f919 1bbf 6b84 87bf
00000070: fb29 81bf f513 d7bc 7763 1741 2889 be3f
00000080: dfdd 0bbf 126f d13f 9acf a13e 63e8 44be
00000090: b6cb 333f 7a28 fd3f 5abd 18c0 b2fa 4dbe
000000a0: 4328 05c0 8022 be3e 358a 8c3e a282 d9be
000000b0: f494 1ac0 9a08 823e c765 1fbf ae45 5dbf
000000c0: cdd7 92be 1c47 6abd b850 16bf 676a 22bf
000000d0: 1700 05c0 6ea4 783f 29e5 d4bf 79bf 0ebf
000000e0: e333 ec3d 1a3c 08bf a456 22bf 1ab5 cfbe
000000f0: a92f 20c0 2612 6d40 86af 1440 5dc7 ac3f
00000100: 52d3 f6bd f317 163d 3fa9 4bc0 8b2f cbbf
00000110: 7fd0 b13f d7f3 903a de9f cabe 0878 e0be
00000120: 3b7c b53e 54ed aabf 85bd a6bf 098e 8e3f
00000130: aeb8 63bf 0346 363d eccb ecbd 29cb b03c
00000140: cbd0 0a3f c665 5cbf 52db 52be e4e3 5bbf
00000150: 9e6d 17be 96ad 37bf 8c8c 5bbd ab0b 14bf
00000160: 3b08 f9be 9bd6 35bd a490 2f40 3100 e2be
00000170: 3839 48be 72c6 f1be 0819 8e3e be1d 5e3f
00000180: 1add 62bf 369f c5be da9d a43d d175 4e3d
00000190: 398f 733f f080 f1bf 7cda 9bbf 70d2 7fbf
000001a0: 3e09 f9bf 45aa 94bf f8c2 0dbf 3840 56bf
000001b0: 7451 07bf c590 6cbe d508 4bc1 70e6 6e40
000001c0: 34b4 aebe 353d c9be edb3 8d3f ab82 d93d
000001d0: dad6 e5bf b2b9 29c0 8130 2fc0 3174 ad3c
000001e0: a2b0 0dbf 4467 c6bf b2f9 283e 159e ffbe
000001f0: 5542 eabf 2246 8dbd 46ac 2bbf bf12 febe
00000200: 2933 11bf 34de 39bd e83d 10c0 9eeb 5a3f
00000210: 67d9 123e d772 fdbf 810b a03f 05d2 3f3f
00000220: 9daa 98bf b60d 6cbf 92c2 5dbf 3a34 c6bb
00000230: ac3f 513f 0b97 30bf e00c 823f 93e3 763f
00000240: d541 f33e f821 4d3e 0d63 93bf ab82 40be
00000250: d366 82bf f6ca fd3d 9c04 bb3f 4899 c3bf
00000260: 8661 db3e c132 dbbe 2117 acbf 9be3 cd3e
00000270: 2bfa febc f457 073d 3600 b2be 7c8f 773d
00000280: e58e 0c3f d488 b2bf 708c 8fbe 0b31 0d40
00000290: 5cd8 033f 9f96 a4be 442f a7ba 268d c9bc
000002a0: e61f 02bf fae1 8cbc e267 45c1 0bbe 63bf
000002b0: 04f2 5abe daf9 f9bf 0bfa f03c fd6e 00bd
000002c0: 31d7 ac3f 474f 2c3d ef2e 12bd ef76 71bb
000002d0: 0664 623e 84f5 c2be ad5a edbf 8239 cbbe
000002e0: 3030 06c0 94ba b5bf 52ad fcbe 9d51 f7be
000002f0: ed87 0ebf 22dd 8cbe e4d2 7540 1d82 d840
00000300: 7666 2ac1 99e1 5140 77a2 1640 112c 99be
00000310: 5e89 7e3e 5e48 cdbf dccc db3e 9e40 d83d
00000320: dfc7 82bf 4a9a 3ebf f243 92be b419 8abf
00000330: 6922 ecbf 82f5 2dbf 08f0 a5bf 0dcd f4be
00000340: 8aa5 76bf 19cb e9bd 3e11 81c1 75e8 e540
00000350: 9e83 35bf 7b6d 3ec0 ac29 1340 32ce 473e
00000360: a444 1ac0 7f81 3ebf d762 573f c23e 9d3e
00000370: d3f6 853f 5402 0041 8a5d bd3f f1bc 403f
00000380: cdad 6c3f a492 fbbd 6168 73bf 0ffe 79be
00000390: d711 823e 18d4 57bd 0df0 91c1 cb1c c0bf
000003a0: ec54 8e3f e30a 3fc0 9702 0dbf a411 f3bc
000003b0: 2db0 7ac0 ef50 7ac0 330e 0b40 e343 f83b
000003c0: e481 9cc1 e411 2ebf 253f 013e 09b3 0ec0
000003d0: 3cc2 adbb 2a25 b23e a572 46c0 2bf2 883f
000003e0: f084 0740 0d9c f63d c2ec 6a3e e791 2c40
000003f0: 2116 32c0 72b6 28bf 37cd 653d 33f7 cebf
0.190749 0.99058187 -0.10614243 0.19305807 2.1852946 0.41766337 -0.44296253 -0.742322
-0.0054964945 0.09145569 0.9916106 0.9030499 0.3520729 -0.07154464 0.80043083 0.20131682
-0.16694799 -0.058689777 0.18935524 0.112337865 0.8632572 0.14978349 -1.1146554 1.1060365
-1.8637261 -0.7854341 -0.60586506 -1.0587286 -1.0090936 -0.026254633 9.461783 1.4885607
-0.54635423 1.6362021 0.316037 -0.19229273 0.70232713 1.9777977 -2.386557 -0.20115164
-2.0805824 0.37135696 0.27449194 -0.42482477 -2.4153414 0.25397187 -0.62264675 -0.8643445
-0.28680268 -0.05719672 -0.5871692 -0.6344361 -2.0781305 0.971259 -1.6632434 -0.55760914
0.11533334 -0.5321671 -0.63413453 -0.40567857 -2.502909 3.7042327 2.323213 1.3498341
-0.12052025 0.036643934 -3.182205 -1.5873884 1.3891753 0.0011058998 -0.39575094 -0.43841577
0.35446343 -1.3353677 -1.3026587 1.1137096 -0.88953674 0.044500362 -0.115623325 0.02158125
0.5422484 -0.86092794 -0.20591477 -0.8589461 -0.1478791 -0.71749246 -0.053600833 -0.57830304
-0.48639092 -0.044394117 2.7432032 -0.4414077 -0.19553077 -0.47221714 0.27753472 0.8676413
-0.88618624 -0.3859803 0.0803792 0.050405327 0.95140415 -1.8867474 -1.2176051 -0.9993048
-1.9455945 -1.1614462 -0.55375624 -0.8369174 -0.5285866 -0.231021 -12.689656 3.7328148
-0.3412186 -0.3930451 1.1070534 0.10620626 -1.7956192 -2.651959 -2.7373354 0.021173568
-0.55347645 -1.5500264 0.16501501 -0.49925295 -1.8301493 -0.068981424 -0.67059743 -0.49623677
-0.5671869 -0.045377925 -2.2537785 0.85515773 0.14340745 -1.9800671 1.2503511 0.7492984
-1.1927067 -0.9220842 -0.86625016 -0.0060487064 0.8173778 -0.68980473 1.0160179 0.96441
0.47511163 0.2003249 -1.1514603 -0.18799846 -1.018763 0.12392227 1.4610782 -1.5281153
0.42847842 -0.4281216 -1.3444558 0.40212712 -0.031125149 0.033042863 -0.34765786 0.06043957
0.5490554 -1.3948007 -0.28036833 2.2061183 0.51502013 -0.32146165 -0.0012755175 -0.024603438
-0.50829923 -0.017197598 -12.337862 -0.8896186 -0.21381384 -1.9529374 0.029416105 -0.031355847
1.3503171 0.042067792 -0.03568929 -0.0036844572 0.22108468 -0.3807794 -1.8543297 -0.39692312
-2.0966911 -1.4197564 -0.49350983 -0.48304453 -0.55676156 -0.2751246 3.8409967 6.765883
-10.650015 3.2793944 2.353666 -0.29916432 0.24857089 -1.603771 0.42929733 0.105592
-1.0217246 -0.74454176 -0.28567463 -1.0789094 -1.8448001 -0.6795274 -1.2963877 -0.4781269
-0.9634634 -0.11415691 -16.133419 7.184626 -0.70903957 -2.9754322 2.2994184 0.19512251
-2.4104395 -0.74416345 0.8413519 0.30711943 1.046595 8.000568 1.4794171 0.752883
0.924527 -0.12283829 -0.95081145 -0.24413322 0.25404236 -0.052692503 -18.242212 -1.5008787
1.1119666 -2.9850395 -0.55082077 -0.029671498 -3.917003 -3.9111898 2.1727417 0.007576452
-19.563423 -0.6799605 0.12621744 -2.2296774 -0.0053026956 0.3479398 -3.1007473 1.0698904
2.1174889 0.12041483 0.22941878 2.6964052 -2.7826006 -0.6590339 0.05610391 -1.6169189

1.bias f4 [400]
00000000: af79 64bf ad43 b6bf bcd0 1bbf f737 93c0
00000010: c8d4 3bbf d79e 99bf 4f75 f8bf f295 2cbf
00000020: 4bbe bdbe 575a 84bf 2502 73bf 4715 a73e
00000030: 047b 3fbf 40d7 4abf 271f 5bbf a5ff 26bf
00000040: a408 27bf 5a82 623f 8f93 54bf 4253 c4bf
00000050: 28d4 36bf 4e73 0dc0 7d07 15c0 59ce b9bf
00000060: c864 1fc0 0146 8bbf ca5e 2fbf bc23 96be
00000070: d001 85bf f45c 95bf 61ab 05c0 6099 76bf
00000080: 7091 09bf 38c2 bfbf 8f78 94bf a6e8 8ec0
00000090: e2e0 46bf ab87 d33e 886a 3abf 1c86 f9bf
000000a0: 9323 0fbf 919e ddbe 323b 12c0 14c5 62bf
000000b0: e56d 64bf 2e0a 41bf 3a09 5abf fc6f 48bf
000000c0: d8a9 5bbf 9b97 a1be d4ef 6abf 7955 aebe
000000d0: 2968 49bf 3222 32bf e352 c9be 8656 9a3f
000000e0: c748 b6bf c89d 8bbf 6905 79bf 73bd 59c0
000000f0: bc15 43c0 1bb5 81bf 3fc4 2d3d 5e08 f6be
00000100: 000b 97bf 922f 01c0 0c9e 5cbf 4e04 7dbf
00000110: 0e1f 0bc0 f67a 0abf 79ce 64bf 6d50 bdbe
00000120: acd3 15bf b49d 4dbf f627 f6bf d833 a8be
00000130: 3467 74bf 758d 76bf c4c3 58bf fd91 6ebf
00000140: bf0a 62c0 64ce 36bf c905 3fbf 2497 e1bf
00000150: 7db2 1fbf ca9e a43f 903d 67bf 9dad d8bf
00000160: e561 55bf 94d4 e3bf eee0 a83f bd5e c7be
00000170: 0da2 5dbf 62a3 53bf 9af9 1e3f 7535 b5be
00000180: 592c 56bf 65df 58bf a6fc 5fbf 544d 12c0
00000190: 0637 46c0 2677 aebf a268 57bf f1eb 00c0
000001a0: 9b32 19bf 6e94 86bf 2f59 57bf 7275 85bf
000001b0: 775c af3f c37d 583f d0d3 cfbe 9e70 85bf
000001c0: 98d4 94bf 6018 99bf 4932 aebf 927e 47bf
000001d0: 2026 2dc0 1e84 b5be b8a5 91be e9c5 3dbf
000001e0: 62fd 8cbf 2952 09c0 574c 94bf 122b b6bf
000001f0: 80d8 4bbf 75dc 2ec0 dcf8 c0be 4090 d8bf
00000200: 3ca4 efbf a8f2 aebf b2c7 3bc0 2dac 38bf
00000210: 9079 01c0 8e90 f3bf d90e 83bf fb3a 33bf
00000220: 8713 f4be 51c1 c8bf 3ed7 1dbf b383 77bf
00000230: 668a 84bf 58b2 74bf 35c9 90bf bdd0 81bf
00000240: 2d96 48bf b514 c3bf 6539 0ebf 9145 59be
00000250: 5969 e6be d7f8 83bf 59d8 59bf 6daa 4dbf
00000260: 19ba 36bf 62cb 12c0 39f6 6e3f 6b38 b5bf
00000270: 9c09 3bbf 0e60 61bf 138c 09c0 56a7 5ebf
00000280: cf44 9fbe 7f11 84bf f516 adbf bf03 5fbf
00000290: 4f8e 41c0 d118 56bf e1fc b4bf 919d 98bf
000002a0: 702f 14c0 ebe5 1abe 6d1a c4bf 59f2 bbbf
000002b0: 7ee1 c1bf d10f 1dbf c45c 50bf 3c52 29bf
000002c0: fc9e b7bf 4294 80be af16 d6bf 3354 f5bf
000002d0: db09 81bf db10 babf 4826 46c0 2630 91bf
000002e0: 3e54 30c0 a9ad a0bf 30c3 7d3f 4108 2bc0
000002f0: 709f 23c0 c975 3abf 33b2 b1bf 6289 c0bc
00000300: 6fbd b03e a065 80bf 2412 7fbf 47af 2e3f
00000310: 21db 8ebf 42f0 58bf a9a9 14bf e690 71bf
00000320: da86 1cc0 0d59 4ebf cf75 bcbf 11e6 aabe
00000330: a851 95be 19ac 31bf 485a d9be 6045 47bf
00000340: bed4 2bbf 43d3 a1bf 0d37 d5bf 6552 89bf
00000350: 18fd 08c0 3f99 8cbf 494e 30be 86cf a3bf
00000360: 2230 e7bf 7ab7 c9bf 5da8 8cbf 0d8f 743f
00000370: 49d9 483e 1d3c 9abf 6aaf 8ebf f5ad bcbe
00000380: 0425 bdbf b477 74bf ed85 28bf 1081 cebf
00000390: 1fa3 183f 238d 9fbf 4584 11bf b4f7 4ebf
000003a0: d476 703f 7bd4 20bf c867 abbf d948 adbe
000003b0: 512c b0bf da54 95bf 5138 07c0 741a 51bf
000003c0: 97de a9bf 703d 63c0 2904 dfbf 8ad5 43bf
000003d0: c626 5cbf 53db 51c0 53f2 693f 08fd 8cbf
000003e0: e534 0ec0 edd8 04c0 11e2 2ebf 3cea c1be
000003f0: efd8 fabf ef47 61bf ad50 9abe 928a aabf
-0.89248174 -1.4239403 -0.6086538 -4.6005816 -0.73371553 -1.2001599 -1.94108 -0.674163
-0.37059245 -1.034007 -0.9492515 0.3263342 -0.7479708 -0.79234695 -0.8559441 -0.6523383
-0.6524756 0.8848015 -0.83037657 -1.5337908 -0.71417475 -2.2101626 -2.328582 -1.4516097
-2.4905262 -1.0880738 -0.6850401 -0.29324138 -1.0391178 -1.1668992 -2.0885851 -0.9632778
-0.53737545 -1.4981146 -1.1599292 -4.4658995 -0.77686894 0.41314444 -0.72818804 -1.9494052
-0.55913657 -0.4328504 -2.284863 -0.8858197 -0.89230186 -0.7540616 -0.8517033 -0.78295875
-0.85806036 -0.31560978 -0.917722 -0.34049585 -0.7867456 -0.6958343 -0.3932105 1.2057655
-1.424096 -1.0907526 -0.9727388 -3.402188 -3.0482016 -1.0133394 0.042423483 -0.4805326
-1.1800232 -2.0185285 -0.8617866 -0.98834693 -2.1737704 -0.54093874 -0.8937755 -0.36975423
-0.5852611 -0.8031876 -1.9230945 -0.32852054 -0.95469975 -0.96309596 -0.84673715 -0.9319151
-3.531906 -0.7140868 -0.746182 -1.762425 -0.62381727 1.2860959 -0.9032831 -1.6927983
-0.833525 -1.7799249 1.3193643 -0.38939467 -0.86575395 -0.8267118 0.6209961 -0.35392347
-0.8366142 -0.84715873 -0.87494886 -2.2859697 -3.0971084 -1.3630111 -0.8414403 -2.0144007
-0.5984284 -1.0514047 -0.8412046 -1.0426466 1.3700093 0.845669 -0.40591288 -1.0424993
-1.1627378 -1.1960564 -1.3609096 -0.77927506 -2.705452 -0.3545236 -0.28446746 -0.7413011
-1.1014826 -2.1456397 -1.1585797 -1.4231894 -0.7962723 -2.7322056 -0.37689865 -1.6919022
-1.8721995 -1.3667803 -2.9340634 -0.7213772 -2.0230446 -1.902849 -1.0238906 -0.7001187
-0.47671148 -1.5683995 -0.6165656 -0.9668533 -1.0354736 -0.9558463 -1.1311404 -1.0141827
-0.7835415 -1.5240694 -0.5555633 -0.21217944 -0.4500225 -1.0310315 -0.85095745 -0.80338174
-0.7137771 -2.2936635 0.93344456 -1.4157842 -0.7306154 -0.8803719 -2.1491745 -0.86974084
-0.31107184 -1.0317839 -1.3522631 -0.8711509 -3.0243108 -0.83631617 -1.4139673 -1.1923085
-2.3153954 -0.15126769 -1.5320565 -1.4683334 -1.514694 -0.6135226 -0.8139155 -0.66141105
-1.4345393 -0.25113112 -1.6725672 -1.916632 -1.0081133 -1.4536394 -3.0960865 -1.1342819
-2.7551417 -1.2552997 0.9912596 -2.6723788 -2.5566063 -0.72835976 -1.3882507 -0.02350301
0.34519526 -1.0031013 -0.99637055 0.682362 -1.1160623 -0.84741604 -0.5807138 -0.9436172
-2.4457307 -0.8060463 -1.4723452 -0.33378652 -0.2916386 -0.69403225 -0.42451692 -0.7784023
-0.67121494 -1.2642597 -1.6657425 -1.072827 -2.1404476 -1.0984267 -0.17217363 -1.2797706
-1.8061564 -1.5759118 -1.098888 0.9553078 0.19614138 -1.2049595 -1.1147282 -0.3685147
-1.4776921 -0.9549515 -0.65829355 -1.6133137 0.59623903 -1.2464947 -0.5684245 -0.80846715
0.9393132 -0.6282422 -1.3391047 -0.3384464 -1.3763524 -1.166652 -2.1128123 -0.8168099
-1.3271054 -3.5506248 -1.7423145 -0.7649771 -0.85996664 -3.2790115 0.9138538 -1.1014719
-2.2219784 -2.07574 -0.683137 -0.3787402 -1.9597453 -0.88000387 -0.30139676 -1.3323538

3.weight f4 [300, 400]
00000000: 44f6 5abf 8fa8 4b3f 23f4 8cbe 448a 853f
00000010: 79d9 6cbe 8f23 2c3f a53c 3a3f 7dae 96bf
00000020: a30b 203d 8568 923c 115e 9f3f b9b0 03c0
00000030: fcad 483e 7577 d4bf 0198 cabf e032 383f
00000040: 55aa 353f 5cee 7fc0 ce11 08bf b5fe 2ebf
00000050: 7b14 68bf fa5e 95bf da3c c33f 5cb0 f7c0
00000060: bed0 04c0 adcd a9bf 08b1 18c0 008c 47bb
00000070: 446d 143e a516 5e40 17a0 63c0 83d3 68bf
00000080: c49e 6ac0 a847 96c0 1de5 27c0 5bc7 bdc0
00000090: 1416 2140 13fb 9a3f b383 923f a3ab d6c0
000000a0: e556 39bf 08db 5140 5c8b 21c0 eb0b b1bf
000000b0: 925a 3cbe bace 833f 34bb 86bc b717 eebb
000000c0: 4288 26be 1fc3 22bd 60bf 0740 8649 71bf
000000d0: 7fa9 3340 e0dd 5bbd 8cb5 d13f a8ba afbf
000000e0: 7250 643e 996a 0240 0bbf 89bf 4383 673f
000000f0: d8e9 18bf ea5c 563f b9c2 22bd 288f 6abe
00000100: 8c2f 673e de1f 2ebe cb2c a0bf 2eec 303e
00000110: 6f6c f63f c5ed 46be 1c59 373e 6115 17c0
00000120: cc87 d13e f840 7ebf 8182 3a40 662c cbbb
00000130: 2333 78bf d7ab a4bd fd3a f2bf aaff aa3f
00000140: d264 46c0 4500 a93e b27e 823e dd5f 78c0
00000150: 3d2a a8bf ca0d 2040 cc27 8540 c539 acbe
00000160: a249 e1bd 46b8 abc1 bcd1 58c0 2b53 b53d
00000170: 0156 9cc0 76bb cebf 0af4 4240 8cf2 283e
00000180: 457d 7abf 9945 bd3d 1069 9cbe 4d14 a73f
00000190: 4c5d 7040 ef6a 3b3e b07a 53bf c7ad 6c3e
000001a0: dbee f4be 4662 02be 5519 9fbf 6ee0 b3bd
000001b0: 7fe0 1bc1 f5c4 a740 0c3f 4040 c524 f3be
000001c0: cbdf d7bf f94c b5c0 9ad5 d93f 2e87 85c0
000001d0: 0b09 04c0 f078 37bd fa3a 543c b4e5 2f40
000001e0: 91ac e3c0 956e 48bf 7eb0 8d3f 1d59 32bf
000001f0: 9f18 07c0 ed17 9fbe d240 96bd cc67 5b3f
00000200: 9d5e 843f 80dd 5fc0 87eb 52c0 d37f 1e3f
00000210: a246 8340 cc02 dfc0 9541 06c0 50a0 9b3e
00000220: 0fc1 2240 7b9e e5bd 8863 0a3f 1773 32c0
00000230: e5e5 4a3e 539f 71bf 565b b53f 67de c23f
00000240: 617f 183f 4619 c6be dcfa 18bd 28db 11bd
00000250: ad73 2dbf 4382 b33e 29bd 5f3f 39ff b3bf
00000260: 5ddd 8abf a0aa c33f 8dd5 52c0 805d d13c
00000270: f653 5dbf 8864 b53f 8426 3bc0 229e fa3b
00000280: f925 37be ad24 3dbf ed00 77c0 a78e 2441
00000290: bd63 82be f32c bfbf 5ec6 8140 9afa 1bc0
000002a0: 6605 8b3d 79b8 1abd b84f 10c0 63e2 933f
000002b0: 8a72 2ec0 3a98 133f 6066 933f d50e 8cbf
000002c0: 9f14 33c0 2def 65bc e1e3 a8bf 4ba7 b2c0
000002d0: dee9 02c0 d1e9 6bbf cdca 17c0 9dcd dfbd
000002e0: cd81 8040 8e81 e83e 15b9 0e40 49cb 213f
000002f0: 06c0 983c 907d ec3e 7d37 ae3f 02b5 00c0
00000300: a588 2740 5fa3 a4bf 5be5 75bf b938 15c0
00000310: 1652 213e 9440 75bf fda9 1b40 9be7 d2be
00000320: e390 443f b000 863d 5b21 d73d 87c4 52c1
00000330: d788 af3e 18d8 a8bf 5f9c 673d d6cc fdc0
00000340: 60bb 11c0 6206 af3e 181d c1c0 a129 a5bd
00000350: 6ff5 03c0 750c 803f 144e 80c0 13fc b03e
00000360: 1e9e 28c0 25b8 abc0 7867 143f 831b 2840
00000370: a655 cabf 811e a03f adae f53e aaa4 0ec1
00000380: ddb4 a83e cafb ab3e c634 3ebe 90bf 1ac0
00000390: d695 6c40 3478 0140 c635 2d3e 5d68 673e
000003a0: f8d2 18c0 ae34 c13d e212 18c0 cd1b 2ebc
000003b0: 4c45 0240 d85d 8740 e76a a03e ee87 60bd
000003c0: d5d3 3a3e c90a 8fbf 7ded b13f f715 e43c
000003d0: 8631 63c0 bd5b 4c3f 8ebb 99c1 a266 b5be
000003e0: 7a66 dc3d fab7 aabe e556 a53f 87cf ae3e
000003f0: 9eaf e03f 76e3 c6be 331b 6040 65cb 4abf
-0.8553202 0.79554075 -0.27530012 1.043282 -0.23129834 0.6724176 0.72748786 -1.1772
0.039073598 0.017872104 1.2450582 -2.0576613 0.1959762 -1.6598955 -1.5827638 0.7195263
0.7096303 -3.9989233 -0.5315217 -0.683574 -0.9065625 -1.166961 1.5252945 -7.7402782
-2.0752406 -1.3265892 -2.3858051 -0.0030448437 0.14494807 3.470132 -3.556646 -0.9094774
-3.6659403 -4.696247 -2.623359 -5.9305854 2.5169725 1.2107872 1.1446441 -6.7084517
-0.72398216 3.2789936 -2.5241308 -1.3831762 -0.18393925 1.0297463 -0.016446687 -0.0072660106
-0.16262916 -0.039736863 2.1210556 -0.9425281 2.8072202 -0.053678393 1.6383529 -1.3728838
0.22296312 2.0377562 -1.0761427 0.90434664 -0.5973182 0.83735526 -0.039736483 -0.22906172
0.22576731 -0.17004344 -1.251367 0.17277595 1.9251841 -0.1942664 0.17905086 -2.3606799
0.40923917 -0.99317884 2.9142153 -0.006200361 -0.9695303 -0.08040588 -1.8924252 1.3359272
-3.0999036 0.33008018 0.25487286 -3.880851 -1.313789 2.5008416 4.161108 -0.33637825
-0.110003725 -21.464977 -3.3878012 0.08853754 -4.8854985 -1.6150959 3.046145 0.16498774
-0.97847396 0.0924179 -0.30548906 1.305307 3.7556944 0.1830251 -0.8260908 0.23113166
-0.47838482 -0.12732801 -1.2429606 -0.08783041 -9.742309 5.2427926 3.003848 -0.4748899
-1.6865171 -5.665646 1.7018311 -4.1727514 -2.063052 -0.04479307 0.012953514 2.748395
-7.114815 -0.78293735 1.1069486 -0.69667226 -2.1108778 -0.3107294 -0.07336582 0.85705256
1.0341374 -3.4978943 -3.2956254 0.61913794 4.102372 -6.9690914 -2.0977528 0.30395746
2.5430334 -0.112118684 0.5405812 -2.7882745 0.1981426 -0.94383734 1.4168499 1.5224122
0.59569365 -0.38691157 -0.037348613 -0.035609394 -0.6775463 0.3506032 0.8739801 -1.4062263
-1.0848805 1.5286446 -3.294284 0.02555728 -0.8645624 1.4171305 -2.9242258 0.0076482454
-0.17885579 -0.7388409 -3.8594315 10.284827 -0.2546672 -1.4935592 4.0554647 -2.4371705
0.06788139 -0.037773583 -2.2548656 1.1553463 -2.725741 0.57654154 1.1515617 -1.0942026
-2.7981336 -0.014034075 -1.3194543 -5.5829215 -2.0455241 -0.9215365 -2.371753 -0.109278895
4.015845 0.45411342 2.2300465 0.63200814 0.018646251 0.46189547 1.3610684 -2.0110478
2.6177151 -1.2862357 -0.96053094 -2.331587 0.1575397 -0.95801663 2.4322503 -0.41192326
0.7678358 0.065431 0.10504409 -13.17298 0.34284088 -1.3190947 0.05654561 -7.9312544
-2.2770615 0.34184557 -6.0348015 -0.08064581 -2.061855 1.0003802 -4.009531 0.34567317
-2.6346507 -5.3662286 0.5797038 2.6266792 -1.5807388 1.2509309 0.4798483 -8.915201
0.32950488 0.33590537 -0.18574819 -2.417942 3.6966453 2.0229616 0.16915044 0.22598405
-2.3878765 0.09433876 -2.3761525 -0.010626745 2.0354795 4.2302055 0.3133156 -0.054817133
0.1824487 -1.1175166 1.3900601 0.027842505 -3.5498977 0.7982748 -19.21658 -0.35429865
0.10761733 -0.33343488 1.2917143 0.34142706 1.7553594 -0.38845414 3.50166 -0.79216605

3.bias f4 [300]
00000000: fcea 6340 19da 8bbd 50f7 083c a717 13bd
00000010: 606a 04c0 bd4e 73c0 2f99 a3bc 705f e6bd
00000020: 5a5e 473f 98ce bebd 16da 0fbe 0e60 b1bc
00000030: 1d11 41bd eb1c 43bd db26 0940 4b2d 3dc0
00000040: acd1 3dbd c4d0 9fbe 1352 a4bd 6c37 79bd
00000050: 4333 3cbd 9877 d3bd 63f2 9fbd 7ee0 1dbe
00000060: dbdc 82c0 1a4c 3940 a878 a240 e068 05bd
00000070: 5590 2abe 628b a1bd 09c8 36bf f752 41be
00000080: 7eb9 c6bd 3c56 21be 580d e1ba 46c1 0abe
00000090: d5e4 c7bd ced9 86bc 992c 4ebd d2aa b1bf
000000a0: aac3 a13e 1579 6040 d6ab a3bd 3958 09bd
000000b0: 6c31 5cbe b1da 7bbc 4ed6 50bd 67ae c2bd
000000c0: d11f 8abd 011b 37bd eb0d 8dc0 19fb 88bc
000000d0: fcd6 c0bd 08d1 273f 1b17 82c0 d097 fbbf
000000e0: 347d 61bd ee44 5bbd eb01 eebd bc6d 8040
000000f0: 28d3 69bd aacf 2740 1c5c 9540 3545 5f40
00000100: 9b27 22bd 88ca 8abd 3ee5 6dbd 2a44 82bd
00000110: c766 fcbc ae72 96bd 415f 97bd 6d67 a1bd
00000120: 9acc 03bf 0fe3 24bd cbca 7440 b851 47bd
00000130: 0a78 82bd 6fee 7bbc 6817 9a40 c995 8ebd
00000140: cf6c 8fbd 8dc2 70bd 1d47 82bd 90a6 48bd
00000150: d1fa 0540 649e 33c0 67b9 4fbd 5a05 59bd
00000160: 949f 483f 67be 88bd a45d 05bf 81ec 9340
00000170: cc83 e1bd a8e5 63bd efee 4cbd 67fe 33bb
00000180: 678d 0cc0 3f72 3a3f 34ac e1bd 1e43 9fbc
00000190: b41f b8bc 5465 f2bc 9af0 f3bc 0cc7 3bc0
000001a0: 3807 eb3e c1bf 913f ed6c 12c0 e91c 74c0
000001b0: 32c2 4fc0 8c1c 14bd 95b6 b1bb e597 54bd
000001c0: bd5f f7bd 07a6 17bd 8673 c8bf b42d 00c0
000001d0: bc09 8fbd b2fc 3140 b28d 5cbd 6f12 eebd
000001e0: 6225 7ebd b789 8940 e26a 80bd 88ec 36be
000001f0: 4562 36c0 6f5f 1140 932d 0fbe 4b7f 00bd
00000200: bff5 3fc0 c354 4240 6659 9cbd cd98 febc
00000210: 751c a5bd 9d97 82bd 0ec1 8ebd 2e75 c1bd
00000220: 7af1 64bd d522 c9bf 97e8 26bd 2fbc dcbd
00000230: e5f7 84bd d503 0d3f 9204 c4bf 3170 1cbd
00000240: b38b b43f 36a2 66bd 86c4 abbd 5ae7 1d40
00000250: 5ca2 20bf 751a 5bbd 96db 00be 50bc 8040
00000260: 6178 81be aa91 2bbf c2b5 bfbd ec94 50bc
00000270: 7891 28bd 3970 a9bf 691c 96bd 9aa9 24bd
00000280: 2158 09be cc8e bd3f abe1 19bd 6f28 02bd
00000290: 7aa5 073d 699e f9bc d119 64c0 8218 0f40
000002a0: eb50 d1be 2345 c43e ef32 fcbc 7c84 9abd
000002b0: fcb2 a7bc e612 cebd 0df9 07c0 5e64 5640
000002c0: d4c0 2a40 971b 36bd 2f95 a9bd d72f 6dbd
000002d0: dfd4 36bd debc 1940 3176 5640 a3d2 f0bd
000002e0: 81fc bb3e d8e5 97bc d7aa 0fbe ac9c d43e
000002f0: c6ef 75bd 91fd a5bc 8320 a33e 4291 91bd
00000300: 16db 2840 2b11 c4bd 1b5c 503f ea1e 3240
00000310: 0226 63bd f6f6 8cbc 3ae3 2bc0 667f 90bd
00000320: 2a18 853f d6f2 b1bd 15d6 7bbf 4c73 58bd
00000330: 9ae1 9740 c6f0 2040 d8a2 6a40 f607 d8bd
00000340: 099e f8bc 1e40 60c0 1a27 9abc be90 4ebd
00000350: 70aa fd3e 0b55 eebc 739b a43f 5489 ccbd
00000360: 7881 99bd f838 273f fbc3 12bc 7b41 5b3f
00000370: 1ac3 0fc0 dbe8 1ebd 6f9a ae3f 722c 4f40
00000380: a00b a6bf f573 b2bf abe6 4940 08f8 4540
00000390: ed5a 99bd 9840 15c0 381a b03e a4e1 41bd
000003a0: 1dd1 e3bd c610 90bd d266 1e40 da37 d1bd
000003b0: 5f6a 5dbc dd40 84bd 81fa 11bb cca5 84be
000003c0: 04d5 95bd d697 82bc d75d 0cbd 5897 72bd
000003d0: 9ae4 b1bd 9683 0dbd 9f70 2d40 c8e6 83bd
000003e0: b8d0 d5bd cb9c dbbd 5782 10be b3c5 5d40
000003f0: 575a 93bc 5647 23bd ed9e 0c40 3602 98bd
3.5612173 -0.06828708 0.008359745 -0.03591123 -2.0689926 -3.8016808 -0.019970505 -0.11248672
0.77878344 -0.093167484 -0.14048037 -0.021652248 -0.04713546 -0.047635 2.1429965 -2.9558895
-0.046342537 -0.31213963 -0.08023467 -0.06084387 -0.045947324 -0.10325545 -0.078099035 -0.15417668
-4.08946 2.8952699 5.0772285 -0.03257072 -0.16656621 -0.07887913 -0.7139898 -0.18879305
-0.097033486 -0.15755552 -0.0017170114 -0.1355029 -0.09760443 -0.01646128 -0.0503355 -1.3880255
0.31594592 3.5073903 -0.079917595 -0.0335314 -0.21503228 -0.015371964 -0.050985627 -0.09505921
-0.0674435 -0.044703487 -4.407949 -0.016721295 -0.09416005 0.6555333 -4.0653205 -1.9655704
-0.055051044 -0.053532533 -0.116214596 4.0133953 -0.05708614 2.6220498 4.667494 3.488599
-0.039588552 -0.06776911 -0.05807995 -0.063606575 -0.030810727 -0.07346092 -0.07391215 -0.07881055
-0.5148407 -0.040255602 3.8248775 -0.048661917 -0.06370552 -0.015376671 4.815357 -0.06962163
-0.070031755 -0.058779288 -0.0636122 -0.04898697 2.0934336 -2.8065424 -0.050713923 -0.05298362
0.78368497 -0.06676941 -0.5209601 4.62262 -0.110114664 -0.05563894 -0.050032552 -0.0027464868
-2.1961305 0.72830576 -0.11019173 -0.019441184 -0.022476055 -0.029589333 -0.029777814 -2.9340239
0.45903945 1.1386644 -2.2878983 -3.8142645 -3.2462277 -0.036160037 -0.005423377 -0.05190267
-0.120788075 -0.03702357 -1.5660255 -2.0027895 -0.069842786 2.7810483 -0.05384607 -0.1162461
-0.06204737 4.298061 -0.06270386 -0.17863667 -2.849748 2.2714498 -0.13982229 -0.031371396
-2.9993742 3.0364234 -0.07634239 -0.03107872 -0.080620684 -0.06376574 -0.06970416 -0.094461784
-0.055894352 -1.5713755 -0.04074916 -0.10778081 -0.06492595 0.5508397 -1.5313895 -0.03819293
1.4105133 -0.05630704 -0.08387093 2.4672456 -0.6274774 -0.05349203 -0.12583765 4.0229874
-0.25287154 -0.6701914 -0.093608394 -0.012730818 -0.041154355 -1.3237373 -0.073296376 -0.040200807
-0.13412525 1.4809203 -0.03756873 -0.03177684 0.033116795 -0.030471044 -3.5640757 2.2358708
-0.40882048 0.38333997 -0.030786006 -0.07544801 -0.020471089 -0.10062198 -2.1245759 3.349876
2.6680193 -0.044459905 -0.08280408 -0.05790695 -0.044636603 2.4021525 3.3509638 -0.11758926
0.36716083 -0.018542215 -0.14030014 0.4152578 -0.06004312 -0.020262511 0.31860742 -0.07107784
2.638372 -0.09573587 0.8139054 2.7831368 -0.05545617 -0.017207604 -2.6857438 -0.07055549
1.0397999 -0.086888954 -0.9837354 -0.05284433 4.7462893 2.5146956 3.6661892 -0.105483934
-0.030348795 -3.5039134 -0.018817473 -0.050431006 0.49544096 -0.029093286 1.2859939 -0.09987131
-0.07495397 0.653213 -0.008957858 0.8564679 -2.246283 -0.038796287 1.3640879 3.2370877
-1.2972298 -1.3941637 3.1547039 3.0932636 -0.07488046 -2.3320675 0.34395003 -0.04733433
-0.111238696 -0.07034449 2.4750257 -0.10215731 -0.01351413 -0.06457684 -0.0022274556 -0.25907743
-0.0731602 -0.015941542 -0.03426918 -0.059226364 -0.086861804 -0.03454932 2.7099988 -0.064405024
-0.104402006 -0.10723265 -0.1411222 3.4651916 -0.017987413 -0.039862953 2.1972 -0.07422297

5.weight f4 [1, 300]
00000000: b10f 6c3f 6696 6d3c 6160 3c3c ee6c 9d3c
00000010: 594c c2bf ebf8 7b3e 6886 cebc 71ce 4bbc
00000020: 1e87 1240 062f aabb da84 fc3c e600 003c
00000030: 6705 923a a30e 363d 2a13 1cc0 d793 d3c0
00000040: 8ce5 ce3a e909 06c0 a1af 803c 5353 c73b
00000050: b6b7 96bc d780 cbbc 9db7 46bb 0653 b1bc
00000060: a856 2340 6abc d43e eccc c53f d59b 883c
00000070: 99a6 e1bf 6afc c138 8e4e c6bf 2864 a63c
00000080: 0a3b a53c 4e0b 2d3c 436b e23e d613 2bbc
00000090: 12b4 793c 767f dbbc e199 6c3b 13fb 9a3f
000000a0: a340 b1bf 0f7d dc3e 5390 c4bc bf9c 04bc
000000b0: 86b4 adbc 451c 593b bc7a 483c 3ceb 65bc
000000c0: 1b0d a53c 7937 b0bc 2895 2cc0 b681 903c
000000d0: 74fd 80bb 6a75 7ebe ce78 e53f 2e25 b3be
000000e0: 8723 cf3b d1de 033c 6922 823c 2b50 633e
000000f0: 12a5 fabc ea67 fc3f c0de b43e 0e50 cf3f
00000100: e96e df3b 5d16 b4bc e5a3 c6bc 3d18 9c3b
00000110: df88 51ba f44a 8b3c 463c 863c cf48 b03c
00000120: 63a7 593e 092e 153b 644d 963f 6d39 a13a
00000130: e389 793b d403 923b d151 3240 5425 e23c
00000140: ff47 413c 8640 bc3c a0b7 493c 1c70 78bb
00000150: 6db9 443e 5880 cc40 bb45 4c3c 3cd0 c7ba
00000160: 94e7 3bbe 1fc9 56bc 6ac0 ffbf 5cd5 b6bf
00000170: 6bd1 04bc 7c6a 2b3c 153e 5d3c 7436 45bc
00000180: 0af2 a8be bab0 b33d e57c ecbc ec92 04bc
00000190: f46a cbbb e20a fe3b 205b cbbc b576 bcbf
000001a0: 343d 78be 784a ac3f 9368 18c0 e1e4 383e
000001b0: 9c48 8a3f 05d2 6fbc 4b28 6c3c e1f6 daba
000001c0: 6be9 13bd 4e71 a9bc d36e cf3e 7389 e5be
000001d0: 3798 313c e45a 86bf c1b2 cbbc 5f66 a23c
000001e0: 0786 a5bc 5c3c 4a3f 1165 a7bb 6e29 b7bc
000001f0: df36 2ac0 a246 b13f 4e31 c8bc b33e b23c
00000200: 90c1 a540 113c 2740 42d3 e23c dd41 53bb
00000210: 7aa7 c4ba 8ed1 5d3b 58da 9e3b 0fda 983c
00000220: 968a d4bc ac4f bdbf dd8f 053c e1d8 d43c
00000230: ee2f e13c 97e6 dbc0 e604 673e bce8 183c
00000240: 7280 e8be 3d70 f13c 5341 c93c a7a6 74bf
00000250: b522 9ebf aca5 1fbb 1719 8abb df44 acbf
00000260: 8b85 ea3f 2a2e 6cc0 a5c8 65bc 5c62 0a3c
00000270: 0e11 88bc 284c 5a3e 4bd4 933b ba1d a6bc
00000280: fd97 adbc 017b a3bf 09bc 37bb 25de 63bc
00000290: cb7c 8cbe 5d20 983c 401b 2b3e 2124 d93f
000002a0: fcf9 633e f994 fabf 73a6 a7bc 6d35 b83a
000002b0: e8a3 91bc c50c f33c 8a42 3b3e cec7 ed3e
000002c0: 309a e23f 25af 0cbd ec88 13bd ee28 163c
000002d0: 8c7d ffba 6dea d2bf 16d4 0cc0 6a41 04bc
000002e0: b107 ad3e 730d 55bc b0c0 10bc 1b85 a23e
000002f0: 56b0 dabb 4c29 a43e 9042 41bf 6f54 84bc
00000300: 4e95 1ebf 6e5c b33b e0a2 82c0 edea 7e3e
00000310: 178c 0d3c a35d 19bb c0d9 3f3f 4fc7 1e3c
00000320: f2f2 3bc0 c81a 6a3c 4acb 99bf c6f0 83bc
00000330: 2b80 a13f bafb 823e 2678 c53f 1d1d 97bc
00000340: c1a9 823c 96c1 2b3f 4e2e 7dbc c31f 463c
00000350: 9267 4dc0 76dc 95bc 8e80 bbbe 3fed 253b
00000360: 1903 bfbc 238c 81c0 046a b9bb 0fd7 83bf
00000370: 008e 07c0 18fe b4bc 606f 8fbf 631d d03f
00000380: c534 d1bd 2da4 c8be 6d32 763f 8467 b1bf
00000390: a547 94bc 564a a3c0 6be1 b8bf 9a4f f6bc
000003a0: cf1f ddbc c6cc 743c 1ded a8bf 861a 8c3b
000003b0: f9ac a6bc 5125 fdbc 3d9b 8ebc c403 b9bf
000003c0: 3c07 a53d a556 3b3c a576 0ebc 3091 2a3c
000003d0: 5315 b2ba 26b4 98bc 7447 713e 54c1 64bc
000003e0: b7fb 5bbc de9a ba3c 056f 7bbf b61c 863e
000003f0: cbd0 74bc 43fb 223c d845 7e3f c23b 903b
0.92211443 0.01450119 0.011497588 0.01921698 -1.517955 0.24606673 -0.025210574 -0.012439356
2.289497 -0.005193594 0.030825067 0.007812714 0.0011140526 0.044447552 -2.4386697 -6.611797
0.0015784963 -2.0943549 0.015708746 0.006082931 -0.018398147 -0.024841709 -0.0030321844 -0.021646034
2.552164 0.4155 1.5453162 0.016675869 -1.7628967 9.249973e-05 -1.5492723 0.02031143
0.020169754 0.010561777 0.4422246 -0.010441741 0.015240686 -0.026794177 0.003610246 1.2107872
-1.384785 0.43064162 -0.0239946 -0.008094012 -0.021204244 0.0033128422 0.012236293 -0.014033135
0.02014785 -0.021510826 -2.6966038 0.017639976 -0.003936464 -0.24849477 1.7927492 -0.34989303
0.006321374 0.008048729 0.015885549 0.2219855 -0.03059629 1.9719212 0.35326195 1.6196306
0.0068186414 -0.02198332 -0.024248073 0.0047636316 -0.00079931127 0.017003514 0.016386162 0.021519093
0.21255259 0.0022763035 1.1742368 0.0012300439 0.0038076572 0.0044560228 2.7862437 0.02760569
0.01179695 0.022979986 0.012311846 -0.003790862 0.1921136 6.390667 0.012467797 -0.0015244554
-0.18350059 -0.013109474 -1.9980595 -1.4283862 -0.00810657 0.0104624 0.013503571 -0.012036908
-0.3299716 0.08773942 -0.028868148 -0.0080916695 -0.006207818 0.007752762 -0.024823725 -1.4723727
-0.24242097 1.3460226 -2.3813827 0.1805606 1.0803409 -0.014637475 0.0144139035 -0.0016705656
-0.036111277 -0.02068391 0.4051424 -0.44831428 0.0108395135 -1.0496488 -0.02486551 0.019824205
-0.02020551 0.7899835 -0.0051084836 -0.022358622 -2.659599 1.384968 -0.024437573 0.021758413
5.179878 2.6130412 0.027688626 -0.0032235302 -0.0015003525 0.0033846828 0.004847806 0.018658666
-0.02594499 -1.4789939 0.008151975 0.025982322 0.027488675 -6.871898 0.22560462 0.009332832
-0.45410496 0.029472465 0.024567282 -0.9556679 -1.2354342 -0.0024360223 -0.0042144167 -1.3458518
1.8322004 -3.6903176 -0.014024888 0.008446302 -0.016609695 0.21318114 0.0045113913 -0.020277847
-0.021190638 -1.2771913 -0.0028035662 -0.013907944 -0.2743896 0.01857012 0.16709614 1.6964151
0.2226333 -1.9576713 -0.020465111 0.0014054008 -0.017778352 0.029669175 0.18287101 0.464415
1.7703304 -0.03434672 -0.03601925 0.009165032 -0.0019492372 -1.6477791 -2.2004447 -0.008072237
0.3379493 -0.013003695 -0.008835003 0.31742176 -0.006673853 0.32062757 -0.7549219 -0.016153542
-0.6194657 0.005473665 -4.082382 0.24894305 0.008639357 -0.002340176 0.74941635 0.009691074
-2.9367032 0.014288612 -1.2015164 -0.01610602 1.2617239 0.25582677 1.5427291 -0.0184465
0.015950086 0.67092264 -0.015452934 0.0120925335 -3.2094464 -0.0182936 -0.36621517 0.0025318412
-0.023316907 -4.0483565 -0.00565839 -1.0300006 -2.118042 -0.022093818 -1.1205864 1.6258968
-0.10215143 -0.39187756 0.96170694 -1.3859715 -0.018100569 -5.102824 -1.4443792 -0.030067254
-0.026992707 0.0149414 -1.3197361 0.004275623 -0.020346152 -0.030901583 -0.017408008 -1.4454274
0.080580205 0.011434232 -0.008695279 0.010410592 -0.0013586677 -0.018640589 0.23562413 -0.013962109
-0.013426713 0.022778925 -0.9821628 0.2619378 -0.014942358 0.009947601 0.99325323 0.004401655
