results/c_0_2/best/policy.pt (torch, 500709 bytes, 5 tensors)

0.weight f4 [400, 9]
000000 98 70 83 3c 77 28 37 3e 7b 72 8a be 0e 8b 49 be
       0.0160449 0.1788653 -0.27040467 -0.19681951
000010 b2 ab f9 bd da 86 3b 3d 07 64 5c bd 73 5d 5c 3e
       -0.121909514 0.0457829 -0.05380633 0.21520023
000020 a6 4e 01 bd ce 9e 3f 3f 26 00 50 be ee 4a b4 bf
       -0.031569146 0.7485169 -0.20312557 -1.4085367
000030 fd 46 fa be 94 8c 45 40 95 6b 51 c0 70 78 fc bd
       -0.48882285 3.0867052 -3.2721913 -0.12327659
000040 0a 39 62 3e 65 7d 52 3d 27 b5 66 c0 29 49 e7 bf
       0.22092071 0.051389117 -3.6048067 -1.8069202
000050 e2 63 1b 40 27 86 9f bf fe bd 04 c0 d6 0c 1a 40
       2.4279714 -1.2462815 -2.0740962 2.4070334
000060 dd 5e 57 be 20 e5 bb 3d 44 53 00 3f d5 6c 44 c0
       -0.21032281 0.091745615 0.50127053 -3.0691426
000070 2f 2c 1c 3d 47 5b 43 c0 93 25 c0 bf 45 b3 8d bf
       0.038128074 -3.0524461 -1.5011467 -1.1070334
000080 4e 98 5e bf 9c 81 97 3f a5 4e e6 bf ba c5 9f be
       -0.8695115 1.1836429 -1.799275 -0.3120554
000090 34 d8 09 c0 52 66 6d 40 24 9c 41 bd 67 4d 3d bf
       -2.153821 3.7093701 -0.047268048 -0.7394623
0000a0 70 ca 86 40 6b 80 a4 bd db 1c 8f be 08 05 80 be
       4.2122116 -0.08032306 -0.27951702 -0.2500384
0000b0 fe a3 b4 bf 27 b5 97 c0 a6 c9 58 bf 3c f6 67 40
       -1.4112546 -4.7408633 -0.8468269 3.624404
0000c0 21 c8 9c c0 9b d1 5e c0 3c 09 03 3f 6a 58 09 3e
       -4.89943 -3.4815433 0.51185966 0.13412634
0000d0 a1 72 a4 be a8 93 65 bf 11 f3 8c 40 00 8a 0f c0
       -0.32118705 -0.8967843 4.404671 -2.2427979
0000e0 91 4b 5d c0 a3 ed da bf cc 66 ac c0 48 c0 5e be
       -3.4577372 -1.7103771 -5.3875484 -0.21753037
0000f0 0c 5e a7 be 22 28 1e 3e 05 42 2f bf 6f 06 5c c0
       -0.3268894 0.15444997 -0.6846011 -3.4378927
000100 86 5d ab c0 48 42 37 bf 26 e6 ef c0 47 0d 3c c0
       -5.3551664 -0.7158551 -7.4968443 -2.9383104
000110 80 2b 8d bb 38 cc 07 c0 d3 89 13 3f 66 36 56 3f
       -0.004308164 -2.1218395 0.5763218 0.83676755
000120 fa 73 81 3e 55 84 c3 3f c8 3f 8a 3f c7 ca 04 3f
       0.25283796 1.527476 1.0800714 0.51871914
000130 ec 6d f5 bd 42 cb f2 3e c6 48 9e bf 5c db f0 bf
       -0.119838566 0.47420698 -1.2365959 -1.8816943
000140 c5 3f 5a bf ea d8 c2 3f 3d c9 b7 3f 3d 78 97 bf
       -0.85253555 1.5222447 1.4358288 -1.1833569
000150 6c 77 10 40 4d af 07 c0 2c 7e fd 3e ff ec b2 3e
       2.257289 -2.1200745 0.49510324 0.3494644
000160 9c 4b c1 be 18 20 85 bf 4c 5e 9f c0 ff f0 12 c0
       -0.37752998 -1.0400419 -4.980261 -2.2959592
000170 a5 79 0c bf fd e2 18 40 b9 a8 58 c0 78 b5 b2 3f
       -0.54873115 2.3888543 -3.385298 1.396163
000180 60 9d 86 be d7 a8 1d be ca f4 04 bf 43 39 8b be
       -0.26291943 -0.15396439 -0.5193602 -0.27192125
000190 39 82 75 3e bf ba 2c 3e 04 24 40 be a9 9d 07 3e
       0.23975457 0.16868113 -0.18763739 0.13243736
0001a0 17 06 37 be 27 a1 9f bd a6 85 80 be 17 a5 83 be
       -0.17873417 -0.07794409 -0.25101966 -0.2571189
0001b0 1f 18 e5 bf a2 a1 fb bf b5 b2 79 bf 88 c4 01 3f
       -1.7897986 -1.9658701 -0.9753831 0.5069051
0001c0 7f fb bf c0 f1 62 2c 3f 1f 20 39 3f eb f8 70 be
       -5.99945 0.6733847 0.7231464 -0.23532455
0001d0 98 d3 3c c0 e5 ba 7e bf 12 32 8b bf 63 56 b3 3f
       -2.9504147 -0.9950393 -1.0874655 1.4010738
0001e0 7a 21 e4 40 a6 6b 99 3f cb 19 6b bf 48 d8 3b 3f
       7.1290865 1.1985977 -0.9183623 0.73376894
0001f0 65 e5 5e c0 df af 3b bc 8b 42 c2 40 ee 7a e5 3e
       -3.4827511 -0.011455505 6.070623 0.4482035
000200 64 10 26 bf 47 65 20 40 b4 60 ce bf c5 10 b0 be
       -0.6486876 2.5061815 -1.6123261 -0.34387794
000210 ff 39 94 bf b0 f4 7c 3d 7f 00 13 bb dd c0 24 c0
       -1.1580199 0.06175679 -0.0022430716 -2.5742714
000220 1e dd 88 bf 25 ca a4 bf 76 df 5b bf 84 69 82 3f
       -1.069248 -1.287419 -0.8588785 1.0188451
000230 16 4a 58 40 e9 e9 05 3f a1 c7 0b c0 48 10 19 3e
       3.3795218 0.52310044 -2.1840594 0.14947617
000240 44 50 99 be 80 d1 21 be 68 6a 68 3e ab 9c 0d bb
       -0.2994405 -0.15802574 0.22696841 -0.0021608274
000250 93 a8 29 be ac c8 82 be 00 b8 9f be 48 0b 90 be
       -0.16568212 -0.25543725 -0.31195068 -0.28133607
000260 4b 78 8a bd 74 91 17 3f 94 bb 2d 40 78 c0 9f c0
       -0.06761225 0.5920632 2.7145739 -4.9922447
000270 30 e5 2b bf 0b af 21 40 01 56 71 bf 7f ec d0 3d
       -0.6714659 2.5263088 -0.94271857 0.10201358
000280 22 d2 f4 bd 63 0f 5a bd 70 1f 92 bf f3 7b 80 c0
       -0.11954142 -0.05323733 -1.1415844 -4.0151305
000290 80 8e 68 40 14 48 ef 3f bb f7 f5 c0 95 27 7f 3f
       3.6336975 1.8693871 -7.6864905 0.9966977
0002a0 2c 75 11 c0 4a b3 9f bd d9 2a b6 be cc 9d 52 c0
       -2.2727766 -0.077978685 -0.35579565 -3.2908812
0002b0 c3 9c 23 40 87 7e 00 be 89 2a ee c0 9d b5 e1 bf
       2.556443 -0.12548266 -7.4426923 -1.7633549
0002c0 18 cb fb 3f a3 d8 48 c0 51 47 fb 3e 26 f1 d0 be
       1.9671354 -3.1382225 0.49077848 -0.40808982
0002d0 e3 f3 28 40 a0 ed 0e bf c2 33 38 40 66 4e a1 bf
       2.6398857 -0.55831337 2.878159 -1.260205
0002e0 f2 f8 52 40 70 a7 2d 40 a9 c7 65 bf 65 9b e0 3b
       3.2964444 2.7133446 -0.8975778 0.006854462
0002f0 ae 98 67 be 9c 8b ad 40 a8 a8 a9 be 3f f6 fd 3e
       -0.22616836 5.423292 -0.33136487 0.49601933
000300 d6 83 82 3e 88 9a 41 40 2f 65 85 3e 20 64 b1 bf
       0.25491208 3.0250568 0.2605376 -1.3858681
000310 cd 45 9f bf a9 02 a6 3a fb f2 1f c1 78 59 8f 3e
       -1.2443177 0.0012665588 -9.996821 0.27997947
000320 76 13 21 bf f7 a0 68 bf 5e 2f 88 c0 d8 eb 71 bc
       -0.6292032 -0.9087061 -4.255782 -0.014765702
000330 f5 bb c9 bf 59 d0 03 3f 35 67 85 bf 96 f4 8f 3e
       -1.5760485 0.5148979 -1.0422121 0.28116292
000340 80 db f6 3d 00 e3 2c 3d 00 9e 22 bb 5b f3 86 bd
       0.12053585 0.04220867 -0.0024813414 -0.06589385
000350 ab 4d 2b 3d 20 e2 9b bd ab 7e 19 bb 00 35 2e 3d
       0.041822117 -0.07611489 -0.0023421447 0.042531013
000360 51 dc 1e bf b1 6a 47 c0 8e cd 13 40 ee d8 cd c0
       -0.62054926 -3.115887 2.309421 -6.4327307
000370 53 2d 50 40 4b f3 91 3f 6f 96 33 3e b0 fb 1d bf
       3.2527664 1.1402372 0.17537855 -0.6171217
000380 d7 b3 e9 be 9a 61 b0 40 72 e0 e1 be f6 99 c8 bf
       -0.4564502 5.5119143 -0.4411655 -1.5671985
000390 f3 35 db c0 4d f0 06 c0 df b5 2f bf 8a 7d 20 3f
       -6.8503356 -2.1084168 -0.6863689 0.6269156
0003a0 47 6d 89 3d ba 80 50 3e 02 15 97 40 f0 e4 4b c0
       0.06710296 0.20361605 4.7213144 -3.1858482
0003b0 09 b4 a2 3f 94 55 92 be 50 58 95 3f 7c cf 43 40
       1.2711192 -0.28580916 1.1667576 3.0595388
0003c0 1d 37 44 be 94 80 b1 3e b8 19 ca 3d ef cc 29 bc
       -0.19161649 0.3466841 0.09868187 -0.010363801
0003d0 fd b2 42 3e e4 ad 92 be c2 5a 78 3e cd a0 79 be
       0.19013591 -0.28648293 0.24253371 -0.24377747
0003e0 e4 53 a7 bb 2b 21 68 bd 63 c5 33 be 3a 93 d9 3c
       -0.005106436 -0.056672256 -0.17555766 0.02655946
0003f0 a2 20 8d 3e 8b 8e c7 bd c8 a5 4a be 06 7a fc bd
       0.2756396 -0.09743985 -0.19789803 -0.123279616

0.bias f4 [400]
000000 ad 3e bd be 75 ca 89 bf b1 1e 2c bf 0d 8c 24 3e
       -0.3696188 -1.076491 -0.6723433 0.1606905
000010 bd 65 e2 be 71 5a 51 3d 60 94 05 3f 4c 9c 54 be
       -0.44218245 0.051111642 0.5217953 -0.20762748
000020 01 a8 9c bd 8c 51 33 bf 92 30 02 bf a3 2d 98 be
       -0.07649232 -0.70046306 -0.5085536 -0.29722318
000030 10 f5 da 3d 3e 23 4f bf be 08 7d bf 37 96 12 bf
       0.10691273 -0.8091315 -0.98841465 -0.5726046
000040 3e f1 62 be 22 63 63 be ae 7b 86 3e ea cb e5 be
       -0.22162339 -0.22205785 0.26266235 -0.44882137
000050 c1 6e 3f bf e5 f1 c5 be 21 64 1c 3e 23 39 8d be
       -0.7477837 -0.38661113 0.15272571 -0.27582654
000060 38 10 04 3d 7f bf 71 bf eb e8 23 bf c7 29 46 be
       0.03224203 -0.94432825 -0.6402728 -0.19351874
000070 44 7f a6 be 0d 12 89 bf 55 ea b4 3c b5 78 99 be
       -0.3251897 -1.0708634 0.022084394 -0.29974905
000080 af f1 9f be 54 ad 86 be 72 0d 8c bf 88 2d 3a be
       -0.31239077 -0.26304114 -1.0941603 -0.18181431
000090 a7 3e 77 bf 03 27 d3 be bd 5a 14 bf b5 9d 74 bf
       -0.96579975 -0.412407 -0.57950956 -0.9555314
0000a0 0c 4d 3b 3e e6 72 7c be d6 bf c0 bf 56 89 a9 be
       0.1829111 -0.24653205 -1.5058544 -0.33112592
0000b0 a7 79 e6 bc 4d bf 5d bf 1e fb c4 3e f0 f7 c1 be
       -0.02813418 -0.86620027 0.38472837 -0.37884474
0000c0 ab e2 1b bd a6 74 31 bf 8f 50 8c bf 98 8c 2e 3f
       -0.038057964 -0.69318616 -1.0962085 0.6818328
0000d0 7e cd 19 be a8 90 25 bf 9b 7b 4b bf df dc 9e bf
       -0.15019795 -0.6467385 -0.7948548 -1.2411155
0000e0 0c ca 85 3e e9 b6 36 bf 19 69 53 be 13 b4 b1 3e
       0.26130712 -0.7137285 -0.2064556 0.34707698
0000f0 d5 f0 8e 3d 69 11 9b 3e ca 5f 04 bf dd 7d 0a be
       0.06979529 0.3028672 -0.5170866 -0.13524576
000100 50 b0 20 bc 18 0f 37 be dd c5 23 bd 06 ba 0c 3f
       -0.009807661 -0.17876852 -0.03998362 0.5497135
000110 81 a2 87 be 19 fe 7f bf 9a 52 37 bf 9d 83 6e be
       -0.26491168 -0.999971 -0.71610415 -0.23292394
000120 c1 2c 30 bf 4f 8b e9 3e 2e 2e d0 be 6e 7e 5f bf
       -0.6881829 0.45614097 -0.40660232 -0.8730229
000130 5a 9b 50 be 22 39 c9 be 19 9a 2e 3e 33 28 bf 3d
       -0.20371762 -0.393014 0.17050971 0.09333839
000140 c2 94 c9 be bb 24 49 bf 30 43 13 3f 70 20 68 bf
       -0.39371306 -0.7857167 0.57524395 -0.90674496
000150 31 bd aa 3e 81 20 98 be 01 b6 d9 3d e8 d8 17 3f
       0.33347467 -0.297123 0.106304176 0.5931535
000160 41 25 ed bd 94 05 56 bf c3 ab bd be 44 91 90 be
       -0.11579371 -0.8360226 -0.37045106 -0.2823583
000170 fc 03 fc be 23 cc 15 bf db d3 34 bf ca 06 1a 3e
       -0.4922179 -0.5851461 -0.70635766 0.15041652
000180 6a e7 65 be a6 e8 32 bf f1 46 6a bf ca 97 58 bf
       -0.22451559 -0.69886243 -0.915145 -0.8460661
000190 16 af 32 bf 92 5e 35 bf d3 d7 a6 bd dc 0e 8c bf
       -0.6979841 -0.7084743 -0.08146634 -1.0942035
0001a0 d1 80 34 bf bf 6f 6c 3e 99 a6 f5 3e 05 45 ee 3e
       -0.7050906 0.23089503 0.47978666 0.46537033
0001b0 fa 38 25 bf 44 bf c4 3e 80 54 05 bd 7f 94 21 3e
       -0.64540064 0.38427174 -0.03255129 0.15779303
0001c0 3c 6c 11 bf 66 52 a5 be 45 25 95 3e 10 38 49 be
       -0.5680578 -0.32289428 0.29129997 -0.19650292
0001d0 1b de a5 be 20 53 c8 3d b4 1b 7e bf e0 68 8a 3d
       -0.32396016 0.0978148 -0.9926102 0.067582846
0001e0 05 da 3e 3e 94 45 cc 3e 3e 07 88 3c cc 04 0f bf
       0.18637855 0.39896834 0.016605016 -0.55866694
0001f0 82 d7 92 be e5 a9 c4 bc ae 8c 3e bf e5 ed 13 3e
       -0.28680044 -0.024006793 -0.7443341 0.14446218
000200 18 2b b3 be 04 b5 13 bf ad 05 ec 3e cc 0d c2 3e
       -0.34993815 -0.5769808 0.4609808 0.3790115
000210 e4 ea 6a be 89 f8 50 be f9 b0 48 bf b5 f3 1f bf
       -0.22941166 -0.20407309 -0.7839504 -0.6248124
000220 98 ea dc be 6b 1a 85 3e d9 d6 79 3e 1f 55 39 bf
       -0.4314773 0.25996718 0.24398364 -0.7239551
000230 e9 55 09 3d f6 36 40 bd d3 f3 1b 3e ae 72 89 3e
       0.033529196 -0.046927415 0.1522973 0.26845306
000240 78 7e a0 be 4c 68 a4 bf 7f 66 8b 3e 06 8a 5a be
       -0.31346488 -1.2844329 0.27226636 -0.21341714
000250 97 b8 cf 3c 68 72 7b bf a0 be e7 3c d1 2c ff bd
       0.025356574 -0.98221445 0.02828914 -0.1245972
000260 a9 94 e5 3c 11 c8 b6 be b8 8c c2 be fc 29 2e 3e
       0.028024988 -0.35699514 -0.37997985 0.17008203
000270 75 36 32 bf 19 69 89 bf 21 cf cd bd 2d 75 34 bf
       -0.69614345 -1.0735198 -0.10049272 -0.70491296
000280 a5 1e 1d be b8 7e ba be 6a 0e ba be 9a 99 e3 bc
       -0.15343721 -0.36424804 -0.36339122 -0.027783204
000290 1a 63 d9 be e4 6e 4c bf 82 aa 6f bf 52 fa e2 be
       -0.4245842 -0.79856706 -0.9361955 -0.44331604
0002a0 4b 90 a9 3a 34 2f 94 be e5 77 2b be 00 87 32 3d
       0.0012936679 -0.28942263 -0.16744955 0.043585777
0002b0 9b c8 91 be 95 45 01 3f b3 23 09 bf d1 f9 a7 3e
       -0.28473362 0.504968 -0.535701 0.32807782
0002c0 26 9e 1f bf 6a a2 09 bf b9 f9 25 bf 55 91 19 be
       -0.6235069 -0.5376345 -0.6483417 -0.14996846
0002d0 2b fc f9 bd 07 c1 f7 3c 1a 4a 83 be a9 4c bf 3d
       -0.122063 0.03024341 -0.25642473 0.09340794
0002e0 3e de bb bf 27 4b 34 bf 9b 0b 76 bf 98 66 d1 be
       -1.4677198 -0.70427173 -0.9611146 -0.40898585
0002f0 f3 39 92 3d a1 ed d8 3e ff d4 8e 3f aa 3e 9e be
       0.07139959 0.42368796 1.1158751 -0.30907184
000300 76 97 d7 bd 1b 1a 00 bf 26 9f 82 3e 90 06 84 3f
       -0.10526936 -0.50039834 0.25512046 1.0314503
000310 48 cc 1f be 0c f3 11 bd 38 c2 90 be b1 9c 65 bf
       -0.15605271 -0.03563218 -0.28273177 -0.8969222
000320 91 2b 2f bf d4 cf 43 be 7e dd 80 be 43 4b 9b be
       -0.6842585 -0.19122249 -0.25168985 -0.30330858
000330 1f 54 cf be 82 90 87 be c8 46 e7 be f6 9e c7 3e
       -0.40493867 -0.26477438 -0.4517119 0.38988465
000340 73 56 82 bf 1a 73 fa 3d 0e e7 b5 be 54 98 da bf
       -1.0182632 0.12228985 -0.35527843 -1.7077737
000350 38 8f 04 bf d5 c5 69 bf b2 56 3b be e0 7c 4a bf
       -0.51781034 -0.9131749 -0.1829479 -0.79096794
000360 d0 4c 1a bf 5f 6a ec be 7b f8 75 be 11 93 1a bf
       -0.60273457 -0.46174905 -0.24020569 -0.60380656
000370 7a 2c bb be 1f 42 c2 3e a1 92 07 bf 8b a4 5f bf
       -0.3655737 0.3794107 -0.5295811 -0.8736045
000380 87 7d d7 3d 56 d3 08 bf bc 18 fd be bf 01 4f bf
       0.10521989 -0.53447473 -0.49432933 -0.8086204
000390 33 9d 46 bf b1 59 2a bf d0 ab 01 be e0 82 5e be
       -0.77583617 -0.6654311 -0.12663198 -0.21729612
0003a0 8f f7 1f bf 69 ee 3d be 70 cb 24 bf f6 0f 44 bf
       -0.6248712 -0.18547978 -0.6437292 -0.76586854
0003b0 61 5a a9 bf 1d 5a 66 bd e0 4c 42 be cb ba f5 bc
       -1.3230706 -0.056238282 -0.18974638 -0.029996296
0003c0 da e1 97 be f9 26 5a 3e 16 c7 44 bf 16 14 25 3e
       -0.296645 0.2130393 -0.7686628 0.16120943
0003d0 f4 1f 08 3e 67 f1 76 3e 5a f2 db bf ac fb c5 3d
       0.13293439 0.24115525 -1.7183335 0.09667143
0003e0 d5 e3 95 3e 56 89 d3 3e 64 80 a7 bf aa 68 4c bc
       0.29275385 0.41315717 -1.3086057 -0.012476126
0003f0 60 24 29 bf 9c 8b 75 3d b8 c2 90 bd 99 04 69 bd
       -0.6607113 0.059947595 -0.0706839 -0.05688915

2.weight f4 [300, 400]
000000 48 65 7f 3c 21 77 28 bf b1 f5 18 3f 0f d5 c7 3e
       0.015588112 -0.65806776 0.59749895 0.39029738
000010 1b 5f be 3f cc db 55 3f b0 d0 63 bf 76 72 f3 3f
       1.4872774 0.8353851 -0.88990307 1.9019306
000020 98 a5 33 3f 7e a0 c0 be ab 5c 15 bf dc 56 f8 bd
       0.7017455 -0.37622446 -0.58344525 -0.12125942
000030 69 37 f5 3e cc 08 0d c0 26 d0 2a bd 14 3d 9d bf
       0.47893837 -2.203662 -0.041702412 -1.2284265
000040 03 bf 04 3d e7 08 a7 be d1 0c 62 3f 67 f1 1c 3e
       0.032408725 -0.3262398 0.88300806 0.15326463
000050 01 93 1b 3f 85 6a a5 3f 5d 05 71 3e 9a fc df bb
       0.60771185 1.2923132 0.23537202 -0.0068355324
000060 32 e7 f6 bb ae 52 57 3f 07 77 bc 3f 3f 6b ca 3c
       -0.007534885 0.84110534 1.4723824 0.024709342
000070 e7 35 85 bb 0e 82 f8 bf 76 ef d1 bd 11 33 99 bf
       -0.0040652636 -1.941469 -0.10250752 -1.1968709
000080 82 a9 f9 3f 63 bd c4 3c ef 40 8e bf a7 bf f8 bc
       1.9504855 0.024016088 -1.1113566 -0.030364824
000090 8c 26 63 3f a1 c9 04 40 ff 4b 25 bf fb ee d8 3e
       0.8873069 2.0748065 -0.64569086 0.42369828
0000a0 8f 88 1c 40 34 bf 95 be 4c e3 2f c0 59 c5 36 40
       2.4458349 -0.2924744 -2.748248 2.8557951
0000b0 27 89 b5 bd 95 c8 90 bf f2 9e 0c c0 93 33 a6 bf
       -0.0886405 -1.1311213 -2.1972013 -1.2984489
0000c0 b9 86 1d c0 b0 01 6d 3f 36 e8 92 bf e3 fe 0a 40
       -2.4613478 0.925807 -1.1477115 2.171807
0000d0 95 6f c9 3e 20 4c 7d 3f f1 c3 9f 3f 51 fe c6 be
       0.39342943 0.9894428 1.2481672 -0.38865903
0000e0 be 4d 01 c0 88 ce 19 c0 42 8c 0e 3f db 2b ab 3d
       -2.02037 -2.4032307 0.55682766 0.08357974
0000f0 68 eb 8c bd 7c e2 2d c0 de c9 a3 be ee 6e 5b 40
       -0.06880838 -2.7169485 -0.3198995 3.4286456
000100 2b 84 86 40 59 a4 14 40 76 ba f2 bf 5b de 96 bf
       4.203634 2.322531 -1.8963153 -1.1786608
000110 2b cd 7e 3f 09 b9 01 40 d8 95 62 bd 9f 95 f6 3e
       0.9953181 2.0269186 -0.055318683 0.48161027
000120 8a 36 c3 3e 4b 2d 3c 3f 54 71 c9 bd 87 88 5c 3d
       0.38127548 0.7350661 -0.09836069 0.05384114
000130 74 38 a6 3f fe a1 37 c0 2b 81 66 bf 3c 97 fa 3f
       1.2985978 -2.8692622 -0.90040845 1.9577403
000140 4d 3f c0 bf 24 a6 f3 bf 96 a5 7d be bb 17 aa bf
       -1.5019318 -1.9035077 -0.24770197 -1.3288492
000150 fe 7b 29 bf 38 b4 29 3f 4b a3 90 3e d2 c7 84 3e
       -0.6620482 0.66290617 0.28249583 0.259337
000160 1d 1a ef bf d0 8a 86 3f 3c fb 4b 3e 9a d8 36 bd
       -1.8679844 1.0511112 0.19920057 -0.04464016
000170 53 49 bd 3f e4 07 36 bf 5f 5a 27 c0 3f 2b 9e 3f
       1.4788002 -0.7110579 -2.6148908 1.2356948
000180 ab 23 a0 be db b8 a2 3f 81 38 99 bc 41 3c f4 bf
       -0.31277213 1.2712663 -0.018703701 -1.9080888
000190 ad d3 1d 3f cc 34 25 3f ad 01 82 bf 40 e9 f2 3e
       0.61651117 0.64533687 -1.0156761 0.4744358
0001a0 4d 90 42 3f b6 64 f7 bf fa a1 59 3f c5 d0 2d 3d
       0.76001436 -1.932761 0.8501278 0.042435426
0001b0 95 e5 4d 3d d2 16 f7 bf 5e 84 b0 3f 91 97 83 be
       0.050267775 -1.9303839 1.3790395 -0.25701573
0001c0 9d 3f 83 3e 58 bf 16 3d 7b 1d 00 bf db c2 c5 3f
       0.2563447 0.036803573 -0.50044984 1.545009
0001d0 26 3b 85 bf de 7a bb bf 0c 0b 4a be 06 11 be bf
       -1.0408676 -1.4646871 -0.19730777 -1.4848945
0001e0 aa 16 d8 3f 89 c4 96 bf 31 15 a4 bf 74 c4 b0 bf
       1.6881917 -1.1778728 -1.2818967 -1.3809953
0001f0 e7 5c a5 bb 8f 01 27 3f 64 6b 69 be 9d 94 dd bf
       -0.005046475 0.65236753 -0.22794873 -1.7310978
000200 f0 41 c4 3e a7 3f 71 3f 35 65 91 bf a3 ec 06 bf
       0.38331556 0.9423775 -1.1359011 -0.5270483
000210 00 1b 83 3f e6 8a 02 bd 84 cc 98 bf a5 03 a3 3f
       1.0242615 -0.031870745 -1.1937413 1.2735487
000220 a3 29 f9 3f 0a 15 59 40 1a 82 e3 bf 4e 11 0f 3e
       1.9465832 3.3919091 -1.7774079 0.13971445
000230 2a 1d 0c 40 2f 7d ac be a5 f7 bd 3e 99 62 09 be
       2.18928 -0.33689258 0.37103 -0.13416518
000240 00 27 31 bf b3 d2 1c c0 55 6b 66 bf 70 f6 c8 3c
       -0.69200134 -2.45036 -0.90007526 0.024531573
000250 45 b4 f7 be d0 ca ee be 0d c8 1b c0 f3 b2 e9 3e
       -0.48379722 -0.4663911 -2.4340851 0.4564434
000260 6f 8c 3e 40 db b2 12 3f 33 98 66 c0 dc a6 f7 bf
       2.9773214 0.5730416 -3.6030395 -1.9347796
000270 ec 64 1f 40 55 b9 03 c0 8a 8e fc bf 7e f0 9c bf
       2.4905348 -2.0581868 -1.9731 -1.2260892
000280 79 4f 56 bd c6 5e a8 3f ca d1 87 bf 14 a8 98 be
       -0.052321885 1.3153923 -1.0610898 -0.29815733
000290 04 52 f5 3f d9 02 b4 bf 8c 7d 96 3e 05 58 93 bf
       1.9165654 -1.4063369 0.2939266 -1.1511236
0002a0 f1 2e db bf 53 65 4a bc 0b aa 78 bf b9 d4 d5 3e
       -1.71237 -0.012353259 -0.97134465 0.41763857
0002b0 cd 5c 14 3d b6 77 8e bf 57 95 b4 3e 27 9c fc bf
       0.036221314 -1.1130283 0.35270187 -1.9735154
0002c0 44 26 03 c0 df c9 38 bf 62 f8 84 bf b3 94 f9 3b
       -2.0492105 -0.7218303 -1.03883 0.0076166033
0002d0 5c 34 06 40 28 c9 f3 3f 90 d8 99 bf 38 7a 9f bf
       2.0969458 1.9045763 -1.2019215 -1.2459173
0002e0 e1 68 80 c0 9b d4 49 bf 55 3f a7 3e f8 b9 eb 3e
       -4.0128026 -0.78840035 0.32665506 0.4604032
0002f0 41 81 39 3d 4a 75 b3 bf a4 80 86 3e f8 e6 0f 3d
       0.04528928 -1.4020169 0.2627002 0.03513238
000300 93 ca 8c bf 9b 3b ab bf 60 8e 29 c0 f1 aa 2b c0
       -1.0999321 -1.3377565 -2.6493149 -2.6823084
000310 02 9e 23 40 59 2c 8a be 2d 90 a0 3f 22 63 5a bf
       2.556519 -0.2698696 1.2543999 -0.85307515
000320 59 c1 8e 3f b0 1c e7 3f 9d b9 da bc 67 8a 9c 3a
       1.1152755 1.805563 -0.026699835 0.0011943103
000330 d7 39 5a bf 15 85 b3 40 a1 7b 7f bd cb 89 18 bf
       -0.85244507 5.6099954 -0.06237376 -0.59585255
000340 1f 4d 82 40 13 31 01 3f b0 ab d4 be ea e6 02 bf
       4.071914 0.50465506 -0.41537237 -0.51133597
000350 0c 5d e5 3e fa c8 37 3f 4d b7 f4 be 5a 4e 16 c0
       0.44797552 0.7179104 -0.47796097 -2.3485322
000360 e2 00 df bf 16 15 75 c0 55 1f 14 40 d4 20 8f bd
       -1.7422144 -3.829412 2.3144124 -0.06988683
000370 ff 59 95 3d 1b ae 0c c0 62 b9 6b 3f 91 18 fb be
       0.07292556 -2.1981266 0.92079747 -0.4904218
000380 13 53 ef bc 94 41 94 3f 30 ce 32 3b 6f ee 33 bf
       -0.029214418 1.1582513 0.0027283542 -0.70285696
000390 43 cd a6 bf 9c bb 36 3f 58 bb 04 bf 90 d7 bc be
       -1.3031391 0.7138002 -0.51848364 -0.3688321
0003a0 69 68 10 40 0d 92 09 bf d3 73 33 bf 68 57 a1 bf
       2.2563727 -0.5373848 -0.7009861 -1.2604799
0003b0 a3 6b 4b bf 16 a0 b4 bf 1b 3e 8e c0 af 0a 14 c0
       -0.79461116 -1.4111354 -4.445081 -2.313152
0003c0 9d e2 82 bc f7 1a 44 c0 7e f5 6b c0 c1 51 dc 3f
       -0.015977198 -3.0641458 -3.6868587 1.7212449
0003d0 6c 39 b9 3f 3e fa ee bf 4c c9 d8 3e 04 8b fc bf
       1.4470649 -1.8670118 0.42341077 -1.9729924
0003e0 ef a7 43 3e 6f be 75 3e f6 09 49 40 7d 42 0d be
       0.1910703 0.23998426 3.141233 -0.13794895
0003f0 8c ee ef 3e ff 2c 04 3f dc 13 18 40 2b d9 a5 c0
       0.46861684 0.5163116 2.3762121 -5.18276

2.bias f4 [300]
000000 33 5c 0a c0 e2 54 a9 bd e6 94 26 bd 2d eb 12 bf
       -2.1618774 -0.08268143 -0.040669344 -0.573901
000010 e3 5f 86 bf 6a 73 99 bd b7 34 8a bf 38 9e 79 bd
       -1.0498012 -0.074927166 -1.0797337 -0.060941905
000020 d6 25 d0 be 49 68 74 3b 3c 92 9a bd 82 6a 1d 3f
       -0.40653867 0.0037293604 -0.07547423 0.61490643
000030 30 71 ce bd 58 4b b0 3d e9 f8 e8 bd af 66 94 bd
       -0.100801826 0.08608121 -0.11375601 -0.07246148
000040 b1 6f 25 bd 1a 26 bc be df c8 93 bd 67 fd 1c be
       -0.04038972 -0.3674782 -0.072160475 -0.1533104
000050 ba c6 88 bd d4 54 41 bd ad f0 64 bd fd 28 2c bd
       -0.06678529 -0.04720004 -0.05589359 -0.042031277
000060 f2 d3 34 bd 51 7f 43 bd 2c f4 22 be 39 8f 16 bd
       -0.04414744 -0.04772884 -0.15913457 -0.03675768
000070 da d0 dc bd 73 98 f3 3f 00 b5 43 bd 3b 14 73 bd
       -0.10782023 1.9030899 -0.047780037 -0.059345465
000080 1d 36 94 bc 80 71 e4 bd 1e a3 a3 c0 1d 20 65 bd
       -0.01809221 -0.11154461 -5.113662 -0.05593883
000090 20 0f 98 bd 61 1c 17 3f cf aa 1d bd a5 aa 7e bd
       -0.0742476 0.5902768 -0.038492974 -0.062174458
0000a0 36 19 52 be 33 7a a9 bd 47 0e 7f 3f 02 1e 49 bd
       -0.2051743 -0.08275261 0.9963116 -0.049100883
0000b0 a8 70 7b c0 72 44 85 bd c4 dc 62 bd f9 d2 44 bd
       -3.928751 -0.065071955 -0.05538632 -0.04805276
0000c0 c4 e7 8a bd ef 49 57 bd 3e d0 62 bd 48 14 73 bc
       -0.06782487 -0.052560743 -0.055374376 -0.014836378
0000d0 50 d7 1b be 92 be 12 bd eb 9d 40 bd c0 78 b1 bc
       -0.15218854 -0.035826273 -0.047025602 -0.021664023
0000e0 ff 63 0f bd 85 1a bf bd 96 07 36 bd d8 32 04 bd
       -0.035007473 -0.0933123 -0.04444083 -0.03227505
0000f0 74 26 55 3f 7b 08 07 bd df 76 3a 3f d4 bd b0 bd
       0.832618 -0.032967072 0.7283763 -0.08629957
000100 46 79 f5 bf 65 58 13 bd e6 42 d6 bd 15 9a 56 bd
       -1.9177635 -0.03597297 -0.104619786 -0.052393038
000110 e6 b0 98 3f fa f9 ce bc 19 79 a1 bd d6 bc a6 bf
       1.1928985 -0.025265682 -0.07884426 -1.3026378
000120 28 d1 f1 bd 4f f1 69 bd b1 cb b1 bd 6c e9 b9 bd
       -0.118074715 -0.057114895 -0.08681429 -0.09077725
000130 33 ca b7 bc 26 47 87 bd 2b 1f 98 bd f8 0f b5 bd
       -0.022435283 -0.06605367 -0.0742782 -0.088409364
000140 c4 26 e8 bc 96 f2 4c be 06 7d 07 bd 0a 26 fc bc
       -0.028338797 -0.20014414 -0.033078216 -0.030779857
000150 10 2a 0a bd 6c 50 1f 3b dc 0c 85 bd d2 dd ee bd
       -0.03373152 0.002430941 -0.06496593 -0.116634026
000160 53 ed b1 bd 67 ec ff be e9 62 5b bd ae 81 cf 3e
       -0.08687844 -0.49985048 -0.053561125 0.40528625
000170 0a 67 99 bd 4e e5 74 bd 28 26 16 c0 47 52 96 bd
       -0.07490356 -0.059788994 -2.3460789 -0.07339912
000180 85 ac 1f bf 98 f3 ca bd 4a 60 07 3f a4 b0 8f c0
       -0.6237262 -0.09909743 0.528813 -4.4903126
000190 f8 79 1f bc f5 f3 19 3f f7 42 fa bc cd 3b 32 bd
       -0.009733669 0.60137874 -0.03054951 -0.04351406
0001a0 62 71 aa bf 38 89 d5 3f 5c 72 fa bc 84 76 00 be
       -1.3315852 1.6682501 -0.030572109 -0.1254521
0001b0 f6 ac 70 bd fc 81 7e bd 67 5f 1c bf f5 65 ab bd
       -0.0587587 -0.06213568 -0.6108307 -0.08369056
0001c0 4c 31 c7 bd 85 76 93 bc 2d c5 0e bb 71 38 f5 bd
       -0.097261995 -0.01800085 -0.0021785006 -0.11973656
0001d0 4d bd 0b bd 0b 41 30 3e 18 25 a8 bc 54 3e b6 bd
       -0.03411608 0.17212312 -0.0205255 -0.08898607
0001e0 0b 38 99 bd d5 ed 47 bf 87 b2 b1 bd af 9e 1a c0
       -0.074813925 -0.7809728 -0.086766295 -2.4159353
0001f0 c8 af b1 bd 7e a2 8a bf 81 79 5d bc fc 30 79 bd
       -0.08676106 -1.0830839 -0.013517738 -0.06083773
000200 af ea 9a bd 8e 7a bc bc ce 9c 0c c0 8b 3b a1 bd
       -0.075642936 -0.023007657 -2.1970706 -0.07872685
000210 05 fa 5e bd 28 6a cc 3e 5d 69 3c bd c4 84 5e bf
       -0.054437656 0.3992474 -0.04599892 -0.86921334
000220 2c 19 6d bd 8d 19 0e bd 37 41 5c bc bc 9a 05 bd
       -0.057885334 -0.034692336 -0.013443283 -0.03261827
000230 dc e2 2f bd ae 9f 45 bd 80 d2 85 bd 86 f3 f0 bf
       -0.04294096 -0.048247986 -0.0653429 -1.8824317
000240 6c 4d 4e bd cb 33 60 bd 76 18 71 3f d9 0c 4e bd
       -0.050366804 -0.054736894 0.9417795 -0.05030522
000250 e6 ed 5d bd eb 66 99 bd ab 38 67 c0 e9 b3 7d 3a
       -0.054181956 -0.07490333 -3.6128337 0.0009677993
000260 bb 94 7f bd b5 16 0b bd 24 67 00 bd 25 91 13 be
       -0.0623977 -0.033957202 -0.031348363 -0.14410837
000270 2a 2f de 3d b3 aa 55 be 2f 47 97 bd 55 9b 4c bc
       0.108488396 -0.20865898 -0.07386624 -0.012488206
000280 90 97 53 bd 02 8d e5 bd f2 9b 89 bd 0c f3 87 bd
       -0.051658213 -0.11208536 -0.06719197 -0.066381544
000290 39 7f 48 bd 9b c6 fd bf c0 08 35 3e 5f d3 e9 bd
       -0.048949454 -1.9826235 0.17679119 -0.11417269
0002a0 05 69 27 3f 5b d2 2d bd f2 bb ac bd 65 1a f5 bc
       0.6539462 -0.04243694 -0.08434285 -0.029919812
0002b0 1e 2b 13 bd d6 b7 95 bd 1b e4 f7 3e 60 f3 03 bf
       -0.03592979 -0.073104545 0.48416218 -0.51543236
0002c0 d7 47 8c bd f3 86 37 bc 77 a3 3e bd 99 c2 84 bd
       -0.0684964 -0.011201608 -0.04654261 -0.06482429
0002d0 cd dd 19 bd 79 3a 98 3f 63 d4 e3 bd 71 6a 85 bd
       -0.03756504 1.1892844 -0.11124494 -0.06514443
0002e0 93 b1 cd bd ef f1 11 bd 05 6b 39 3f 7e 94 b4 be
       -0.10043635 -0.035631116 0.72428924 -0.3526954
0002f0 3d 86 14 3f 74 37 d9 3e 29 ff 91 bd 14 42 0b bd
       0.5801733 0.4242512 -0.07128746 -0.033998564
000300 2d 43 59 bb 85 89 2c bf e0 6f 5a 3e fc ed bd bd
       -0.0033151612 -0.6739734 0.2133174 -0.092739075
000310 75 a1 09 bd 29 ad cd bd 80 ad 3a 3f 4a 8c 84 bd
       -0.033601243 -0.10042793 0.7292099 -0.064720705
000320 88 b6 d6 bc cc 4e 9b bd 68 a5 9a bd 48 cf 73 3f
       -0.026210085 -0.07583389 -0.0755108 0.9523816
000330 d6 04 19 3f 93 94 25 3f 99 94 ca bd 84 df 42 bd
       0.59773004 0.6467983 -0.09891624 -0.047576442
000340 9d a4 ba bc f1 b7 96 bd e3 4f 92 bd ed 43 a7 bd
       -0.022783572 -0.07359303 -0.071441434 -0.08167253
000350 a8 8c 15 c0 8c 05 6c bd 4a 99 12 bd 3a 8d 0e bc
       -2.33671 -0.057622477 -0.03579072 -0.008700663
000360 f5 42 9a bd 68 26 af bf e0 c1 11 bd a4 23 76 c0
       -0.07532302 -1.3683596 -0.035585284 -3.8459253
000370 ce 01 1d bd 56 e9 4d bd a6 9e 98 bf 1f f3 07 c0
       -0.0383318 -0.050271355 -1.1923416 -2.124214
000380 dc 40 fa be 79 4e 8d bf 4a b5 8a bd d6 f4 e2 3e
       -0.4887761 -1.1039573 -0.067728594 0.4432742
000390 68 26 3e 3f 1b 81 a6 bd 2c ff 3f bd 97 6b 9b bd
       0.74277353 -0.08130094 -0.04687421 -0.075888805
0003a0 4a 50 98 bc fb 2d e2 ba 57 83 a1 bd a6 64 ef bc
       -0.018592972 -0.0017256135 -0.07886379 -0.029222798
0003b0 20 03 87 bd db f0 12 c0 db 22 cb bd c9 7e ec bc
       -0.06592393 -2.2959507 -0.099187575 -0.02886905
0003c0 81 27 80 bd 10 9d 5b be a6 45 d7 bd e9 c1 ac bd
       -0.06257535 -0.21446633 -0.10511331 -0.08435423
0003d0 ef f0 30 3f b9 e5 49 bd f8 31 93 bd aa a7 47 bd
       0.69117635 -0.049291346 -0.07187265 -0.04874388
0003e0 55 80 ff bc 55 14 0f 40 f5 05 b2 bc 57 15 33 bd
       -0.031189123 2.235616 -0.021731356 -0.043721523
0003f0 00 76 04 bc c4 65 5b bc c6 2c 25 3f 48 fa 02 bd
       -0.008084774 -0.013390962 0.64521444 -0.031976968

4.weight f4 [1, 300]
000000 ff 72 78 be c0 46 98 3b aa 60 ef bc f9 96 c2 be
       -0.24262618 0.004647106 -0.029220898 -0.38005808
000010 e4 ad d0 3d 43 06 98 3c 8d 02 6c 3e 0c ed 39 bc
       0.10189417 0.018557673 0.23047848 -0.01134802
000020 14 cf 6d be d2 7a 7a bc ed b4 13 3b b2 e4 c8 be
       -0.23223525 -0.015288072 0.002253826 -0.3923698
000030 34 e7 ad bb 61 5a 51 be 2b 08 fb 3b b7 37 4f 3b
       -0.0053071026 -0.20444633 0.007660886 0.0031618902
000040 67 b9 85 b7 0e b9 a2 3e 8b e6 cf 3c ea 42 b2 3c
       -1.594117e-05 0.3178181 0.025378486 0.021760423
000050 60 1d 16 bc 82 ac 27 bb 5c 58 b8 bc ff b8 33 bd
       -0.009162277 -0.0025585 -0.02250307 -0.043877598
000060 f2 55 1b bd 6a 6d 1a bb d4 b0 9a 3f 72 e6 30 bc
       -0.03792376 -0.002356375 1.2085214 -0.01079713
000070 b5 24 d6 bc 59 27 b7 3e 94 e3 a4 3c 42 86 48 3c
       -0.02614055 0.35772207 0.020128049 0.012239041
000080 73 7a 87 3c 9c b6 0d 3c 09 f7 15 bf 5f 57 c3 bc
       0.01653788 0.0086494945 -0.5858007 -0.023845373
000090 dd 17 3d 3c ef 20 41 3e e1 8f b1 3e 36 8a c7 bb
       0.011541334 0.1886022 0.34680083 -0.006089474
0000a0 e2 f5 0d 3e 93 b4 53 3b 50 83 3d c1 0f 28 bb 3b
       0.13863328 0.0032303676 -11.844559 0.0057115625
0000b0 9c 74 a1 be 09 8b a4 3c 93 4e 29 3c 78 74 73 bc
       -0.31534278 0.020085828 0.010333675 -0.014859311
0000c0 46 be 4b 3b aa 69 01 3d e7 76 16 bc b6 ad 65 bb
       0.0031088754 0.03159491 -0.009183622 -0.0035046167
0000d0 9f 43 ad 3e 11 e3 c5 bc fd 69 0e 3d 14 59 b1 b9
       0.33840653 -0.024156125 0.034769047 -0.0003382644
0000e0 9d 20 87 3c 34 3e e0 3c b9 3a dc 3b c9 53 fd 3a
       0.016495043 0.02737341 0.0067208675 0.0019327338
0000f0 0d aa 27 41 1f b1 f1 3b aa 0f db 3e 31 b9 d1 3c
       10.479016 0.007375851 0.42785388 0.025601001
000100 6b e1 84 3e b5 be b0 3b d0 d3 7f 3b 7d 49 06 bc
       0.2595323 0.005393828 0.0039036162 -0.008196232
000110 4c 98 8b c0 b8 28 dc bc 9d ea da ba 44 5b 56 3f
       -4.362341 -0.026874885 -0.0016702 0.8373301
000120 a6 44 c7 bc d6 73 01 3d 07 ce c3 3b 9b af 15 3d
       -0.024324726 0.03160461 0.005975488 0.036544424
000130 ee 11 8a 3c 2c ad 06 bd d9 26 31 3c 1b 36 97 bc
       0.016854253 -0.032879993 0.010812485 -0.018458417
000140 89 41 59 3c de 7f 9a 3e 6c 26 9a 3b e5 6b 04 3d
       0.013260254 0.3017568 0.0047042873 0.03232946
000150 db 58 c7 3c 2b ef 07 3c a7 52 5a 3c a8 8b b6 3c
       0.024334362 0.008296768 0.01332537 0.02228339
000160 1d e7 0e 3d 00 ec 1f 3f 4f 94 79 3c 31 99 4f be
       0.034888376 0.6246948 0.015233113 -0.20273282
000170 cf 9d 90 3c ab 89 f6 bb a2 ae ee be fd 83 da bc
       0.017653374 -0.0075237355 -0.4661761 -0.026674265
000180 c0 59 44 be 24 61 b8 3c 1e 0e f1 41 21 14 e4 3e
       -0.19174862 0.022507258 30.131893 0.44546607
000190 2e 14 0d bd 66 a9 87 3e 0f 8e 09 bc 2f a2 90 3c
       -0.034443073 0.26496428 -0.008395686 0.01765546
0001a0 fa 32 b2 be 21 2c f5 be 21 ea 60 bb 17 86 48 be
       -0.34804517 -0.4788523 -0.003431924 -0.19582401
0001b0 3a 1e d9 bc 61 c0 a2 bc f1 6a 65 3e 3c 3d 38 3c
       -0.026503671 -0.019867124 0.22404076 0.011245068
0001c0 3a 7d b8 bc 32 4e a8 bb b6 0a cc b7 6a 71 88 3b
       -0.02252065 -0.0051362747 -2.4323683e-05 0.0041639106
0001d0 51 3d a8 bc e6 3e 31 bf a2 65 16 3c 4e 8a 4f bc
       -0.02053705 -0.692366 0.009179505 -0.012667252
0001e0 e7 44 a2 3c 20 79 18 3e fe f7 5d 3b b4 6c 72 3f
       0.019808246 0.14889956 0.0033869739 0.9469712
0001f0 8f 29 33 bd a7 d7 4a be bd e6 30 3b 27 c5 c0 bc
       -0.043740805 -0.19808827 0.0026993 -0.02353151
000200 e4 7e 0e bc 47 d6 59 bb 83 4b 73 be 75 01 01 3b
       -0.008697245 -0.0033239292 -0.23759274 0.0019684706
000210 34 d2 7e bc d5 bd b5 be 2c e6 a3 3a 1d b8 9d be
       -0.015553046 -0.35496393 0.001250451 -0.3080453
000220 e5 82 95 bc 18 34 29 3c 08 49 ac bc c8 99 88 3c
       -0.018250892 0.0103273615 -0.021030918 0.016674891
000230 9b 6e 4d ba f9 cb 8d bc 5d f8 c3 ba 6b ab 31 be
       -0.0007836611 -0.017309176 -0.0014951337 -0.17350547
000240 5f 35 bd bc 1e 5a e3 3c 65 6c da 3e ea 86 05 3c
       -0.023096738 0.027752932 0.42660823 0.008149842
000250 be d5 b4 3c d4 70 cc 3e 40 32 ea 3e 03 80 26 3b
       0.022074576 0.3992983 0.45741463 0.002540589
000260 be f7 5c bc b6 f2 39 3c 7e 4e 1c 3c 5e 44 67 c0
       -0.013486801 0.011349371 0.009540198 -3.6135478
000270 29 f7 56 41 a2 4b 13 ba fd a2 3d bc 6b 6a a4 bc
       13.435342 -0.0005618875 -0.011574504 -0.020070275
000280 d3 ed 12 3b 71 29 59 3c 28 75 ce 3c 2c 78 4a bc
       0.0022419586 0.013254509 0.025202349 -0.012357753
000290 9e d6 93 bc 32 8e d3 be b8 9a 7a 3e d1 62 30 3e
       -0.018046673 -0.41319424 0.24473083 0.17225195
0002a0 44 a2 82 be c0 6e 7e bc b2 7d b3 ba 18 d0 f5 3b
       -0.25514424 -0.015529335 -0.0013694076 0.0075016133
0002b0 98 d8 f4 bb 7f 72 b1 bc 19 9f e3 3e a2 92 76 bf
       -0.007472109 -0.021661041 0.4445732 -0.96317494
0002c0 35 1f a9 3c 21 cb 82 3b 2e 2e b2 3a 44 78 99 bb
       0.020644763 0.0039915 0.0013594085 -0.0046835262
0002d0 69 25 1f b8 14 8f 0a bf cd d7 4a 3c bc 83 08 3b
       -3.7943395e-05 -0.5412457 0.0123805525 0.0020830473
0002e0 18 d2 6b 3c 38 3d a0 3c b8 64 9c be da c6 d4 ba
       0.014393352 0.019560441 -0.30545592 -0.0016233579
0002f0 ce 4c 63 be 9c cb a9 be 0a a1 9c 3c 73 6a dd bb
       -0.22197267 -0.33163154 0.019119758 -0.0067570745
000300 25 2b 02 bd e4 b8 a9 be 94 be 94 3e c7 c2 a3 3c
       -0.031779427 -0.33148873 0.2905165 0.019990338
000310 ce e7 03 bd b9 b6 90 3c 2b 4d cd 3d 06 ab ff bb
       -0.032203488 0.017665254 0.10024484 -0.00780237
000320 11 2d 12 3d fa cc ed bb 02 40 a0 3c 43 4f 85 c0
       0.03568751 -0.007257101 0.019561771 -4.1659255
000330 fb 6b 63 be cd 57 bf be f3 dc 5e 3b d1 ae 00 3c
       -0.2220916 -0.37371674 0.0034006208 0.0078541795
000340 60 cb 18 3c 9a a8 ea 3b 71 00 93 bb 7d 1f 7d 3c
       0.009325832 0.007161212 -0.0044861366 0.015449402
000350 50 16 81 bf 87 33 26 bd c4 0c b3 3c 0a 0c 82 3c
       -1.0084934 -0.040576484 0.021856673 0.015874881
000360 40 e4 fa bc bb d9 39 be be 78 c1 3b 24 4e 3c be
       -0.030626416 -0.18149464 0.005904286 -0.18389183
000370 fc 1b 9a bc d8 4d 06 3c 7b 7d da 3e 64 ad 27 bf
       -0.018812172 0.00819727 0.4267386 -0.6549895
000380 72 c8 5f be 72 27 05 be 64 6a 85 3b 11 58 d2 be
       -0.21853808 -0.13003328 0.0040715206 -0.41082814
000390 0a 01 44 3e 80 d3 a3 3c 34 23 bc 3c 04 c4 b3 bc
       0.19141021 0.019998312 0.022966005 -0.021944053
0003a0 71 fe 9c 3d f9 5e 6a bc 70 73 a0 3c 42 22 e1 bc
       0.07665718 -0.01430487 0.019586295 -0.027482156
0003b0 cc d1 77 bb 7c 68 3c 3e d9 6a 51 bd f1 c3 f6 bb
       -0.0037814258 0.18399233 -0.05112729 -0.0075306823
0003c0 64 71 d2 bc a4 f6 6d bc ec 29 fd 3c d9 18 cf 3b
       -0.025688834 -0.014524136 0.030903779 0.0063201007
0003d0 65 33 b5 3e 05 fd e4 3c 53 a9 d2 bc 5d 8d 0a bb
       0.35390773 0.02795268 -0.025715506 -0.0021141388
0003e0 32 58 a0 bd 89 b4 14 3f 31 fa 0e 3d 8b 2d 3c 3c
       -0.07829322 0.58087975 0.03490657 0.011485468
0003f0 e3 c1 4f 3d 2f 8a 3b bc a2 92 4c c1 ec ce 15 3d
       0.050722014 -0.01144652 -12.785799 0.03657429
