results/c_0_2/best/target_q_func2.pt (torch, 502309 bytes, 5 tensors)

1.weight f4 [400, 10]
0	0x404b1f20	3.1737747
1	0xc0024970	-2.0357323
2	0x3ff19d82	1.8876193
3	0x40dee340	6.9652405
4	0x3fcc9bf3	1.5985092
5	0x3f273893	0.653207
6	0xc04f1429	-3.2356055
7	0xbeef00de	-0.4668035
8	0x3f6c27ff	0.9224853
9	0x3cc6d51a	0.024271537
10	0x3fc1d7f5	1.514403
11	0x40a11a78	5.034481
12	0x401a3716	2.4096122
13	0x40d9d6c5	6.807467
14	0x406bfd10	3.6873207
15	0x3f668c32	0.9005767
16	0xbf068cc6	-0.52558553
17	0xbdf10b53	-0.11769738
18	0x3d56f8dc	0.052483425
19	0x3d4c0b56	0.0498155
20	0x408e2a81	4.4426885
21	0x3fdabd8e	1.7089097
22	0xc1006afa	-8.026117
23	0xbf886a71	-1.0657483
24	0xc0d46bf0	-6.638176
25	0xc01e7366	-2.4757934
26	0x3f965239	1.1743842
27	0xbfa9e196	-1.3271968
28	0xc0515e1a	-3.2713685
29	0xbe30a659	-0.17250957
30	0xc0948c5f	-4.642135
31	0xc035205f	-2.8301008
32	0x3f639dbe	0.8891257
33	0x3fbda3b6	1.4815586
34	0xc08c1539	-4.3775907
35	0x3f66f982	0.9022447
36	0x3f8a9312	1.0826132
37	0x3ddfe7c8	0.10932881
38	0xc049d6c1	-3.1537325
39	0x3dd2c5b0	0.10291612
40	0xbe1501f0	-0.1455152
41	0x40d347ca	6.6025133
42	0xbdc9abf7	-0.09847253
43	0x3eba5a1c	0.36396873
44	0x3f2f0154	0.683614
45	0xbe2a790f	-0.16647743
46	0xc0167ef0	-2.3514977
47	0xc04fe3f9	-3.2482893
48	0x3eb54f38	0.35412002
49	0xbd25c335	-0.040469367
50	0xc0a5b3d6	-5.1782026
51	0x4029b784	2.651826
52	0xc069dadc	-3.653983
53	0xc041de49	-3.0291922
54	0xc08cb125	-4.396624
55	0xbf8d83bc	-1.1055827
56	0x3fad347f	1.3531646
57	0xbf75c2b4	-0.9600022
58	0xbdfbb05f	-0.122894995
59	0xbd657442	-0.056019075
60	0x3fb966c3	1.4484485
61	0x40b0d3e6	5.5258665
62	0xc126b4b3	-10.419116
63	0x3e62f1f4	0.2216261
64	0xbff44ac8	-1.9085321
65	0xbfe86945	-1.8157126
66	0x3f44caa7	0.7687172
67	0xbe7e99e8	-0.24863398
68	0x3e186ec7	0.14886008
69	0xbe036e3d	-0.12835021
70	0x4045bf42	3.0897985
71	0xc0a99281	-5.299134
72	0x40983d75	4.757502
73	0xbf991c95	-1.1961848
74	0xbf063486	-0.52423894
75	0x4083c28c	4.1174984
76	0x3d0eff31	0.03491134
77	0xbd3f4ed8	-0.04670605
78	0x3cf4eb88	0.029897466
79	0x3eac5a6a	0.3366273
80	0xbf04ce93	-0.5187771
81	0xbfcd324c	-1.6030974
82	0xc055984f	-3.3374212
83	0xc083fed9	-4.1248593
84	0xc06a3ed8	-3.6600857
85	0xbf54fa62	-0.83194554
86	0x3f34ff39	0.7070194
87	0xbf08f14d	-0.53493196
88	0xc04e0b50	-3.2194405
89	0xbda1a785	-0.0789328
90	0x40e893c4	7.268038
91	0x408c79df	4.389877
92	0xbdfff18f	-0.124972455
93	0x40d09a17	6.51881
94	0x3fbfb853	1.4978126
95	0x3eba8d6d	0.36436024
96	0xc076e6b4	-3.857831
97	0x3e4d5dc5	0.20055301
98	0xbeaab2ec	-0.33339632
99	0x3d3b0728	0.04566112
100	0xbfd505e6	-1.6642425
101	0xc0ab5e91	-5.3552938
102	0xc0c78b19	-6.2357297
103	0xbefb5fd1	-0.4909654
104	0xc0d22da5	-6.568072
105	0xbfb97409	-1.4488536
106	0x3febd6a0	1.8424873
107	0xc09997f6	-4.7998
108	0xbfe77c85	-1.8084875
109	0xbcec8055	-0.028869787
110	0xc02c245a	-2.6897187
111	0xc10c8265	-8.781835
112	0x403b6469	2.9280035
113	0xc0f839d3	-7.7570586
114	0x40783a4b	3.878558
115	0x3c5dde2e	0.013541741
116	0xc0822ca5	-4.06795
117	0xbe83f095	-0.25769487
118	0x3d815449	0.06314904
119	0xbb35a228	-0.002771506
120	0xc0e2bf20	-7.0858307
121	0x3de8648c	0.11347303
122	0xbf5a0491	-0.8516322
123	0xc14c9b9c	-12.787991
124	0xc08054a7	-4.0103335
125	0xbe9edc8a	-0.31027633
126	0xc0903b44	-4.5072346
127	0xc00a9a0e	-2.1656528
128	0x3dec31b0	0.11532915
129	0xbb8a295d	-0.0042163567
130	0x40e44a81	7.1340947
131	0xc0e0ef02	-7.0291758
132	0x3fed956c	1.8561225
133	0xc05a14cc	-3.4075193
134	0x40488887	3.133333
135	0x3eb36d0d	0.35044137
136	0xbe6d2d14	-0.23161727
137	0xbfda2cd1	-1.7044927
138	0xbf798533	-0.9746887
139	0x3d4e6bea	0.050395884
140	0x3f3d3c36	0.7392
141	0x409f087c	4.9697857
142	0xbedd83bd	-0.4326457
143	0x41129727	9.161902
144	0x3ec2371d	0.37932673
145	0xbe8ef60e	-0.279221
146	0xc08a0f65	-4.314379
147	0xbc63678b	-0.013879667
148	0xbc5aa47f	-0.013344883
149	0xbc51fd0c	-0.012816679
150	0x40b1fb71	5.5619435
151	0xc0529136	-3.290113
152	0xc005b18c	-2.0889616
153	0x408291e0	4.080307
154	0xc0ac3fcd	-5.382788
155	0x3ef4b27e	0.4779243
156	0x3edee18d	0.43531457
157	0x3f93e426	1.1554
158	0xbfb59bbf	-1.4188155
159	0x3cef092c	0.029179178
160	0xc0fd9590	-7.924507
161	0xc0932e9d	-4.59944
162	0xbfdcb993	-1.7244133
163	0x40834b0d	4.1029115
164	0xc0b71285	-5.7210107
165	0xbf271b19	-0.6527572
166	0xbfcc2ba9	-1.5950824
167	0x3f411b90	0.7543268
168	0x3e013872	0.12619188
169	0xbd765766	-0.060141943
170	0xc0973226	-4.7248716
171	0x40e8a223	7.269792
172	0x3ec6dc2c	0.38839853
173	0xc0d0cf5a	-6.5253115
174	0x40aa09b5	5.313685
175	0x3da6874e	0.08131276
176	0xbe984bc8	-0.29745317
177	0xbeeb36f1	-0.45940354
178	0xbc8e7c28	-0.017393187
179	0x3b897cc3	0.004195781
180	0x3f5967e2	0.8492414
181	0x4090ebe1	4.528794
182	0xc0b2e31c	-5.5902233
183	0xbf7cd370	-0.9876013
184	0xbfd65f0a	-1.6747754
185	0xbf3cf9fb	-0.7381894
186	0x3d702d86	0.058637165
187	0x3e4e9b40	0.2017641
188	0xbed892fe	-0.42299646
189	0xbd5821d9	-0.052766655
190	0x3ee83af4	0.45357478
191	0x401dffe3	2.468743
192	0xc005444b	-2.0822933
193	0x409608e5	4.6885858
194	0x411fb892	9.982561
195	0xbedcb68c	-0.43108022
196	0xbdfbe456	-0.12299411
197	0xbca2af88	-0.01985909
198	0x3b8a4c52	0.004220524
199	0xbcfa0cb3	-0.030523634
200	0x3f582c1d	0.8444231
201	0xbef6b4c6	-0.48184794
202	0xbf00ec90	-0.50360966
203	0xc196dc51	-18.857576
204	0xc0c3e56a	-6.1217546
205	0xbe300dd1	-0.1719277
206	0xc0e2f394	-7.0922337
207	0x3f7fbb66	0.9989532
208	0xc0bb1874	-5.846735
209	0xbcdb6728	-0.026782587
210	0xc04e640d	-3.2248566
211	0xbfa61752	-1.2975867
212	0xbfae793a	-1.3630745
213	0xc0314242	-2.769669
214	0xc11dda48	-9.865791
215	0x3e470f35	0.19439395
216	0xc05450ca	-3.317431
217	0xbf4b2be7	-0.79363865
218	0x3f3ab4f8	0.72932386
219	0x3ca17a4e	0.01971164
220	0xc0867ded	-4.202872
221	0x3f99c9c0	1.2014694
222	0xc0423c90	-3.0349464
223	0x410f4a80	8.955688
224	0xc0484504	-3.1292124
225	0xbf4e90f4	-0.8068993
226	0xbeeebeac	-0.46629846
227	0xbc996c83	-0.0187285
228	0x3e00a685	0.12563522
229	0xbd432482	-0.04764224
230	0xc076adf8	-3.8543682
231	0x40044e20	2.0672684
232	0xbe00c24e	-0.12574121
233	0xbf622604	-0.8833926
234	0xbe9a03fd	-0.30081168
235	0xc18653aa	-16.790852
236	0x3e4e7db9	0.20165147
237	0xc0eba867	-7.364307
238	0x3c25b7d8	0.010114633
239	0xbfd71959	-1.680461
240	0xc11c6454	-9.774494
241	0x40dfa440	6.9888
242	0xbf1026ad	-0.56309015
243	0xc08392e8	-4.111683
244	0x4051476c	3.2699842
245	0xbe35b7e3	-0.17745928
246	0xc031cd61	-2.7781603
247	0x3ec4b5d7	0.38419983
248	0x3d304d8c	0.043042704
249	0x3a18f0be	0.0005834213
250	0xc111fac2	-9.12372
251	0x40333025	2.7998135
252	0xbf5d1654	-0.86362195
253	0xbf84d109	-1.0376292
254	0xbe00c239	-0.1257409
255	0xbe31c2ca	-0.17359462

1.bias f4 [400]
0	0xbfafb356	-1.3726604
1	0xc018337d	-2.3781426
2	0xbf2f06b6	-0.68369615
3	0xbe275d3f	-0.16344164
4	0xbfa11d6f	-1.2587107
5	0xbed403a9	-0.41409042
6	0xbf003092	-0.5007411
7	0xbfd5d902	-1.670685
8	0x3ebcd8c1	0.3688412
9	0xc0056027	-2.0839937
10	0xbf95a282	-1.1690218
11	0xbd1e2b93	-0.038615774
12	0x3ea628bd	0.32452956
13	0xbea764e5	-0.32694164
14	0xbf42aa68	-0.7604127
15	0xbf8cf8f0	-1.101347
16	0x3ec792d5	0.3897921
17	0xbebe839a	-0.3720978
18	0xbd15346f	-0.036426958
19	0xbe07d6fd	-0.13265605
20	0xbf71b94f	-0.94423383
21	0xbd9ed496	-0.07755391
22	0x3e1b1ce1	0.15147735
23	0xbe034348	-0.12818635
24	0xbf495974	-0.7865212
25	0xbf663faa	-0.89940894
26	0xbf71c172	-0.944358
27	0xbe9623bc	-0.29324138
28	0xbea9401a	-0.33056718
29	0xbfdfaa28	-1.7473803
30	0x3f211192	0.62917435
31	0xbf22a97b	-0.63539857
32	0xbda6e90a	-0.081499174
33	0xbf98bc72	-1.1932509
34	0xbf33126d	-0.6994999
35	0xbf1d47b2	-0.61437523
36	0x3e79d45e	0.24397418
37	0xbf524864	-0.8214171
38	0xbe5972d8	-0.21235216
39	0xbf462045	-0.7739299
40	0xbf087dd1	-0.5331698
41	0x3ef66bac	0.48129022
42	0xbf713777	-0.9422526
43	0x3deb4d01	0.11489297
44	0xbfcc8f39	-1.5981208
45	0xbf0b27be	-0.54357517
46	0x3c87a383	0.01655746
47	0xbf2a0324	-0.6641104
48	0xbf3a495c	-0.7276819
49	0xbf03bdc5	-0.5146144
50	0xbf3f41b2	-0.7470962
51	0xbe42e971	-0.19034363
52	0xbeac4860	-0.33648968
53	0xbe501c1b	-0.20323221
54	0xbf1a963d	-0.60385495
55	0x3eb017ff	0.34393308
56	0xbdd3f28b	-0.10348996
57	0xbe0970e2	-0.13421968
58	0xbee79658	-0.4523189
59	0x3f7852bc	0.9700124
60	0xbed54b70	-0.41659117
61	0xbf6c14c3	-0.9221918
62	0xbf41efe7	-0.75756687
63	0xbfd382ad	-1.6524254
64	0xbf77ca66	-0.9679321
65	0xbed8032d	-0.42189923
66	0x3e01e3f1	0.12684609
67	0xbfbe1d44	-1.4852681
68	0x3d33ad3b	0.043866377
69	0xbf1790dc	-0.5920541
70	0xbf878ed1	-1.0590459
71	0xbf2b289d	-0.66858846
72	0xbee28a31	-0.44246057
73	0xbf789393	-0.9710018
74	0xbf451ca9	-0.76996857
75	0xbeb82768	-0.35967565
76	0xbf7e9d18	-0.99458456
77	0xbf835d30	-1.0262814
78	0xbe8dbd6b	-0.27683577
79	0xbdf19f98	-0.11798018
80	0xbfca92b7	-1.5826024
81	0x3ec7824f	0.38966605
82	0xbfb6509a	-1.4243348
83	0xbf594164	-0.84865403
84	0x3efa7000	0.48913574
85	0x3e130169	0.14356007
86	0x3e218e7e	0.15777013
87	0xbf84115b	-1.0317796
88	0xbf2d3eb6	-0.67673814
89	0xbfd54005	-1.6660162
90	0x3c0a10e2	0.008426877
91	0xbec75eb9	-0.38939455
92	0xbe56b0f0	-0.20965934
93	0xbeb35378	-0.3502462
94	0x3f2e6d2c	0.68135333
95	0xbf2de8b9	-0.6793323
96	0xbffffb3d	-1.9998547
97	0x3dd0ba95	0.10191838
98	0x3e919dcc	0.28440702
99	0xbffab67a	-1.9586937
100	0xbcd1f29e	-0.025628384
101	0xbcb8a5bb	-0.022539964
102	0xbedd03e6	-0.43167037
103	0xc0285a66	-2.6305175
104	0xbdfcaffb	-0.12338253
105	0xbfb67935	-1.425574
106	0xbfb07f32	-1.3788817
107	0xbf71e356	-0.9448751
108	0x3f27a246	0.65481985
109	0xbfbaf5f9	-1.4606315
110	0xbd083271	-0.03325123
111	0xbee03fc1	-0.4379864
112	0x3f847a90	1.0349903
113	0xbee654a6	-0.44986457
114	0xbfccb7dc	-1.599361
115	0xbfa3b532	-1.2789671
116	0xbf87d6ac	-1.0612388
117	0xbec58d19	-0.3858421
118	0xbe8d4d15	-0.2759787
119	0x3d84507f	0.06460666
120	0x3e344329	0.17603745
121	0xbf0278a3	-0.5096533
122	0x3c45fe73	0.012084591
123	0xbf81b3a5	-1.0132948
124	0xbf76c89f	-0.96399873
125	0xbf564142	-0.83693326
126	0xbed0f8d9	-0.40814856
127	0xbf11029c	-0.56644607
128	0xbf0b59f2	-0.5443412
129	0xc01f2c03	-2.4870613
130	0x3eb67890	0.35638857
131	0xc0139aa7	-2.3063142
132	0xbf1b6891	-0.6070643
133	0xbff4b4cf	-1.9117678
134	0x3eb48e00	0.35264587
135	0xbf27efcc	-0.65600276
136	0x3e965aac	0.29366052
137	0x3e0d4c4c	0.13798636
138	0xbe8ed32f	-0.27895495
139	0x3f4091fb	0.7522275
140	0x3eef3423	0.46719465
141	0xbf5c6f7a	-0.861076
142	0xbe8f56bf	-0.2799587
143	0xbf22a644	-0.6353495
144	0xbecdfba8	-0.4023106
145	0xbebfbfe2	-0.37451082
146	0xbf98b339	-1.1929694
147	0xbe594591	-0.21217944
148	0x3e1d327c	0.1535129
149	0x3ee41c4c	0.4455284
150	0xbedfa402	-0.43679816
151	0xbf2a2623	-0.6646444
152	0xbf934278	-1.150466
153	0xbe8dfcaf	-0.27731845
154	0xbf7989de	-0.97475994
155	0xbf8defa7	-1.1088761
156	0xbf391936	-0.72304094
157	0xbec21200	-0.37904358
158	0xbfff4396	-1.99425
159	0xbfe3e195	-1.7803217
160	0x3f5498ce	0.8304566
161	0x3d2bdef6	0.04196068
162	0xbf0990e4	-0.5373671
163	0xbf429358	-0.7600608
164	0xbf6b2524	-0.9185355
165	0xbffaee06	-1.9603889
166	0xbf49bf31	-0.7880736
167	0x3e8e9827	0.27850458
168	0xbf61d910	-0.88221836
169	0xbe1ae58e	-0.1512663
170	0xbf48ad68	-0.78389597
171	0xbebf8881	-0.37408832
172	0x3e98fea1	0.29881766
173	0xbfef566a	-1.8698246
174	0xbf44d3a4	-0.7688544
175	0xbff1b4e4	-1.8883328
176	0xbfc9a534	-1.5753541
177	0xbe809442	-0.25113112
178	0xbf565d72	-0.83736336
179	0x3e18ccad	0.14921828
180	0xbf9a7623	-1.2067302
181	0x3e5029d9	0.20328464
182	0xbf22894a	-0.63490736
183	0x3f1143cf	0.5674409
184	0xbf55fe79	-0.8359142
185	0xbfddf9bc	-1.7341838
186	0x3f7f62b5	0.9975999
187	0xbf2c2e27	-0.6725792
188	0xbf6ffa4a	-0.93741286
189	0xbece9afa	-0.40352613
190	0x3d8bb818	0.068222225
191	0x3f1c6852	0.6109668
192	0xbdaf9607	-0.08573537
193	0xbec7bdc3	-0.39011964
194	0xbffc02f9	-1.9688407
195	0xbef3dab3	-0.47627792
196	0xbe913577	-0.28361103
197	0xbf14a494	-0.58063626
198	0x3e1b6593	0.15175466
199	0x3ee2b789	0.4428065
200	0xc00d8ae3	-2.211602
201	0xbf0fd3db	-0.5618264
202	0xbfe2f2c3	-1.7730335
203	0xbea21fa3	-0.31664762
204	0xc026d7a1	-2.606911
205	0x3ec23733	0.3793274
206	0x3eb2caea	0.34920436
207	0xbf1adddd	-0.60494787
208	0xbf28e160	-0.65968895
209	0xbfb6735f	-1.4253958
210	0x3e12f642	0.14351752
211	0xc0136f13	-2.3036544
212	0x3c8d9f4b	0.01728787
213	0xbfabd25a	-1.3423569
214	0xbf4df9d3	-0.80459327
215	0xbe4d52a3	-0.20051055
216	0xbd93016a	-0.07178004
217	0xbfc6fe7e	-1.5546415
218	0xbf431ab0	-0.76212597
219	0x3f2a250d	0.66462785
220	0x3eca56db	0.3951939
221	0xbf9b22b9	-1.2119972
222	0xbf999d05	-1.2001044
223	0xbf13baef	-0.57707113
224	0xbf1a58c6	-0.6029171
225	0xc017f966	-2.374597
226	0xbeee45ea	-0.46537715
227	0xbe5b2a5f	-0.21402882
228	0x3ec3cf83	0.38244256
229	0xbe5fc7cf	-0.21853565
230	0x3f25ed7c	0.648155
231	0x3e76ad37	0.24089514
232	0x3d65ab48	0.05607155
233	0xbe2cfb0b	-0.1689264
234	0xbfae51ce	-1.3618715
235	0xbead4897	-0.33844444
236	0xbfa4c726	-1.2873275
237	0x3dfbeda3	0.12301185
238	0x3ee4cf85	0.44689575
239	0xbf943b39	-1.1580573
240	0xbf11152d	-0.56672937
241	0xbf597885	-0.84949523
242	0xbe8ee921	-0.27912238
243	0xbf60432b	-0.8760249
244	0xc01fcf7c	-2.4970388
245	0xbf699552	-0.9124347
246	0xbf128c9b	-0.57245797
247	0xbdfcbeac	-0.12341055
248	0x3f21546f	0.6301946
249	0xbfbfccee	-1.4984415
250	0x3e9d8ffd	0.30773917
251	0xc02ea71d	-2.7289498
252	0x3e290bc8	0.165084
253	0x3da2b7a8	0.07945186
254	0xbf3a76f3	-0.7283775
255	0x3d5c0913	0.05371959

3.weight f4 [300, 400]
0	0xbfc054e0	-1.5025902
1	0xc05426a3	-3.3148582
2	0x3ebed6de	0.37273306
3	0x40091215	2.1417286
4	0x3fd8156e	1.688154
5	0x3fd1ff87	1.6406106
6	0xbfd1b978	-1.6384726
7	0xc0aa6329	-5.3246045
8	0x3e165896	0.1468223
9	0x3f5827c8	0.844357
10	0xc03b6eba	-2.9286332
11	0xc02cc0ff	-2.6992795
12	0xc0b1bb24	-5.5540943
13	0x40507b15	3.2575123
14	0xc0957ee5	-4.67174
15	0xc0477b6c	-3.116908
16	0x4039b4bd	2.9016564
17	0x3f46460a	0.7745062
18	0xbfe05232	-1.7525084
19	0xbfe56197	-1.7920407
20	0xbfb40bba	-1.4066079
21	0x3f119b0e	0.5687722
22	0xc0542e65	-3.3153317
23	0x3d2ddcd7	0.042446937
24	0x400a0ace	2.1569095
25	0xbf34cf19	-0.70628506
26	0xc086cf10	-4.212776
27	0xbb478c09	-0.0030448458
28	0x405358c7	3.3022935
29	0x3ede5e77	0.43431446
30	0xc11a960e	-9.661634
31	0xbfa18fe6	-1.2622039
32	0xbf41d3e1	-0.75713927
33	0xbfc2b67b	-1.5211939
34	0xbfc30962	-1.5237238
35	0x3f0e7ba6	0.5565742
36	0x402c7420	2.6945877
37	0xbf4a499a	-0.7901856
38	0x3ed45ac1	0.4147549
39	0xbf27720f	-0.65408415
40	0xbf9ede18	-1.2411528
41	0x3f58cd23	0.84688014
42	0xbeb9c180	-0.3628044
43	0xbf3b2af3	-0.7311241
44	0x3fb097a0	1.3796272
45	0xbe8f0ef5	-0.279411
46	0x3f0013bf	0.5003013
47	0xc1306751	-11.025224
48	0x3e07e7ab	0.13271968
49	0xbf4c724d	-0.7986191
50	0x403189f9	2.7740462
51	0x3f52fe1d	0.82418996
52	0x40366614	2.8499804
53	0x40e73dc7	7.226291
54	0x3f8324e0	1.0245628
55	0xbfa1ff3a	-1.2656014
56	0x3f163bee	0.58685195
57	0x3e1de7df	0.15420483
58	0xbf371802	-0.7152101
59	0x3e9b1cb1	0.30295327
60	0x407a6345	3.912309
61	0xc01ebd34	-2.480298
62	0x402987d1	2.6489146
63	0xc009cc13	-2.1530807
64	0x406407ca	3.5629754
65	0x3f9e3168	1.2358828
66	0xbc7dcda6	-0.015490925
67	0xbebfc230	-0.3745284
68	0x3f193197	0.59841293
69	0xc03eb4c0	-2.979782
70	0xbf155c8a	-0.5834433
71	0xbfa7da2d	-1.3113457
72	0xbf4b1262	-0.79324925
73	0xc0a7966a	-5.237111
74	0x406d794a	3.710528
75	0xbbcb2cf0	-0.0062004253
76	0xc03dcc6a	-2.9656014
77	0xbe343f9c	-0.1760239
78	0xbf4ff7ec	-0.81237674
79	0x40a7cf96	5.24409
80	0xc010da96	-2.2633414
81	0xc0326d04	-2.7879038
82	0xc04d27ac	-3.2055464
83	0xbf22fed4	-0.63670087
84	0xbf2b7346	-0.6697277
85	0xc12f11c4	-10.941837
86	0x3eccf1d7	0.4002826
87	0xbf800b85	-1.0003515
88	0xbefca5b3	-0.49345168
89	0xc01de5ad	-2.4671433
90	0x3ef16bc7	0.4715254
91	0x3db55330	0.088537574
92	0x406642b6	3.5978217
93	0xbf3e4dfb	-0.7433774
94	0x3f06e550	0.52693653
95	0x3fa7cc4d	1.3109223
96	0x3eb1a890	0.34698915
97	0xbe3ab662	-0.18233636
98	0xbf600887	-0.8751301
99	0xbf6454b0	-0.8919172
100	0x3f9ca45a	1.2237656
101	0xbde0fdfb	-0.10985943
102	0xc0969eb0	-4.706871
103	0xc031a965	-2.775964
104	0xc0693405	-3.6438
105	0x3f1e3398	0.61797476
106	0xc0a9d518	-5.3072624
107	0xc048fb85	-3.1403515
108	0xc1131f08	-9.195076
109	0x3fe39abf	1.77816
110	0x3f64e18e	0.8940667
111	0xbfcaac1d	-1.5833775
112	0xbfec1870	-1.8444958
113	0xbfb09347	-1.3794945
114	0x3f098363	0.53716105
115	0xc113f9ce	-9.248487
116	0xc0a2d653	-5.0886626
117	0xbd37792f	-0.044793304
118	0x3c543afa	0.012953514
119	0xbf45af33	-0.7722046
120	0x3f8e382c	1.1110892
121	0xc00ab92f	-2.1675527
122	0x3fa67004	1.3002934
123	0x3facde44	1.350533
124	0x3f99c0ae	1.2011926
125	0x3e4fa4a4	0.20277649
126	0xc0ba8545	-5.8287683
127	0xc006ef34	-2.1083498
128	0xc0c0d52a	-6.026021
129	0xc009b43f	-2.1516263
130	0x3ffdf1a7	1.9839371
131	0xc0806c9f	-4.0132594
132	0xbf5e726f	-0.8689336
133	0x3cd52b90	0.026021749
134	0x3e9aac8e	0.30209774
135	0x40c7e46f	6.246635
136	0xc0d6fc83	-6.718324
137	0xbf990dce	-1.1957338
138	0x3f915242	1.1353228
139	0x4020f4bd	2.5149376
140	0x402bd899	2.685095
141	0x3f3264da	0.6968514
142	0x3e7e99fc	0.24863428
143	0x3fc665bf	1.54998
144	0xbf3f8ddc	-0.74825835
145	0xbf9f2c2a	-1.2435353
146	0xbfa0b87c	-1.25563
147	0xbd11db28	-0.035609394
148	0x3ee930fd	0.45545188
149	0xc100bf72	-8.04674
150	0xc06a271c	-3.658637
151	0x4080642f	4.0122294
152	0xbfd62cae	-1.6732385
153	0xbec5b9a3	-0.38618192
154	0x4014721b	2.3194644
155	0xbfc145f3	-1.5099472
156	0x3dca2a2d	0.09871326
157	0xc082ceb9	-4.0877347
158	0x3f8704c7	1.0548333
159	0xc14c952c	-12.786419
160	0xbfa91db9	-1.3212196
161	0x400c0365	2.1877072
162	0xbf648c6f	-0.89276785
163	0xbcd28660	-0.02569884
164	0xbe8514bd	-0.25992385
165	0x3ed2cf26	0.41173667
166	0xba6a2ab2	-0.00089327537
167	0xc1669164	-14.410496
168	0x3ecd5b45	0.40108696
169	0xbd1ab905	-0.037774105
170	0xbe49196b	-0.19638602
171	0x3fc2c681	1.5216829
172	0xbce8a3a9	-0.028398352
173	0x3f144337	0.5791506
174	0x4013482c	2.30128
175	0x3f981891	1.1882497
176	0x3f631619	0.88705593
177	0xbc65ef2d	-0.014034075
178	0xc00503fc	-2.0783682
179	0xbdb14967	-0.086565785
180	0xc0bfa498	-5.988842
181	0x406a5428	3.6613865
182	0xbff5af47	-1.9194115
183	0x3ee983c0	0.4560833
184	0xbf5e1ff4	-0.86767507
185	0xbfb80b65	-1.4378477
186	0xbf68c34c	-0.90923
187	0xc045348c	-3.0813322
188	0xc02b7df0	-2.6795616
189	0x3f1af4e9	0.60529953
190	0xc0a986fb	-5.297727
191	0xc01867c9	-2.3813345
192	0x3faa45b1	1.3302518
193	0xc03a425e	-2.9103007
194	0xbf86d01d	-1.0532261
195	0x40720193	3.781346
196	0x3f98b504	1.1930242
197	0xc0ccc9f8	-6.3996544
198	0xc026d571	-2.6067774
199	0xbffefe34	-1.9921327
200	0xc01e6c0c	-2.4753447
201	0xbbdaa4d6	-0.006672482
202	0xc08cee1d	-4.4040666
203	0x402af1ad	2.6710007
204	0x3f958974	1.1682572
205	0xc07e7ee4	-3.9764948
206	0xbf684c28	-0.90741205
207	0x3f41b4e7	0.7566666
208	0xbf0a8e78	-0.5412364
209	0xc04f2f7c	-3.2372732
210	0x3fbb5d67	1.4637879
211	0xc0a29cac	-5.081625
212	0x3f06ea37	0.52701133
213	0xc026d903	-2.6069953
214	0x40255d61	2.5838244
215	0x3debffa9	0.11523373
216	0x3ff715ce	1.9303529
217	0xc0db59eb	-6.8547263
218	0xc14006fc	-12.001705
219	0xbf9ca7a6	-1.2238662
220	0x3de84ff2	0.11343373
221	0xc0240b44	-2.5631876
222	0xbf83402d	-1.025396
223	0x3f3e3f72	0.7431556
224	0xbf111cfc	-0.5668485
225	0x3f732df0	0.9499197
226	0xbe020405	-0.12696846
227	0xc02a7980	-2.6636658
228	0xc079bc87	-3.9021318
229	0x40047ba0	2.0700455
230	0xc008b949	-2.136309
231	0x3d34cc19	0.044139955
232	0x3f3b5167	0.73171085
233	0x3e444e2a	0.19170442
234	0xbf5da5c9	-0.86581093
235	0xbc2e1bcd	-0.010626745
236	0xbee783bd	-0.45217696
237	0xbfb5f476	-1.4215229
238	0xbf0412e2	-0.5159131
239	0x3b07ba72	0.0020710495
240	0x3ebf99d6	0.37422055
241	0x3eae60ca	0.3405822
242	0x4002e53e	2.0452418
243	0x3f44a9c4	0.7682154
244	0xc037b966	-2.8706908
245	0xbf190f98	-0.5978942
246	0x3fbe04ac	1.4845176
247	0x3ee1e043	0.4411641
248	0x3fe8182f	1.813238
249	0xc0981c05	-4.7534204
250	0x3fcc9b69	1.5984927
251	0xc085f172	-4.1857233
252	0xbff06d86	-1.8783424
253	0xbfc129b0	-1.5090847
254	0xc0f08e06	-7.517337
255	0xbdb59bea	-0.08867629

3.bias f4 [300]
0	0x3fb729eb	1.4309667
1	0xbdfe1114	-0.12405601
2	0x3bb432e7	0.005499232
3	0xbd8a8b9d	-0.0676491
4	0xc0209f72	-2.5097318
5	0x3f69e4df	0.91364855
6	0xbca398e7	-0.01997037
7	0xbe19d41e	-0.15022323
8	0xbd50c112	-0.050965376
9	0xbdcf6e01	-0.101284035
10	0xbe0fd96d	-0.14047785
11	0xbcbef4d0	-0.023310095
12	0xbd6cc5bb	-0.057805758
13	0xbd95ad9e	-0.073085055
14	0xbf8758ad	-1.0573937
15	0xbea44362	-0.3208266
16	0xbd3dd168	-0.046342283
17	0xbd8f89bd	-0.07008693
18	0xbda456bf	-0.08024358
19	0xbdc13df9	-0.094356485
20	0xbcfbddcc	-0.03074541
21	0xbdd39d1a	-0.10332699
22	0xbdb1a438	-0.086739
23	0xbe47cc19	-0.19511451
24	0xc0291226	-2.6417327
25	0x4087fa09	4.249272
26	0x4065ff5a	3.5937104
27	0xba5f2d42	-0.0008513519
28	0xbf58811f	-0.84572023
29	0xbdb8cd08	-0.090234816
30	0xbe0e261b	-0.13881724
31	0xbe4bbbe9	-0.19895901
32	0xbd868c2d	-0.06569705
33	0xbdc932b1	-0.09824122
34	0xbe2291a3	-0.15875868
35	0xbe2e6817	-0.17031895
36	0xbda1947f	-0.078896515
37	0xbac919b1	-0.001534274
38	0xbd4e2c21	-0.050335053
39	0x3fd6a372	1.676863
40	0x3d87935e	0.06619905
41	0x3ff72164	1.9307065
42	0xbdf98d9c	-0.12185213
43	0xbd5b62f2	-0.05356116
44	0xbdc09ab1	-0.09404505
45	0xbc6f4a43	-0.014605108
46	0xbc9eb0a6	-0.019371342
47	0xbdc2adf1	-0.09505833
48	0xbd8a1fcd	-0.06744347
49	0xbd9c9406	-0.07645421
50	0x3ea8dba1	0.32980064
51	0xbc6abbdb	-0.014327015
52	0xbd7fa68c	-0.06241469
53	0x3fce2014	1.610354
54	0xc03be655	-2.9359334
55	0x3f94eb0e	1.1634233
56	0xbd32ad10	-0.043622077
57	0xbcb359b8	-0.021893367
58	0xbe04fc2d	-0.12986822
59	0x408b9e63	4.3630843
60	0xbdb78290	-0.0896045
61	0xbdb4d630	-0.088299155
62	0x4081da50	4.0578995
63	0xbe59b862	-0.21261743
64	0xbd22275f	-0.03958833
65	0xbe0ee5ad	-0.13954802
66	0xbdb598b8	-0.088670194
67	0xbdaf5c9f	-0.08562588
68	0xbcfc2674	-0.030780055
69	0xbd460a19	-0.048349474
70	0xbd975f36	-0.07391207
71	0xbe13b296	-0.14423594
72	0xbf9d6914	-1.2297692
73	0xbd396948	-0.04526642
74	0x3fd116ef	1.6335124
75	0xbd7fb244	-0.062425867
76	0xbd8159b5	-0.063159384
77	0xbde70513	-0.11280265
78	0x404fca04	3.246705
79	0xbd8e9535	-0.06962053
80	0xbd8f6cd5	-0.0700318
81	0xbd039ef5	-0.032134015
82	0xbd6e3bf3	-0.05816264
83	0xbd48a611	-0.0489865
84	0xbea8ae93	-0.3294569
85	0xbde5a3f3	-0.112129115
86	0xbca9ab97	-0.020711703
87	0xbd58fa8a	-0.052973308
88	0xc006aec9	-2.104418
89	0xbfbe497b	-1.4866174
90	0xbf96eca5	-1.1790968
91	0x3fa88be0	1.3167686
92	0xbd829f7d	-0.06378076
93	0xbd023c45	-0.03179576
94	0x3a60b18a	0.0008571377
95	0xbb33fdc8	-0.0027464498
96	0xbff92863	-1.946545
97	0xbfd243d4	-1.642695
98	0xbda1546f	-0.078774326
99	0xbbe40c23	-0.0069594546
100	0xbd5d41da	-0.05401788
101	0x3b0bf874	0.0021357806
102	0xbd262b7f	-0.040568825
103	0x3e445f68	0.1917702
104	0xbeb19cb8	-0.3468988
105	0x3f8257b7	1.0183018
106	0xbf5b39c0	-0.85634995
107	0xbfa3d8b1	-1.2800504
108	0x3f896763	1.0734676
109	0xbceae47b	-0.028673401
110	0xbd1841c6	-0.0371721
111	0xbd5497e2	-0.05190266
112	0xbca0ee17	-0.01964478
113	0xbd16f10e	-0.03685098
114	0xbf5eccac	-0.87031054
115	0xbf49e45b	-0.7886407
116	0xbd8f01cd	-0.06982765
117	0x3ff34b9a	1.9007447
118	0xbd5c8d62	-0.05384577
119	0xbde6cff3	-0.11270132
120	0xbd5bcd32	-0.053662486
121	0x404e11be	3.219833
122	0xbd2e4427	-0.042545464
123	0xbe4fb901	-0.20285417
124	0x3f7651eb	0.96218747
125	0x3f7d3f2a	0.98924506
126	0xbf4d1daa	-0.8012339
127	0xbd814565	-0.06312064
128	0x3f57d6c3	0.84312075
129	0xc008af31	-2.1356928
130	0xbda97a5f	-0.082752936
131	0xbd7f4034	-0.06231709
132	0xbd4c99c9	-0.04995135
133	0xbd997b0e	-0.07494174
134	0xbe0aa94d	-0.13541146
135	0xbe03ec4d	-0.1288311
136	0xbd64f10b	-0.05589394
137	0xbf8e474b	-1.1115507
138	0xbd04824d	-0.032350827
139	0xbe1a4ba6	-0.1506792
140	0xbdbaa100	-0.091127396
141	0x3f9a0898	1.2033873
142	0xbf9dba34	-1.232245
143	0xbbd33dca	-0.006446575
144	0xbedde68d	-0.4333996
145	0x3fe38b51	1.7776891
146	0xbd79af34	-0.060958102
147	0xbf71ebd5	-0.94500476
148	0xbecb1717	-0.39666054
149	0xbd4fcee1	-0.050734404
150	0xbe15a376	-0.14613137
151	0xbf0f5ee7	-0.56004184
152	0xbd2b2bf7	-0.041789975
153	0xc033ac49	-2.8073905
154	0xbd5e7352	-0.054309197
155	0x3c9bc81d	0.01901632
156	0xbc8cf4cd	-0.017206574
157	0x3d885540	0.06656885
158	0xbdbd7218	-0.09250277
159	0xbd24c1c7	-0.040223863
160	0xbdc42bf9	-0.095786996
161	0x3f789b42	0.97111905
162	0xbd3eacf0	-0.046551645
163	0x3b393297	0.0028258914
164	0xc0005bed	-2.0056107
165	0x3ac07850	0.0014684293
166	0x3ecf8432	0.40530545
167	0x40697191	3.6475565
168	0x4005ede3	2.0926445
169	0xbdb8f0f8	-0.09030336
170	0xbcfc32f4	-0.030786015
171	0xbdf11d74	-0.11773196
172	0xbcd6e362	-0.026231471
173	0xbdcc1f21	-0.09966875
174	0x3d56a632	0.05240459
175	0x3fe0cbd9	1.7562209
176	0xbd490df9	-0.04908559
177	0xbd361b30	-0.04445952
178	0xbda994ef	-0.0828036
179	0xbd743284	-0.059618488
180	0xbc6ad66b	-0.014333348
181	0xbe13647c	-0.143938
182	0xbd050946	-0.032479547
183	0xbeb32b8f	-0.3499417
184	0xbffe6c61	-1.9876825
185	0xbc8a6b95	-0.016897002
186	0xbe250d8f	-0.16118453
187	0xbe057ca9	-0.13035835
188	0xbce7b5a3	-0.028284853
189	0x3eba4a89	0.3638499
190	0x3fd2b1eb	1.6460546
191	0xbd9bbdf6	-0.076045915
192	0x3f53c131	0.8271666
193	0xbd53d23a	-0.05171416
194	0xbe90a9ca	-0.2825454
195	0x408e3ab7	4.4446673
196	0xbd9712a6	-0.07376604
197	0xbc8acc75	-0.016943196
198	0xbf000a3f	-0.50015634
199	0xbd0e225d	-0.03470074
200	0xbfa152ff	-1.2603453
201	0xbdcb6851	-0.09932006
202	0x3f1f5d1f	0.62251467
203	0xbd92fa36	-0.0717663
204	0x402f5ad3	2.7399185
205	0x3ffc9af0	1.9734783
206	0x3ffd4c90	1.978899
207	0xbd6f96d3	-0.058493447
208	0xbd033fa5	-0.032043118
209	0x3ede23ec	0.4338678
210	0x3b93a2f5	0.00450551
211	0xbda83b9f	-0.08214497
212	0xbf751125	-0.95729285
213	0xbcaacb17	-0.020848794
214	0xbd621251	-0.05519325
215	0xbdb6c008	-0.08923346
216	0xbdade987	-0.084918074
217	0xbc091d47	-0.008368797
218	0x3cbacb2f	0.022801964
219	0x3f0298fe	0.510147
220	0xbe8d12cc	-0.27553403
221	0xbc67878b	-0.014131437
222	0x3f77d508	0.96809435
223	0x3f8adc8c	1.0848556
224	0xbf7a6cf0	-0.97822475
225	0x3eb4e3d8	0.3533008
226	0x3f40ef99	0.75365597
227	0xbe313d2e	-0.17308494
228	0xbd30a010	-0.043121397
229	0xbe0958e3	-0.13412814
230	0x3da63bbf	0.081168644
231	0xbd41e141	-0.04733396
232	0xbd812b9d	-0.06307147
233	0xbd90101e	-0.07034324
234	0x3f245532	0.641925
235	0xbdac685f	-0.08418345
236	0xbc5d69b2	-0.013513969
237	0xbd8440ad	-0.064576484
238	0xbcc964b1	-0.024584146
239	0xc0093e93	-2.1444442
240	0xbdd6db92	-0.104910985
241	0xbd958d96	-0.07302396
242	0xbd0b96cd	-0.03407936
243	0xbdde359a	-0.108500674
244	0xbdb1e448	-0.08686119
245	0xbd0d82fd	-0.03454875
246	0x40544a18	3.3170223
247	0xbcf3411c	-0.029694133
248	0xbda404b7	-0.08008712
249	0xbd85a425	-0.06525449
250	0xbf9201f7	-1.140685
251	0xc0958f60	-4.673752
252	0xbd45d5c1	-0.048299555
253	0xbd2346df	-0.03986251
254	0xbcd90962	-0.026493732
255	0xbd9801b6	-0.07422201

5.weight f4 [1, 300]
0	0x3eb6ab53	0.35677585
1	0x3c40ef11	0.011775748
2	0x3c91c025	0.017791817
3	0xbc496d49	-0.012294122
4	0xbfd94164	-1.6973081
5	0x3e1acdc5	0.15117557
6	0xbcce85f9	-0.025210368
7	0xbc669943	-0.014074626
8	0x3c9fa146	0.01948608
9	0xbc87fb5d	-0.016599352
10	0x3cfc8434	0.030824758
11	0x3c265b26	0.010153567
12	0x3c42a941	0.011881174
13	0x3d423be1	0.047420386
14	0xbe452b38	-0.19254768
15	0xbf142e99	-0.578836
16	0x3acee610	0.0015785117
17	0xbb33c650	-0.0027431436
18	0x3c6701f2	0.014099585
19	0x3c81e0dd	0.015854293
20	0xbbf5ab14	-0.0074972007
21	0xbc9bdf8e	-0.019027498
22	0xbad7a841	-0.0016453342
23	0x3a92956e	0.001118345
24	0x3e7865e0	0.24257612
25	0x3ed15166	0.40882415
26	0x3fdb5c9f	1.7137641
27	0xbc735ae4	-0.014853213
28	0xbe415dd1	-0.18883444
29	0xbc166c3e	-0.00918108
30	0xbfe917c3	-1.8210377
31	0xbcf0b014	-0.029380836
32	0xbc06638d	-0.008202446
33	0x3bbcd5d8	0.005762797
34	0x3ea4affa	0.3216551
35	0x3cfdc86c	0.030979358
36	0xbbffc75b	-0.0078057474
37	0x3c06971d	0.008214739
38	0x3b6c99fa	0.003610252
39	0x400b8db9	2.180525
40	0xbe7a99b8	-0.24472702
41	0x3fba57d8	1.4558058
42	0xbc7198e4	-0.014745925
43	0x3c883f55	0.016631762
44	0xbcaf10d7	-0.021370335
45	0xbb94dd06	-0.0045429496
46	0xbba7a7f6	-0.005116458
47	0xbc65eb0b	-0.014033089
48	0x3ca50cc7	0.020147694
49	0x3c26bf27	0.01017741
50	0xbe54f3e5	-0.20796163
51	0x3cbc1fcf	0.022964386
52	0xbcac1fb7	-0.021011217
53	0xbee88a2b	-0.45417914
54	0x3e892f00	0.2679367
55	0xbfae1b49	-1.3602077
56	0x3b5e11aa	0.003388504
57	0x3d065af4	0.032801583
58	0x3ca7ebef	0.020498244
59	0x3f19e740	0.60118484
60	0xbcc23ca9	-0.023710566
61	0x3dcb74d0	0.099343896
62	0x3f28e342	0.6597177
63	0x3c8588cd	0.016300583
64	0x3bdf6fa9	0.006818731
65	0xbc36ebc8	-0.011164613
66	0xba6381da	-0.0008678712
67	0x3cbf75b8	0.023371562
68	0xbc20d44f	-0.009816243
69	0xbcfc52fc	-0.030801289
70	0x3c863c7c	0.016386263
71	0xbc19be3e	-0.009383736
72	0x3df3ca1f	0.11903786
73	0xbc2989ff	-0.010347842
74	0x3eee28b2	0.46515423
75	0x3c459038	0.01205831
76	0x3bb1441f	0.005409732
77	0xb8e67873	-0.0001098969
78	0x3f628d08	0.88496447
79	0x3ce2256a	0.027605731
80	0x3c414820	0.011796981
81	0xbbfb6e14	-0.0076730344
82	0xba95917d	-0.0011411157
83	0xbb786fac	-0.0037908358
84	0x3e1ac651	0.15114714
85	0x3c96eeb5	0.018424371
86	0xb9a40fa7	-0.0003129218
87	0xbab412e0	-0.0013738535
88	0xbe255e7a	-0.16149321
89	0x3e9d8c13	0.3077093
90	0xbf87cd76	-1.0609577
91	0xbf25c1d2	-0.6474887
92	0xbd10c495	-0.035343725
93	0xbcaf98c6	-0.021435153
94	0xbcc203a1	-0.023683371
95	0xbc453728	-0.012037076
96	0xbfb03ceb	-1.3768591
97	0x3e98b664	0.29826653
98	0x3b24c5ae	0.002514224
99	0x3bac7fce	0.005264259
100	0x3ccb6081	0.02482629
101	0xbcb206a8	-0.02173169
102	0xbc674b63	-0.014117095
103	0xbf0e0841	-0.55481344
104	0xbf0d5f07	-0.55223125
105	0x3e5df165	0.21674116
106	0xbf27ab17	-0.6549544
107	0x3e819fe3	0.25317296
108	0x3e3b496f	0.18289731
109	0xbba290d7	-0.004961114
110	0xbc8ddd9d	-0.017317588
111	0xbadaf65a	-0.0016705499
112	0x3b0714e5	0.002061182
113	0xbca8274f	-0.020526556
114	0x3e69837f	0.22804068
115	0xbf02f4ea	-0.5115496
116	0x3c2faea6	0.010722792
117	0xbed11575	-0.40836683
118	0xbccbb289	-0.024865406
119	0x3c50e052	0.012748795
120	0x3c222696	0.009896895
121	0x3fc457b8	1.533927
122	0x3b5c59d1	0.003362287
123	0xbc56dd22	-0.013114246
124	0xbe47126d	-0.19440623
125	0x3f7aa449	0.9790693
126	0x3fa9eb24	1.3274884
127	0xbc238177	-0.009979597
128	0x3e907d21	0.28220466
129	0x3f015c7f	0.5053176
130	0x3cb6e4c0	0.022325873
131	0x3cdfdd0a	0.02732708
132	0x3c052d64	0.008128498
133	0x3c931e26	0.017958712
134	0xbd1a2b9d	-0.03763925
135	0xbb278a47	-0.0025564597
136	0xbcd48a9a	-0.025944997
137	0xbe0d31af	-0.13788484
138	0x3c614e93	0.013751644
139	0xbc873f15	-0.016509572
140	0xbc8b40dd	-0.016998703
141	0xbfe0f148	-1.7573633
142	0x3de66499	0.11249656
143	0xbc95b3de	-0.018274244
144	0xbf62340b	-0.8836066
145	0x4029f947	2.6558397
146	0xbb979a96	-0.0046265824
147	0xbe66326c	-0.22480172
148	0xbe8e5fc6	-0.27807444
149	0x3cf52d4c	0.029928826
150	0x3cae160f	0.021250753
151	0xbfa43b1d	-1.283054
152	0xbb2d8d57	-0.002648195
153	0xbfb55946	-1.4167869
154	0xbba39fef	-0.004993431
155	0x3d1a0555	0.03760274
156	0x3c133ef6	0.008987179
157	0x3eec1d52	0.4611612
158	0xbc92636e	-0.017869677
159	0xbca6cba7	-0.02036078
160	0xbc9b4cae	-0.018957462
161	0xbf0e396f	-0.55556387
162	0xbc0c24fd	-0.008553741
163	0x3c249e9e	0.010047583
164	0xbe202895	-0.15640481
165	0xbbe7c79b	-0.0070733554
166	0x3e1f689a	0.15567246
167	0x3e28671a	0.1644558
168	0x3f002f1c	0.50071883
169	0x3cce0da9	0.025152998
170	0xbca7a72e	-0.02046546
171	0x3c95fc86	0.01830889
172	0xbc967e36	-0.018370729
173	0x3cbb2440	0.022844434
174	0x3e645f3c	0.22301954
175	0x3e84c6f4	0.2593304
176	0x3b926436	0.0044675125
177	0xbd0cae7d	-0.034346092
178	0xbd13892d	-0.036019493
179	0x3b92f96e	0.0044853007
180	0x3c8723bd	0.016496534
181	0xc05ae3c7	-3.4201524
182	0xbfbd5ef0	-1.4794598
183	0x3e5bd97f	0.21469687
184	0x3e17aca7	0.14811955
185	0xbccbd999	-0.024884032
186	0x3c5272aa	0.012844721
187	0x3de0d497	0.10978048
188	0x3ccd4738	0.025058374
189	0x410d1637	8.817924
190	0xbf93264d	-1.1496063
191	0x3b480db9	0.0030525757
192	0xbe1dabfa	-0.15397635
193	0xbb0909ad	-0.0020910308
194	0xc0708468	-3.7580814
195	0x3f217a97	0.6307768
196	0xbc6ecc7b	-0.014575119
197	0x3c25795f	0.010099738
198	0x3e6a0696	0.22854075
199	0x3c15ece5	0.009150718
200	0xbe6f7038	-0.23382652
201	0xbb41db01	-0.002958
202	0xbe1e7fcb	-0.15478437
203	0x3cc05079	0.023475872
204	0x3f900bdf	1.1253623
205	0x3e82ed52	0.25571686
206	0x3f81190a	1.0085766
207	0xbc2298a7	-0.0099240905
208	0x3ca7626f	0.020432679
209	0x3e850cc4	0.25986302
210	0xbbad9207	-0.005296949
211	0xbc8d861d	-0.017275864
212	0xbf5224dd	-0.820875
213	0x3ca2c787	0.019870533
214	0xbe3426dc	-0.17592949
215	0xbc88d61d	-0.01670366
216	0x3cf102e4	0.029420324
217	0xbe6760fc	-0.2259559
218	0x3cd3ecc9	0.025869744
219	0xbe31cc45	-0.17363079
220	0xbfca492e	-1.5803583
221	0x3df6c83c	0.120499104
222	0xbe72ba62	-0.23703912
223	0x3e98739a	0.29775697
224	0xbe90aa6c	-0.28255022
225	0xbf86a45f	-1.0518912
226	0x3e6cc52d	0.23122092
227	0xbeff5721	-0.49871162
228	0x3c5f3512	0.013623493
229	0xbea30ad8	-0.3184421
230	0xbfb535d4	-1.4157052
231	0xbcf64f24	-0.030067034
232	0x3c345867	0.011007405
233	0x3c74cd33	0.014941501
234	0xbf0c1d6e	-0.54732406
235	0x3bc8ad19	0.0061241505
236	0xbca6ac67	-0.02034588
237	0xbcfd2524	-0.0309015
238	0x3d02001d	0.03173839
239	0xbf504ab7	-0.81364006
240	0x3d49fb78	0.049312085
241	0xbc35dcb0	-0.011099979
242	0xb895881d	-7.130227e-05
243	0xbcabcc1f	-0.020971356
244	0xbab2157f	-0.0013586729
245	0xbc98b3d6	-0.01864044
246	0x3e1f5909	0.15561308
247	0x3b405dc1	0.0029352757
248	0x3cbdab20	0.023152888
249	0xbc502662	-0.012704464
250	0xbe3dadb1	-0.1852329
251	0x3e17b17d	0.148138
252	0x3cebc643	0.028781062
253	0x3c22fb17	0.00994756
254	0xbc6620f3	-0.014045942
255	0x3b903bdd	0.0044016675
