results/c_0_2/best/target_policy.pt (torch, 500709 bytes, 5 tensors)

0.weight f4 [400, 9]
000000 dc 70 83 3c b7 28 37 3e d5 71 8a be c0 8b 49 be
       0.016045026 0.17886625 -0.27039972 -0.19682217
000010 13 ac f9 bd 77 87 3b 3d fa 63 5c bd b9 5d 5c 3e
       -0.12191024 0.045783486 -0.053806283 0.21520127
000020 c4 4e 01 bd 5d b1 3e 3f 55 ab 54 be 45 3e b4 bf
       -0.031569257 0.74489385 -0.20768483 -1.4081503
000030 07 00 f9 be 87 58 45 40 24 7c 51 c0 d9 1c 02 be
       -0.48632833 3.0835283 -3.273202 -0.12706317
000040 d6 f1 60 3e 60 a4 4e 3d b7 9f 65 c0 b3 a4 e4 bf
       0.21967253 0.05044973 -3.5878732 -1.7862762
000050 71 7f 1c 40 0c 33 a0 bf 4d db 04 c0 fa f4 1a 40
       2.4452784 -1.2515578 -2.075885 2.4212022
000060 da 90 4e be 9e 8e db 3d fa e2 04 3f 86 9b 43 c0
       -0.20172444 0.107205614 0.5190884 -3.0563674
000070 54 75 4f 3d 4f 6d 42 c0 fb 1d c0 bf e7 ac 8f bf
       0.050649002 -3.0379217 -1.5009149 -1.1224641
000080 98 eb 61 bf 26 18 99 3f a1 f0 e4 bf e7 b1 a1 be
       -0.8825011 1.1960495 -1.7885934 -0.3158104
000090 d0 42 0a c0 fa ec 6c 40 dc 33 4b bd 8d 68 3c bf
       -2.160328 3.701964 -0.049610004 -0.7359703
0000a0 b0 b5 86 40 c5 ea 8b bd af 55 8d be 4d 09 80 be
       4.2096786 -0.06831888 -0.27604434 -0.25007096
0000b0 2a d0 b4 bf 7f 89 97 c0 ba 5f 57 bf ce 3e 68 40
       -1.4126027 -4.735534 -0.8413044 3.6288333
0000c0 51 ec 9c c0 07 a2 5e c0 c7 b9 04 3f fe 65 0c 3e
       -4.903847 -3.4786394 0.51845974 0.13710782
0000d0 c3 db a5 be 92 2e 64 bf 04 f0 8c 40 54 82 0f c0
       -0.32394227 -0.8913356 4.404299 -2.2423296
0000e0 2a 59 5d c0 0d 01 db bf d5 57 ac c0 2d 11 5d be
       -3.4585671 -1.7109696 -5.3857217 -0.21588583
0000f0 41 52 a5 be cd 81 21 3e cc ae 2d bf 88 6a 5c c0
       -0.32289317 0.15772171 -0.67844844 -3.4440022
000100 62 8c ab c0 48 82 38 bf 1b cf ef c0 37 74 3c c0
       -5.3608866 -0.72073793 -7.4940314 -2.9445932
000110 33 6c 76 bb 36 ad 06 c0 b9 83 12 3f 87 d8 54 3f
       -0.0037601113 -2.104322 0.5723224 0.83142895
000120 a4 91 7a 3e 97 6d c2 3f 9d f4 88 3f e8 e6 01 3f
       0.2446962 1.5189694 1.069965 0.5074296
000130 7b 82 08 be 81 37 f4 3e 56 0c 9e bf 0c db f0 bf
       -0.13331024 0.47698596 -1.2347515 -1.8816848
000140 7f 3a 5a bf cb 5a c1 3f c4 ec b6 3f 11 ae 97 bf
       -0.8524551 1.5105833 1.4291005 -1.1849996
000150 39 2a 11 40 4b e4 07 c0 65 34 f8 3e 9d 33 b0 3e
       2.268202 -2.123309 0.48477474 0.34414378
000160 8d 4e bf be 1d 20 85 bf 03 a0 9f c0 bd 7b 13 c0
       -0.37364617 -1.0400425 -4.9882827 -2.3044274
000170 12 e1 0e bf 35 44 19 40 02 b5 58 c0 99 d2 b3 3f
       -0.5581218 2.394788 -3.3860478 1.4048644
000180 13 23 83 be 5d c5 14 be 29 79 03 bf 0d 39 8b be
       -0.25612697 -0.14528413 -0.5135675 -0.27191964
000190 73 82 75 3e 2e bb 2c 3e f1 23 40 be 9d 9d 07 3e
       0.23975544 0.16868278 -0.1876371 0.13243718
0001a0 57 06 37 be 7e a0 9f bd a6 85 80 be 17 a5 83 be
       -0.17873512 -0.07794283 -0.25101966 -0.2571189
0001b0 46 b1 e4 bf c1 fc fa bf f4 36 78 bf 7d a1 01 3f
       -1.78666 -1.9608384 -0.9695885 0.50637037
0001c0 fe e6 bf c0 77 7e 28 3f b1 88 3a 3f d4 71 6b be
       -5.9969473 0.6581797 0.72864825 -0.2299264
0001d0 47 d4 3c c0 54 fd 7e bf 0c 59 8b bf 83 1e b3 3f
       -2.9504564 -0.996053 -1.088655 1.3993686
0001e0 a3 2d e4 40 54 1b 9a 3f ff 15 6b bf 65 76 3b 3f
       7.130571 1.203959 -0.9183044 0.7322753
0001f0 29 e6 5e c0 af 85 a2 bb 81 5d c2 40 b0 b4 e6 3e
       -3.4827979 -0.004959784 6.073914 0.4505973
000200 2d ad 24 bf 9f 57 20 40 0c 19 cf bf ae 38 b8 be
       -0.64326745 2.505348 -1.6179519 -0.35980743
000210 bb b6 93 bf 5e 1e 8a 3d 02 a8 44 bb 46 10 25 c0
       -1.154014 0.06744073 -0.0030007367 -2.5791183
000220 59 50 88 bf ea 3a a4 bf 6e eb 5a bf d8 b1 81 3f
       -1.064952 -1.2830479 -0.8551549 1.0132399
000230 11 89 57 40 35 dc 06 3f 4d c6 0b c0 0e 31 08 3e
       3.3677409 0.5267976 -2.1839783 0.13299963
000240 44 50 99 be 80 d1 21 be 68 6a 68 3e ab 9c 0d bb
       -0.2994405 -0.15802574 0.22696841 -0.0021608274
000250 93 a8 29 be ac c8 82 be 00 b8 9f be 48 0b 90 be
       -0.16568212 -0.25543725 -0.31195068 -0.28133607
000260 4b 78 8a bd 84 40 18 3f cc a8 2d 40 0d bf 9f c0
       -0.06761225 0.59473443 2.7134275 -4.9920716
000270 7c 9b 2a bf 64 85 21 40 2d f8 6e bf f3 8f dd 3d
       -0.666435 2.5237665 -0.93347436 0.10818472
000280 c1 42 df bd 55 51 44 bd d7 da 91 bf 10 75 80 c0
       -0.10901404 -0.047929127 -1.139491 -4.01429
000290 ab d7 68 40 38 0f ef 3f a4 f5 f5 c0 b1 14 81 3f
       3.6381633 1.8676519 -7.6862354 1.008444
0002a0 3a d5 10 c0 bb ae a4 bd ae 77 ae be 7e d8 52 c0
       -2.2630143 -0.0804114 -0.34075683 -3.2944636
0002b0 9b ae 23 40 a1 a7 f9 bd 12 0a ee c0 1b d4 e2 bf
       2.557532 -0.12190176 -7.4387293 -1.772098
0002c0 24 2c fb 3f 73 da 48 c0 3b 07 fb 3e 08 27 d3 be
       1.9622846 -3.138333 0.49028954 -0.41240716
0002d0 ce 1a 29 40 1a dd 0e bf 03 5a 38 40 ea 94 a3 bf
       2.642261 -0.55806124 2.8804939 -1.277982
0002e0 fb 01 53 40 92 9e 2d 40 d4 7d 66 bf 40 10 10 3c
       3.2969959 2.7128034 -0.9003575 0.008792937
0002f0 66 aa 65 be e0 6a ad 40 d5 14 ab be e1 8d fd 3e
       -0.22428283 5.4192963 -0.3341433 0.49522308
000300 13 9a 82 3e 58 14 41 40 8f 94 87 3e f8 3f b0 bf
       0.25508174 3.0168667 0.2648053 -1.3769522
000310 34 cb 9f bf 18 1c 25 bb 35 ec 1f c1 7d 73 8f 3e
       -1.2483888 -0.0025193747 -9.995168 0.28017798
000320 4b ed 20 bf bd e1 6a bf 56 55 88 c0 1f fa 52 bc
       -0.6286208 -0.917507 -4.260417 -0.012877016
000330 3d 3d ca bf 4b e6 03 3f f2 a8 85 bf 96 f4 8f 3e
       -1.5799938 0.51523274 -1.0442183 0.28116292
000340 80 db f6 3d 07 e3 2c 3d 00 9e 22 bb 5b f3 86 bd
       0.12053585 0.042208698 -0.0024813414 -0.06589385
000350 ab 4d 2b 3d 20 e2 9b bd ab 7e 19 bb 00 35 2e 3d
       0.041822117 -0.07611489 -0.0023421447 0.042531013
000360 62 d5 1d bf 74 3c 47 c0 38 e4 13 40 c5 f2 cd c0
       -0.6165372 -3.1130648 2.3108044 -6.435885
000370 4b ac 50 40 d6 48 92 3f 03 27 35 3e 52 d3 1e bf
       3.260516 1.1428478 0.17690663 -0.620412
000380 c2 66 e6 be 56 34 b0 40 28 d2 e4 be 04 31 c9 bf
       -0.45000273 5.5063887 -0.44691586 -1.5718083
000390 94 11 db c0 01 17 07 c0 3a 41 34 bf 6c 3c 1f 3f
       -6.845896 -2.110779 -0.7041203 0.6220157
0003a0 0e 66 95 3d 07 75 4d 3e 1e a4 96 40 ef bc 4c c0
       0.07294856 0.20064174 4.707534 -3.1990316
0003b0 6e b1 a1 3f 4a cd 90 be 51 ea 93 3f f0 a2 42 40
       1.2632272 -0.28281623 1.1555883 3.041195
0003c0 d3 93 4f be 94 34 aa 3e 5f ab b5 3d 67 cc 29 bc
       -0.20271234 0.3324324 0.08870577 -0.010363675
0003d0 a1 b2 42 3e 6d ae 92 be 5b 5b 78 3e 23 a1 79 be
       0.19013454 -0.286487 0.242536 -0.24377875
0003e0 5e 54 a7 bb 2b 21 68 bd 63 c5 33 be a9 93 d9 3c
       -0.005106493 -0.056672256 -0.17555766 0.026559668
0003f0 a2 20 8d 3e 8b 8e c7 bd c9 a5 4a be 0c 7a fc bd
       0.2756396 -0.09743985 -0.19789805 -0.12327966

0.bias f4 [400]
000000 88 3e bd be 4c b8 89 bf e5 2b 27 bf c7 77 31 3e
       -0.3696177 -1.0759368 -0.6530135 0.17330848
000010 6d 78 e7 be cf 77 6b 3d 22 b1 05 3f 23 e7 58 be
       -0.45209065 0.057487305 0.5222341 -0.21181922
000020 84 46 af bd 8a 06 35 bf 69 4d 00 bf 76 2d 98 be
       -0.08558372 -0.707131 -0.5011812 -0.29722184
000030 f2 9e e6 3d d1 03 4f bf 56 2f 7c bf 93 1d 15 bf
       0.11260785 -0.808652 -0.9850973 -0.5824825
000040 3e f1 62 be 9c 5a 64 be 93 98 88 3e 54 a5 e6 be
       -0.22162339 -0.2230019 0.26678905 -0.4504801
000050 7a d1 3d bf d6 2a c8 be 6c fd 1c 3e 23 39 8d be
       -0.7414776 -0.3909518 0.15331048 -0.27582654
000060 ac 36 0f 3d 5e 14 73 bf 32 df 26 bf 59 29 46 be
       0.03496425 -0.9495295 -0.6518432 -0.1935171
000070 44 7f a6 be 0b a9 8a bf 6e 77 f0 3c 6b 79 9e be
       -0.3251897 -1.0832838 0.029353824 -0.3095201
000080 99 61 9f be fd ac 86 be 06 14 8a bf 88 2d 3a be
       -0.3112915 -0.26303855 -1.0787361 -0.18181431
000090 5b 62 75 bf 1b 67 d5 be 8e 5a 14 bf 3f 65 73 bf
       -0.95853204 -0.41680226 -0.57950675 -0.95076364
0000a0 11 fb 3e 3e 69 95 77 be df 25 c0 bf 53 47 ac be
       0.18650462 -0.24178089 -1.5011557 -0.33648166
0000b0 22 d2 17 bd da be 5d bf fc d1 c5 3e 0e e5 c2 be
       -0.037065633 -0.8661934 0.38636768 -0.3806538
0000c0 1b 0c 2d bd fb ee 31 bf 17 15 8d bf 57 55 2d 3f
       -0.042247873 -0.6950528 -1.1022061 0.67708343
0000d0 9c 4c 1e be 26 f2 23 bf 0e 02 4e bf 09 36 9f bf
       -0.15458912 -0.64041364 -0.80471885 -1.2438365
0000e0 b1 90 81 3e b0 3a 39 bf 92 43 56 be 20 f7 b0 3e
       0.25305703 -0.72355175 -0.20924214 0.3456354
0000f0 1d 7d 8f 3d 83 ef a0 3e 62 d5 03 bf f1 55 0e be
       0.07006285 0.31432733 -0.5149747 -0.13899972
000100 91 9d 1c bc e2 ad 3b be c3 04 51 bd b7 f3 0d 3f
       -0.009559051 -0.1832805 -0.05102993 0.55450004
000110 a6 d6 85 be 5c 03 80 bf 3f 6a 34 bf 3e ae 70 be
       -0.26140326 -1.0001025 -0.7047462 -0.23503968
000120 b9 ad 33 bf 7a 81 e4 3e 32 2e d0 be 1b c1 60 bf
       -0.70186955 0.44630033 -0.40660244 -0.87794656
000130 5e f1 4b be f3 c8 c6 be c7 7a 2c 3e cc 08 ce 3d
       -0.19916293 -0.38825187 0.16843711 0.100602716
000140 7b 9d c7 be 71 dc 48 bf f8 50 12 3f b7 5d 68 bf
       -0.38987336 -0.78461367 0.571548 -0.90768
000150 fa 3b ad 3e d8 34 99 be e4 f5 d1 3d 17 8f 18 3f
       0.3383482 -0.2992313 0.10251978 0.5959334
000160 12 dd f7 bd ce 5d 58 bf f0 5a bf be 44 91 90 be
       -0.12102713 -0.84518135 -0.37374067 -0.2823583
000170 7a 19 fb be 1a 90 13 bf 16 71 33 bf a3 b2 1b 3e
       -0.49042875 -0.57641757 -0.7009443 0.15204863
000180 dc 45 6a be 50 8f 34 bf d1 2f 6a bf 87 1c 57 bf
       -0.22878212 -0.7053118 -0.9147921 -0.84027904
000190 a0 ae 32 bf b0 e9 34 bf fb 6e bc bd 79 9d 8b bf
       -0.69797707 -0.7066908 -0.09200855 -1.0907432
0001a0 ac ed 31 bf 5e 6b 6a 3e 04 e1 f8 3e 58 bb eb 3e
       -0.69503284 0.2289252 0.48609173 0.4604137
0001b0 61 c7 24 bf 54 80 c5 3e 75 d4 b6 bc d0 62 10 3e
       -0.6436673 0.3857447 -0.022318104 0.14100194
0001c0 8f 61 12 bf 66 52 a5 be 33 24 97 3e d4 d7 40 be
       -0.5718011 -0.32289428 0.29519805 -0.18832332
0001d0 96 86 a3 be 4d c3 ae 3d ab 3c 7f bf 22 63 69 3d
       -0.31938618 0.085333444 -0.99701947 0.056979306
0001e0 63 9b 3f 3e 7e da cb 3e bc 72 68 3c 72 4e 11 bf
       0.18711619 0.39815134 0.014187511 -0.56760323
0001f0 82 d7 92 be 9c 21 80 bc 20 8c 3e bf ec 29 1a 3e
       -0.28680044 -0.015641026 -0.74432564 0.15055054
000200 68 f9 ad be a8 c1 13 bf b4 e4 ec 3e 98 cf bf 3e
       -0.33979344 -0.5771737 0.46268237 0.3746307
000210 4d ea 6b be 8a f8 50 be 37 6b 46 bf f4 42 1d bf
       -0.23038597 -0.2040731 -0.77507347 -0.6143029
000220 68 76 d9 be e1 c4 85 3e 32 c1 7e 3e 81 aa 38 bf
       -0.4247315 0.2612677 0.24878386 -0.7213517
000230 8c e1 1b 3d 53 eb 33 bd 15 e4 19 3e bb ac 83 3e
       0.038056895 -0.043925595 0.15028413 0.2571772
000240 f2 ec a0 be ad 6c a5 bf 89 bc 8a 3e 06 8a 5a be
       -0.31430775 -1.292379 0.27096966 -0.21341714
000250 53 4a 9f 3c 0a f2 79 bf 36 29 d9 3c ff d4 f4 bd
       0.01944462 -0.9763495 0.026508909 -0.11954688
000260 4d 0a e8 3c df f8 b1 be f6 d7 c0 be 1a 99 31 3e
       0.028325224 -0.34760186 -0.37664765 0.1734356
000270 3f e4 32 bf 5a a9 89 bf 41 27 d6 bd 99 38 30 bf
       -0.69879526 -1.0754807 -0.10456706 -0.6883636
000280 4e 1e 1d be 07 a6 ba be 3e 9c bb be bb 83 1f bd
       -0.15343592 -0.36454794 -0.3664264 -0.038943987
000290 62 2e dc be 2b 32 4b bf a1 c9 6f bf 8c 04 e3 be
       -0.43004137 -0.79373425 -0.93667036 -0.44339406
0002a0 0b 48 9b 3b ce 2e 94 be 9d 4c 2c be 5e b0 42 3d
       0.004738813 -0.2894196 -0.168261 0.047531478
0002b0 9b c8 91 be d8 3d 01 3f f3 bd 09 bf 7b ae ab 3e
       -0.28473362 0.5048499 -0.53805465 0.33531556
0002c0 80 ae 1f bf d7 4f 08 bf 5a 98 25 bf ee 90 19 be
       -0.6237564 -0.53246826 -0.64685595 -0.14996693
0002d0 1a 3f e2 bd cf 4f f6 3c 44 00 80 be 27 72 90 3d
       -0.11047192 0.030067353 -0.25000203 0.07053023
0002e0 25 5a bb bf 29 72 34 bf 71 1f 71 bf ba 7d d4 be
       -1.4636885 -0.70486695 -0.941886 -0.41502172
0002f0 42 91 8e 3d b0 45 d9 3e 1e d7 8e 3f 96 3e 9e be
       0.069612995 0.4243598 1.1159399 -0.30907124
000300 6d 5c ce bd 97 19 00 bf a7 86 86 3e 85 04 84 3f
       -0.100762226 -0.50039047 0.26274607 1.0313879
000310 c5 8a 27 be e2 5f 0f bd 87 30 8e be 69 d4 67 bf
       -0.1636153 -0.03500355 -0.27771398 -0.9055849
000320 ed d7 2a bf 34 d8 3f be 7d dd 80 be 1e 4b 9b be
       -0.66735727 -0.18734819 -0.25168982 -0.30330747
000330 70 80 cb be c2 6b 87 be b3 46 e7 be f1 9a bf 3e
       -0.39746428 -0.264494 -0.45171127 0.37422898
000340 e8 ac 82 bf 55 32 f4 3d f9 80 b9 be 14 7e db bf
       -1.0209017 0.119236626 -0.3623121 -1.7147851
000350 bc 05 05 bf 9c e1 67 bf c3 fb 30 be 3e 06 4d bf
       -0.51961875 -0.9057863 -0.1728354 -0.8008765
000360 28 58 1b bf 6b 00 ed be 39 ef 75 be be 92 1a bf
       -0.6068139 -0.4628938 -0.24017037 -0.6038016
000370 c9 63 bc be 96 4f c1 3e f8 3d 06 bf 37 84 5f bf
       -0.3679488 0.37756032 -0.52438307 -0.8731112
000380 99 85 d7 3d 83 1e 09 bf a4 18 fd be 69 01 4f bf
       0.105235286 -0.5356218 -0.49432862 -0.80861527
000390 33 8e 44 bf c9 9b 2b bf e2 f8 f1 bd f8 52 57 be
       -0.7677948 -0.67034584 -0.11815049 -0.21027744
0003a0 c8 60 1e bf 92 eb 3e be 26 bb 23 bf 06 04 43 bf
       -0.61866426 -0.1864455 -0.6395744 -0.76178014
0003b0 ec 34 a7 bf 2b 03 6a bd ca 42 3e be 74 6c 11 bd
       -1.3063025 -0.057131927 -0.18580166 -0.03550382
0003c0 da e1 97 be a5 54 5b 3e 43 c2 4a bf 74 f6 23 3e
       -0.296645 0.21419008 -0.7920267 0.16011983
0003d0 e7 1b fe 3d 87 9e 72 3e 18 f8 dc bf 15 43 ca 3d
       0.12407666 0.23693286 -1.7263212 0.09876076
0003e0 72 29 93 3e 93 86 d1 3e 69 ac a8 bf eb ef 95 bc
       0.28742558 0.40922984 -1.3177615 -0.018302878
0003f0 6e 24 29 bf 22 b2 70 3d 2e ee 87 bd 7b bf 60 bd
       -0.6607121 0.05876363 -0.06637226 -0.05487011

2.weight f4 [300, 400]
000000 b3 65 7f 3c 75 73 29 bf f1 39 19 3f 4f 39 c6 3e
       0.015588212 -0.661918 0.59854037 0.38715598
000010 24 d5 be 3f e8 fb 55 3f 32 40 61 bf ae 01 f4 3f
       1.4908795 0.83587503 -0.8798858 1.9063013
000020 15 52 31 3f 67 08 c4 be c5 7e 13 bf 73 57 f8 bd
       0.6926587 -0.3828766 -0.5761531 -0.121260546
000030 bb 08 f3 3e 8d 2e 0d c0 26 c8 35 bd 84 1b 9e bf
       0.47467598 -2.2059662 -0.04438033 -1.2352147
000040 03 bf 04 3d d0 a8 a3 be aa 0b 63 3f 2a 27 24 3e
       0.032408725 -0.3196473 0.8868967 0.16030565
000050 1d 5a 1b 3f 61 de a4 3f 86 41 7b 3e 9a fc df bb
       0.60684377 1.2880365 0.24536714 -0.0068355324
000060 60 29 ed bb 6e 7e 56 3f b6 cc bc 3f 31 6b ca 3c
       -0.0072375983 0.83786666 1.4749973 0.024709316
000070 e7 35 85 bb ba 53 f9 bf e7 3f db bd 2d 33 99 bf
       -0.0040652636 -1.9478676 -0.10705548 -1.1968743
000080 2f 93 fb 3f 49 bd c4 3c 18 77 8f bf a7 bf f8 bc
       1.9654292 0.02401604 -1.120822 -0.030364824
000090 d2 12 64 3f 67 ad 03 40 0e 4c 25 bf e9 14 d4 3e
       0.8909122 2.0574586 -0.64569175 0.41422203
0000a0 3d fc 1b 40 3e 8f 96 be 62 0d 30 c0 da ad 35 40
       2.4372704 -0.2940616 -2.7508168 2.838736
0000b0 b2 c2 b3 bd 7e c8 90 bf 52 f4 0c c0 71 9d a3 bf
       -0.087773696 -1.1311185 -2.2024121 -1.2782422
0000c0 92 85 1d c0 1b 01 6d 3f da e9 92 bf bb f9 0a 40
       -2.4612775 0.9257981 -1.1477616 2.1714923
0000d0 24 5a cd 3e eb 2b 80 3f 7a 2f a0 3f bd f6 c6 be
       0.40107834 1.0013403 1.2514489 -0.3886012
0000e0 de e3 00 c0 b7 a2 19 c0 3a b9 0c 3f 8c 9e d4 3d
       -2.013908 -2.4005563 0.54970133 0.10381803
0000f0 75 34 89 bd e3 15 2e c0 4e 49 a1 be 5b a6 5b 40
       -0.066994585 -2.7200859 -0.3150124 3.4320285
000100 fc 68 86 40 cf 60 15 40 47 09 f1 bf 6b 68 95 bf
       4.2003155 2.3340337 -1.8830956 -1.1672491
000110 1e 88 80 3f b4 c3 01 40 ec 43 60 bd 7c 9f ea 3e
       1.004154 2.0275698 -0.054752275 0.45824802
000120 3d 49 c0 3e 8e 33 39 3f f8 71 c9 bd 15 b1 38 3d
       0.37555876 0.7234429 -0.09836191 0.045090754
000130 1e 1e a6 3f 9e b4 37 c0 00 05 65 bf a5 bc fa 3f
       1.2977941 -2.870399 -0.89460754 1.958882
000140 a1 c9 bf bf 32 b1 f3 bf 78 25 7f be 58 93 aa bf
       -1.4983407 -1.9038451 -0.24916637 -1.3326216
000150 fb 05 27 bf 9d 33 2a 3f 71 db 8d 3e bb 81 87 3e
       -0.652435 0.66485006 0.27706483 0.26466164
000160 c5 20 ed bf ce ab 86 3f 41 1b 4e 3e 9a d8 36 bd
       -1.8525625 1.0521181 0.20127584 -0.04464016
000170 9f 74 bc 3f 38 6a 34 bf 66 36 27 c0 96 2a 9e 3f
       1.472309 -0.70474577 -2.6126952 1.2356746
000180 c6 23 a0 be 56 52 a1 3f ba 0d 95 bc 94 53 f5 bf
       -0.31277293 1.2603252 -0.018195022 -1.9166131
000190 55 d4 1d 3f 69 01 25 3f 81 2e 83 bf 08 af f3 3e
       0.6165212 0.64455277 -1.0248567 0.47594476
0001a0 f4 1e 43 3f 45 6f f6 bf 28 92 5a 3f b2 42 43 3d
       0.76219106 -1.9252707 0.85379267 0.047671027
0001b0 6c b6 75 3d 05 c7 f5 bf d8 5b b0 3f 31 1b 85 be
       0.059988424 -1.9201361 1.3778028 -0.25997308
0001c0 7f 17 87 3e 58 bf 16 3d 8a 78 ff be 9e 68 c5 3f
       0.26385114 0.036803573 -0.49896652 1.5422552
0001d0 40 a7 84 bf ca 79 bb bf 3a 8e 4a be 86 47 bd bf
       -1.0363541 -1.4646542 -0.19780818 -1.4787452
0001e0 7f ed d8 3f 97 c2 96 bf cc fc a5 bf a0 75 af bf
       1.6947478 -1.1778134 -1.2967772 -1.3707771
0001f0 e7 5c a5 bb 8f 01 27 3f ea 6b 69 be 24 10 dd bf
       -0.005046475 0.65236753 -0.22795072 -1.7270551
000200 0f 07 c7 3e e6 6c 72 3f 3e 2a 91 bf 6a 0a 05 bf
       0.38872573 0.94697416 -1.1341016 -0.51969016
000210 bc a7 82 3f 2c 8b 02 bd 0e cc 98 bf 90 25 a3 3f
       1.0207438 -0.031871006 -1.1937273 1.2745838
000220 70 d5 f8 3f ff 19 59 40 58 05 e3 bf 6d 14 17 3e
       1.9440136 3.3922117 -1.7736006 0.14753886
000230 fd 7b 0c 40 58 d1 aa be ca cd bc 3e 2d a8 03 be
       2.1950676 -0.33362842 0.36875755 -0.12857123
000240 f9 7f 32 bf f4 3a 1c c0 67 c3 64 bf 70 f6 c8 3c
       -0.6972652 -2.4410982 -0.8936066 0.024531573
000250 6a 3b f7 be 20 18 ed be aa fd 1b c0 28 ae ea 3e
       -0.48287517 -0.46307468 -2.4373574 0.45835996
000260 94 76 3e 40 36 ef 11 3f a8 55 66 c0 c9 4b f8 bf
       2.9759874 0.5700563 -3.598978 -1.9398128
000270 63 cd 1f 40 0e f0 03 c0 43 ad fc bf f4 a0 9e bf
       2.4969108 -2.0615268 -1.9740375 -1.2392869
000280 f2 4e 56 bd 3d 94 a8 3f 58 47 86 bf 4c 23 96 be
       -0.052321382 1.3170239 -1.0490522 -0.29323804
000290 3e 0a f5 3f 2c 7f b4 bf ce c3 96 3e f7 2f 93 bf
       1.9143751 -1.410131 0.29446262 -1.1499013
0002a0 5f 0f db bf 53 65 4a bc d0 9a 77 bf 71 fb d6 3e
       -1.7114066 -0.012353259 -0.967206 0.4198871
0002b0 cd 5c 14 3d 16 f3 8d bf 58 95 b4 3e 89 89 fd bf
       0.036221314 -1.1089809 0.3527019 -1.9807597
0002c0 31 fa 02 c0 0a 81 35 bf b4 2c 84 bf b3 94 f9 3b
       -2.0465205 -0.70900023 -1.0326142 0.0076166033
0002d0 17 3b 06 40 15 9c f4 3f 15 a1 9a bf 37 4b 9e bf
       2.0973566 1.9110132 -1.2080408 -1.2366704
0002e0 c9 65 80 c0 d0 9a 49 bf 76 a5 a8 3e 00 63 ec 3e
       -4.012425 -0.7875185 0.32938737 0.4616928
0002f0 a0 3e 2e 3d 93 a1 b0 bf 6a 2d 88 3e 7c e7 0f 3d
       0.042540193 -1.3799309 0.26597148 0.03513287
000300 1c 9e 8c bf 5e 3c ab bf 98 c1 29 c0 03 e0 2b c0
       -1.0985751 -1.3377798 -2.652441 -2.6855476
000310 42 d6 22 40 6e 6c 87 be 08 35 a1 3f 64 c4 59 bf
       2.5443273 -0.26449913 1.2594309 -0.85065293
000320 a5 fc 8f 3f 5a 36 e7 3f 9d b9 da bc 67 8a 9c 3a
       1.1248976 1.8063462 -0.026699835 0.0011943103
000330 4a c4 5b bf 9b 9d b3 40 5b 7c 7f bd 85 83 18 bf
       -0.8584639 5.612989 -0.062374454 -0.5957568
000340 24 52 82 40 ec c4 01 3f ab 4d d3 be cb f6 00 bf
       4.072527 0.50691104 -0.41270193 -0.50376576
000350 9d b3 e5 3e c6 16 39 3f bc f9 f4 be c7 9e 15 c0
       0.44863597 0.72300375 -0.47846782 -2.337816
000360 66 af dd bf 10 4e 74 c0 3e 41 14 40 0c 21 8f bd
       -1.7319152 -3.8172646 2.316482 -0.06988725
000370 af e9 92 3d 3f 8f 0c c0 24 4d 6b 3f 92 31 ff be
       0.07173478 -2.196243 0.9191458 -0.49842507
000380 d8 10 01 bd d0 25 94 3f e0 cd 32 3b ef ee 33 bf
       -0.031510204 1.157404 0.0027283356 -0.7028646
000390 be 56 a6 bf 9d b6 38 3f 7f d7 02 bf dd 59 bb be
       -1.2995222 0.72153646 -0.5111007 -0.36591998
0003a0 df 21 10 40 78 07 09 bf ef 76 33 bf b7 68 a2 bf
       2.2520673 -0.5352702 -0.70103353 -1.2688206
0003b0 a2 37 4b bf 8e 64 b5 bf cf 9d 8e c0 7f 13 14 c0
       -0.79381764 -1.4171312 -4.4567637 -2.31369
0003c0 9d e2 82 bc 21 a1 43 c0 59 fc 6b c0 5a 8a dd 3f
       -0.015977198 -3.0567095 -3.687277 1.7307847
0003d0 50 ad b7 3f 3a bc ee bf 62 99 d9 3e 49 ac fc bf
       1.4349766 -1.8651192 0.42499834 -1.9740077
0003e0 1a f1 45 3e 78 62 6d 3e 0f 93 48 40 56 e8 10 be
       0.19330254 0.23182094 3.1339757 -0.14151129
0003f0 1a ef ef 3e 05 cc 04 3f 9b 64 18 40 68 a0 a5 c0
       0.46862108 0.5187381 2.3811405 -5.175831

2.bias f4 [300]
000000 76 36 0a c0 df 54 a9 bd 2f 94 26 bd 3b a1 12 bf
       -2.159574 -0.08268141 -0.040668663 -0.5727727
000010 fb 38 86 bf 3e 73 99 bd 2d d1 88 bf 04 9e 79 bd
       -1.0486139 -0.07492684 -1.0688835 -0.06094171
000020 05 27 d2 be 6b 68 74 3b f6 91 9a bd 45 e1 1c 3f
       -0.41045395 0.0037293683 -0.07547371 0.61281234
000030 e1 70 ce bd 81 4f b4 3d 4b f8 e8 bd 46 66 94 bd
       -0.10080124 0.08804227 -0.11375483 -0.072460696
000040 37 6f 25 bd 54 12 c0 be 76 c8 93 bd b6 fc 1c be
       -0.040389266 -0.37513983 -0.07215969 -0.15330777
000050 7d c6 88 bd a1 54 41 bd 43 f0 64 bd 4f 28 2c bd
       -0.06678484 -0.04719985 -0.055893194 -0.04203063
000060 d8 d3 34 bd 51 7f 43 bd 1b b6 25 be 9e 8e 16 bd
       -0.044147342 -0.04772884 -0.16182749 -0.036757104
000070 92 d0 dc bd 8c 37 f3 3f 71 b4 43 bd cc 13 73 bd
       -0.10781969 1.9001327 -0.047779504 -0.05934505
000080 d6 35 94 bc eb 70 e4 bd 71 c3 a3 c0 eb 1f 65 bd
       -0.018092077 -0.1115435 -5.1176076 -0.055938642
000090 fe 0e 98 bd ee 70 18 3f 26 e6 00 bd 34 aa 7e bd
       -0.074247345 0.5954732 -0.031469487 -0.062174037
0000a0 15 ce 44 be 97 79 a9 bd 77 97 7f 3f 99 1d 49 bd
       -0.19219239 -0.082751445 0.9984049 -0.049100492
0000b0 58 ce 7b c0 0d 44 85 bd 3b dc 62 bd 61 d2 44 bd
       -3.9344692 -0.0650712 -0.05538581 -0.048052195
0000c0 06 e7 8a bd ba 49 57 bd bb cf 62 bd cc 13 73 bc
       -0.067823455 -0.052560546 -0.05537389 -0.014836263
0000d0 66 bf 1e be 0e be 12 bd d1 9d 40 bd 78 78 b1 bc
       -0.155027 -0.03582578 -0.047025505 -0.02166389
0000e0 75 63 0f bd 50 1a bf bd e0 06 36 bd 9d 32 04 bd
       -0.03500696 -0.093311906 -0.04444015 -0.03227483
0000f0 9c 7d 54 3f 65 08 07 bd e4 a5 39 3f c0 bd b0 bd
       0.83004165 -0.03296699 0.72518754 -0.08629942
000100 48 8c f6 bf f6 57 13 bd 72 42 d6 bd f2 99 56 bd
       -1.926156 -0.035972558 -0.10461892 -0.052392907
000110 04 c2 99 3f 99 f9 ce bc 5f 78 a1 bd 5e 49 a5 bf
       1.2012334 -0.025265502 -0.07884287 -1.2913015
000120 24 d1 f1 bd bb f0 69 bd 48 cb b1 bd 68 e9 b9 bd
       -0.118074685 -0.057114344 -0.08681351 -0.09077722
000130 a8 c9 b7 bc e5 46 87 bd 9e 1e 98 bd 00 10 b5 bd
       -0.022435024 -0.06605319 -0.07427715 -0.088409424
000140 23 26 e8 bc 6a 6d 4f be cd 7c 07 bd ac 25 fc bc
       -0.028338498 -0.20256582 -0.033078004 -0.030779682
000150 f5 29 0a bd cd 50 1f 3b 95 0c 85 bd ab dd ee bd
       -0.03373142 0.0024309636 -0.064965405 -0.116633736
000160 e0 ec b1 bd af b4 01 bf f2 62 5b bd be 22 d0 3e
       -0.086877584 -0.50666326 -0.05356116 0.40651506
000170 be 66 99 bd a4 e4 74 bd a5 ed 16 c0 ae 51 96 bd
       -0.074903 -0.05978836 -2.3582547 -0.07339798
000180 05 43 22 bf 21 f3 ca bd e5 5f 07 3f f4 e6 8f c0
       -0.63383514 -0.099096544 0.528807 -4.4969425
000190 6e 79 1f bc 5c 91 1a 3f dc 42 fa bc c8 3b 32 bd
       -0.009733541 0.6037805 -0.03054946 -0.043514043
0001a0 57 5d aa bf 55 6d d5 3f bc 71 fa bc 17 46 f7 bd
       -1.3309735 1.667399 -0.03057181 -0.120739155
0001b0 f4 ac 70 bd 94 81 7e bd 31 0f 20 bf c7 65 ab bd
       -0.05875869 -0.062135294 -0.6252318 -0.08369022
0001c0 a1 30 c7 bd 6e 76 93 bc dd c4 0e bb 3c 38 f5 bd
       -0.09726072 -0.018000808 -0.002178482 -0.119736165
0001d0 15 bd 0b bd 2f 0f 33 3e f7 24 a8 bc 58 3e b6 bd
       -0.03411587 0.17486261 -0.020525439 -0.0889861
0001e0 de 37 99 bd 07 b0 41 bf 48 b2 b1 bd 94 bc 1a c0
       -0.07481359 -0.7565922 -0.086765826 -2.41776
0001f0 28 af b1 bd c1 a1 8a bf 52 79 5d bc a4 30 79 bd
       -0.086759865 -1.0830613 -0.013517695 -0.060837403
000200 3e ea 9a bd 70 7a bc bc d5 57 0d c0 6f 3b a1 bd
       -0.075642094 -0.023007601 -2.2084858 -0.07872664
000210 b2 f9 5e bd 5c b5 cc 3e 40 69 3c bd c7 c3 5e bf
       -0.054437347 0.39982116 -0.04599881 -0.8701748
000220 52 19 6d bd fd 18 0e bd 99 41 5c bc fe 99 05 bd
       -0.057885475 -0.0346918 -0.013443374 -0.03261756
000230 fe e2 2f bd 11 9f 45 bd 3d d2 85 bd de ae f0 bf
       -0.042941086 -0.0482474 -0.065342404 -1.8803365
000240 f1 4c 4e bd c3 33 60 bd bf 96 6c 3f e1 0c 4e bd
       -0.050366346 -0.054736864 0.9241752 -0.05030525
000250 ba ed 5d bd bb 55 8f bd d1 e4 67 c0 1b b4 7d 3a
       -0.05418179 -0.06998774 -3.6233408 0.0009678022
000260 94 94 7f bd ad 16 0b bd ef 66 00 bd 27 9a 07 be
       -0.062397555 -0.033957172 -0.031348165 -0.13242398
000270 59 2f de 3d 1a aa 55 be fe 46 97 bd 59 9b 4c bc
       0.108488746 -0.2086567 -0.073865876 -0.01248821
000280 da 96 53 bd 83 8c e5 bd c5 9b 89 bd c5 f2 87 bd
       -0.051657535 -0.11208441 -0.06719164 -0.066381015
000290 01 7f 48 bd 09 60 fc bf a8 35 32 3e 0b d3 e9 bd
       -0.048949245 -1.9716808 0.1740328 -0.114172064
0002a0 0e eb 25 3f 17 d2 2d bd f7 bb ac bd c4 19 f5 bc
       0.6481179 -0.042436685 -0.08434289 -0.029919513
0002b0 a6 2a 13 bd c6 b7 95 bd 05 65 f8 3e cf 48 07 bf
       -0.035929345 -0.073104426 0.48514572 -0.5284547
0002c0 5d 47 8c bd 78 86 37 bc c8 a2 3e bd 5d c2 84 bd
       -0.06849549 -0.011201493 -0.04654196 -0.06482384
0002d0 7e dd 19 bd 4c f7 98 3f e3 d3 e3 bd 55 6a 85 bd
       -0.037564747 1.1950469 -0.111243986 -0.06514422
0002e0 79 b1 cd bd 5e f1 11 bd b0 b1 38 3f c8 93 b4 be
       -0.10043616 -0.035630576 0.7214613 -0.35268998
0002f0 2c e8 15 3f 23 ef d7 3e a6 fe 91 bd a5 41 0b bd
       0.5855739 0.42174634 -0.071286485 -0.03399815
000300 32 43 59 bb a9 c2 2c bf 13 5a 56 3e 88 ed bd bd
       -0.0033151624 -0.6748453 0.20932798 -0.09273821
000310 3d a1 09 bd c9 ac cd bd 3a a9 39 3f ad 8b 84 bd
       -0.033601034 -0.10042722 0.72523844 -0.064719535
000320 12 b6 d6 bc 3e 4e 9b bd b6 a4 9a bd 87 df 73 3f
       -0.026209865 -0.07583283 -0.07550947 0.9526295
000330 ff 0d 16 3f 1f fe 24 3f 99 94 ca bd 29 df 42 bd
       0.58615106 0.6445026 -0.09891624 -0.047576103
000340 20 a4 ba bc 3e b7 96 bd e6 4f 92 bd f7 43 a7 bd
       -0.022783339 -0.073591694 -0.07144146 -0.0816726
000350 c8 fe 14 c0 8b 05 6c bd 8e 98 12 bd 9d 8c 0e bc
       -2.3280506 -0.057622474 -0.03579002 -0.008700517
000360 46 42 9a bd 96 68 af bf b6 c1 11 bd 8f 73 76 c0
       -0.07532172 -1.3703792 -0.035585128 -3.8508031
000370 66 01 1d bd f1 e8 4d bd dc bc 97 bf 2c 9f 08 c0
       -0.03833141 -0.05027098 -1.185451 -2.134715
000380 b8 f6 f5 be a0 6e 8d bf 05 b5 8a bd 10 ff e0 3e
       -0.48039794 -1.1049385 -0.06772808 0.43944597
000390 6b e8 3d 3f a7 80 a6 bd 70 fe 3f bd 26 6b 9b bd
       0.74182767 -0.08130007 -0.04687351 -0.07588796
0003a0 54 d2 bf bc 03 2e e2 ba 4f 83 a1 bd 0b 64 ef bc
       -0.023415722 -0.0017256144 -0.07886373 -0.029222509
0003b0 ed 02 87 bd 8c 46 12 c0 c9 22 cb bd a3 7e ec bc
       -0.06592355 -2.2855558 -0.09918744 -0.028868979
0003c0 43 27 80 bd c2 9c 5b be 0a 45 d7 bd 6f c1 ac bd
       -0.062574886 -0.21446517 -0.10511215 -0.08435332
0003d0 3d 33 33 3f 99 e5 49 bd ae 31 93 bd 61 a7 47 bd
       0.7000006 -0.049291227 -0.0718721 -0.04874361
0003e0 44 80 ff bc af cf 0e 40 a7 06 b2 bc f8 14 33 bd
       -0.031189092 2.231426 -0.021731688 -0.04372117
0003f0 cd 75 04 bc 4a 65 5b bc 30 34 24 3f 1d fa 02 bd
       -0.0080847265 -0.013390848 0.6414213 -0.031976808

4.weight f4 [1, 300]
000000 8f a7 75 be 3d 47 98 3b 23 60 ef bc 0d de ce be
       -0.239897 0.004647164 -0.029220646 -0.40403786
000010 45 0d db 3d 9e 05 98 3c 33 84 73 3e 4f ed 39 bc
       0.1069589 0.018557366 0.23780899 -0.011348083
000020 83 d7 6f be 54 7a 7a bc b5 b5 13 3b e2 1e c7 be
       -0.23422055 -0.015287954 0.0022538726 -0.3889075
000030 2f e7 ad bb a8 a0 50 be 83 08 fb 3b 18 38 4f 3b
       -0.0053071002 -0.20373785 0.007660927 0.0031619128
000040 3d b9 85 b7 48 97 a5 3e 18 e7 cf 3c d0 42 b2 3c
       -1.5941094e-05 0.3234198 0.025378749 0.021760374
000050 1d 1e 16 bc a6 ac 27 bb d8 57 b8 bc 08 b9 33 bd
       -0.009162453 -0.0025585084 -0.022502825 -0.04387763
000060 46 55 1b bd 05 6e 1a bb 4e e8 98 3f 60 e6 30 bc
       -0.03792312 -0.0023564112 1.1945894 -0.010797113
000070 fa 23 d6 bc 75 47 b6 3e 5f e3 a4 3c d0 86 48 3c
       -0.026140202 0.35601392 0.02012795 0.012239173
000080 75 7a 87 3c 8d b6 0d 3c ca 2a 15 bf b1 56 c3 bc
       0.016537884 0.0086494805 -0.58268416 -0.023845049
000090 78 17 3d 3c f3 a2 48 3e 14 d4 b6 3e b1 89 c7 bb
       0.01154124 0.1959341 0.35708678 -0.006089412
0000a0 b1 89 0c 3e 51 b5 53 3b b4 9c 3d c1 27 28 bb 3b
       0.137244 0.0032304118 -11.850758 0.0057115736
0000b0 3c 59 9c be 16 8b a4 3c d7 4d 29 3c e4 73 73 bc
       -0.3053683 0.020085853 0.0103335 -0.014859173
0000c0 08 bf 4b 3b 55 69 01 3d 66 76 16 bc 1a ae 65 bb
       0.0031089205 0.031594593 -0.009183502 -0.00350464
0000d0 00 52 a7 3e 09 e3 c5 bc 75 69 0e 3d 37 59 b1 b9
       0.3267975 -0.02415611 0.03476854 -0.0003382654
0000e0 9d 20 87 3c eb 3d e0 3c 92 3a dc 3b 3c 53 fd 3a
       0.016495043 0.027373275 0.0067208493 0.0019327174
0000f0 94 a5 27 41 e3 b1 f1 3b 08 3f d5 3e ba b8 d1 3c
       10.477924 0.007375942 0.41649652 0.02560078
000100 2c 5c 7f 3e 88 be b0 3b a3 d4 7f 3b c4 49 06 bc
       0.24937505 0.005393807 0.0039036653 -0.008196298
000110 51 b4 8b c0 61 29 dc bc 69 eb da ba 57 d8 56 3f
       -4.3657613 -0.0268752 -0.0016702238 0.8392386
000120 29 44 c7 bc 44 74 01 3d 71 cd c3 3b 2e af 15 3d
       -0.024324493 0.03160502 0.0059754183 0.036544017
000130 bd 11 8a 3c fd ac 06 bd 37 27 31 3c ce 35 97 bc
       0.016854161 -0.03287982 0.010812572 -0.018458273
000140 da 40 59 3c 16 e2 9a 3e 26 26 9a 3b a5 6b 04 3d
       0.013260091 0.30250615 0.0047042547 0.03232922
000150 79 58 c7 3c dd ee 07 3c 11 53 5a 3c 77 8c b6 3c
       0.02433418 0.008296696 0.013325469 0.022283776
000160 3c e7 0e 3d 48 46 1f 3f dc 93 79 3c 1c 0d 56 be
       0.03488849 0.62216616 0.015233006 -0.20903438
000170 86 9d 90 3c bb 89 f6 bb fb b0 ea be 49 84 da bc
       0.017653238 -0.007523743 -0.4583815 -0.026674407
000180 88 2c 3f be 70 60 b8 3c d4 0d f1 41 c2 93 e0 3e
       -0.18669331 0.022506922 30.131752 0.4386273
000190 0d 14 0d bd 60 53 8d 3e 7c 8e 09 bc 36 a2 90 3c
       -0.03444295 0.27602673 -0.008395787 0.017655473
0001a0 00 e2 af be 45 b8 f3 be 92 ea 60 bb 78 5c 3a be
       -0.34352112 -0.47601524 -0.0034319502 -0.18199337
0001b0 b2 1d d9 bc 7e c0 a2 bc d8 80 6d 3e 80 3c 38 3c
       -0.026503418 -0.019867178 0.23193681 0.011244893
0001c0 90 7c b8 bc 97 4d a8 bb 09 0a cc b7 1c 72 88 3b
       -0.022520334 -0.0051362026 -2.4323368e-05 0.0041639935
0001d0 2f 3d a8 bc 9f 01 35 bf 36 65 16 3c 21 8a 4f bc
       -0.020536987 -0.707056 0.009179404 -0.01266721
0001e0 47 44 a2 3c 78 e1 0f 3e e2 f7 5d 3b de 46 74 3f
       0.019807948 0.14050853 0.0033869673 0.95420635
0001f0 0f 2a 33 bd 0d 04 48 be 27 e7 30 3b e1 c4 c0 bc
       -0.043741282 -0.19532795 0.0026993246 -0.02353138
000200 8d 7e 0e bc d9 d6 59 bb 45 b7 67 be 6d 01 01 3b
       -0.008697164 -0.0033239631 -0.22628506 0.0019684688
000210 0c d2 7e bc e3 f2 b6 be 3e e6 a3 3a 47 51 9c be
       -0.015553009 -0.35732183 0.0012504531 -0.3053076
000220 a6 82 95 bc d6 34 29 3c 1e 49 ac bc 2d 99 88 3c
       -0.018250775 0.0103275385 -0.021030959 0.016674602
000230 10 6f 4d ba a5 cb 8d bc 69 f8 c3 ba 38 a4 31 be
       -0.0007836679 -0.01730902 -0.0014951351 -0.173478
000240 28 35 bd bc ca 5a e3 3c f6 4b d5 3e 75 86 05 3c
       -0.023096636 0.027753253 0.41659516 0.008149733
000250 68 d5 b4 3c 78 2a cd 3e fb 44 e4 3e a6 80 26 3b
       0.022074416 0.40071464 0.44583878 0.002540627
000260 a2 f7 5c bc 00 f2 39 3c 45 4f 1c 3c 40 bd 67 c0
       -0.013486775 0.011349201 0.009540384 -3.620926
000270 b1 f7 56 41 76 4b 13 ba 88 a2 3d bc 47 6a a4 bc
       13.435472 -0.00056188495 -0.011574395 -0.020070208
000280 7d ee 12 3b 31 2a 59 3c c9 74 ce 3c b1 77 4a bc
       0.0022419982 0.013254688 0.025202172 -0.012357638
000290 4d d7 93 bc 0f 0f d3 be ff 9a 77 3e 1f 63 30 3e
       -0.018047 -0.41222426 0.2418022 0.17225312
0002a0 53 e8 84 be 0c 6e 7e bc a8 7d b3 ba 93 d0 f5 3b
       -0.259585 -0.015529167 -0.0013694065 0.0075016706
0002b0 eb d8 f4 bb 38 72 b1 bc 08 49 e5 3e 45 0b 76 bf
       -0.0074721477 -0.021660909 0.4478228 -0.96110946
0002c0 f7 1e a9 3c 75 ca 82 3b b8 2d b2 3a b5 78 99 bb
       0.020644648 0.00399142 0.0013593948 -0.004683579
0002d0 0e 25 1f b8 9f ca 09 bf 90 d8 4a 3c 14 84 08 3b
       -3.7943064e-05 -0.538248 0.012380734 0.0020830678
0002e0 fb d1 6b 3c bf 3c a0 3c e9 95 99 be c2 c6 d4 ba
       0.014393325 0.019560216 -0.29997185 -0.0016233551
0002f0 26 4c 6b be a8 3b ad be 86 a0 9c 3c 7a 6a dd bb
       -0.22978267 -0.33834577 0.019119512 -0.0067570778
000300 15 2b 02 bd 1b 0a ab be e6 85 95 3e 4f c2 a3 3c
       -0.031779367 -0.33406147 0.2920372 0.019990114
000310 9d e7 03 bd 86 b6 90 3c ae e2 d9 3d 74 aa ff bb
       -0.032203306 0.017665159 0.10638939 -0.007802302
000320 85 2d 12 3d ca cd ed bb df 3f a0 3c d9 51 85 c0
       0.035687942 -0.007257198 0.019561706 -4.166241
000330 22 fd 67 be db b4 bf be ca dc 5e 3b 64 af 00 3c
       -0.22655156 -0.3744267 0.0034006112 0.007854316
000340 46 cb 18 3c 53 a8 ea 3b 3d 01 93 bb e4 1e 7d 3c
       0.009325808 0.007161179 -0.0044862316 0.015449259
000350 60 ce 80 bf 4f 33 26 bd 60 0c b3 3c d5 0b 82 3c
       -1.0062981 -0.040576275 0.021856487 0.015874783
000360 cc e3 fa bc 7b 88 3b be 58 79 c1 3b dd 5b 39 be
       -0.0306262 -0.18313782 0.005904358 -0.1810145
000370 fe 1b 9a bc 74 4e 06 3c b5 66 dd 3e 9e 93 23 bf
       -0.018812176 0.008197416 0.43242422 -0.6389712
000380 3a 52 62 be be 69 03 be 1c 6b 85 3b 2e ba cf be
       -0.2210168 -0.12833306 0.0040716063 -0.4057173
000390 46 f8 46 3e 7f d3 a3 3c b7 23 bc 3c f8 c3 b3 bc
       0.19430646 0.01999831 0.022966249 -0.021944031
0003a0 51 68 8c 3d aa 5f 6a bc 6f 73 a0 3c 0b 22 e1 bc
       0.06855834 -0.014305035 0.019586293 -0.027482053
0003b0 14 d1 77 bb 2a 25 3a 3e 9a 6a 51 bd 8c c3 f6 bb
       -0.003781383 0.1817824 -0.051127054 -0.007530635
0003c0 1a 71 d2 bc 6b f6 6d bc d4 29 fd 3c a0 19 cf 3b
       -0.025688697 -0.014524083 0.030903734 0.0063201934
0003d0 1d da b6 3e 8a fd e4 3c 21 aa d2 bc 2d 8d 0a bb
       0.35713282 0.027952928 -0.02571589 -0.0021141276
0003e0 17 58 a0 bd c0 93 14 3f fd f9 0e 3d 18 2d 3c 3c
       -0.07829302 0.5803795 0.034906376 0.011485361
0003f0 99 c1 4f 3d 97 8a 3b bc 27 8a 4c c1 35 cf 15 3d
       0.05072174 -0.011446617 -12.783729 0.03657456
