results/c_0_2/best/target_q_func1.pt (torch, 502309 bytes, 5 tensors)

1.weight f4 [400, 10]
0	0xbf832264	-1.024487
1	0xbf861fbc	-1.0478435
2	0x3f4b951e	0.7952441
3	0xbf9f5807	-1.2448739
4	0x3f989e7e	1.1923368
5	0xc02c7239	-2.6944716
6	0x3f5876cd	0.84556276
7	0x3f0af84e	0.5428513
8	0xbfb0688a	-1.3781903
9	0xbea296b0	-0.3175559
10	0x412e8727	10.907996
11	0xc121e5ca	-10.118601
12	0xbcf22790	-0.02955988
13	0xc070e7d9	-3.7641509
14	0xc0194c26	-2.3952727
15	0x3e55c8e0	0.20877409
16	0xbfb6bee7	-1.4277009
17	0xbe1969d9	-0.14981784
18	0xc04b18a1	-3.1733782
19	0x3c30f6fe	0.010801075
20	0xc04bed6b	-3.1863658
21	0x3cad43f4	0.021150567
22	0xc0431273	-3.048001
23	0x40f1f712	7.56141
24	0xc11af453	-9.684649
25	0xbf61112a	-0.87916815
26	0x3f17c997	0.59291977
27	0x3e3afcac	0.18260449
28	0x3de7e10d	0.11322222
29	0xbd9a0831	-0.07521094
30	0xc03ccd1c	-2.950019
31	0xbf89110a	-1.0708325
32	0x40834b84	4.102968
33	0x3f9280f1	1.14456
34	0x406625e4	3.5960627
35	0x3f8b79f8	1.0896597
36	0x3dd02dde	0.101649985
37	0x3e8c18fb	0.2736281
38	0xbf8d731e	-1.1050756
39	0x3deaa450	0.11457121
40	0x411439ef	9.264144
41	0xbfefab0b	-1.8724073
42	0x3fb1ab4b	1.38804
43	0xc02b9229	-2.680796
44	0x3fdd987c	1.731216
45	0x3e933193	0.2874876
46	0xbf53b89c	-0.82703567
47	0x3e4c7225	0.19965418
48	0x3f3894b0	0.7210188
49	0x3cd1aa85	0.025594005
50	0x4020b3b3	2.510968
51	0x40c4eece	6.154151
52	0xc0822dab	-4.0680747
53	0x3ee8ca58	0.45466876
54	0xbfba0e7e	-1.4535673
55	0xbef5a442	-0.4797688
56	0xc021404c	-2.5195494
57	0x3c8b1ca3	0.016981428
58	0xc00b9740	-2.1811066
59	0xbc8c3811	-0.017116578
60	0x3f968d29	1.1761829
61	0x3f812637	1.0089787
62	0xc03d9e84	-2.9628
63	0xc0ad16fa	-5.4090548
64	0xc1125857	-9.146567
65	0xbe8e2bca	-0.27767783
66	0xbef348c7	-0.47516462
67	0x3ecf8e48	0.4053824
68	0xbf7ad269	-0.9797731
69	0xbd211660	-0.03932798
70	0xc0a13e11	-5.0388265
71	0x3faaee9d	1.3354069
72	0x402cbf43	2.6991737
73	0xbfd9e533	-1.7023071
74	0xbf7ccce7	-0.98750156
75	0xc0ad703c	-5.4199505
76	0xc0617caa	-3.523234
77	0x3d9f2141	0.077700146
78	0xc0367742	-2.851029
79	0xbf1dd685	-0.61655456
80	0x3fd31578	1.6490927
81	0x3f484cc3	0.7824213
82	0xc00e84f4	-2.2268648
83	0xbff50134	-1.9140992
84	0x3ee7cc7c	0.45273197
85	0x411eddfd	9.929196
86	0xc0d8ea19	-6.7785764
87	0xbf1acd7b	-0.6046979
88	0xbead78a3	-0.338811
89	0x3f81230b	1.0088819
90	0xc0bfc203	-5.992433
91	0x3fed5be0	1.8543663
92	0xbe404984	-0.18778044
93	0xc1524b9f	-13.143462
94	0xbee46d06	-0.44614428
95	0xbd969de6	-0.073543355
96	0x3e963699	0.2933853
97	0xbdc1b1f5	-0.09457771
98	0xbdd51632	-0.10404624
99	0x3b22287d	0.0024743371
100	0xc0f86ac7	-7.7630343
101	0x40a72683	5.223451
102	0xbf6fab3d	-0.93620664
103	0xc0b5c244	-5.679964
104	0x3fc67c48	1.5506678
105	0xbf0b9348	-0.5452161
106	0xc01026f0	-2.2523766
107	0xbea30a12	-0.3184362
108	0xc00ce020	-2.2011795
109	0xbd44fb1a	-0.04809103
110	0x4057c85d	3.3716042
111	0xbea3de41	-0.32005504
112	0x4087f868	4.249073
113	0xbee39a2b	-0.44453558
114	0x40cd3ea2	6.4138956
115	0x3f3ac0b6	0.72950304
116	0xbf5d242d	-0.86383325
117	0x3ae2a323	0.001729105
118	0xbf26b12b	-0.65114087
119	0x3d4d562d	0.05013101
120	0xc0bcecc2	-5.903901
121	0xc0a56d3c	-5.1695843
122	0xbf0edc64	-0.5580504
123	0xc036614a	-2.849688
124	0xc0637212	-3.5538373
125	0xbdd6225d	-0.10455773
126	0x3f958670	1.1681652
127	0x3eaf9d1e	0.34299558
128	0x3d249610	0.040182173
129	0xbb8454c5	-0.0040384256
130	0xbf14b58c	-0.5808952
131	0x3cdeb538	0.027186021
132	0xbfaff83a	-1.3747628
133	0x40c003e9	6.0004773
134	0xc0643d7e	-3.5662532
135	0xbe891d2e	-0.26780075
136	0x3e940126	0.28907126
137	0x3e1657af	0.14681886
138	0xbf5bd684	-0.858742
139	0xbb6b2dc2	-0.0035885428
140	0x40e3dd46	7.120761
141	0xc03b3e36	-2.925672
142	0x3fb7e0e1	1.4365503
143	0x40f67ccd	7.7027345
144	0xbea6f310	-0.32607317
145	0x3f261e0c	0.648896
146	0xc027c3e6	-2.6213317
147	0x3f8c5151	1.0962316
148	0xbfbc3899	-1.4704772
149	0x3ce4e6af	0.02794203
150	0xbf432cf0	-0.76240444
151	0x3f26ec9c	0.6520479
152	0xbeb3f7d2	-0.3515001
153	0xc12a58e4	-10.646702
154	0xbcdd2f19	-0.026999997
155	0xbe4990fe	-0.19684216
156	0xc0838530	-4.1100082
157	0x3fa1d69a	1.2643616
158	0xbe2a5a75	-0.16636069
159	0xbb02d4ac	-0.0019963188
160	0xbfdeef76	-1.7416828
161	0x406f3139	3.7373793
162	0x3f1527b4	0.5826371
163	0x3e027ba7	0.12742482
164	0x41906cec	18.053185
165	0x3ef4428f	0.4770703
166	0xc0d87174	-6.7638493
167	0xbe6072ab	-0.21918742
168	0xbdbde78c	-0.0927268
169	0x3cb51722	0.022105757
170	0x3f803e2b	1.0018972
171	0xc01f5baf	-2.489971
172	0x3d56a3e5	0.052402396
173	0x3efaecca	0.4900878
174	0xc16c05a9	-14.751382
175	0x3d717880	0.05895281
176	0x3e0f7e9a	0.14013138
177	0x3e2c18f3	0.16806392
178	0x3e9de850	0.30841303
179	0xba8a9fa1	-0.0010576138
180	0x405142fb	3.2697132
181	0x4030083b	2.7505023
182	0xc0cce050	-6.402382
183	0x400234b9	2.034468
184	0x40741074	3.8135042
185	0xbf912b53	-1.1341347
186	0xc0355cb6	-2.8337836
187	0x3e79068f	0.24318908
188	0x3eeb959c	0.4601258
189	0xbd6cc14b	-0.057801526
190	0x3f9a2016	1.2041042
191	0xc0b9a528	-5.8014107
192	0x3ea5bb97	0.32369682
193	0x3ec3e3c1	0.382597
194	0xc1424ff3	-12.144519
195	0x3e90163a	0.28141958
196	0x3ee6cb36	0.45076913
197	0xc07b71eb	-3.928828
198	0xbc91b2fe	-0.017785545
199	0x3d2ff059	0.042953823
200	0x408512c2	4.15854
201	0xc0f2a504	-7.5826435
202	0x3e8643dd	0.2622365
203	0xc127e1a5	-10.492589
204	0xbf61afe0	-0.8815899
205	0x3da914ad	0.08255897
206	0x3ea09034	0.31360018
207	0xbd1ecc89	-0.03876928
208	0xbb8faaa2	-0.0043843547
209	0x3bc603d3	0.0060429364
210	0xc0ec53d6	-7.385234
211	0xc0c5e50c	-6.18421
212	0x3ee2febc	0.44334972
213	0xc11c729a	-9.777979
214	0xbfc86ea3	-1.5658764
215	0x3e006e49	0.1254207
216	0x3fa11b70	1.2586498
217	0x3fd68377	1.675887
218	0x3da7907c	0.08181855
219	0x3bb202f3	0.0054324805
220	0xc0338d88	-2.8055134
221	0x40c0b072	6.0215387
222	0xc0055bb7	-2.0837228
223	0xbeea894c	-0.45807874
224	0x3fba6c16	1.4564235
225	0xbf1404fe	-0.5782012
226	0xbdfad776	-0.12248127
227	0x3ead2728	0.33818936
228	0xbed81d62	-0.42209917
229	0xbd47921e	-0.048723333
230	0xbff6649c	-1.9249454
231	0xc02c9760	-2.6967392
232	0xbeb7070e	-0.3574757
233	0xc1030617	-8.188987
234	0xc18db697	-17.714155
235	0x3c7a7188	0.015285857
236	0x3f10495d	0.56361943
237	0x3e69239d	0.22767492
238	0x3bcb3719	0.0062016365
239	0xbc189dc6	-0.00931496
240	0x40958f37	4.6737323
241	0xc057e756	-3.3734946
242	0xbecc8087	-0.3994181
243	0xbf905ede	-1.1278951
244	0x4123b041	10.230531
245	0xbdda8778	-0.1067037
246	0xbdd12920	-0.10212922
247	0x3e8276cf	0.2548127
248	0x3d2ffa64	0.0429634
249	0xbc5ca5ea	-0.013467291
250	0xc058a139	-3.3848403
251	0xbbe50af6	-0.006989832
252	0x3fa71ad5	1.3055063
253	0x412803c7	10.500922
254	0x3ec7bbb5	0.39010397
255	0x3f287ae5	0.6581252

1.bias f4 [400]
0	0xbfa48abd	-1.285484
1	0x3e4595ff	0.192955
2	0x3edb4a55	0.42830148
3	0xbf53aecf	-0.8268861
4	0xbfe25ae8	-1.7683992
5	0xbe95367e	-0.29143137
6	0xbea97a54	-0.3310114
7	0xbec6d0d4	-0.38831198
8	0x3d10e594	0.035375193
9	0x3ee325d3	0.44364795
10	0xbcb6563b	-0.022257915
11	0xbf96e1d9	-1.1787673
12	0x3f495ddb	0.7865884
13	0xbdc06d69	-0.09395868
14	0xbfbb4e0a	-1.4633191
15	0xbfb9617c	-1.4482875
16	0xbe87feef	-0.26561686
17	0x3d72644e	0.05917769
18	0x3e82fa21	0.25581458
19	0x3f0a0d4f	0.5392656
20	0x3e9dd717	0.30828163
21	0xbf3aaa89	-0.72916466
22	0xbf2c8fdd	-0.6740702
23	0x3f0f9168	0.5608125
24	0x3c98b466	0.018640708
25	0xbe1115b2	-0.14168432
26	0xbf928145	-1.14457
27	0x3f5fcde7	0.8742356
28	0xbfe4cbb5	-1.7874666
29	0x3cd99c07	0.026563657
30	0xbeaddb9d	-0.33956614
31	0xbfaf42a1	-1.3692209
32	0xbf1ba54d	-0.60799104
33	0xbeba969e	-0.36443037
34	0xbe8974b5	-0.26846853
35	0xbf103bc3	-0.5634119
36	0xbf31269b	-0.6919953
37	0xbda36b5f	-0.07979464
38	0x3f34fcdd	0.7069834
39	0xbe10877b	-0.14114182
40	0xbf175696	-0.59116495
41	0x3d245893	0.040123533
42	0xbf139322	-0.5764638
43	0xbf241261	-0.64090544
44	0xbea6cc6f	-0.32577845
45	0xbfcb0b0c	-1.5862746
46	0xbe8bf555	-0.2733561
47	0xbf1808e7	-0.59388584
48	0xbf26a173	-0.650901
49	0xbea7677b	-0.32696137
50	0xbf00bbd9	-0.5028663
51	0xbf41ea00	-0.7574768
52	0xbca178a5	-0.019710848
53	0x3e0a3bb9	0.13499345
54	0xbe1acd00	-0.15117264
55	0x3e64b39f	0.22334145
56	0xbfb29c25	-1.3953902
57	0x3f0c97a9	0.54918915
58	0xbfee133a	-1.8599617
59	0xbfb8e2f7	-1.4444264
60	0xbc8e1adb	-0.01734679
61	0xbe90bd1a	-0.28269273
62	0xbfca4a1f	-1.580387
63	0xbf61846f	-0.880927
64	0xc0205631	-2.5052607
65	0xbfb592c9	-1.418542
66	0xbdeea1e7	-0.11651974
67	0xbf34c16e	-0.7060765
68	0xbf23ef0b	-0.64036626
69	0x3f459c0e	0.77191246
70	0xbf5d92f3	-0.8655235
71	0xbf13e516	-0.5777143
72	0xc017de7c	-2.3729544
73	0xbf72c5cc	-0.94833064
74	0xbead800f	-0.33886763
75	0xbe87784e	-0.26458973
76	0xbf247004	-0.6423342
77	0xbedc4a5f	-0.4302549
78	0x3e652974	0.22379094
79	0xbe4bfd60	-0.19920874
80	0xbf89cc5f	-1.0765494
81	0xbf94c780	-1.1623383
82	0x3c71c015	0.014755269
83	0xbf5d5ca8	-0.8646951
84	0xbf4b45f1	-0.794036
85	0xbeb63d90	-0.35593843
86	0xbed75e99	-0.4206436
87	0xbfb094c2	-1.3795397
88	0xbd0dcd0c	-0.034619376
89	0x3f0569ab	0.5211436
90	0xbe68da45	-0.22739513
91	0xbe867186	-0.26258487
92	0xbebbeef6	-0.3670575
93	0xbfef2ef5	-1.8686205
94	0xbede090c	-0.43366277
95	0xbe5f1cfc	-0.217884
96	0xbf000c64	-0.50018907
97	0xbf3285a2	-0.6973516
98	0xbf2d1372	-0.67607796
99	0xbf3249ea	-0.69644034
100	0xbfa43813	-1.2829612
101	0x3dc18822	0.094497934
102	0xbfb24b0a	-1.392915
103	0xbe493af9	-0.19651403
104	0xbf6534a9	-0.8953348
105	0x3e96070f	0.2930226
106	0xc021667b	-2.52188
107	0x3d1e2dd8	0.03861794
108	0xbee541da	-0.44776803
109	0xbf71b72c	-0.94420123
110	0xbecaee36	-0.39634866
111	0x3eef3a76	0.4672429
112	0xbfdd06c1	-1.7267686
113	0x3e98c786	0.29839724
114	0xbf207a91	-0.6268702
115	0xbeaf8df7	-0.34287998
116	0x3ed480d8	0.4150455
117	0xbd216497	-0.03940257
118	0xbe1323ae	-0.1436908
119	0xbe9ec3e3	-0.31008825
120	0xbf0159d4	-0.5052769
121	0xc0078dd3	-2.1180313
122	0xbf39b702	-0.7254487
123	0x3ce5f691	0.028071674
124	0xbe4aaed7	-0.19793259
125	0xbf205250	-0.626256
126	0xbf9db57c	-1.232101
127	0x3ef79e66	0.48363036
128	0xbfae2d23	-1.3607525
129	0xbe5c2f85	-0.21502502
130	0xbf3b50b3	-0.7317001
131	0x3e73b5f6	0.23799881
132	0x3ea6db78	0.32589316
133	0xbe629583	-0.22127347
134	0xbf7b8fbd	-0.982662
135	0x3d1fae8d	0.038984824
136	0xbf42d098	-0.7609954
137	0xbedc9f5a	-0.43090326
138	0xbfbfc8f6	-1.4983203
139	0xbebd55f8	-0.3697965
140	0xbe9f97e6	-0.31170577
141	0xbdcdbb12	-0.100454465
142	0xbea3486e	-0.31891197
143	0xbfd641d4	-1.6738839
144	0xbe7f266c	-0.24917
145	0xbebc2fdb	-0.3675526
146	0xbfcae2ad	-1.5850426
147	0xbf4a87c4	-0.7911341
148	0x3ebf23a8	0.3733189
149	0xbefa72f0	-0.48915815
150	0xbe9f42fa	-0.31105787
151	0xbf9392e4	-1.1529202
152	0xbf1664d6	-0.58747613
153	0x3ebd43b3	0.36965713
154	0x3e28463f	0.16433047
155	0xc018ea23	-2.3892906
156	0xbfac52e2	-1.3462794
157	0x3ebd3bfc	0.36959827
158	0x3f600dc1	0.87520987
159	0xbfa961d5	-1.3232981
160	0xbef0ba83	-0.47017297
161	0xbef13832	-0.47113186
162	0xbf8676c7	-1.0504998
163	0xbf960aae	-1.1722009
164	0xbf9d7a46	-1.230294
165	0xbf82ae04	-1.0209355
166	0xbf9e4713	-1.236544
167	0xbf7859dc	-0.97012115
168	0x3f338c4d	0.70135957
169	0xbf83f478	-1.0308981
170	0x3f14b0a7	0.5808205
171	0xbf0d8391	-0.5527888
172	0xbf88cb9b	-1.0687135
173	0xbfcb735c	-1.589458
174	0x3e4e0e33	0.20122604
175	0xbf7a756e	-0.97835433
176	0x3f61d15c	0.8821008
177	0xbf142330	-0.5786619
178	0xbf0edb51	-0.558034
179	0xbf148b7d	-0.5802534
180	0x3db8a996	0.09016721
181	0x3e1bc354	0.1521123
182	0xbf1cb775	-0.61217433
183	0x3db18b04	0.08669093
184	0x3eeb19d5	0.45918146
185	0xbf5af87a	-0.85535395
186	0xbe617c11	-0.22019984
187	0xbf2f5e82	-0.6850358
188	0xbdd6eb5c	-0.1049411
189	0x3dfee185	0.12445358
190	0xbe2756d1	-0.16341712
191	0xbf8ce997	-1.1008786
192	0xbfe98aea	-1.8245518
193	0xbf236f95	-0.63842136
194	0x3e81524a	0.25258094
195	0x3dd6f286	0.104954764
196	0x3e9126a2	0.28349787
197	0xbeefc58b	-0.468304
198	0xbf4374ac	-0.763499
199	0xbeddc874	-0.43316996
200	0xbf2eaa31	-0.6822844
201	0x3ee10daa	0.43955737
202	0x3e9e8137	0.30957958
203	0xbd822b93	-0.063559674
204	0xbde42a84	-0.11140922
205	0xbeaac856	-0.3335597
206	0x3e5b0e20	0.21392107
207	0xbf628c96	-0.8849577
208	0xbf4fb9cb	-0.8114287
209	0xbf6cc046	-0.92480886
210	0xbf3e4578	-0.7432475
211	0x3ec4e5ba	0.38456517
212	0xbecf408a	-0.40478927
213	0x3dbe65b6	0.092967436
214	0xbf0e9d8a	-0.55709136
215	0x3f2bd472	0.6712104
216	0xbf0adbea	-0.5424181
217	0x3f0ee7d6	0.55822504
218	0x3cd6fddf	0.026244102
219	0xbfddc078	-1.7324362
220	0xbfdc6099	-1.7216979
221	0xbfca1421	-1.5787393
222	0xc0023357	-2.0343835
223	0xbe062213	-0.13098936
224	0x3f497a51	0.78702265
225	0xbe8863a5	-0.26638523
226	0xbfb49d08	-1.4110422
227	0xc0142d06	-2.315248
228	0xbfe1c77f	-1.7639006
229	0x3f5168d5	0.81800586
230	0x3de841b0	0.11340654
231	0xbf7da378	-0.9907756
232	0xc0111ed0	-2.2675056
233	0xbe860a7d	-0.26179877
234	0xbe569424	-0.20954949
235	0xbfb54d0c	-1.4164138
236	0x3e015c90	0.12632966
237	0xbea5d9ec	-0.32392824
238	0x3f76db07	0.9642796
239	0xbe87845d	-0.26468173
240	0xbfa1392e	-1.2595575
241	0xbf13d504	-0.5774691
242	0xbedd756d	-0.4325365
243	0xbe1fd5d9	-0.1560892
244	0xbf73a58d	-0.95174485
245	0xbd2e6ecb	-0.04258613
246	0xbf93d2d0	-1.154871
247	0x3e491735	0.19637759
248	0xbf1d7761	-0.6151028
249	0xbf76c44c	-0.96393275
250	0x3f152639	0.5826145
251	0xbf282b28	-0.6569085
252	0xbe0d7614	-0.13814574
253	0xbf88963c	-1.0670848
254	0xbf5b17b0	-0.8558302
255	0x3e86bb19	0.2631462

3.weight f4 [300, 400]
0	0x3d495769	0.049155626
1	0x3d268557	0.040654507
2	0xbd3ba2d0	-0.045809567
3	0xbda43b67	-0.080191426
4	0xbdb42348	-0.08795792
5	0xbcc4d329	-0.02402647
6	0xbd4594e9	-0.048237715
7	0xbe098db5	-0.13432963
8	0xbc8ca83d	-0.017170066
9	0xbda41c27	-0.08013182
10	0xbd77e30c	-0.060519263
11	0xbc7eb524	-0.015546117
12	0xbcf6bbbc	-0.030118816
13	0xbddb7f12	-0.10717596
14	0xbd5b1729	-0.053488884
15	0x3c5b1662	0.013372036
16	0xbd04e0d5	-0.03244098
17	0xbd453b11	-0.048152033
18	0xbdd903ea	-0.1059645
19	0xbda87a1f	-0.08226418
20	0xbd054345	-0.032534856
21	0xbd9df206	-0.07712178
22	0x3d65faab	0.05614726
23	0xbd4ed5a9	-0.05049673
24	0xbdb05060	-0.0860908
25	0xbd851c35	-0.06499521
26	0xbc2ca9fe	-0.010538576
27	0xbd83f995	-0.06444088
28	0xbc651f23	-0.013984474
29	0xbd71eaec	-0.05906193
30	0xbc411300	-0.011784315
31	0xbdf08904	-0.11744884
32	0xbdbdb7a0	-0.09263539
33	0xbce118ab	-0.027477583
34	0xbc03ed4d	-0.008052182
35	0x3d86be2d	0.06579242
36	0xbc1787d6	-0.009248694
37	0xbd38d668	-0.04512635
38	0x3d784c84	0.060619846
39	0xbd70f024	-0.058822766
40	0xbcbe5638	-0.023234472
41	0xbdc1b649	-0.09458596
42	0xbd7789fc	-0.060434327
43	0xbdf04ffc	-0.11734006
44	0xbd11de60	-0.035612464
45	0xbdf644fc	-0.120248765
46	0x3cdd01f7	0.026978476
47	0xbe05dad5	-0.13071759
48	0xbd6c5b7b	-0.05770443
49	0xba12bc7e	-0.00055975455
50	0xbd1b01ae	-0.0378434
51	0xbc838cfd	-0.01605844
52	0x3d523e52	0.051328965
53	0xbcac6e9e	-0.02104884
54	0xbd1c1f9e	-0.03811609
55	0xbdc7ba21	-0.09752298
56	0xbd95610e	-0.07293902
57	0xbce5569b	-0.027995398
58	0x3cf3fb0c	0.029782794
59	0xbd8691a5	-0.06570748
60	0xbc77f43c	-0.015133914
61	0xbd8cf725	-0.068830766
62	0xbc4dcff1	-0.012561784
63	0xbca383ce	-0.01996031
64	0xbd729794	-0.059226587
65	0xbd67eac3	-0.05662037
66	0xbd59ab1a	-0.05314169
67	0xbe0a98e5	-0.13534887
68	0xbd190385	-0.037356872
69	0xbcb79870	-0.022411555
70	0x3c840d1c	0.016119532
71	0xbd17efbe	-0.03709387
72	0xbc6bc963	-0.014391276
73	0xbce88a23	-0.028386181
74	0x3d7309a4	0.059335366
75	0xbb97891a	-0.004624498
76	0xbd7b512c	-0.06135671
77	0xbd54557a	-0.05183933
78	0xbe044df5	-0.12920363
79	0xbd5ef75a	-0.05443511
80	0x3d0b390d	0.033989955
81	0xbd96e6e6	-0.07368259
82	0xbcdfebe2	-0.027334157
83	0x3aae6f1f	0.0013308263
84	0xbc84d38d	-0.016214157
85	0xbd0dee88	-0.03465131
86	0x3cfaead3	0.030629551
87	0xbd19add6	-0.0375193
88	0xbe00bfcd	-0.12573166
89	0xbd9ee8e6	-0.077592656
90	0xbd46e7f9	-0.04856107
91	0xbce925dd	-0.028460437
92	0xbd8ba98d	-0.068194486
93	0xbd1eb61e	-0.0387479
94	0xbcd36412	-0.025804553
95	0xbc2c5d6f	-0.010520323
96	0xbce2de93	-0.027694022
97	0x3da9647f	0.08271121
98	0xbde60983	-0.11232283
99	0xbdb87330	-0.09006345
100	0x3bb48298	0.005508732
101	0xbd2af227	-0.04173484
102	0xbc7174f4	-0.014737356
103	0xbe04a31d	-0.12952848
104	0xbdf37894	-0.11888233
105	0xbe021855	-0.12704594
106	0x3cb07e77	0.021544678
107	0xbd3eec38	-0.046611995
108	0xbd0f4c04	-0.034984604
109	0xbdd9a412	-0.10626997
110	0x3cb20b58	0.021733925
111	0xbda44270	-0.080204844
112	0xbd9c1896	-0.07621877
113	0xbd94d6c6	-0.07267527
114	0xbd387010	-0.045028746
115	0xbd453981	-0.048150543
116	0x3c68d392	0.014210599
117	0xbc1fa146	-0.00974304
118	0xbd7a4e94	-0.061110094
119	0xbd25a103	-0.040436756
120	0x3bc5aac8	0.0060323216
121	0x3ad0b0a9	0.001592179
122	0x3cf970b3	0.030449247
123	0xbdba5470	-0.090981364
124	0xbd8c3565	-0.06846122
125	0xbc393298	-0.011303566
126	0xbd4bb351	-0.049731556
127	0x3c9e0bce	0.019292738
128	0x3cb2c228	0.021821097
129	0xbe06b0e5	-0.13153417
130	0xbc7b4574	-0.015336383
131	0xbdb0fc40	-0.08641863
132	0x3c58b5c9	0.013226935
133	0xbc587362	-0.013211103
134	0xbdcc3d99	-0.09972686
135	0xbca4ae3f	-0.020102618
136	0xbc81d525	-0.015848706
137	0xbb9c6a9e	-0.004773452
138	0xbe04ac7d	-0.12956424
139	0xbd3506a0	-0.04419577
140	0x3c0c2493	0.008553642
141	0x3cd1e6d2	0.025622759
142	0xbce3e12b	-0.02781733
143	0xbcba2590	-0.02272299
144	0x3c2138f3	0.009840238
145	0xbc7d4c33	-0.015460062
146	0xbd7a5efc	-0.06112574
147	0xbd288da7	-0.041150715
148	0xbd99076e	-0.0747212
149	0xbba60217	-0.005066167
150	0xbd8ca775	-0.068678774
151	0xbdc51fb9	-0.09625191
152	0x3d11d796	0.03560599
153	0xbdd54232	-0.104130164
154	0xbd82754d	-0.063700296
155	0x3d157c66	0.03649559
156	0xbd31df98	-0.043426126
157	0xbd65cfb3	-0.05610628
158	0xbc7b20bc	-0.015327629
159	0x3d27031e	0.040774457
160	0xbd531c32	-0.05154056
161	0xbc92b4ae	-0.01790842
162	0xbda29e1f	-0.079403155
163	0xbd77999c	-0.060449228
164	0xbdad3cdf	-0.08458876
165	0xbd3c2930	-0.045937717
166	0x3d003b93	0.031306814
167	0xbd732ccc	-0.059368894
168	0xbd9a1cc6	-0.07525019
169	0xbd838dc4	-0.06423524
170	0xbc6f68ba	-0.014612371
171	0xbb565919	-0.0032706915
172	0xbde402c3	-0.11133339
173	0xbda42aff	-0.08016013
174	0xbdd21292	-0.10257448
175	0xbd9e20e6	-0.07721119
176	0xbd861955	-0.065478005
177	0xbc8fef4d	-0.017570162
178	0xbd9a494e	-0.07533513
179	0xbcbaec00	-0.022817612
180	0xbd9a381e	-0.07530235
181	0x3c1e6e3e	0.0096698385
182	0x3d4604a0	0.048344254
183	0xbddfc342	-0.10925914
184	0xbd5ac9d2	-0.053415127
185	0xbcb939a0	-0.022610486
186	0xbda674ef	-0.08127772
187	0xbdde57fa	-0.10856624
188	0xbcc631f1	-0.024193736
189	0xbd677c9b	-0.056515317
190	0xbd76a064	-0.060211554
191	0xbd635b93	-0.055507254
192	0x3c9a287d	0.018818134
193	0xbd3a7b7f	-0.04552793
194	0xbbbf2860	-0.0058336705
195	0xbccfed58	-0.025381729
196	0x3c28fbce	0.010313941
197	0xbd1c5c8e	-0.038174205
198	0xbcd87fe2	-0.026428167
199	0x3c5b86e2	0.013398858
200	0xbd5e3729	-0.054251824
201	0xbd9d649e	-0.07685207
202	0x3be835c2	0.0070864866
203	0xbb8fa6a5	-0.0043838792
204	0xbd848635	-0.064709105
205	0xbce0dd4b	-0.02744927
206	0xbd426d19	-0.047467325
207	0x3d8524cd	0.0650116
208	0x3d26528e	0.040606074
209	0x3b8fef4c	0.00439254
210	0xbdfc2a5c	-0.12312767
211	0xbcf48deb	-0.029852828
212	0x3b4558c0	0.0030112714
213	0xbb24ecbf	-0.0025165526
214	0xbe027c55	-0.12742741
215	0xbb94c1ae	-0.00453969
216	0xbcbfcae0	-0.023412168
217	0xbdc13df9	-0.094356485
218	0x3ce29c2a	0.027662355
219	0x3cbc74f7	0.023004992
220	0xbb81a646	-0.003956589
221	0xbd600d7b	-0.054700356
222	0xbb65168b	-0.0034956064
223	0xbc8b9155	-0.017037073
224	0xbdec2593	-0.11530604
225	0xbd94e40e	-0.072700605
226	0x3cf815d4	0.030283846
227	0xbd508cba	-0.050915457
228	0x3d4987d8	0.049201816
229	0xbd0641f5	-0.032777745
230	0xbd1f570e	-0.03890138
231	0xbca776bf	-0.020442365
232	0xbd869fb5	-0.065734304
233	0xbcfdc54c	-0.030977868
234	0x3a89130c	0.0010457947
235	0xbcb9d068	-0.022682384
236	0xbd323a38	-0.043512553
237	0xbd8ba0f5	-0.068178095
238	0xbd19170e	-0.037375502
239	0x3c1c7433	0.009549188
240	0xbd31b630	-0.04338664
241	0x3cfc93d4	0.030832209
242	0xbda3774f	-0.07981741
243	0xbd69b493	-0.057056975
244	0xbd82d62d	-0.06388507
245	0xbd34f0c0	-0.04417491
246	0xbd41b4b9	-0.04729149
247	0xbd106b86	-0.035258792
248	0xbc495c19	-0.012290024
249	0xbd827485	-0.063698806
250	0x3cb17237	0.021660907
251	0xbce9d3d3	-0.028543388
252	0x3d1add65	0.037808795
253	0xbca74ee7	-0.020423366
254	0x3b4d6100	0.0031338334
255	0xbc8ed9f5	-0.017437914

3.bias f4 [300]
0	0xbd7ff31c	-0.062487707
1	0xbdd9d932	-0.1063713
2	0x3ecd4f72	0.40099674
3	0x3e6c6465	0.23085172
4	0xbda8562f	-0.08219563
5	0x3fc3102d	1.5239311
6	0xbd1758f6	-0.036950074
7	0x3fd3fc30	1.6561337
8	0xbc8b872d	-0.01703223
9	0xbfc807c8	-1.5627375
10	0xc002c7b3	-2.0434387
11	0xbdcba091	-0.09942735
12	0xbdfd1650	-0.123577714
13	0xbd929316	-0.07156961
14	0xbd6d61fb	-0.05795477
15	0xbd5e1d62	-0.05422724
16	0xbd77f054	-0.06053193
17	0xbe000993	-0.12503652
18	0xbd23742f	-0.039905723
19	0xbd9b15fe	-0.07572554
20	0xbe177e0c	-0.14794177
21	0xbf2e1fa2	-0.6801702
22	0xbe116d56	-0.14201865
23	0xbd247dcf	-0.040159043
24	0xbd81bb5d	-0.06334565
25	0xbfe528b1	-1.7903043
26	0xbdb98ae0	-0.090596914
27	0x404411bb	3.0635822
28	0xbdb2df10	-0.08733952
29	0x3def3739	0.11680455
30	0xbf2266ed	-0.634383
31	0xbd4fdf49	-0.05075005
32	0xbd88ab25	-0.06673268
33	0xbcff2414	-0.031145133
34	0xbd637b9b	-0.0555378
35	0x3f5ce913	0.86293143
36	0xbcc8a161	-0.024491014
37	0x4045b228	3.0889988
38	0xbcb6f528	-0.022333696
39	0xbff51a13	-1.9148582
40	0x3ab181d7	0.0013542724
41	0x3ea5a098	0.32349086
42	0xbd81d5ed	-0.06339631
43	0xbd94544e	-0.07242642
44	0xbdafa47f	-0.08576297
45	0xbcf62b34	-0.030049898
46	0xbdba0bc8	-0.09084278
47	0xbf8f074a	-1.11741
48	0xbed261d0	-0.4109025
49	0xbd0eecb5	-0.03489371
50	0xbd360168	-0.044434935
51	0xbda4e8d7	-0.08052223
52	0x404a5399	3.1613524
53	0xc044a0c8	-3.0723133
54	0xbf618427	-0.88092273
55	0xbd497e79	-0.04919288
56	0xbdb29be0	-0.08721137
57	0xbd23341f	-0.03984463
58	0xbd56b482	-0.05241824
59	0xbdaf772f	-0.08567654
60	0xbd7e18e4	-0.062035456
61	0xbd261a4f	-0.040552434
62	0xbc586eb2	-0.013209986
63	0xbcf7ed34	-0.030264474
64	0xbc6faa5b	-0.014628018
65	0x3f04324e	0.5163926
66	0x3fa3cbef	1.279661
67	0xbd119b6e	-0.03554862
68	0xbd9f5c86	-0.07781319
69	0x3a14b9dd	0.0005673448
70	0xbda26517	-0.079294376
71	0x3f56fa98	0.83976126
72	0xc04af89e	-3.1714244
73	0xbf3b2d40	-0.7311592
74	0xbfe6441b	-1.7989534
75	0x3fe4dfb0	1.7880764
76	0xbde0f32b	-0.109838806
77	0xbd95548e	-0.07291518
78	0xbf7fddf7	-0.99948066
79	0x408b0385	4.3441796
80	0xbf513c7f	-0.81732935
81	0xbd7e44a4	-0.06207718
82	0x3f2b7294	0.6697171
83	0xc02cc687	-2.6996171
84	0x3f5096b1	0.81479937
85	0xbd8913d5	-0.06693236
86	0xbf400af2	-0.750167
87	0xbd8949bd	-0.067035176
88	0xbd24471f	-0.04010689
89	0x3d20318f	0.039109763
90	0x3eefe9da	0.46858102
91	0xbf99da03	-1.2019657
92	0xbd6d6a93	-0.057962965
93	0xbf1124c9	-0.56696755
94	0xbbbdc420	-0.005791202
95	0x3f314182	0.6924058
96	0xbdefe1d3	-0.117129944
97	0xbe78286e	-0.24234173
98	0xbdfc4fdc	-0.123199195
99	0x3fd53fcb	1.6660093
100	0x3da179af	0.078845374
101	0xbdabd008	-0.08389288
102	0xbcd5ea2a	-0.026112635
103	0x3ec2cfa8	0.38049054
104	0xbd9f0e66	-0.07766418
105	0xbf10bab3	-0.5653488
106	0xbdacbd0a	-0.08434494
107	0xc02e203a	-2.720717
108	0x3f92030a	1.1407177
109	0xbd17fb76	-0.037105046
110	0xbdb5da58	-0.088795364
111	0xbdb1e768	-0.08686715
112	0xbd2f4e8f	-0.04279953
113	0xbf541def	-0.82858175
114	0xbd958fee	-0.07302843
115	0x4045ba6e	3.0895038
116	0xbdda7c7a	-0.10668273
117	0xbd87d44d	-0.0663229
118	0xbef61ec6	-0.48070353
119	0xbf27c1d8	-0.6553016
120	0xbdaef57f	-0.085429184
121	0xbda848e7	-0.0821703
122	0xbe0f0b2d	-0.13969107
123	0x3f6989b4	0.91225743
124	0xbdbb6c20	-0.091514826
125	0xbd777cb4	-0.06042166
126	0x3fbc095b	1.4690355
127	0xbfabfc6b	-1.3436407
128	0x40436c2b	3.053477
129	0xbdad0dff	-0.08449935
130	0xbbb497b0	-0.0055112466
131	0xc00a236f	-2.1584127
132	0xbf7e9cbe	-0.9945792
133	0xbd43cf01	-0.047804836
134	0xbd8ae18d	-0.06781302
135	0xbf3cdf77	-0.7377848
136	0xbcdb0c3a	-0.026739229
137	0x3eaaf4d8	0.33389926
138	0xbd4e2901	-0.050332073
139	0xc041df8c	-3.0292692
140	0x3b8a98e4	0.0042296518
141	0xbe7eb072	-0.24871996
142	0xbf952ea1	-1.1654855
143	0xbdfc37a4	-0.123153
144	0x3f01336b	0.5046908
145	0xbd2a59cf	-0.041589554
146	0xbe02e5cd	-0.12782975
147	0x3b2bc5de	0.0026210467
148	0xc094df7c	-4.652281
149	0x405e35d4	3.4720354
150	0x3fde436d	1.7364327
151	0xbd9f16fe	-0.07768057
152	0xbd891add	-0.06694577
153	0xbddcb792	-0.10777201
154	0x40677a08	3.6168232
155	0xbc7e5b4c	-0.015524697
156	0xbb8bb15d	-0.0042630867
157	0xbce5cfb3	-0.02805314
158	0xbdb889d8	-0.090106666
159	0xbd994206	-0.07483296
160	0x3a86e3ac	0.001029124
161	0xbb72e1cc	-0.0037060855
162	0xbdd2a572	-0.102854624
163	0xbc928c0e	-0.017889049
164	0xbcfd4b6c	-0.030919753
165	0xbfe82f55	-1.8139445
166	0xbd8a981d	-0.067672946
167	0xbd7dbfd4	-0.06195052
168	0xbd9697fe	-0.07353209
169	0xbd3de680	-0.0463624
170	0xbd72b864	-0.05925788
171	0xbc9c62ce	-0.019090082
172	0x3f4fe0c1	0.8120232
173	0xbdb12cb0	-0.086511016
174	0xbd7ca5cc	-0.061681554
175	0xbef92c56	-0.48666638
176	0x3f35410e	0.7080239
177	0xbd8a8ebd	-0.067655064
178	0xc003e13d	-2.0606225
179	0xbd5e4b7a	-0.0542712
180	0xbfd719e2	-1.6804774
181	0x3be96fd2	0.0071239257
182	0x404dc460	3.2151108
183	0xc042b89c	-3.0425177
184	0x3f5df87b	0.86707276
185	0xbb868f4d	-0.0041064383
186	0xbda92857	-0.08259647
187	0xbd77a3c4	-0.060458913
188	0xbd952fd6	-0.072845146
189	0xbd9256ee	-0.07145487
190	0xbb3d3aa0	-0.0028874055
191	0xbd47bed1	-0.04876596
192	0xbdaedbb7	-0.08538001
193	0xbe12daf6	-0.1434134
194	0xbfb02249	-1.3760463
195	0x40250def	2.5789754
196	0xbdec3853	-0.115341805
197	0xbd7b40c4	-0.061341062
198	0xbcd5c18a	-0.026093263
199	0x3f4c6e39	0.79855686
200	0xbd895ed5	-0.06707541
201	0xbd8c5635	-0.0685238
202	0x3fb8d9e1	1.4441491
203	0xbd3b4f38	-0.045729846
204	0x3ca54503	0.020174509
205	0xbde1ef83	-0.11032011
206	0xbcc449a9	-0.023960905
207	0xbca68557	-0.020327253
208	0xbf814037	-1.0097722
209	0xbd6d2ffb	-0.057907086
210	0xc035749c	-2.8352423
211	0xbc27671f	-0.010217457
212	0xbd41edc1	-0.04734588
213	0xbcb1b180	-0.021691084
214	0xbdb41e98	-0.08794898
215	0x3f91f5ce	1.1403139
216	0xbddc257a	-0.107493356
217	0xbdb157a8	-0.08659297
218	0xbd8d03a5	-0.06885461
219	0xbf194c63	-0.5988218
220	0x3f896a1b	1.0735506
221	0xbf01ecf8	-0.5075221
222	0xbd0539e5	-0.032525916
223	0xbd28d00f	-0.041214045
224	0x3f679182	0.904564
225	0xbc8c81f5	-0.017151812
226	0xbd3d9c48	-0.04629162
227	0xbfff348b	-1.993791
228	0xbd9a7126	-0.075411126
229	0xbfe0ffe5	-1.7578093
230	0xc09a0292	-4.8128138
231	0xbf935cd4	-1.1512704
232	0xbd1ca5fe	-0.03824424
233	0xbd0b04b5	-0.033940036
234	0xbd5f4322	-0.054507382
235	0x40093ca2	2.1443257
236	0xbda5e6bf	-0.08100652
237	0xbd90d04e	-0.07070981
238	0xbb36e268	-0.0027905945
239	0xbcd4a52a	-0.025957663
240	0xbc82f185	-0.015984306
241	0xbd09b3fd	-0.033618916
242	0xbe23f12f	-0.16009973
243	0xc0454c3e	-3.0827785
244	0x408c9979	4.3937345
245	0xbd1c9276	-0.038225614
246	0xbdd1cc42	-0.10244037
247	0x3e0447bc	0.1291799
248	0xbc675b03	-0.01412082
249	0x400575a4	2.0853052
250	0x3f3f47f4	0.74719167
251	0xbd627453	-0.055286717
252	0x3fe39e28	1.778264
253	0x403c09ba	2.9380937
254	0xbdb63cc8	-0.08898312
255	0xbdab8697	-0.0837528

5.weight f4 [1, 300]
0	0xbcc25031	-0.023719879
1	0xbcb659b0	-0.022259563
2	0x3fabe754	1.3429971
3	0x3e3d3ca8	0.1848017
4	0xbca989ff	-0.020695684
5	0x3e5b4cc0	0.21415997
6	0xbcf3acec	-0.029745542
7	0x3f615abe	0.88029087
8	0xbc5a7892	-0.01333441
9	0xbf4fee1c	-0.812227
10	0x3f1613e2	0.5862409
11	0xbce5262b	-0.027972301
12	0xbe4b4eca	-0.19854274
13	0x3c86557c	0.016398184
14	0xbc5f2aea	-0.013621071
15	0xbcee781b	-0.029110005
16	0xbca5c6b7	-0.020236356
17	0xbcddda32	-0.027081583
18	0x3c9645f6	0.018343907
19	0x39be0f20	0.00036250893
20	0x3eabe175	0.33570448
21	0x3e90b429	0.2826245
22	0xbbb55ee7	-0.005534995
23	0xbd2b794e	-0.041863732
24	0xbcd7117a	-0.02625345
25	0x3dfc65eb	0.12324127
26	0x3cd892a2	0.026437107
27	0x3fc5815c	1.5430102
28	0xbc8a486d	-0.016880238
29	0xbf0619fd	-0.52383405
30	0x3e8ab361	0.2708998
31	0x3cdcd222	0.026955668
32	0xbb70757b	-0.0036691118
33	0xbcf2fa04	-0.029660232
34	0x3c458f70	0.012058124
35	0x3ec74329	0.38918427
36	0x3cdf60d2	0.027267847
37	0x3eacb67e	0.3373298
38	0xbcf44b84	-0.029821165
39	0xbee2d4a6	-0.44302863
40	0x3ba5d7e6	0.0050611375
41	0x40211282	2.5167546
42	0x3c3898af	0.011266871
43	0xbc4f4629	-0.012651005
44	0xbc9b4fce	-0.018958952
45	0x3cde31b2	0.027123306
46	0xbca9c6ef	-0.020724742
47	0x3dc4d2ff	0.09610557
48	0xbee1817b	-0.44044098
49	0x3c850975	0.016239861
50	0x3c0df82c	0.008665126
51	0xbcc701c1	-0.024292829
52	0x3ea20c67	0.31650087
53	0xbeffba84	-0.49946988
54	0x3e49aa01	0.19693758
55	0x3c0da3cc	0.008645009
56	0x3c8f97cc	0.017528437
57	0xbc21e29f	-0.009880691
58	0xbd0f69b5	-0.03501292
59	0x3c9db835	0.019252876
60	0xbcc4af39	-0.024009334
61	0xbd00448f	-0.031315383
62	0x3cf904e3	0.030397838
63	0x3c537092	0.012905257
64	0xbc58ac6a	-0.0132247005
65	0xbf1cc961	-0.6124478
66	0xbedb77d3	-0.42864856
67	0x3c4fd840	0.012685835
68	0x3c19846d	0.009369952
69	0xbcad19b7	-0.021130426
70	0xbb64e16a	-0.0034924396
71	0xbe61066a	-0.21975103
72	0xbe282aee	-0.16422626
73	0xbe5a5bac	-0.21324033
74	0x3e3e712b	0.18597858
75	0xbe890462	-0.26761156
76	0x3b5f0569	0.0034030324
77	0xbce53823	-0.02798087
78	0x3e0617e3	0.1309505
79	0x3fc22f5f	1.5170707
80	0x3e9a6c86	0.30160922
81	0x3d55911a	0.052140333
82	0xbfb21538	-1.3912725
83	0x3e47e489	0.19520773
84	0xc08a27ba	-4.3173494
85	0xbba9e17f	-0.005184352
86	0x3edf1b73	0.4357563
87	0xbc490c69	-0.012271025
88	0x3c957d2e	0.018248167
89	0xbfe69626	-1.8014572
90	0xbf981bb0	-1.188345
91	0xbfec4a68	-1.8460207
92	0xbca9f75f	-0.020747839
93	0xbeb02388	-0.34402108
94	0xbcd7fa4a	-0.026364464
95	0xbe8461fa	-0.25856
96	0x3cb94300	0.022614956
97	0xbf26a9cd	-0.65102845
98	0x3c83c154	0.016083397
99	0xbe2b9ae8	-0.16758311
100	0xbf5cbf54	-0.86229444
101	0xbb5caefa	-0.003367363
102	0xbc93ed2e	-0.018057432
103	0xc0515408	-3.2707539
104	0x3cce0129	0.025147038
105	0x3e8e847e	0.2783546
106	0xbfd69051	-1.6762792
107	0xbe46328a	-0.19355217
108	0x3ed80878	0.4219396
109	0x3b48a610	0.003061656
110	0xbc9e61be	-0.019333716
111	0xbc8521ad	-0.01625141
112	0xbcbb7a30	-0.022885412
113	0xbe03b379	-0.12861432
114	0xbb80687f	-0.003918707
115	0x3e5f17d5	0.21786435
116	0x3c2b4cc7	0.010455317
117	0xbbc3cf01	-0.0059756045
118	0x3efbfd0d	0.492165
119	0x3ee07928	0.43842435
120	0x3d07399d	0.03301393
121	0xbc8a4615	-0.01687912
122	0x3b12acdd	0.0022380867
123	0xbe8e2871	-0.2776523
124	0x3c8d1e34	0.017226316
125	0xbbdf5a91	-0.0068162163
126	0x3f0dfac0	0.5546074
127	0x3e2407dc	0.16018623
128	0x3f3a2a71	0.7272101
129	0xbcd12f3a	-0.025535215
130	0x3a50d882	0.00079668325
131	0xbe42d167	-0.19025193
132	0xbf6ca605	-0.92440826
133	0xbc7b9073	-0.015354264
134	0xbd0004e3	-0.03125466
135	0xbfedc03a	-1.8574288
136	0xbbff33b4	-0.007788146
137	0xbf830a8c	-1.0237594
138	0xbcf2d86c	-0.029644214
139	0x3e523b0e	0.2053034
140	0x3c3e443f	0.011612951
141	0xbf777bf6	-0.96673524
142	0xbf916a5c	-1.1360583
143	0x3cf9ee7c	0.030509226
144	0x3ead1deb	0.33811888
145	0xbc87015d	-0.016480142
146	0x3cf3b584	0.02974964
147	0xbd5745d1	-0.052556816
148	0xbeccd9d1	-0.4000993
149	0x3f8d0b51	1.1019078
150	0xbf7b3df7	-0.98141426
151	0x3be04043	0.006843598
152	0x3c8b64cc	0.017015837
153	0x3cf3d58c	0.029764913
154	0x3e268c09	0.16264357
155	0xb930ceef	-0.00016861757
156	0x3d24665e	0.040136687
157	0xbabb757f	-0.0014301984
158	0x3a128505	0.00055892795
159	0x3bc1c840	0.0059137642
160	0xbc2574ae	-0.010098619
161	0x3cd7d979	0.026348816
162	0xbc04e00c	-0.008110058
163	0xbcbdfa08	-0.023190513
164	0x3cc98329	0.024598675
165	0xbec0e4a0	-0.37674427
166	0x3c918d5d	0.017767603
167	0xbbea30cb	-0.00714693
168	0xbbb826a0	-0.005619839
169	0xbc99c546	-0.018770825
170	0x3c7d727c	0.01546919
171	0x3c6fb7a3	0.014631185
172	0xbf5125ae	-0.8169812
173	0xbc3802b0	-0.0112311095
174	0x3bf6a9c3	0.0075275614
175	0xbe0d778a	-0.13815132
176	0x3ebd8dd9	0.37022284
177	0x3c27fac6	0.01025266
178	0xbe80c87b	-0.25152954
179	0xbcf97564	-0.030451484
180	0xbee029db	-0.43781933
181	0xbc7561a3	-0.014976892
182	0x3fa46023	1.2841839
183	0xc0844cca	-4.1343737
184	0x3f643a80	0.89151764
185	0xbcf4127c	-0.02979397
186	0x3ccb9e39	0.02485572
187	0x3cec6f03	0.028861528
188	0x3c8ebf65	0.017425248
189	0xbadb7f11	-0.0016746243
190	0xbc9cbd6e	-0.019133296
191	0xbbdbac62	-0.0067038992
192	0xbc65456b	-0.013993601
193	0xbcd68732	-0.026187513
194	0x3e9b2f2e	0.30309433
195	0x4029f477	2.655546
196	0x3bd7ef5a	0.006589812
197	0xbccdb3d1	-0.025110157
198	0xbc957175	-0.018242577
199	0x3e6e2a42	0.23258308
200	0xbcbdd6e0	-0.02317375
201	0xbc805817	-0.015667005
202	0x3fc7e0b3	1.5615448
203	0x3baa5e7f	0.005199253
204	0x4028f4a5	2.639932
205	0xbc3d5148	-0.0115550235
206	0x3be36fe3	0.006940828
207	0xbcb98ba8	-0.022649601
208	0xbfb46cf2	-1.4095747
209	0x3c245467	0.010029889
210	0x3e81a639	0.2532213
211	0xbce5fd03	-0.028074747
212	0x3c9375a5	0.018000433
213	0x3b6150ea	0.0034380504
214	0xbc95e386	-0.018296968
215	0x3ecf5f11	0.40502217
216	0x3bd0f952	0.0063773775
217	0xbbe239bb	-0.0069038547
218	0xbc084594	-0.00831737
219	0xbf0da89b	-0.55335397
220	0x3f25e93f	0.6480903
221	0xbf10fa4e	-0.56631935
222	0xbc53efea	-0.012935618
223	0x3c68eeea	0.014217118
224	0xc03717bc	-2.8608236
225	0x3a99d73d	0.001173712
226	0xbbfe0944	-0.0077525694
227	0xbe6e36c6	-0.23263082
228	0x3c869334	0.016427614
229	0x3e6c524f	0.23078273
230	0xbe8aa880	-0.2708168
231	0xbe420f6a	-0.18951192
232	0x3c357a40	0.01107651
233	0xbbbeeb70	-0.005826406
234	0xbcc320c9	-0.023819344
235	0x3fef023f	1.867256
236	0x3c812d2d	0.015768612
237	0xbc1b72f6	-0.009487858
238	0x3bc83d60	0.006110832
239	0xbca230bf	-0.019798635
240	0x3c7130fc	0.014721151
241	0xbcc72999	-0.024311827
242	0xbca6c887	-0.02035929
243	0xbe3d3fb6	-0.18481335
244	0x3f00bf78	0.5029216
245	0x3d1cc795	0.038276274
246	0xbb9e2bd6	-0.004827003
247	0xbf939ef5	-1.1532885
248	0xbc5a010a	-0.013305912
249	0x3e677955	0.22604878
250	0x3e93bb92	0.28854042
251	0x3c42cec0	0.011890113
252	0x3eccb240	0.39979744
253	0x3f9d53cc	1.2291198
254	0x3c98ad95	0.018637458
255	0x3b941cd5	0.0045200386
