results/c_9_0/c_8_0/best/policy.pt (torch, 500709 bytes, 5 tensors)

0.weight f4 [400, 9]
0	0x3c837098	0.0160449
1	0x3e372877	0.1788653
2	0xbe8a727b	-0.27040467
3	0xbe498b0e	-0.19681951
4	0xbdf9abb2	-0.121909514
5	0x3d3b86da	0.0457829
6	0xbd5c6407	-0.05380633
7	0x3e5c5d73	0.21520023
8	0xbd014ea6	-0.031569146
9	0x3ebd217c	0.3693961
10	0x3dde9a3a	0.1086926
11	0xbf02c9fc	-0.51089454
12	0xbf22b38c	-0.63555217
13	0xbfd99f25	-1.7001692
14	0xbfa89e3a	-1.3173287
15	0x3adf7150	0.001704732
16	0xbe015247	-0.12629043
17	0xbc1e5b13	-0.0096652685
18	0x401d1837	2.454603
19	0xc07f79ac	-3.9918013
20	0x402ca7b5	2.697736
21	0xc1074c5f	-8.456145
22	0xbff2096b	-1.8909124
23	0xc0137b39	-2.304396
24	0x3e6f9dd2	0.23400047
25	0x3e919dca	0.28440696
26	0x3f3840d6	0.7197393
27	0xbf491aa5	-0.7855628
28	0xc0002190	-2.0020485
29	0xc0b8d829	-5.7763867
30	0xbf66bd94	-0.90133023
31	0xc02a71ce	-2.663196
32	0xc01efbfa	-2.4841294
33	0x3fae2dcc	1.3607726
34	0xbf8f85da	-1.1212723
35	0xbf97968d	-1.184282
36	0xc1297297	-10.590476
37	0x40c241b6	6.0705214
38	0x3e229d0e	0.15880224
39	0x4100372d	8.013471
40	0x40070a31	2.109997
41	0x3f378848	0.71692324
42	0xbfaaf014	-1.3354516
43	0xbd132e39	-0.035932753
44	0xbe8f4f39	-0.2799013
45	0xc00b754e	-2.1790347
46	0xbf40b203	-0.75271624
47	0x3e9b7ca4	0.3036853
48	0xbfe40916	-1.7815273
49	0xc00e9ea6	-2.2284331
50	0xbf7fdc0e	-0.9994515
51	0xbc89f46b	-0.01684018
52	0xbf32cecf	-0.69846815
53	0xbe3693a1	-0.17829753
54	0x3e964aca	0.29353935
55	0xbf85813d	-1.0430065
56	0xbe5dcedc	-0.21660942
57	0xbf0d5b22	-0.5521718
58	0xc03c1b36	-2.9391608
59	0xbefb98c8	-0.4914
60	0xbe50c8b8	-0.20389068
61	0xbf199f0f	-0.6000833
62	0xbe407bd5	-0.18797238
63	0xc0d25e68	-6.574024
64	0xc101eea7	-8.120765
65	0xbf05a6c1	-0.5220757
66	0x3f2a346b	0.66486233
67	0xbee4f0ff	-0.44715115
68	0xbfe759ab	-1.807424
69	0xbde76f02	-0.1130047
70	0xbdae7092	-0.08517565
71	0xbed68b51	-0.41903165
72	0xbe240dab	-0.16020839
73	0x3f3f1550	0.74641895
74	0x3f0f0492	0.5586635
75	0x3f2059f8	0.6263728
76	0x3f3a0521	0.72664076
77	0xbeb7a2ac	-0.35866296
78	0xbfa3f7cf	-1.281
79	0xbdd3d112	-0.10342611
80	0xbf4e89b6	-0.8067888
81	0x3feb7dbc	1.8397746
82	0x3faa0034	1.3281312
83	0xbfa11e4d	-1.2587372
84	0xbc3bab9d	-0.01145449
85	0xbf892fe6	-1.0717742
86	0x40191a05	2.392213
87	0xbbaf8ee2	-0.005357609
88	0xbc8f983e	-0.01752865
89	0xbe79b805	-0.24386604
90	0x3e486077	0.19568048
91	0xbd0c16c2	-0.03420139
92	0x3e5a29ea	0.21305051
93	0xbe614007	-0.2199708
94	0xbfa9452f	-1.3224238
95	0xbd989aad	-0.07451377
96	0xbd5cab7a	-0.05387447
97	0xbe181de0	-0.14855146
98	0xbf33d6cd	-0.70249635
99	0xbe8b3943	-0.27192125
100	0x3e758239	0.23975457
101	0x3e2cbabf	0.16868113
102	0xbe402404	-0.18763739
103	0x3e079da9	0.13243736
104	0xbe370617	-0.17873417
105	0xbd9fa127	-0.07794409
106	0xbe8085a6	-0.25101966
107	0xbe83a517	-0.2571189
108	0xbe1bfaf6	-0.15232453
109	0xbf9084e0	-1.129055
110	0xbefdd0c1	-0.4957333
111	0x3f382d67	0.7194428
112	0xbf879f14	-1.0595422
113	0x3ed85453	0.42251834
114	0x3c72ed23	0.014827046
115	0xbec6f56e	-0.38859123
116	0xbf506da6	-0.8141731
117	0xbda932dd	-0.082616545
118	0xbf156990	-0.583642
119	0xbe21419b	-0.15747683
120	0x3f938dc1	1.1527635
121	0x3f861c96	1.0477474
122	0xbf8b810d	-1.0898758
123	0x3ea0667a	0.31328183
124	0xbf75bc0e	-0.95990074
125	0xbf881d19	-1.063388
126	0x410c1766	8.7557125
127	0x408358e6	4.104602
128	0x3f29f342	0.66386807
129	0x3fd99787	1.6999367
130	0xbfa43c04	-1.2830815
131	0x3f1af2b2	0.60526574
132	0xbfaa7554	-1.3317056
133	0x3c6c01f0	0.014404759
134	0x3dfe17f7	0.12406915
135	0xc033fa60	-2.8121567
136	0xbfff3a23	-1.9939617
137	0xc009e4d6	-2.154592
138	0x3fdb0c08	1.7113047
139	0xbfa4aca8	-1.286519
140	0x40800036	4.0000257
141	0x3f04b18a	0.51833403
142	0xbe5d2c6b	-0.21598975
143	0xbdb3fe5a	-0.08788748
144	0xbe995044	-0.2994405
145	0xbe21d180	-0.15802574
146	0x3e686a68	0.22696841
147	0xbb0d9cab	-0.0021608274
148	0xbe29a893	-0.16568212
149	0xbe82c8ac	-0.25543725
150	0xbe9fb800	-0.31195068
151	0xbe900b48	-0.28133607
152	0xbd8a784b	-0.06761225
153	0xbeb6df2b	-0.3571714
154	0x3fe84c48	1.8148279
155	0xc042fe7c	-3.0467825
156	0x4043d8da	3.0601106
157	0x40438d5d	3.0555031
158	0x3f91f286	1.1402137
159	0xba20ec62	-0.00061387394
160	0x3dc6eb58	0.09712857
161	0xbe3d9bd3	-0.18516473
162	0xbfce4611	-1.6115133
163	0xc03cb50b	-2.94855
164	0xbd133bac	-0.03594558
165	0x3e61f4d0	0.22066045
166	0xc0260e26	-2.5946136
167	0xbf677b75	-0.90422755
168	0x3f11076a	0.5665194
169	0xbf26c7a9	-0.6514841
170	0xbf40de99	-0.7533966
171	0xc10561e0	-8.336395
172	0x3e9f0976	0.31061906
173	0xc02304b3	-2.5471618
174	0xbf0ed032	-0.5578643
175	0xc00004e3	-2.0002983
176	0x3ee6ba6c	0.45064104
177	0xbe5f552f	-0.21809839
178	0xbf833fe9	-1.0253879
179	0xbfa43ee9	-1.2831699
180	0xbf42db79	-0.7611614
181	0xbfd63680	-1.6735382
182	0x3f183b30	0.5946531
183	0xbfa153d5	-1.2603709
184	0x403a4605	2.9105237
185	0x4026d3d0	2.606678
186	0xbf6d4680	-0.926857
187	0xbf4f3fa3	-0.80956477
188	0x3c7016b4	0.01465385
189	0x3f18bf51	0.59666926
190	0x3e6a548c	0.22883815
191	0xbee8aca7	-0.45444223
192	0xbf61aafe	-0.8815154
193	0xbe4ac7f4	-0.19802839
194	0xbdf3a156	-0.11896007
195	0xbea49252	-0.32142884
196	0xbef3b9e4	-0.4760276
197	0xbe29289d	-0.16519399
198	0xc0a304b7	-5.0943255
199	0xbe6c2338	-0.2306031
200	0xbf12f8b6	-0.5741075
201	0x3e06c760	0.13161993
202	0xbf838f8f	-1.0278186
203	0xbdf32d89	-0.118739195
204	0xbf45ac72	-0.77216256
205	0x3e933511	0.28751424
206	0xbe746e39	-0.23870172
207	0x3e8ff496	0.28116292
208	0x3df6db80	0.12053585
209	0x3d2ce300	0.04220867
210	0xbb229e00	-0.0024813414
211	0xbd86f35b	-0.06589385
212	0x3d2b4dab	0.041822117
213	0xbd9be220	-0.07611489
214	0xbb197eab	-0.0023421447
215	0x3d2e3500	0.042531013
216	0xc03ea258	-2.9786587
217	0xc0a20aaa	-5.063802
218	0x409e3603	4.944093
219	0xc11272ed	-9.153058
220	0xc0b7f3f0	-5.7485275
221	0x3e4fcbf0	0.2029264
222	0x3eae1259	0.33998373
223	0x3cf163bd	0.029466504
224	0xbed3a066	-0.41333312
225	0x3fb235b2	1.3922637
226	0xc0aa2f8b	-5.3183036
227	0xc0f5e634	-7.684351
228	0xc04e514e	-3.2237124
229	0xc0420e0f	-3.032108
230	0xbfcfcad9	-1.6233779
231	0x3dcc17fa	0.09965511
232	0xbf90b173	-1.1304153
233	0xbef712de	-0.48256582
234	0x3f01c4c6	0.5069088
235	0xbf90e25c	-1.1319079
236	0x3f1830b2	0.59449303
237	0xbe9b5d61	-0.3034468
238	0x3cfd49f6	0.030919056
239	0x3f54adb3	0.83077544
240	0xbdcb531f	-0.099279635
241	0xbdd62388	-0.10455996
242	0xbec6f9d7	-0.38862488
243	0xbc075362	-0.008259626
244	0x3e3e48ee	0.18582508
245	0xbe991b3b	-0.29903588
246	0x3e805254	0.2506281
247	0xbe84e6a8	-0.25957227
248	0xbc84c7d9	-0.016208576
249	0xbd68212b	-0.056672256
250	0xbe33c563	-0.17555766
251	0x3cd9933a	0.02655946
252	0x3e8d20a2	0.2756396
253	0xbdc78e8b	-0.09743985
254	0xbe4aa5c8	-0.19789803
255	0xbdfc7a06	-0.123279616

0.bias f4 [400]
0	0xbebd3ead	-0.3696188
1	0xbf00083c	-0.50012565
2	0xbfb95164	-1.4477963
3	0x3ed8af66	0.42321318
4	0xbf9a1a11	-1.2039205
5	0xbf3a2807	-0.72717327
6	0xbeeaffb0	-0.458982
7	0x3ed60d2b	0.4180692
8	0xbf3866e8	-0.7203202
9	0xbf85adfb	-1.044372
10	0xbf0ec41f	-0.5576801
11	0xbe982da3	-0.29722318
12	0xbea7e748	-0.3279364
13	0xbf03a784	-0.51427484
14	0xbf5ea4fa	-0.86970484
15	0xbf50a2f7	-0.81498665
16	0xbe62f13e	-0.22162339
17	0xbf31540b	-0.69268864
18	0xbf57583a	-0.84119
19	0x3eb22505	0.3479387
20	0xbf830fd9	-1.0239211
21	0xbea57dcd	-0.3232254
22	0xbf7462cf	-0.9546327
23	0xbe8d3923	-0.27582654
24	0x3dd0e2aa	0.10199483
25	0xbf399a2a	-0.7250086
26	0xbee69271	-0.450336
27	0xbe2ac65c	-0.1667723
28	0xbea67f44	-0.3251897
29	0xbf0dbdc6	-0.55367696
30	0xbe12e0da	-0.14343587
31	0xbec325fd	-0.3811492
32	0xbf0f4490	-0.55963993
33	0xbe86ad54	-0.26304114
34	0xbf5b9148	-0.85768557
35	0xbe3a2d88	-0.18181431
36	0xbf3b9bb2	-0.7328445
37	0xbf2b2cc9	-0.6686521
38	0xbfa03442	-1.2515948
39	0xbf286a70	-0.6578741
40	0xbe309018	-0.17242467
41	0xbee114b9	-0.43961123
42	0xbf46785e	-0.77527416
43	0xbeb7f346	-0.3592779
44	0x3ddccde1	0.10781456
45	0xbf0cd397	-0.5501036
46	0xbec121d0	-0.3772111
47	0xbeb01482	-0.34390646
48	0xbf1b4ba0	-0.6066227
49	0xbf0828ed	-0.5318745
50	0xbfc72fdf	-1.5561484
51	0xbe4e0359	-0.20118465
52	0xbeaf2f99	-0.34216002
53	0x3e991527	0.2989895
54	0xbed661cf	-0.41871497
55	0xbf3312bd	-0.6995047
56	0xbff16703	-1.8859562
57	0xbebabb77	-0.3647115
58	0xbfbc18f8	-1.469512
59	0xbf2f4794	-0.68468595
60	0xbf6fcc3d	-0.9367102
61	0xbf09a471	-0.5376654
62	0xbf15e428	-0.58551264
63	0xbf20eac8	-0.6285825
64	0xbeff7ac5	-0.49898353
65	0xbf869581	-1.0514375
66	0xbf0034b4	-0.5008042
67	0xbf263715	-0.649278
68	0xbea8cd87	-0.32969305
69	0xbebe8c9e	-0.37216657
70	0xbeda7831	-0.42669824
71	0xbef40f18	-0.47667766
72	0xbf36d032	-0.7141143
73	0x3ee98611	0.45610097
74	0xbeb7adcb	-0.3587478
75	0xbf1db535	-0.61604625
76	0xbf9f398b	-1.2439436
77	0xbf7b50be	-0.9817008
78	0x3fb2e442	1.3975909
79	0xbf2819e0	-0.6566448
80	0xbf0f5e91	-0.5600367
81	0xbf0ce1cc	-0.5503204
82	0x3dcc131b	0.099645816
83	0xbf824771	-1.0178052
84	0xbf65e281	-0.8979874
85	0x3f09ef09	0.53880364
86	0xbf0c695c	-0.54848266
87	0xbe085325	-0.13312967
88	0xbf2090a6	-0.62720716
89	0x3f63c994	0.8897946
90	0xbef878c5	-0.4852964
91	0xbe909144	-0.2823583
92	0xbf1dd928	-0.6165948
93	0xbec09d22	-0.37619883
94	0xbf043af4	-0.51652455
95	0xbf1704c2	-0.58991635
96	0xbf18bb8d	-0.5966118
97	0xbe9a33e9	-0.3011773
98	0xbf3c7e42	-0.73630154
99	0xbf642982	-0.89125836
100	0xbf2483bb	-0.64263505
101	0xbf1508ae	-0.5821637
102	0xbe9b6bf0	-0.30355787
103	0xbee480f4	-0.44629633
104	0x3db12c38	0.08651012
105	0xbf59713d	-0.8493841
106	0xbe3524d9	-0.17689838
107	0x3f9208a1	1.1408883
108	0xbf427ceb	-0.7597186
109	0xbf775070	-0.9660711
110	0xbf00b6a0	-0.50278664
111	0xbea36c72	-0.31918675
112	0xbf84c6ad	-1.0373131
113	0xbea55266	-0.32289428
114	0x3fc92117	1.5713223
115	0xbe9fa6c2	-0.31181914
116	0xbf0d32fb	-0.55155915
117	0xbf51018b	-0.8164298
118	0xbf5c3afa	-0.8602749
119	0xbed0accb	-0.4075683
120	0x3e062c37	0.13102804
121	0x3f62f9c5	0.8866237
122	0xbefa1e71	-0.4885135
123	0xbe1e93c8	-0.15486062
124	0xbe92d782	-0.28680044
125	0xbf17ccc1	-0.59296805
126	0xbee9b0f6	-0.45642823
127	0xbf0c96c1	-0.5491753
128	0xbf1ed994	-0.6205075
129	0xbf4bf836	-0.79675615
130	0x3e1cb3f4	0.15303022
131	0xbf1d6b67	-0.6149201
132	0xbf14281b	-0.57873696
133	0xbe8b699a	-0.27229005
134	0xbe95ba61	-0.29243758
135	0x3e6bf663	0.23043208
136	0xbf02ec09	-0.5114141
137	0xbfae8f0c	-1.3637404
138	0xbef99c2a	-0.48751956
139	0xbf3e829c	-0.74418044
140	0xbecd5df6	-0.4011075
141	0x3f30c693	0.69053
142	0xbf66c551	-0.9014483
143	0xbf5d8363	-0.86528605
144	0xbef5e7ef	-0.48028514
145	0xbfc815c2	-1.563164
146	0x3e333b45	0.17503078
147	0xbe5a8a06	-0.21341714
148	0xbf34adf9	-0.7057796
149	0xbf27b0bc	-0.6550405
150	0xbeef4ade	-0.46736807
151	0xbf2dacf9	-0.6784206
152	0xbf29bb71	-0.6630164
153	0xbef4c7c5	-0.47808662
154	0xbf412f46	-0.7546276
155	0xbf029280	-0.5100479
156	0xbf2d3144	-0.676533
157	0xbf697e8f	-0.9120874
158	0xbf04bac2	-0.5184747
159	0xbea95490	-0.3307233
160	0xbdff1694	-0.12455478
161	0x3ecc9ed0	0.39964914
162	0xbef5a2bb	-0.47975716
163	0xbf93d60d	-1.1549698
164	0xbf236888	-0.6383138
165	0xbf28e204	-0.6596987
166	0xbe51604c	-0.2044689
167	0xbefe09fb	-0.4961699
168	0xbe784201	-0.24243928
169	0xbe87e75a	-0.26543695
170	0xbf00dcb8	-0.5033679
171	0xbec73277	-0.3890569
172	0xbe91c89b	-0.28473362
173	0x3e865154	0.26233923
174	0x3ea643cd	0.32473603
175	0xbf18dfae	-0.5971631
176	0xbf851e8c	-1.0399947
177	0xbfa1ea84	-1.2649693
178	0xbf101af8	-0.5629115
179	0xbe199155	-0.14996846
180	0xbf1d6e84	-0.6149676
181	0xbf4b16be	-0.79331577
182	0xbf08400e	-0.5322274
183	0xbf04bb14	-0.5184796
184	0xbf4596ca	-0.7718321
185	0xbf3f1bc3	-0.74651736
186	0xbf95bee7	-1.1698884
187	0xbf1d0a6e	-0.6134404
188	0xbfa60ad5	-1.2972056
189	0xbf3750ed	-0.7160786
190	0xbedd744f	-0.432528
191	0xbe98ba64	-0.29829705
192	0xbed22c53	-0.41049442
193	0xbf2d8001	-0.67773443
194	0xbf4b09b5	-0.79311687
195	0x3f3a7a77	0.72843117
196	0xbf9014df	-1.1256369
197	0xbee1615b	-0.4401959
198	0xbfabd195	-1.3423334
199	0xbf7404fb	-0.953201
200	0xbf00d408	-0.50323534
201	0x3d559181	0.052140716
202	0xbe642268	-0.2227875
203	0xbe9b4b43	-0.30330858
204	0xbf43b1cd	-0.7644318
205	0xbea97d1c	-0.33103263
206	0xbee746c8	-0.4517119
207	0xbed712c1	-0.42006496
208	0xbf14e6fd	-0.5816496
209	0xbf59a4a7	-0.85016865
210	0xbf066de6	-0.5251144
211	0xbf242f5e	-0.64134777
212	0xbece9df6	-0.4035489
213	0xbf0e5750	-0.5560198
214	0xbf5f66c3	-0.87266177
215	0xbebce5f1	-0.3689418
216	0xbf564dc6	-0.8371242
217	0xbeeaaa49	-0.45833042
218	0x3c157d90	0.009124175
219	0xbf12f40d	-0.5740364
220	0x3f80975e	1.0046194
221	0x3efe03b5	0.49612203
222	0xbef9080e	-0.48638958
223	0xbf040ab6	-0.51578844
224	0xbfb27835	-1.3942934
225	0xbf441d8d	-0.7660759
226	0xbeed3330	-0.46328115
227	0xbeec4e7c	-0.4615363
228	0xbfa3bff8	-1.2792959
229	0xbf7efd8c	-0.9960563
230	0xbedfa996	-0.4368407
231	0x3d1d1278	0.03834769
232	0xbf1f6d68	-0.62276316
233	0x3e915b48	0.28389955
234	0xbf29bbbc	-0.66302085
235	0xbf2043f8	-0.6260371
236	0xbf2fec68	-0.687201
237	0xbf34ea75	-0.70670253
238	0xbfbba8eb	-1.4660925
239	0xbf0a3a2f	-0.5399503
240	0xbe97e1da	-0.296645
241	0xbfae6476	-1.3624408
242	0xbef93b46	-0.48678035
243	0x3d95fd0c	0.073236555
244	0xbf202330	-0.6255369
245	0xbf15e987	-0.5855946
246	0xbf122add	-0.57096654
247	0xbf6c1289	-0.9221578
248	0xbfb7e6d2	-1.4367316
249	0xbe889574	-0.26676524
250	0xbf34e87a	-0.7066723
251	0xbf2b349a	-0.6687714
252	0xbf3f7d52	-0.748006
253	0x3dbf7d1b	0.09350034
254	0x3f282805	0.65686065
255	0xbf06e26d	-0.5268925

2.weight f4 [300, 400]
0	0x3c7f6548	0.015588112
1	0xbea7f98b	-0.32807574
2	0xc00075c7	-2.0071886
3	0x3eb7956e	0.35856193
4	0xbf205f4a	-0.626454
5	0x3db097aa	0.086226776
6	0x3dafaba6	0.08577661
7	0x3f883480	1.0641022
8	0x3f97bab8	1.1853857
9	0xc0172682	-2.3617253
10	0x3da0d912	0.07853903
11	0xbdf856dc	-0.12125942
12	0xbe17a462	-0.14808801
13	0xbf9583e6	-1.1680877
14	0xbfc7dc88	-1.5614176
15	0xc076e3d2	-3.857655
16	0x3d04bf03	0.032408725
17	0xbf89eb91	-1.0775014
18	0xbe269a60	-0.16269827
19	0x3dcf7223	0.10129192
20	0xbf11ccf5	-0.56953365
21	0xbee51716	-0.44744176
22	0x3e8b7300	0.27236176
23	0xbbdffc9a	-0.0068355324
24	0xbe91b7e5	-0.28460613
25	0x3f2167e5	0.63049155
26	0xbeaa5a78	-0.33272147
27	0x3cca6b3f	0.024709342
28	0xbb8535e7	-0.0040652636
29	0x3e50e502	0.2039986
30	0xbf8e5507	-1.1119698
31	0xbd1e2b15	-0.038615305
32	0xbe150a4a	-0.14554706
33	0x3cc4bd63	0.024016088
34	0x3fa1ce8c	1.2641158
35	0xbcf8bfa7	-0.030364824
36	0x3f06d2a6	0.52665174
37	0xbebf822c	-0.37404
38	0xbf5244f2	-0.8213645
39	0xbed6ba32	-0.4193893
40	0x3fad040a	1.3516858
41	0x3eb1b211	0.34706166
42	0xbefe707d	-0.49695197
43	0xc03d7234	-2.9600954
44	0xbf8d56e0	-1.1042137
45	0xbe056462	-0.13026574
46	0x3fcf5146	1.6196678
47	0x3e0508e2	0.1299167
48	0xbf170be8	-0.5900254
49	0x3f47ec2d	0.7809475
50	0xbfc62906	-1.5481269
51	0xbe8fe69f	-0.28105637
52	0x3f155173	0.58327407
53	0xbf72e158	-0.948751
54	0x3cedf64f	0.029048113
55	0xbee96d92	-0.45591408
56	0xbfb13670	-1.3844738
57	0xbe8d2251	-0.27565244
58	0xbf471a52	-0.77774537
59	0xbfc3785c	-1.5271106
60	0xc04afeb3	-3.1717956
61	0xbe2dba20	-0.16965532
62	0x3f0f5251	0.5598498
63	0x3f47ad89	0.7799917
64	0x3f4720d3	0.7778446
65	0x3f7386e3	0.95127696
66	0xbea02275	-0.3127629
67	0xc004584d	-2.0678895
68	0xbe3cb6d4	-0.18429118
69	0xbfdb5878	-1.7136374
70	0x3effbd1e	0.49948972
71	0xbfd16c3c	-1.6361156
72	0x3eb6c61c	0.3569802
73	0xc0737907	-3.804262
74	0xbe3f4eb4	-0.18682367
75	0x3e364a98	0.17801893
76	0x3f78b186	0.9714588
77	0xc09b0d3b	-4.845365
78	0x4019bfea	2.4023385
79	0xbe931816	-0.28729314
80	0xbcfe9e1c	-0.031081252
81	0xbfa3ef77	-1.2807454
82	0xbf871c04	-1.0555425
83	0xbe4763cb	-0.19471662
84	0xbf1fc374	-0.6240761
85	0xbcecd694	-0.028910913
86	0x3f6a9ce3	0.9164564
87	0xbfbe308a	-1.4858563
88	0xbf1309b3	-0.57436675
89	0xbf4af138	-0.7927432
90	0xbf3fa4d6	-0.74860895
91	0xbd36d89a	-0.04464016
92	0x3e3ade96	0.18248972
93	0xbd1da5f2	-0.038488336
94	0x3dcf845b	0.10132667
95	0xbf384b06	-0.71989477
96	0xbd909cba	-0.07061143
97	0x3e395712	0.18099621
98	0xbf2d1e7c	-0.6762464
99	0x3f75529d	0.9582918
100	0x3f1dd3ad	0.61651117
101	0xbf2c7418	-0.67364645
102	0x3f666992	0.9000484
103	0xbf6bcfe1	-0.92114073
104	0xc043b08d	-3.0576508
105	0xbfe459ef	-1.7839946
106	0x3f28047d	0.6563185
107	0x3ea37c69	0.31930855
108	0xbea0e1e6	-0.31422347
109	0xbe53223a	-0.20618525
110	0xbc068ad9	-0.008211815
111	0xbec172bd	-0.3778285
112	0xbe58c607	-0.21169291
113	0x3d16bf58	0.036803573
114	0x3f08cce5	0.53437644
115	0x3dcf2809	0.10115058
116	0x3ee33dbb	0.44383034
117	0x3fab421d	1.3379551
118	0x3dc4802f	0.095947616
119	0xbf21e322	-0.632372
120	0xc01f4deb	-2.4891307
121	0x3edfa2a9	0.43678787
122	0x3f28d4a4	0.65949464
123	0xc00bad4c	-2.1824522
124	0xbba55ce7	-0.005046475
125	0x3f2f6f5f	0.68529314
126	0x3f16218d	0.58644944
127	0xbe7bb3ce	-0.24580309
128	0x3f5fe859	0.8746391
129	0xbf7a67d5	-0.97814685
130	0xbfbc33ed	-1.4703346
131	0x3dbaaa1c	0.09114477
132	0xbf4114be	-0.75422275
133	0x3dfc3daa	0.12316449
134	0xbf72d42b	-0.9485499
135	0x3fb13015	1.3842798
136	0x3d0ed72d	0.034873176
137	0xbf2baec7	-0.67063564
138	0xbf8605c1	-1.0470506
139	0xc00d9156	-2.2119956
140	0x4028fb33	2.640332
141	0xbf1428dc	-0.57874846
142	0xbf8a9e5c	-1.0829577
143	0xbfd0d732	-1.6315672
144	0xbf71d75a	-0.94469225
145	0x3f14db7f	0.58147424
146	0xc09ab6a0	-4.834793
147	0x3cc8f670	0.024531573
148	0xbdd0b950	-0.101915956
149	0xbe70b4a8	-0.23506415
150	0x401bdcc0	2.4353485
151	0x3f3a7c74	0.7284615
152	0xbd1d55a2	-0.038411744
153	0x3ffff083	1.9995273
154	0x3ea20dac	0.31651056
155	0x3cd922e4	0.026505895
156	0x3e2bdac3	0.1678267
157	0xbf27a09d	-0.6547945
158	0x40241af3	2.5641448
159	0xbecb72b5	-0.39735952
160	0xbd557638	-0.052114695
161	0xc004e9ff	-2.076782
162	0x3dcda6a0	0.10041547
163	0xbfc7aac1	-1.5598985
164	0x3e925a35	0.28584448
165	0xbf356efd	-0.7087248
166	0xbfe560ea	-1.7920201
167	0x3df32093	0.118714474
168	0x3f642702	0.8912202
169	0xbc4a6553	-0.012353259
170	0xc0d4dc33	-6.65188
171	0xbf1fed4e	-0.62471473
172	0x3d145ccd	0.036221314
173	0x3f06f87c	0.5272291
174	0xbf7f3165	-0.99684745
175	0x4025d603	2.5911872
176	0xc0017085	-2.0224926
177	0xbf912d0e	-1.1341875
178	0x3da1da37	0.07902949
179	0x3bf994b3	0.0076166033
180	0x3fa9e9cd	1.3274475
181	0xbee46323	-0.44606885
182	0xbf3338a0	-0.7000828
183	0xc0464f83	-3.098603
184	0xbf4ee463	-0.8081724
185	0xbeade5f6	-0.3396451
186	0xbebc3a14	-0.3676306
187	0x3f2734d1	0.65314966
188	0xbf9ecd9b	-1.2406496
189	0xbf252a60	-0.64517784
190	0xbf9f5b54	-1.2449746
191	0x3d0fe748	0.035132676
192	0x3fc5fd88	1.5467997
193	0xbfdc019d	-1.7187992
194	0xbf2863c4	-0.6577723
195	0xc034f457	-2.8274133
196	0xbfa98fe4	-1.3247037
197	0x3fc529f4	1.5403428
198	0xbf4bc994	-0.7960446
199	0xc0a9e1ac	-5.308798
200	0x3f8fc44c	1.123178
201	0x3f078f78	0.5295329
202	0xbcdab99d	-0.026699835
203	0x3a9c8a67	0.0011943103
204	0xbefd1b1d	-0.49434748
205	0xc000d262	-2.0128407
206	0xbd7f7ba1	-0.06237376
207	0xbf85ef0a	-1.0463574
208	0xbf2b392d	-0.6688412
209	0xbfbb0e7d	-1.4613796
210	0xc00713a5	-2.110574
211	0xbf26ba75	-0.6512826
212	0xbf4f33e7	-0.8093857
213	0xbf36caa0	-0.7140293
214	0xc030bb23	-2.761422
215	0x3e427620	0.18990374
216	0x3f957b65	1.1678282
217	0x3d8f9033	0.07009926
218	0x40572ba4	3.3620386
219	0xbdafc5cb	-0.08582648
220	0x3ff2dcf5	1.8973681
221	0xbfa5742f	-1.2926081
222	0x3f0f5ab3	0.5599777
223	0xbd875085	-0.06607155
224	0xc096f1fe	-4.71704
225	0x3f09c9b6	0.5382341
226	0xbce9b070	-0.028526515
227	0x3c583314	0.013195772
228	0xc0346967	-2.8189332
229	0x3e6b1bb3	0.22959785
230	0xbdf09bd0	-0.11748469
231	0xc0088d72	-2.1336331
232	0x3f17fabc	0.59366965
233	0xbf8a7f4d	-1.0820099
234	0x3f685d37	0.90767235
235	0x3f18fe7d	0.5976332
236	0x3d91c0cf	0.071168534
237	0x3f1ca593	0.61190146
238	0xbd84907b	-0.0647287
239	0x3f33b084	0.70191216
240	0xbc82e29d	-0.015977198
241	0xbe8ef583	-0.27921686
242	0x3f81ab1c	1.0130343
243	0xc0686f65	-3.631799
244	0x3e9bc47e	0.3042335
245	0xc00e5ebb	-2.224532
246	0x3e412b4b	0.18864171
247	0xbf5b70c8	-0.85718966
248	0xbf94a132	-1.1611693
249	0xbf7adffc	-0.97998023
250	0x3fbe8706	1.4884956
251	0xc00881ff	-2.1329343
252	0xbf138bb8	-0.5763507
253	0x3f7628a1	0.96155745
254	0x3f80f123	1.0073589
255	0x3ebcaf30	0.36852407

2.bias f4 [300]
0	0xbfb8ef69	-1.4448062
1	0xbde82ccb	-0.113366686
2	0xbd2694e6	-0.040669344
3	0xbf96841e	-1.1759069
4	0xbfd2e1bb	-1.6475137
5	0xbd99736a	-0.074927166
6	0x3f0779cf	0.5292024
7	0xbdb2dc46	-0.0873342
8	0xc07d745e	-3.9602275
9	0x3b746849	0.0037293604
10	0xbd9a923c	-0.07547423
11	0xbdd2b9e7	-0.10289364
12	0xbdd2d30f	-0.102941625
13	0x3f2c8501	0.6739045
14	0xbde8f8e9	-0.11375601
15	0xbd9466af	-0.07246148
16	0xbe734bcc	-0.23759383
17	0xbd8e236d	-0.06940351
18	0xbd93c8df	-0.072160475
19	0xbdfdd9b6	-0.12395041
20	0xbd88c6ba	-0.06678529
21	0xbd087ad4	-0.033320263
22	0xbd64f0ad	-0.05589359
23	0xbd2c28fd	-0.042031277
24	0xbd34d3f2	-0.04414744
25	0xbd437f51	-0.04772884
26	0xc03237f9	-2.7846663
27	0xbd168f39	-0.03675768
28	0xbd9c9939	-0.076464124
29	0xbf708b72	-0.93962777
30	0xbd43b500	-0.047780037
31	0xbd1a20fa	-0.037629105
32	0xbc94361d	-0.01809221
33	0xbd8bc555	-0.068247475
34	0xc04cc6e5	-3.1996396
35	0xbd65201d	-0.05593883
36	0xbd980f20	-0.0742476
37	0xbde40f0c	-0.111356825
38	0xbf769ef3	-0.9633629
39	0xbd8115b5	-0.063029684
40	0xbfeda30a	-1.856538
41	0xbda97a33	-0.08275261
42	0x3f81864c	1.0119109
43	0xbd491e02	-0.049100883
44	0xbfdfbe96	-1.7480037
45	0xbd854472	-0.065071955
46	0xbd000f82	-0.03126479
47	0xbd44d2f9	-0.04805276
48	0xbd8ae7c4	-0.06782487
49	0xbd9b0402	-0.07569124
50	0xbd639340	-0.05556035
51	0xbc731448	-0.014836378
52	0xbf34fd62	-0.7069913
53	0xbd12be92	-0.035826273
54	0xbd409deb	-0.047025602
55	0xbcb178c0	-0.021664023
56	0xbd0f63ff	-0.035007473
57	0xbdbf1a85	-0.0933123
58	0xbcc60219	-0.024170922
59	0xbd0432d8	-0.03227505
60	0xbf1d8f48	-0.61546755
61	0xbd07087b	-0.032967072
62	0xbfeaa0b2	-1.833029
63	0xbdb0bdd4	-0.08629957
64	0xbf5b5281	-0.85672766
65	0xbd39157b	-0.0451865
66	0xbcba4a41	-0.022740485
67	0xbd569a15	-0.052393038
68	0xbdd4907e	-0.10379122
69	0xbccef9fa	-0.025265682
70	0xbda17919	-0.07884426
71	0xbec540a5	-0.38525882
72	0xbd4f6b50	-0.05063945
73	0xbd69f14f	-0.057114895
74	0xbdb1cbb1	-0.08681429
75	0xbdb9e96c	-0.09077725
76	0xbd2183c9	-0.03943232
77	0xbd874726	-0.06605367
78	0xbd981f2b	-0.0742782
79	0xbdb50ff8	-0.088409364
80	0xbce826c4	-0.028338797
81	0xbecb834d	-0.39748612
82	0xbd077d06	-0.033078216
83	0xbcfc260a	-0.030779857
84	0xbd0a2a10	-0.03373152
85	0x3b1f506c	0.002430941
86	0xbd850cdc	-0.06496593
87	0xbda05e05	-0.07830433
88	0xbdb14a59	-0.08656759
89	0xbefb110e	-0.4903645
90	0xbdaeaf00	-0.08529472
91	0xbfa9d4c8	-1.3268061
92	0xbd99670a	-0.07490356
93	0xbd74e54e	-0.059788994
94	0x3daca3ed	0.08429704
95	0xbd836628	-0.06415969
96	0xbf85c0bd	-1.0449444
97	0xbd8c1129	-0.068392105
98	0xbfe1a738	-1.7629156
99	0xbe3b6b52	-0.18302658
100	0xbcff2b7d	-0.031148667
101	0x3f4eb5ed	0.80746347
102	0xbd0e658d	-0.034764815
103	0xbd6a78d6	-0.057244144
104	0xbf55b73e	-0.8348273
105	0xbf8c7ec2	-1.0976183
106	0xbcfa725c	-0.030572109
107	0xbd9f01ec	-0.077640384
108	0xbd37aba6	-0.04484143
109	0xbd31e48b	-0.043430846
110	0xbf500273	-0.8125374
111	0xbd6d8b4c	-0.057994172
112	0xbdc53f9a	-0.09631272
113	0xbc937685	-0.01800085
114	0xbb0ec52d	-0.0021785006
115	0xbd228d68	-0.039685637
116	0xbd855622	-0.06510569
117	0x3da4be0f	0.08044063
118	0xbd54d8ec	-0.051964685
119	0xbd9f76ee	-0.07786356
120	0xbdb21926	-0.08696203
121	0xbf0a70cd	-0.5407837
122	0xbcc12118	-0.02357535
123	0xbe9a7ea1	-0.30174735
124	0xbdb1afc8	-0.08676106
125	0x3e70c4dc	0.23512596
126	0xbc5d7981	-0.013517738
127	0xbd7930fc	-0.06083773
128	0xbd9aeaaf	-0.075642936
129	0xbcbc7a8e	-0.023007657
130	0xbeea6eed	-0.45787755
131	0xbd4a5307	-0.049395587
132	0xbd5efa05	-0.054437656
133	0x3ca6741c	0.020319037
134	0xbd2783df	-0.040897246
135	0xbe90fba0	-0.28316975
136	0xbd6d192c	-0.057885334
137	0xbd0e198d	-0.034692336
138	0xbc5c4137	-0.013443283
139	0xbd059abc	-0.03261827
140	0xbd2fe2dc	-0.04294096
141	0xbc549afd	-0.012976405
142	0xbd84747a	-0.06467529
143	0xbf806a76	-1.0032489
144	0xbd064a8b	-0.032785933
145	0xbd6033cb	-0.054736894
146	0xbe93e536	-0.28885812
147	0xbd4d63f1	-0.05014414
148	0xbd529482	-0.05141116
149	0xbe82d3e4	-0.25552285
150	0xbf7fd199	-0.99929196
151	0x3a7db3e9	0.0009677993
152	0xbd7f94bb	-0.0623977
153	0xbd0b16b5	-0.033957202
154	0xbce4fb7a	-0.027951945
155	0xbdd0db52	-0.10198082
156	0xbe38ba1c	-0.18039745
157	0xbd890ea4	-0.066922456
158	0xbd971458	-0.07376927
159	0xbc4c9b55	-0.012488206
160	0xbd241cb9	-0.040066455
161	0xbd9d3f92	-0.07678141
162	0xbd1fea7b	-0.039041977
163	0xbd848995	-0.06471554
164	0xbdb7a69f	-0.08967327
165	0xbfabc43b	-1.341926
166	0xbe112319	-0.14173545
167	0xbde9d35f	-0.11417269
168	0x3f339d59	0.7016197
169	0xbd269fe1	-0.040679816
170	0xbdacbbf2	-0.08434285
171	0xbcf51a65	-0.029919812
172	0xbd132b1e	-0.03592979
173	0xbd88806d	-0.0666512
174	0xbf797db7	-0.9745745
175	0x3fc33364	1.5250058
176	0xbd8c47d7	-0.0684964
177	0xbc3786f3	-0.011201608
178	0xbd3ea377	-0.04654261
179	0xbd84c299	-0.06482429
180	0xbd3b3a83	-0.045710098
181	0xbfdfdd1c	-1.7489352
182	0xbe1a2bc3	-0.15055756
183	0xbd856a71	-0.06514443
184	0xbdcdb193	-0.10043635
185	0xbd11f1ef	-0.035631116
186	0x3f0c9dfe	0.54928577
187	0xbd5a3a20	-0.05327809
188	0xbe93ff18	-0.2890556
189	0xbbe5bb70	-0.0070108697
190	0xbd91ff29	-0.07128746
191	0xbd0b4214	-0.033998564
192	0xbb59432d	-0.0033151612
193	0xbf27931d	-0.6545885
194	0xbfa1f001	-1.2651368
195	0xbdbbce27	-0.0917018
196	0xbd509b09	-0.050929103
197	0xbdeb3d51	-0.114863046
198	0x3f8b5d42	1.0887835
199	0xbd5f8c6e	-0.054577284
200	0xbcd6a66e	-0.026202407
201	0xbd9b4ecc	-0.07583389
202	0xbdc58fee	-0.09646593
203	0xbf44c519	-0.7686325
204	0xbf4abe26	-0.79196393
205	0x3f1780ab	0.59180707
206	0xbdca9499	-0.09891624
207	0xbd42df84	-0.047576442
208	0xbd78829f	-0.060671445
209	0xbd34b6c5	-0.044119615
210	0xbd924fe3	-0.071441434
211	0xbda743ed	-0.08167253
212	0xbf6e8f0c	-0.9318702
213	0xbd6c058c	-0.057622477
214	0xbd12994a	-0.03579072
215	0xbc0e8d3a	-0.008700663
216	0xbdcb4bf2	-0.09926595
217	0xbf23f37f	-0.6404342
218	0xbc0680d4	-0.008209426
219	0xc005ebe0	-2.0925217
220	0xbcacb028	-0.021080092
221	0xbd4de956	-0.050271355
222	0xc0011c86	-2.017366
223	0xbe21bc78	-0.15794551
224	0x3f24769f	0.642435
225	0xbfa53544	-1.290688
226	0xbd8ab54a	-0.067728594
227	0xbcedc817	-0.029026074
228	0xbf219323	-0.6311514
229	0xbd8b4766	-0.068007275
230	0xbd3fff2c	-0.04687421
231	0xbd9b6b97	-0.075888805
232	0xc015d72e	-2.3412585
233	0xbae22dfb	-0.0017256135
234	0xbda18357	-0.07886379
235	0xbcef64a6	-0.029222798
236	0xbd870320	-0.06592393
237	0xbfbbe3db	-1.4678911
238	0xbdcb22db	-0.099187575
239	0xbcec7ec9	-0.02886905
240	0xbd802781	-0.06257535
241	0xbde2b18b	-0.1106902
242	0xbdd745a6	-0.10511331
243	0xbdacc1e9	-0.08435423
244	0xbf5cfb78	-0.8632121
245	0xbd49e5b9	-0.049291346
246	0xbd9331f8	-0.07187265
247	0xbc918832	-0.017765138
248	0xbcff8055	-0.031189123
249	0x3f89cd22	1.0765727
250	0xbd6de545	-0.058079977
251	0xbd57e608	-0.05270961
252	0xbc047600	-0.008084774
253	0xbd0eb4dd	-0.034840453
254	0x3e34c6a5	0.17653902
255	0xbda63a92	-0.0811664

4.weight f4 [1, 300]
0	0xc08d010e	-4.4063787
1	0xbccbc9d2	-0.024876509
2	0xbcef60aa	-0.029220898
3	0xc00017d3	-2.001454
4	0x4054b631	3.32362
5	0x3c980643	0.018557673
6	0x3f2bbca1	0.670847
7	0x3c247bbb	0.010039265
8	0xbffc0ea7	-1.9691972
9	0xbc7a7ad2	-0.015288072
10	0x3b13b4ed	0.002253826
11	0xc0263b5c	-2.597373
12	0xbbd21bf6	-0.0064120246
13	0xbf70d529	-0.94075257
14	0x3bfb082b	0.007660886
15	0x3b4f37b7	0.0031618902
16	0xbeb88cfd	-0.36045066
17	0xbc818958	-0.01581256
18	0x3ccfe68b	0.025378486
19	0xbc0ea81e	-0.008707074
20	0xbc161d60	-0.009162277
21	0xbcd243c4	-0.025667079
22	0xbcb8585c	-0.02250307
23	0xbd33b8ff	-0.043877598
24	0xbd1b55f2	-0.03792376
25	0xbb1a6d6a	-0.002356375
26	0x40c53a4e	6.1633673
27	0xbc30e672	-0.01079713
28	0x3ba8eac3	0.005154939
29	0xbe92ac95	-0.28647295
30	0x3ca4e394	0.020128049
31	0xbcc3bb1a	-0.023892928
32	0x3c877a73	0.01653788
33	0x3bcaed16	0.0061928136
34	0xc07acc7c	-3.9187307
35	0xbcc3575f	-0.023845373
36	0x3c3d17dd	0.011541334
37	0x4047d800	3.1225586
38	0x40884095	4.2578835
39	0x3c9827eb	0.018573722
40	0x407bfea8	3.937418
41	0x3b53b493	0.0032303676
42	0xbffe4248	-1.9863977
43	0x3bbb280f	0.0057115625
44	0xbf0fbe4e	-0.56149757
45	0x3ca48b09	0.020085828
46	0x3acc37ab	0.0015580555
47	0xbc737478	-0.014859311
48	0x3b4bbe46	0.0031088754
49	0x3cd8a128	0.026444033
50	0xbc0f15dc	-0.008733239
51	0xbb65adb6	-0.0035046167
52	0x402c3e75	2.691312
53	0xbcc5e311	-0.024156125
54	0x3d0e69fd	0.034769047
55	0xb9b15914	-0.0003382644
56	0x3c87209d	0.016495043
57	0x3ce03e34	0.02737341
58	0xbb39e439	-0.002836479
59	0x3afd53c9	0.0019327338
60	0x400f1fcb	2.2363155
61	0x3bf1b11f	0.007375851
62	0x3fdc933f	1.7232436
63	0x3cd1b931	0.025601001
64	0x3fb37d4f	1.4022616
65	0x3bd6a547	0.0065504643
66	0xbd3ba920	-0.045815587
67	0xbc06497d	-0.008196232
68	0xc01e7bef	-2.4763143
69	0xbcdc28b8	-0.026874885
70	0xbadaea9d	-0.0016702
71	0x408079e3	4.0148787
72	0xbc885f31	-0.016646953
73	0x3d0173d6	0.03160461
74	0x3bc3ce07	0.005975488
75	0x3d15af9b	0.036544424
76	0x3cc15ed0	0.02360478
77	0xbd06ad2c	-0.032879993
78	0x3c3126d9	0.010812485
79	0xbc97361b	-0.018458417
80	0x3c594189	0.013260254
81	0xbfae5f2b	-1.3622793
82	0x3b9a266c	0.0047042873
83	0x3d046be5	0.03232946
84	0x3cc758db	0.024334362
85	0x3c07ef2b	0.008296768
86	0x3c5a52a7	0.01332537
87	0x3d91bde1	0.07116295
88	0xbb2fd5f6	-0.0026830412
89	0x3f064830	0.524539
90	0xbc8729c0	-0.0164994
91	0xbfebf1bf	-1.843315
92	0x3c909dcf	0.017653374
93	0xbbf689ab	-0.0075237355
94	0xbf9abb43	-1.2088398
95	0xbd055a05	-0.032556552
96	0xbf9081ae	-1.1289575
97	0xbc0f814a	-0.008758852
98	0x4094e594	4.6530247
99	0x407c6ff6	3.9443336
100	0xbc1864b6	-0.009301355
101	0x3fb5ea97	1.4212216
102	0xbceac8f8	-0.028660282
103	0xbb83f32b	-0.0040267906
104	0xc023c1c7	-2.5587022
105	0xc04a212a	-3.1582742
106	0xbb60ea21	-0.003431924
107	0x3c5bfaf5	0.013426532
108	0x3ccdbf09	0.025115507
109	0xbcf41f93	-0.029800212
110	0x4022af56	2.5419517
111	0xbca4b807	-0.020107282
112	0xbcab7ecb	-0.020934483
113	0xbba84e32	-0.0051362747
114	0xb7cc0ab6	-2.4323683e-05
115	0x3b0ed9a1	0.0021797197
116	0x3c29a23f	0.010353624
117	0xc09a3f7b	-4.820249
118	0xbc9e89c5	-0.019352803
119	0x3c264af6	0.010149708
120	0xba79fc49	-0.00095361896
121	0xbf01e7b9	-0.50744206
122	0x3b101fe8	0.0021991674
123	0x3f903a2d	1.1267754
124	0xbd33298f	-0.043740805
125	0xbfc548ee	-1.5412881
126	0x3b30e6bd	0.0026993
127	0xbcc0c527	-0.02353151
128	0xbc0e7ee4	-0.008697245
129	0xbb59d647	-0.0033239292
130	0xc064902c	-3.5712996
131	0xbceee3f9	-0.02916144
132	0xbc7ed234	-0.015553046
133	0xc0cf8eea	-6.4861956
134	0x3b7ecb2c	0.0038878424
135	0xc061890c	-3.5239897
136	0xbc9582e5	-0.018250892
137	0x3c293418	0.0103273615
138	0xbcac4908	-0.021030918
139	0x3c8899c8	0.016674891
140	0xba4d6e9b	-0.0007836611
141	0xbc7ca804	-0.015420917
142	0xbb7cc65b	-0.0038570378
143	0xbff154c5	-1.8853995
144	0xbb8006d2	-0.003907063
145	0x3ce35a1e	0.027752932
146	0x404a3592	3.1595197
147	0x3c174ad1	0.009234146
148	0x3b2707a2	0.0025486727
149	0x3e66398a	0.22482887
150	0x3fa449b5	1.2834994
151	0x3b268003	0.002540589
152	0xbc5cf7be	-0.013486801
153	0x3c39f2b6	0.011349371
154	0xbc03d4c5	-0.008046334
155	0xc09f446d	-4.9771028
156	0x3fcb35c1	1.5875779
157	0x3ca22e7f	0.019797562
158	0x3cb47902	0.022030357
159	0xbca46a6b	-0.020070275
160	0x3c83b166	0.016075801
161	0x3afdf9bc	0.0019376795
162	0xbcaff64b	-0.021479746
163	0xbb21b7e7	-0.0024676265
164	0x3cf1f57a	0.029535998
165	0xc023bb36	-2.5583014
166	0x3f063682	0.5242692
167	0x3e3062d1	0.17225195
168	0xc041439d	-3.0197518
169	0xbc2f822a	-0.010712186
170	0xbab37db2	-0.0013694076
171	0x3bf5d018	0.0075016133
172	0xbbf4d898	-0.007472109
173	0x3c229077	0.009922138
174	0x3f694299	0.91117245
175	0xc064aa7b	-3.5729053
176	0x3ca91f35	0.020644763
177	0x3b82cb21	0.0039915
178	0x3ab22e2e	0.0013594085
179	0xbb997844	-0.0046835262
180	0xbb4cb445	-0.0031235379
181	0xc017a2e2	-2.3693166
182	0xbb8d2df3	-0.004308456
183	0x3b0883bc	0.0020830473
184	0x3c6bd218	0.014393352
185	0x3ca03d38	0.019560441
186	0xbed74a1d	-0.4204873
187	0xbc9755c4	-0.018473513
188	0xbef5e861	-0.48028854
189	0xb7bb9591	-2.2361784e-05
190	0x3c9ca10a	0.019119758
191	0xbbdd6a73	-0.0067570745
192	0xbd022b25	-0.031779427
193	0xc018413a	-2.378981
194	0x4047bb92	3.1208234
195	0x3c343f08	0.011001356
196	0xbc9d7475	-0.01922057
197	0x3c4ee3be	0.01262754
198	0x3e281c01	0.16416933
199	0x3d26152e	0.040547542
200	0x3d122d42	0.035687692
201	0xbbedccfa	-0.007257101
202	0xbce55900	-0.02799654
203	0xc01d20df	-2.4551313
204	0xbfce0b28	-1.6097155
205	0xbfd96616	-1.6984279
206	0x3b5edcf3	0.0034006208
207	0x3c00aed1	0.0078541795
208	0x384aa7a8	4.8316695e-05
209	0xbc9fc035	-0.019500831
210	0xbb930071	-0.0044861366
211	0x3c7d1f7d	0.015449402
212	0xc037f542	-2.8743443
213	0xbd263387	-0.040576484
214	0x3cb30cc4	0.021856673
215	0x3c820c0a	0.015874881
216	0xbc963113	-0.018333947
217	0xbfe4bf3a	-1.7870858
218	0x3c5a0889	0.013307699
219	0xbe963b09	-0.29341915
220	0x3d03063f	0.03198838
221	0x3c064dd8	0.00819727
222	0x40d9b4ad	6.803305
223	0xbeb48f0d	-0.3526539
224	0xc0a9f06f	-5.3106
225	0xbeb2649a	-0.34842378
226	0x3b856a64	0.0040715206
227	0x3c9ae22e	0.018906679
228	0x3fce57b4	1.6120515
229	0x3ba441d3	0.0050127297
230	0x3cbc2334	0.022966005
231	0xbcb3c404	-0.021944053
232	0x40caf1e2	6.3420267
233	0xbc6a5ef9	-0.01430487
234	0x3ca07370	0.019586295
235	0xbce12242	-0.027482156
236	0xbb77d1cc	-0.0037814258
237	0x3f9f9e63	1.2470211
238	0xbd516ad9	-0.05112729
239	0xbbf6c3f1	-0.0075306823
240	0xbcd27164	-0.025688834
241	0xbb9a9dd1	-0.00471852
242	0x3cfd29ec	0.030903779
243	0x3bcf18d9	0.0063201007
244	0x403bdbcf	2.935291
245	0x3ce4fd05	0.02795268
246	0xbcd2a953	-0.025715506
247	0x3cc756f1	0.02433345
248	0xbda05832	-0.07829322
249	0x3f9da817	1.2316922
250	0x3cf87686	0.030329954
251	0xb979ee66	-0.00023835301
252	0x3d4fc1e3	0.050722014
253	0x3c656a3f	0.014002382
254	0xbfb4bb95	-1.4119745
255	0x3d723e30	0.059141338
